Unity Project/CSC 30014 Project/results/tester/Car.onnx (onnx, 92134 bytes, 7 tensors)

action_model._continuous_distribution.log_sigma f4 [1, 2]
00000000: 8951 21be d77e 46be
-0.1575376 -0.19384323

action_model._continuous_distribution.mu.bias f4 [2]
00000000: 722b eeb9 d7f2 053d
-0.00045427267 0.032702293

action_model._continuous_distribution.mu.weight f4 [2, 128]
00000000: 81c2 4b3d 8fa9 1bbd 3048 9bbd 892e 8cbb
00000010: ed1d 8c3b ec29 23bd 1d6a dd3d a2ae c1bd
00000020: ad1c 493c be65 5dbc ad52 22bd f982 6b3d
00000030: bb61 8f3d 385b 0a3b 480d c6bc bb63 5a3d
00000040: df1c c03d a4b5 353a ca37 0e3d aa24 5639
00000050: 3955 2c3d 9872 93bc e9ee 0bbc e71d a63c
00000060: 9036 663d 2850 703d 8657 533d 9f68 4cbd
00000070: b24a 643d 59b5 4b3d bdb0 bf3c 3c84 bd3c
00000080: 7c83 8e3d b1bb b4bd 06e8 e13c 92a0 6cbb
00000090: a2ec 223d 1c80 153c baaa 1e3d 498a 62bd
000000a0: 0952 003b 5c75 913c fe7d 13bd 160f 443d
000000b0: f4a0 ea3c 3231 5a3d 0c3e 533d 3b63 393d
000000c0: b1a4 57bc 84d3 873c fdeb 5bbd acb5 933c
000000d0: 5823 c23c fc47 14bd 3997 9c3c d3ab 0b3d
000000e0: 9123 94bc 8132 3ebd 5e63 61bb cb61 653c
000000f0: ef73 68bc f172 1dbc 8b61 80bc cac9 7839
00000100: 26f1 883c f297 a53d f12f 24bb c6c3 17bc
00000110: 985d d8bc f2f1 4b3c dfe5 c73b d63b 243d
00000120: 4ecf ecbb fee2 b4bc 1f48 3c3d c23f 763b
00000130: 8038 303d 7e68 28bc a820 2d3d 6b59 38bd
00000140: 858c a53d 949b 8d3c 610b 333c f169 193c
00000150: b2c0 e33a f4cd f43c 72b7 303d aefc 2c3d
00000160: c768 9e3d 8511 c0bd 235d f13c cb16 0fbd
00000170: db06 1f3d a427 bc3d 9b9a 00bd 9c56 923d
00000180: 34f3 253d ccd4 923d 0153 c4bb 7259 3d3d
00000190: 8a17 083d 8968 2e3d 69fb 583d 900a d4bb
000001a0: 2558 b93d c3af 903c e1a2 883d d097 efbb
000001b0: 2b52 e5bc 06c0 39bd 702a c53c 6d73 c23c
000001c0: dbad 0d3d fd3b 3bbd 983a b53b f5b3 b4bc
000001d0: 1cfc 363d 0e44 9f3d 0125 83bd 0a44 34bc
000001e0: 3ef7 7cbc c648 593d 9db1 513d 3383 3abd
000001f0: 4487 373d 02be df3c 26c4 f2bb b2e6 40bd
00000200: 9b09 9c3d 076d 50bd 3ebf 06bd 3396 d9bc
00000210: 5b0e ce3c 68eb 82bd 6929 373d 5918 70bd
00000220: 9bf9 69bd 5184 933d f475 adbc 2391 823d
00000230: 1a0e 853d 7705 5b3d a5d9 a23d bdd1 e23d
00000240: a558 8f3d aac3 67bd fb3b 753d af28 86bd
00000250: 1d28 b4bd 0dec a5bd 7395 23bd c950 be3d
00000260: 76b6 923d fd12 57bd d803 093d a027 c03d
00000270: 2c26 6e3d 18be 083e cc44 d5bc 8ea0 d93d
00000280: a685 163e 1347 953d 394a 8e3d 6c16 44bd
00000290: b40c a63d a6cd 34bd ecca 803c 6392 49bc
000002a0: 2ad0 76bd 1029 303c 4d7f 91bb cab6 6b3d
000002b0: 7577 073d aec0 193d b666 5abd f4cb 8b3d
000002c0: fde9 dd3c ba2d 45bc 26c4 18bd 7d69 0dbd
000002d0: ebf3 d73d dcb4 1fbd 41a2 abbd d38e 283d
000002e0: 6acc 643d 7135 fdbb 1277 8abd b223 acbd
000002f0: efeb 56bd 715a 74bd fe81 58bd 3e5e 85bd
00000300: 02f1 64bd eacf c33d 3ba4 5bbd 18ea 12bd
00000310: 1bfd 3cbd cb25 9e3d d22f 5e3d d9bc c8bd
00000320: 4290 02bd a882 9eba 3d05 be3d 9af3 f73d
00000330: 481c 633d 155a 4abd 2672 f73c c79c 3dbb
00000340: 0e37 943d c0db 07bd 80ca 48bd 6341 45bd
00000350: 85a3 54bd 896f 03bc 5af8 913d 31fd a23d
00000360: 52a8 5d3d 63e1 4d3c 4f37 04bd 480b 453d
00000370: ddf8 803d 5eee c83c d430 59bd 1c03 8f3d
00000380: cedb 143d 81b0 0e3e 9095 29bd 8062 eb3d
00000390: da56 81bd f0a2 2a3d ec92 18bd ee2c 45bd
000003a0: 95ca debc 0e1a 6dbd 1464 e03d a8de 683d
000003b0: e2ad d2bc 9702 a3bd c874 e73d 5985 9a3b
000003c0: 7424 043d 9446 19bd fbb7 36bd 86b3 c83d
000003d0: e197 ef39 b0ef c03d feeb adbc 7b10 6bbd
000003e0: a09e 5fbd 646e c8ba 7b58 953d cdfe dbbc
000003f0: 12bc 0f3d dfcb 83bd 5a98 04bd ee34 ffbc
0.04974604 -0.0380035 -0.07582128 -0.0042780084 0.0042760284 -0.0398349 0.10811255 -0.09457137
0.012274903 -0.013513027 -0.039629627 0.057497952 0.070010625 0.00211115 -0.024176255 0.053317767
0.09380507 0.00069316686 0.034721173 0.00020422289 0.042073462 -0.017998978 -0.008540847 0.02027793
0.05620438 0.058670193 0.05159714 -0.049904462 0.055735298 0.049733493 0.023399705 0.023134343
0.069586724 -0.08824862 0.027576458 -0.003610645 0.039776452 0.009124782 0.038737036 -0.05530766
0.0019580147 0.017756157 -0.036008827 0.04786595 0.028641202 0.053269573 0.051572844 0.04526065
-0.013161824 0.01658035 -0.053691853 0.018030964 0.023698494 -0.036201462 0.019115077 0.03409941
-0.018083366 -0.046434883 -0.0034391503 0.014000366 -0.014187797 -0.009609924 -0.015671512 0.00023726295
0.016716551 0.08085622 -0.002505299 -0.009262985 -0.026411816 0.012447821 0.006100401 0.040096126
-0.007226861 -0.022080895 0.045967218 0.0037574624 0.043022633 -0.010278819 0.04226747 -0.04500715
0.080834426 0.0172861 0.010928006 0.009363637 0.0017376153 0.029883362 0.043143697 0.04223316
0.077348284 -0.093783416 0.029463356 -0.034933846 0.038824897 0.09187248 -0.031397443 0.07145426
0.04051514 0.07169494 -0.00599134 0.04622788 0.033225574 0.04258016 0.05297414 -0.0064709857
0.09050015 0.017661935 0.06671692 -0.0073117986 -0.027993282 -0.045349143 0.024068087 0.02373668
0.03458963 -0.045711506 0.0055306666 -0.022058466 0.044674024 0.07776652 -0.06403542 -0.01100255
-0.0154398065 0.053047918 0.051194776 -0.045535278 0.044806734 0.027312282 -0.0074086366 -0.04709501
0.076190196 -0.050885227 -0.032897227 -0.026560878 0.02515333 -0.063925564 0.044717226 -0.05861697
-0.057122808 0.07202972 -0.021174408 0.06375339 0.0649683 0.05347201 0.07951669 0.11075161
0.069993295 -0.056583084 0.059871655 -0.065507285 -0.087967135 -0.08101664 -0.039937448 0.09292752
0.07163708 -0.052508343 0.03345093 0.09382558 0.058141872 0.13353765 -0.026033781 0.106263265
0.1469942 0.07288947 0.069477506 -0.047872946 0.08107892 -0.044141434 0.01572176 -0.012302968
-0.060257114 0.010751978 -0.0044402243 0.057547368 0.033072907 0.03753727 -0.05332061 0.0682601
0.027089113 -0.012034828 -0.037296437 -0.03452443 0.105445705 -0.03899084 -0.08380557 0.041151833
0.055859007 -0.007727318 -0.06760992 -0.08405246 -0.052471098 -0.059656564 -0.052858345 -0.06512116
-0.055893905 0.09561141 -0.05362342 -0.03586778 -0.046139818 0.07722052 0.054244824 -0.09801645
-0.031875856 -0.0012093382 0.09278343 0.1210701 0.055446893 -0.049402315 0.030205797 -0.0028932558
0.07237063 -0.033168554 -0.049021244 -0.04815806 -0.051913757 -0.0080221975 0.071274474 0.07958449
0.0541156 0.012565943 -0.03227931 0.04810646 0.06297467 0.024527725 -0.05302508 0.06983015
0.036342435 0.13934518 -0.0414024 0.11493397 -0.06315394 0.041659296 -0.03724949 -0.04813855
-0.027196208 -0.057886176 0.109565884 0.056852967 -0.02571768 -0.07959478 0.11301571 0.0047156033
0.032261327 -0.037420824 -0.04460905 0.097998664 0.0004569879 0.09420717 -0.021230694 -0.057388764
-0.054594636 -0.0015291688 0.07292267 -0.026854897 0.035091467 -0.0643537 -0.032371856 -0.031153169

network_body._body_endoder.seq_layers.0.bias f4 [128]
00000000: 7089 3fbd 6852 4dbd f644 ffbc aa82 f63c
00000010: 0800 a43c c20c 3f3d 6f86 a6bd 3ef1 14bd
00000020: cbac 5a3d c778 c73c 7127 cd3c a8fd 08bd
00000030: f5ec ec3c dfac 663d 908d 9a3d 7fd6 fe3c
00000040: 4b2b 17bd fe85 0cbd 0243 85bd 6828 c7bd
00000050: e430 42bb aecd 70bd 1a7e 01bd 0b0e 7c3d
00000060: 6701 a33c 5b6a 7ebd d77d b13c 6485 20bd
00000070: 4363 be3c 31ce f13c fe94 bdbd 7160 8cbd
00000080: 4ebf 163d 1ac7 613d 9dca 0ebd b05c c73c
00000090: 5514 0abd 6420 243d b713 42bd fb4c 13bd
000000a0: cfaa 90bd f4c4 81bd 8f1d 6fbd a03f c5bd
000000b0: f610 c1bc 2fd5 8dbd cae1 673d d8bc e63d
000000c0: c4bd 81bd b1c8 06bd 432a aabd 21b0 683d
000000d0: 1e32 ef3c 9c62 9b3c 1d81 8f3d d31a 933d
000000e0: 9d1a 363d 2ef5 313c e9cd 7bbd 6403 013d
000000f0: 018e e53b ed58 583d 2fce 5239 af33 a5bd
00000100: 8d34 9a3b f8b4 d5bc 5b23 b43d 8d3b 0f3d
00000110: 7f76 9d3d 9e06 83bd ebfc 9a3c e50e 223d
00000120: 9905 043d 88a1 8abd f0e8 c73d 2c38 1abd
00000130: ef97 35bd eb65 b33d 5732 753a ccc9 453d
00000140: c26f 4f3d dd91 25bd 2c44 3c3d c201 a5bc
00000150: e3a1 c4bd 38e1 09bd 253f 073e bb1f 96bd
00000160: f894 70bb 5529 cf3d 3661 233d a022 82bd
00000170: 3ab0 3abd 0546 67bd 2ca0 c73b c4ed 8c3d
00000180: 3e93 c43d 48c6 68bd 47d2 68bd d781 37bd
00000190: 2540 35bd e065 b23d 44db 813d e2b5 a73d
000001a0: 0f7e 923d 42e7 9b3d f8d9 85bd b966 86bb
000001b0: 5cd2 a53c edb5 5a3d 6658 a93d 5ee0 17bc
000001c0: 524b f43c 0a7a 19bd a21e 80bd 0429 56bd
000001d0: cfb0 b53d a891 923d e030 3fbd 447e 2fbd
000001e0: f4fd 83bc a0fc a73d 1f0b f93d 8030 4c3d
000001f0: bdc3 6abd 1bef 0e3d 28f3 25bd 4dbb 663d
-0.04676193 -0.050127417 -0.031160813 0.030091602 0.020019546 0.046643026 -0.0813111 -0.03636288
0.053387444 0.024349583 0.025043221 -0.03344503 0.028921584 0.056317206 0.07546532 0.03110814
-0.03690652 -0.034307472 -0.06506921 -0.09724504 -0.0029631192 -0.0587899 -0.0316144 0.06153683
0.01989813 -0.062113147 0.02166645 -0.03918971 0.023240691 0.029517265 -0.09256934 -0.06854332
0.036803536 0.05512152 -0.034861196 0.024336189 -0.033710796 0.040069953 -0.047382083 -0.035962086
-0.07063829 -0.06336394 -0.0583778 -0.09631276 -0.023567658 -0.06925427 0.056611814 0.11266488
-0.06335023 -0.032906238 -0.08308842 0.056808595 0.029198702 0.018967919 0.07007048 0.07182851
0.044458974 0.010861678 -0.061475668 0.031497374 0.0070054536 0.05281918 0.0002010397 -0.080664985
0.0047059716 -0.02608727 0.08795806 0.0349689 0.07688617 -0.063977465 0.018919429 0.039564986
0.0322319 -0.06769091 0.09761226 -0.037651226 -0.04433435 0.08759674 0.00093535095 0.04828815
0.05064369 -0.04042231 0.04596345 -0.02014244 -0.0960119 -0.03366205 0.13207681 -0.07330271
-0.0036709886 0.10115305 0.03988763 -0.063542604 -0.04557822 -0.05646326 0.006092092 0.06881288
0.09598397 -0.05682972 -0.05684116 -0.04480156 -0.044250626 0.08710837 0.0634065 0.08188988
0.0715295 0.07612468 -0.06535715 -0.004101601 0.020241909 0.053396154 0.08268814 -0.009269802
0.029821072 -0.0374699 -0.06255843 -0.05228521 0.08871614 0.07156688 -0.04667747 -0.042845026
-0.016112305 0.08202481 0.12160324 0.04985094 -0.057315577 0.034895997 -0.040515095 0.056330968

network_body._body_endoder.seq_layers.0.weight f4 [128, 44]
00000000: cc71 003c 37a0 54bd 3ec1 3a3e 0eef df3d
00000010: 6c9e bcbd 059b 88bc c60b 9bbd ed18 433d
00000020: 05ea cb3d 563b dfbd 1c87 b63d 3b8b 93bd
00000030: d0b6 883d b7d9 063e 9243 13be 71c1 1abe
00000040: a515 8a3e e5ba 43be f507 fc3c f849 973e
00000050: 295a 113e c16a 95bd 0c67 69bc 4df9 eebd
00000060: f8e0 723b 079e 403d 21cd 683d 8e16 943e
00000070: 7a86 66bd 9091 4fbe 8a07 29be c63a 643d
00000080: df5c b83d 856c 08be 4c57 a33e a84a 823e
00000090: bbcd 72bd 7949 60be b570 6dbd 7ee6 17be
000000a0: a61c c63d 1854 58bd daaa 313e 3a7e 473d
000000b0: 4224 e53b 1604 64be 7091 11be bff0 aabe
000000c0: 1638 0d3e 6cf1 39be 2705 edbd 7e12 d6bc
000000d0: a418 8dbe 446a a9be afe6 7cbe 1e7a f33b
000000e0: 022b 2ebe 71d2 b9bd 36aa 463e 268a dcbe
000000f0: d4c6 35be 8fb3 cc3c a44c 78bd 9b71 06be
00000100: 3b65 4e3e 7f70 85bb c279 06be 3863 e3bd
00000110: 8cc2 27be 5c61 f9bd 4551 2a3e 6f66 93bd
00000120: c58e 6b3e 92fe aa3d cb8b a9be 47c1 69bd
00000130: b2db f33d 1081 16be 7919 6d3e 90cd a43d
00000140: 80b6 18be 8b21 3dbe ed2b 06be 76b5 09be
00000150: e3d0 d33e dd8c ddbd cc98 a83d 2dea 2cbe
00000160: 2a6a 3ebe e4e6 513d 16c0 c4bd ffa0 b93d
00000170: 5ce5 adbe 0091 1dbd 45f4 ef3d 8d58 a7bd
00000180: e684 c7bd 3758 81bb e514 143a f8bc b03d
00000190: ca1d e7bd a3b6 7cbe aaab f93d 3301 17be
000001a0: 0435 843d 9c72 2bbe f65b 34be d60f 2a3e
000001b0: 14d4 fbbd 5543 0fbd fe8e a1bb d212 5bbd
000001c0: d9e0 903d c6d8 e9bd ea01 733d f8aa 243b
000001d0: 67f4 27bd d01e 31be 4533 003e 0209 1fbd
000001e0: 5a51 6dbe da3c da3d 0604 23be b87e ebbc
000001f0: b4a6 2cbe e688 48be 6f9a 0f3d 08bd 6d3e
00000200: 58c7 9ebe 7824 d93d 6264 c7be 5dd1 c5bc
00000210: 9473 ddbe 88ef 243e f09e a43e bf95 d5bc
00000220: 942b 783d 38ea b83d f524 bb3d 329b 83be
00000230: 6f74 8f3c 5388 773e 8cd8 81be 81e2 adbd
00000240: b82e f63c 2440 d53c 44b4 70be 617c 4bbd
00000250: 88b4 10be 0407 4cbd 5b44 5dbe 0e04 23be
00000260: f2ad b6bd d7a0 023f 2a20 283e 0bed 273e
00000270: 6a7f a33d 96b1 f03d c434 a6be 93a2 89bd
00000280: 2f04 813d 8e83 86be 0921 df3d c0ee 313e
00000290: f165 08be 00ff 65bd 4769 b7bc 55cd df3e
000002a0: 1cbc 083e 72ee 5cbc 9381 123e ab43 43be
000002b0: a36e 613a 9d08 49bd 0a17 13be d407 0a3e
000002c0: 532a 5a3d 165c 4d3e 411d 0bbe bd1a 0e3e
000002d0: b627 3f3d 6f2a ac3e fab8 b93d 7b43 363e
000002e0: 8cee 083e 1eff 5f3e 578d 293e 785e f2bb
000002f0: b001 ac3d 8997 2d3e 6067 313d a160 03bc
00000300: 71a3 cebc 0347 a73e 4ba3 56be 6ebf 6ebe
00000310: 1c86 303e a691 03bd 1a12 be3c d770 023e
00000320: 2bf2 36bd 8b4e 6bbe 8c4c 973e 795f e3bc
00000330: f77c 34be 03eb 173d b92b e8bc bcd3 013e
00000340: 6d04 ec3d faf2 44be 02c7 bfbd 9331 163e
00000350: ed67 8cbe 1c59 9c3d 0e03 9b3e deb0 97be
00000360: bc91 39bc bd00 93be ef05 d4bd 530b 11be
00000370: ea2e 703e 33dd b13e f2c5 54bd e463 5e3e
00000380: 5c6e bdbe 6810 ebbd 2a91 603c a657 1fbe
00000390: c87b 893d 4041 053d 0663 98bd 0cd6 7fbe
000003a0: b74a c3bb 03c0 80bb cdbb 1c3d 8c4d c5bd
000003b0: 229e a2bd e97f 56bb 9c10 b63d f42e 6b3b
000003c0: 1c84 2ebe 6ba5 1fbe d885 913d 13ce 523e
000003d0: 9b8c 43be 87d8 fa39 bd19 abbd fb57 c53c
000003e0: f6a7 a0be 6b91 56bd a71a a6bd 3166 a3bc
000003f0: 2df6 f53d d0ed c4bd 2a47 fbbd b836 22be
0.007839631 -0.051910605 0.18237779 0.10934268 -0.09209904 -0.016675482 -0.07570605 0.047631193
0.09956745 -0.10899989 0.08912489 -0.072042905 0.06675494 0.13168989 -0.14381245 -0.15112855
0.26969638 -0.19114263 0.030765513 0.2954862 0.1419455 -0.07295752 -0.01424576 -0.11668644
0.0037060361 0.047025707 0.05683625 0.28923458 -0.05628059 -0.20270371 -0.16506782 0.055720113
0.09002089 -0.13322647 0.3190254 0.25447583 -0.05927823 -0.21903028 -0.057968814 -0.1483402
0.09673433 -0.052814573 0.17350331 0.048704363 0.0069928477 -0.22267184 -0.14215636 -0.333868
0.13790926 -0.18158501 -0.11573248 -0.026131865 -0.27557862 -0.33088887 -0.24697374 0.007430329
-0.17008594 -0.09073342 0.19400868 -0.4307415 -0.17751628 0.024987964 -0.060619965 -0.13129275
0.20155804 -0.0040722485 -0.13132384 -0.11102909 -0.16382807 -0.12176773 0.16632564 -0.07197272
0.23003681 0.08349337 -0.33114466 -0.05706909 0.11907138 -0.14697671 0.23154248 0.080470204
-0.14913368 -0.18469827 -0.13102694 -0.13448128 0.41370305 -0.10817883 0.08232269 -0.16886206
-0.18595186 0.051245585 -0.0960695 0.09063911 -0.3396405 -0.03846836 0.117165126 -0.081711866
-0.09742145 -0.0039472836 0.00056488655 0.08629793 -0.11284979 -0.24679045 0.121909454 -0.14746551
0.064554244 -0.16742939 -0.17613205 0.16607603 -0.1229631 -0.034976322 -0.004930376 -0.053484745
0.07074136 -0.114182994 0.059327997 0.002512632 -0.041004565 -0.1729691 0.12519558 -0.03882695
-0.23175564 0.10656138 -0.15919504 -0.028746948 -0.16860467 -0.19583473 0.03505939 0.23216641
-0.31011462 0.10602659 -0.38943774 -0.024147684 -0.43252242 0.16106999 0.3215251 -0.026072381
0.060588434 0.09029049 0.09137908 -0.25704342 0.017511575 0.24173097 -0.25360525 -0.08490468
0.030051574 0.026031561 -0.23506266 -0.049679164 -0.14131367 -0.049811378 -0.21608107 -0.15919515
-0.08919896 0.5102667 0.1641852 0.16399018 0.07983287 0.11752622 -0.32462132 -0.06720462
0.06299626 -0.26272243 0.10894973 0.17376232 -0.13320138 -0.05615139 -0.022389067 0.43711343
0.13353008 -0.013484584 0.14307241 -0.19068782 0.0008599555 -0.04908048 -0.14364257 0.13479549
0.05326302 0.20054659 -0.13585378 0.13877387 0.04666873 0.33626124 0.090684846 0.1779918
0.13372248 0.21874663 0.16557823 -0.0073965155 0.08398759 0.16952337 0.043311477 -0.008018644
-0.02522442 0.32671365 -0.20960729 -0.23315212 0.17238659 -0.032121323 0.02320199 0.12738357
-0.044664543 -0.2297918 0.29550588 -0.027755486 -0.17625795 0.03708936 -0.028341161 0.12678427
0.11524282 -0.19233313 -0.093641296 0.14667349 -0.2742304 0.07634184 0.30275768 -0.29627126
-0.01132625 -0.287115 -0.10352694 -0.14164476 0.23455396 0.34739074 -0.051946588 0.21717793
-0.3699826 -0.114777386 0.013706485 -0.15560779 0.067130625 0.03253293 -0.07440762 -0.24983996
-0.0059598344 -0.0039291396 0.03826504 -0.096339315 -0.07940318 -0.003273005 0.08889887 0.003588614
-0.17042583 -0.15590446 0.07105607 0.20586424 -0.19096605 0.0004784504 -0.083545186 0.024089804
-0.31378144 -0.052384775 -0.08110552 -0.01994619 0.12009845 -0.09615672 -0.12269433 -0.15841186

network_body._body_endoder.seq_layers.2.bias f4 [128]
00000000: 6a0d 413d 824e 97bd 82f4 883b 82c7 8cbd
00000010: e316 48bb 3434 2abd fc36 3e3d cba6 a1bb
00000020: 1e49 d6bd a5a7 fa3c eb4e d8bc acb3 413d
00000030: 8d56 243d f7c3 a83c 0e8a 4e3d 6b07 453d
00000040: dff6 573d afb8 a5bd 3f4d 1c3d 1e44 cabd
00000050: 5735 9b3b cd6f 1dbd 4c67 ddbd 3591 2c3d
00000060: b74e 4e3d b776 64b8 0e81 d73c 73dc 373d
00000070: dfe2 223d 36e1 833d e204 5ebd 7f43 553d
00000080: b9c3 803d 16cc 2c3d b298 893c e41e d2bd
00000090: 4bb4 3f3d f87f d3bd 3f57 093d d345 babb
000000a0: 1ae0 edbd 7c50 173c 8090 3cbc 1b30 713d
000000b0: 87c1 7d3c 6f31 d93c 7c1c 3bbb a549 5a3d
000000c0: eeef d9bb 86a2 8ebd 6729 84bc f30e acbd
000000d0: cd8d 873d c795 39bd aa21 b4bd 93a2 0c3d
000000e0: dd06 5d3c bcac 54bb 3f39 cabd d3ca b6bd
000000f0: b19f d6bd ae5b d2bd 6c47 c4bd 8f22 c5bd
00000100: 0b58 c1bd f991 5c3d d905 e5bd 203c a9bd
00000110: cc19 babd 27fa 353d 41b0 4a3c 48ad 073c
00000120: be47 a7bc fa8e 04bd 7751 633d 16c3 883d
00000130: 3ebb df3c 48c3 f0bd 5694 d43c cfdc f13a
00000140: fef8 4f3d 71d7 95bd de3c babd fc91 cbbd
00000150: fae4 dbbd 18e9 973c 6a60 1e3d c6fc 8c3d
00000160: d755 2d3d 885d ffba a366 63bd d2e5 803b
00000170: 405e 0d3d 45d4 e63c 42e4 b8bd 4446 2d3d
00000180: cdee 073d 0909 b73d 77a2 cabd aebe 853d
00000190: 8ab3 cc39 226f 083d 3fc7 133b 5f0f abbd
000001a0: c41d 333c 31c5 bcbd bbf7 823d 78d4 473c
000001b0: 19ce 72bd 56dd 1fbd 0569 8d3d 12a8 343c
000001c0: 5c8e 013d 1795 0ebd 69b8 c3bd 4e27 0c3d
000001d0: 9540 e43c bfa1 c43d 7ed8 bdbb 6793 bebd
000001e0: 5a2b c4bd 67ad d43c 6253 4e3d 0c46 f7bc
000001f0: c43f b13c 22a2 aabd e902 03bc 7b44 16bd
0.047131933 -0.07388021 0.004179538 -0.068739906 -0.003053122 -0.04155369 0.046439156 -0.0049332133
-0.10463165 0.030597517 -0.026404819 0.04729049 0.040121604 0.020601256 0.050424628 0.048102777
0.05272567 -0.08091866 0.038159605 -0.098762736 0.004736583 -0.0384367 -0.10810718 0.042130668
0.050368037 -5.4469998e-05 0.026306655 0.04488797 0.039767142 0.0643944 -0.054203875 0.052066322
0.06287331 0.04218682 0.016796444 -0.10259798 0.0468028 -0.103271425 0.03353047 -0.005684593
-0.116150096 0.009235498 -0.011509061 0.058883768 0.015488035 0.02651283 -0.0028550914 0.05329289
-0.0066509163 -0.06964593 -0.016133023 -0.08401289 0.06618843 -0.045308854 -0.087954834 0.03433473
0.013490406 -0.003245159 -0.098742 -0.089254044 -0.104796775 -0.10271393 -0.09583935 -0.09625732
-0.09440621 0.053850148 -0.11182756 -0.08263421 -0.090869516 0.044428017 0.012371124 0.00828106
-0.020419952 -0.032362916 0.055497613 0.06677835 0.027310964 -0.11755997 0.025949638 0.0018452647
0.050774567 -0.07316483 -0.09093641 -0.09939954 -0.10737033 0.018543765 0.038666166 0.0688415
0.04231819 -0.001948283 -0.055517804 0.0039336467 0.034513712 0.02817739 -0.09027912 0.04230334
0.033186723 0.0893727 -0.09894269 0.0653051 0.0003904368 0.03330911 0.002254918 -0.08352541
0.01093239 -0.09217299 0.06394907 0.012196653 -0.05927858 -0.03902944 0.069047965 0.011026399
0.031629905 -0.034810152 -0.09556658 0.03421717 0.027862826 0.09601163 -0.00579363 -0.093054585
-0.09578581 0.02596159 0.05037249 -0.030184768 0.021636851 -0.08331706 -0.007996299 -0.0366864

network_body._body_endoder.seq_layers.2.weight f4 [128, 128]
00000000: 4e08 cebd 0a1f 82bd 4400 c83d 5fe7 343d
00000010: 6c16 d53d b63f 8a3e a6b5 9cbc 56bd e8bc
00000020: 91ad 493e 24f0 2e3e 85e6 b93c f759 27bd
00000030: cba1 e6bc d13c 083e c455 1b3e faf6 78bc
00000040: 0daa 20be b57a e3bd ad5c 9d3d fa66 ed3c
00000050: 802c e0bc 5f53 a73c 9742 513c 8c57 6e3d
00000060: b1d7 d3bd dff7 d5bd 1339 703b 005d 2ebd
00000070: dd29 4f3d 49ca 923e 3f1c f13d 8deb e9bd
00000080: 1c89 0d3e 8a7b 273d 05a4 bbbe dde4 46bd
00000090: 0673 8abc 7572 173d 6a62 c6bd 0286 d5bd
000000a0: 341a 383d ebff a03b a90d 9abc 1c70 e6bd
000000b0: a051 013d fc9d bebd e67b e93c 1bc3 963d
000000c0: 5666 36be e049 f9bc 7289 173b 26a8 cd3d
000000d0: 4616 003d 0b1e d0bd fa6c d73d 747b fc3d
000000e0: abc4 d13d 870b f13d 4596 58be f9da 713e
000000f0: ee01 d63d 415b 093d b882 13bc 1a55 143e
00000100: 7ab1 71bd 51a3 4f3d 59e8 3a3e ef4c 193e
00000110: e506 2e3e 5b78 eebd 010d 07bc cdc9 c03d
00000120: 25e0 7ebd 51ee a93d 64ba 153e 6ca0 df3d
00000130: 80cd 7dbd 8d67 69bd 776f c33d 8277 2b3e
00000140: 81c5 21bd 0f37 a4bd 8992 953d 1701 cabc
00000150: 0147 8abd 03f4 9c3d b5f3 ba3d d5c8 343d
00000160: 7568 e6bc 0b35 853e 4acf 563d 2175 cdbc
00000170: 400f 30be a5d9 af3c 1059 da3d 2f07 163e
00000180: 1571 f53d 53be 39bc 9d99 353d 95a8 b83d
00000190: b251 a4bd 04d0 61bc 6340 18bb 7f27 d43b
000001a0: ced3 00bd 0900 cf3d 8de5 163d e23f 643c
000001b0: c742 4fbd af2a 283b 4b85 e53d a42e 623b
000001c0: 8777 083e 3f73 fe3c 87a5 79bc 4413 e0bd
000001d0: 97b9 0e3e 927d ea3d 8b6d e0bd af48 903d
000001e0: 33b8 403d f115 b3bd f608 89bc 9afc a13d
000001f0: cd06 713d 5f4d ed3d 5586 e5bc e90f e83d
00000200: c55d 08be 815b b6bd f117 163e 4ab8 d0bd
00000210: e1b1 c2bd 652b 6a3d 8aae 043d 7c0c 7ebd
00000220: 74a5 b0bd 8a8e fa3d 0e2d 083e a032 0a3d
00000230: 80dc 473c 3190 ba3d a706 6cbe 7236 d0bd
00000240: 9617 b7bb 2943 52bd 2a01 95bd 34fb c93d
00000250: dcc1 2bbd e1fd 85bd 320e babd 7d26 993c
00000260: 8eed a7bd cee3 003d 0906 24bb 504d de3d
00000270: f343 c4bd db20 d53d 3ec0 f23d 79e8 26bd
00000280: 9d69 01be bb05 933a dd91 b2bc 8293 e0bd
00000290: 2327 dc3d d407 e83d 7be0 903e 9c0f 6c3d
000002a0: d2b8 41b8 4938 ccbd bfe9 ef3c e142 703e
000002b0: 303e 903d 2b5f 3f3e 7eda 903d 41be f1bc
000002c0: 112b 263e c795 e3bb 9050 863c 9811 ea3c
000002d0: c7e6 73bd 18e3 bfbd b4a2 42be 0758 a13c
000002e0: ec98 adbd fe3c 22be 34a8 c2bc 2f93 f4bc
000002f0: 471d 35be 5a3c aebb 88fc 01bd 9002 133d
00000300: c0c8 15bd cc26 4e3d 67e2 793c 5dd6 aabd
00000310: 0670 e93d 0fcb 9b3d 2543 59be a6ad 1a3d
00000320: 7c53 2ebd 8594 c7bb be43 3abd 06cd dcbd
00000330: 2c68 a93d 864f dabd d58b 6bbe f948 9cbe
00000340: b9b7 203b a7aa 9abc e884 15bd 661d b7bc
00000350: 270a 633e 04b6 66bd b269 bd3c d8fe 943d
00000360: abe1 88bd f16a 983d 089c b0bd 3834 6f3e
00000370: 561e 33be 6802 42bc e56c 9d3c 1f2c 863c
00000380: 3725 fc3b 879d f03d 8a99 a1bc ec08 d63d
00000390: 5a17 dbbd 7574 03be d4ed 05be 11c6 b63d
000003a0: f25b 843d 7f84 4d3d 9cd1 b0bd f440 8bbd
000003b0: e7f8 edbd edc4 b5bb 86e7 19be 7c82 123d
000003c0: 3f35 f4bd 68dd e83c d60b aebd a127 fc3d
000003d0: 647c cfbd fa41 a73c 1d50 033e 6e4c b73d
000003e0: 3aa3 6cbd 54db 923e 8414 b83b 17a9 35be
000003f0: bc71 0f3d 19f4 18be 52fa bbbc 3bb6 8ebd
-0.10060178 -0.063535765 0.09765676 0.044165965 0.10404667 0.27001733 -0.019129585 -0.028410595
0.19695117 0.17083794 0.022692928 -0.04085728 -0.02815332 0.1330445 0.15169436 -0.015195603
-0.15689869 -0.11107389 0.07683692 0.028979767 -0.02736497 0.020425497 0.012772224 0.05818896
-0.10343874 -0.10447668 0.0036655113 -0.04256916 0.050577033 0.28669956 0.11772966 -0.11421881
0.13821834 0.0408893 -0.36648574 -0.048558105 -0.01690055 0.03697439 -0.0968674 -0.104259506
0.044946864 0.0049133203 -0.018805342 -0.11251852 0.031571984 -0.09307477 0.028501462 0.07361432
-0.17812476 -0.030430734 0.0023122695 0.100418374 0.03127124 -0.1016198 0.105188325 0.12328234
0.102425896 0.11769777 -0.21151073 0.23618688 0.10449587 0.033534292 -0.009003334 0.14485589
-0.059007145 0.05069286 0.18252696 0.14970754 0.16994818 -0.1164405 -0.0082428465 0.094134904
-0.06222548 0.08297408 0.14621884 0.1091927 -0.06196356 -0.05698352 0.095427446 0.16744807
-0.039494995 -0.08018314 0.0730334 -0.024658723 -0.06751824 0.07663729 0.09128515 0.04413684
-0.02812598 0.2601703 0.05244378 -0.025080265 -0.17193317 0.021466086 0.106615186 0.14651178
0.11984459 -0.011336881 0.04433595 0.090165295 -0.08023395 -0.013782505 -0.0023231737 0.006474435
-0.031451993 0.101074286 0.03684001 0.0139312465 -0.050600793 0.0025660207 0.11207064 0.0034512663
0.13326846 0.031060813 -0.015237219 -0.109411746 0.13937984 0.11449732 -0.10958394 0.07045113
0.047050666 -0.08744419 -0.016727906 0.07909508 0.058844376 0.11587023 -0.028018156 0.113311596
-0.1331702 -0.08904172 0.1465757 -0.101914 -0.09506584 0.05717029 0.032393016 -0.062023625
-0.08625308 0.122342184 0.13298437 0.033739686 0.012198567 0.091095336 -0.23049413 -0.101666346
-0.0055875285 -0.05133358 -0.07275613 0.09862366 -0.041932926 -0.06542564 -0.09084739 0.01869511
-0.08199607 0.03146725 -0.0025028011 0.1085459 -0.09583273 0.10406657 0.118530735 -0.040749047
-0.12637945 0.0011216918 -0.021798069 -0.10965635 0.10749652 0.11329618 0.28296265 0.057632074
-4.6186913e-05 -0.09971673 0.029286264 0.23463012 0.07043111 0.18688647 0.07072924 -0.029509665
0.16227366 -0.006945345 0.016395837 0.028572842 -0.05954626 -0.093694866 -0.19007379 0.019695295
-0.08476433 -0.15843579 -0.023761846 -0.029855339 -0.1768695 -0.005317253 -0.031734973 0.035891116
-0.036568403 0.05032997 0.015251732 -0.08341668 0.1139832 0.0760709 -0.2121702 0.03776326
-0.042560086 -0.006090703 -0.04547476 -0.107812926 0.08271822 -0.10659699 -0.2300256 -0.30524424
0.002452357 -0.018880202 -0.036503702 -0.022352885 0.22171842 -0.056325927 0.023121689 0.0727517
-0.06683668 0.074422725 -0.086235106 0.23359764 -0.17492041 -0.011841394 0.019216964 0.01637846
0.007694866 0.11748796 -0.019726533 0.104509205 -0.10697813 -0.12837394 -0.13079005 0.08924497
0.0646285 0.050175186 -0.0863373 -0.06799498 -0.1161974 -0.005547157 -0.15029725 0.03576897
-0.119242184 0.028425887 -0.08498351 0.12312246 -0.101311475 0.020417202 0.1282353 0.08950125
-0.057772852 0.2868296 0.00561768 -0.17740284 0.035020575 -0.14936866 -0.02294651 -0.069683515
