Unity Project/CSC 30014 Project/results/testwithnewrewardandsum/Car/Car-23893.onnx (onnx, 92134 bytes, 7 tensors)

action_model._continuous_distribution.log_sigma f4 [1, 2]
0	0xbba6e186	-0.0050928025
1	0xbdb2bb52	-0.08727135

action_model._continuous_distribution.mu.bias f4 [2]
0	0x3cadd813	0.021221196
1	0x3d2d8bd6	0.042369686

action_model._continuous_distribution.mu.weight f4 [2, 128]
0	0xbd6fcd39	-0.058545325
1	0xbd93bfd4	-0.07214323
2	0xbca502b0	-0.020142883
3	0xbbe809e4	-0.007081257
4	0xbd54e0c2	-0.05197216
5	0xbca1e2aa	-0.019761402
6	0xbc729f54	-0.014808495
7	0xbc19fb51	-0.009398297
8	0xbd54694e	-0.05185824
9	0xbcda3543	-0.026636725
10	0x3d8f88a5	0.07008485
11	0x3c86da4a	0.01646151
12	0xbc9acf04	-0.01889754
13	0xbc04eb56	-0.008112749
14	0x3cef4961	0.029209794
15	0x3d498b96	0.049205385
16	0xbc49416b	-0.012283663
17	0x3c3f0a7b	0.011660214
18	0xbca7289f	-0.020405112
19	0xba3669f0	-0.0006958535
20	0xbcead0a7	-0.028663946
21	0xbda01723	-0.07816913
22	0xbd927a01	-0.07152177
23	0xbd205de5	-0.039152045
24	0x3d6a0935	0.057137687
25	0x3c689c0a	0.014197359
26	0xbdc5f6a5	-0.09666184
27	0xbd8a210c	-0.067445844
28	0xbc180ae1	-0.0092799375
29	0x3d6f90b6	0.058487616
30	0x3bc2183e	0.0059233
31	0x3b82f7ed	0.00399684
32	0x3ca8f018	0.020622298
33	0x3cfc0229	0.030762749
34	0x3d2e240e	0.042514853
35	0xbd481d74	-0.048856214
36	0xbcd7e154	-0.026352562
37	0xbd0d61f5	-0.034517247
38	0x3a69678f	0.0008903676
39	0xbca89d76	-0.020582896
40	0xbcf5a117	-0.02998404
41	0xbc9a9ebc	-0.018874519
42	0x3d764ffd	0.060134877
43	0x3a0ec7eb	0.000544666
44	0xbcc79807	-0.024364484
45	0xbdcd57b4	-0.10026494
46	0x3c0afd4c	0.008483242
47	0x3c927412	0.017877612
48	0x3d67df62	0.05660952
49	0x3d0e6051	0.034759823
50	0xbbda20cc	-0.0066567417
51	0x3ca8050d	0.02051022
52	0x3da8d292	0.08243288
53	0x3d3ccdc6	0.04609468
54	0x3d3543e6	0.044254206
55	0xbcb77517	-0.0223947
56	0xbc387ac0	-0.011259735
57	0x3d24de1a	0.040250875
58	0xbc312dfa	-0.010814184
59	0xbba45e7f	-0.0050161476
60	0xbd482cf6	-0.048871003
61	0xbd331015	-0.04371651
62	0xbb0b346e	-0.0021240967
63	0xbcd6076a	-0.026126582
64	0x3da72243	0.08160832
65	0x3bb75757	0.0055951285
66	0xbd3b94eb	-0.045796316
67	0xbcaef4c8	-0.021356955
68	0x3db15059	0.08657903
69	0xbdb104f8	-0.08643526
70	0xbbb1d1e6	-0.005426633
71	0xbcd4498b	-0.025913974
72	0xbddbbea7	-0.107297234
73	0xbb67e176	-0.0035382188
74	0xbc9aab5a	-0.018880535
75	0xbccde36b	-0.025132855
76	0x3cd59842	0.026073579
77	0xbd2d3e60	-0.042295814
78	0x3d1c6c6c	0.038189337
79	0xbc446c1b	-0.011988665
80	0x3c02de81	0.007987619
81	0xbb2748a4	-0.0025525475
82	0x3b7e549a	0.003880775
83	0xbd36c44e	-0.044620804
84	0x3d203b57	0.03911909
85	0xbc8fa878	-0.017536387
86	0xbc7b886f	-0.0153523525
87	0x3c3777e9	0.011198022
88	0x3c779619	0.01511147
89	0x3d6fcc8f	0.05854469
90	0xbd6e5123	-0.058182847
91	0xbc430d3d	-0.011905012
92	0xbd49748e	-0.04918342
93	0xbd7bd5e3	-0.061483275
94	0xbae9f7e0	-0.0017850362
95	0x3dbcb106	0.09213452
96	0x3d103968	0.035210997
97	0xbcbf4828	-0.023349836
98	0x3da2ff24	0.079588205
99	0x3d9d25b1	0.07673205
100	0x3d0ed6e1	0.034872893
101	0x3d2be545	0.041966695
102	0xbc9027cc	-0.017597102
103	0xbbc8e594	-0.0061308835
104	0xbcc6fda2	-0.024290863
105	0xbb7a23ed	-0.0038168386
106	0xbbf84234	-0.0075762514
107	0xbd0d8d1a	-0.034558393
108	0xbce1cdb8	-0.027563915
109	0xbc907660	-0.01763457
110	0x3d453ef3	0.048155736
111	0x3d9fb058	0.07797307
112	0xbd43044a	-0.047611512
113	0x3cee6ac8	0.029103652
114	0x3d9ec2fd	0.07752035
115	0xbcb1bd02	-0.021696571
116	0x3b7f4be7	0.0038955153
117	0xbc2d16ac	-0.010564487
118	0x3ce23190	0.027611524
119	0x3d43f0ae	0.047836952
120	0xbd802b44	-0.06258252
121	0x3d025b89	0.031825576
122	0xbadb84a0	-0.0016747899
123	0xbcd501a0	-0.026001751
124	0x3bf64b1e	0.007516279
125	0x3c1505ae	0.009095592
126	0x3d5f8cf6	0.05457779
127	0xbcf4269f	-0.029803572
128	0x3bf8053d	0.007568984
129	0xbd4a6dc8	-0.0494211
130	0xbd6d728d	-0.057970572
131	0xbd94c50b	-0.072641455
132	0x3d39a783	0.045325767
133	0xbc9cb01a	-0.01912694
134	0x3df87a46	0.12132697
135	0x3d2faf95	0.042892057
136	0x3d1f5fef	0.03890985
137	0xbda1af90	-0.07894814
138	0xbd688a1c	-0.056772336
139	0x3cf0cb16	0.029393714
140	0xbd89f4cd	-0.06736145
141	0xbd85cd70	-0.06533325
142	0x3e0480ce	0.1293976
143	0xbd696043	-0.056976568
144	0xbd5ea536	-0.054356776
145	0xbd8b0e2f	-0.06789815
146	0x3d2f4b11	0.0427962
147	0x3dfd2bb1	0.12361849
148	0xbd61504f	-0.05500823
149	0x3d1567d9	0.03647599
150	0xbb64b230	-0.0034896247
151	0xbd82af3b	-0.06381079
152	0xbd52925b	-0.051409107
153	0x3daacdf1	0.083400615
154	0x3cf82f8d	0.030296111
155	0x3c159acc	0.009131145
156	0x3ddb5fb1	0.10711611
157	0x3dce4eec	0.10073647
158	0x3d7135c8	0.05888918
159	0xbd4694a3	-0.048481595
160	0x3df2a9fe	0.1184883
161	0xbd73e758	-0.0595468
162	0xbb6c62f5	-0.0036069725
163	0x3c4a1744	0.0123346485
164	0xbc9f219d	-0.019425208
165	0xbd06f729	-0.032950554
166	0xbd324906	-0.04352667
167	0x3cd8c7d8	0.02646248
168	0xbd4fcc06	-0.05073168
169	0xbb4639d1	-0.0030246864
170	0x3d9b10c2	0.07571556
171	0xbd30cf7f	-0.043166634
172	0x3b2ec3ce	0.0026667002
173	0xbb21eb55	-0.002470692
174	0xbbea4709	-0.0071495813
175	0x3dcc1a78	0.09965986
176	0x3dcc603f	0.09979295
177	0x3df380f1	0.11889828
178	0xbd3d24c0	-0.046177626
179	0x3ddf63f6	0.10907738
180	0x3df3165b	0.11869498
181	0x3d68a47e	0.056797497
182	0x3d06ae81	0.032881264
183	0x3db02dab	0.086024605
184	0xbd8004b9	-0.06250901
185	0x3dce599a	0.10075684
186	0xbb46350c	-0.003024402
187	0x3dbf968f	0.09354889
188	0xbbe4b1f4	-0.0069792215
189	0xbd9c0a26	-0.07619123
190	0xbd977039	-0.07394452
191	0x3d8f9f61	0.07012821
192	0xbd219da9	-0.039456997
193	0xbbd0decd	-0.006374216
194	0x3c8115ea	0.01575752
195	0x3ce4e9e2	0.027943555
196	0xbc741b53	-0.014899093
197	0x3a2bf2e4	0.0006559326
198	0x3c080537	0.008302025
199	0xbd098777	-0.033576455
200	0x3d8c0bff	0.068382256
201	0xbda3e8d7	-0.08003395
202	0xbcc3eb15	-0.023915807
203	0x3d924d48	0.071436465
204	0x3dc596d9	0.096479125
205	0xbd525f99	-0.0513607
206	0x3cdea4b2	0.027178142
207	0xbd76fc09	-0.060298953
208	0xbd92ca2f	-0.0716747
209	0x3d3c3051	0.045944516
210	0xbd94edb3	-0.072719
211	0x3cc2bf2a	0.023772795
212	0xbd65b4e6	-0.05608072
213	0x3df9ec62	0.122032896
214	0x3d9dab5a	0.07698698
215	0xbd3c18b5	-0.045922
216	0xbd3c4cd3	-0.045971703
217	0xbd8e9958	-0.06962842
218	0xbd1900a7	-0.037354138
219	0xbcbaff14	-0.022826709
220	0x3d7c5fac	0.061614677
221	0xbc4c7f68	-0.012481548
222	0x3d0f938f	0.035052832
223	0x3c22bf69	0.009933331
224	0x3ddce424	0.10785702
225	0x3d559a21	0.052148942
226	0x3cbe2ae0	0.023213804
227	0x3b1e8684	0.0024189064
228	0xbd728bde	-0.05921542
229	0x3db98955	0.09059397
230	0x3d9bbee5	0.076047696
231	0x3c187da3	0.009307298
232	0xbc2257d9	-0.00990864
233	0x3d55cbaf	0.0521962
234	0xbd242daa	-0.04008261
235	0xbd1daebe	-0.038496725
236	0xbd596ea5	-0.053084034
237	0x3d5fb4da	0.054615833
238	0x3de9e8b6	0.11421339
239	0xbd2e9a77	-0.042627778
240	0x3d1a28ff	0.037636753
241	0x3e0e38d3	0.13888864
242	0xbd32b1f2	-0.043626733
243	0x3c8ac18f	0.016937999
244	0x3d955a13	0.07292571
245	0x3dac3155	0.08407847
246	0xbd223499	-0.039600942
247	0x3dacefd9	0.08444185
248	0x3c5a5cd8	0.0133278
249	0xbc1e3c2f	-0.009657904
250	0xbc87282c	-0.016498648
251	0xbd7de680	-0.0619874
252	0x3dae6361	0.08515049
253	0x3d22a484	0.039707676
254	0xbd07464c	-0.033026025
255	0x3d75b83c	0.059990153

network_body._body_endoder.seq_layers.0.bias f4 [128]
0	0xbdb43bc6	-0.088004634
1	0x3d1dfdcf	0.03857213
2	0xbd300301	-0.042971615
3	0xbc91f209	-0.017815607
4	0xbd7a8a95	-0.06116732
5	0x3daa2a5a	0.08308859
6	0x3d94f268	0.07272798
7	0xbdb0ef8c	-0.0863944
8	0x3d9047ee	0.070449695
9	0x3c98ed74	0.018667914
10	0xbd3f3d72	-0.04668946
11	0x3d7ed0b9	0.062210772
12	0x3c978980	0.018498182
13	0xbd2a8a89	-0.041636024
14	0x3dad9c88	0.084771216
15	0x3cec71ee	0.02886292
16	0x3cf6b78d	0.03011682
17	0x3d47ed3f	0.04881024
18	0x3d85c058	0.06530827
19	0xbd8a2556	-0.067454025
20	0xbd5f94da	-0.054585315
21	0xbd440dbd	-0.047864664
22	0x3d869c09	0.0657273
23	0xbc6ee4e4	-0.014580939
24	0xbd1b4af8	-0.037913293
25	0xbd4cb1a0	-0.049974084
26	0xbd1df8fc	-0.038567528
27	0x3dc0c515	0.094125904
28	0x3de1005e	0.10986398
29	0x3c6551e7	0.013996578
30	0xbc52e125	-0.012871061
31	0xbce72eea	-0.028220613
32	0xbca7228b	-0.020402214
33	0xbca94e55	-0.020667234
34	0x3c2b9c63	0.010474297
35	0x3d44e8b4	0.048073485
36	0x3d005cdb	0.031338554
37	0x3d43b9ba	0.047784545
38	0x3d0972c6	0.033556722
39	0xbcf6b7c2	-0.03011692
40	0xbdd94412	-0.106086865
41	0xbd29a82c	-0.041420147
42	0x3cf16c77	0.029470665
43	0xbd68388e	-0.05669456
44	0xbc730d0e	-0.014834655
45	0x3cdc5f9e	0.026901063
46	0x3d784e84	0.060621753
47	0x3d5b1578	0.05348727
48	0x3d52f43c	0.05150245
49	0x3d24e07a	0.04025314
50	0xbde5d112	-0.112215176
51	0x3d32d102	0.043656357
52	0x3cb7ccff	0.022436617
53	0x3dcc1875	0.09965602
54	0xbcdedcb0	-0.027204841
55	0xbdcd58e9	-0.10026724
56	0x3d7caf40	0.06169057
57	0x3d76cf72	0.06025643
58	0xbcf611c3	-0.030037766
59	0xbc078066	-0.008270359
60	0x3d0277d5	0.031852562
61	0xbd23bc96	-0.03997477
62	0xbc8c3c3c	-0.017118566
63	0xbd222caa	-0.039593376
64	0x3d4ba588	0.04971841
65	0x3e053066	0.13006744
66	0xbcd59f8f	-0.02607706
67	0xbd068ce2	-0.0328492
68	0x3d06a7f2	0.03287501
69	0xbd3a1b60	-0.045436263
70	0x3d4ad55e	0.04951989
71	0xbde6fa2d	-0.11278186
72	0xbd29fa0f	-0.04149824
73	0x3d9f22a2	0.077702776
74	0xbd05321d	-0.032518495
75	0x3b0c746d	0.00214317
76	0x3da93cf4	0.08263579
77	0x3dacfe34	0.08446923
78	0xbaffc738	-0.0019514328
79	0xbc9fa093	-0.019485747
80	0x3cc12e70	0.023581713
81	0xbcaf4941	-0.021397235
82	0x3d24c0c4	0.040222898
83	0xbcbf4e4d	-0.023352766
84	0xbcc18625	-0.023623535
85	0x3c9b8ac7	0.018987073
86	0xbd387b64	-0.04503955
87	0x3c97764b	0.018489024
88	0x3cc049f3	0.023472762
89	0xbcf8d4e2	-0.030374948
90	0xbc45b2ef	-0.012066587
91	0x3db06d8e	0.08614646
92	0xbcec6aea	-0.028859574
93	0x3c218a45	0.009859626
94	0xbd45428d	-0.04815917
95	0xbdcc2395	-0.09967724
96	0x3c6ce52d	0.014458937
97	0x3caeab21	0.021321835
98	0xbd0c0cc2	-0.034191854
99	0xbd1c463d	-0.038152922
100	0xbd111374	-0.035418943
101	0x3c244718	0.010026716
102	0x3cbf5972	0.02335808
103	0xbd37a6d7	-0.044836845
104	0x3c4c60a6	0.012474215
105	0xbd843523	-0.064554475
106	0xbd0b9a3e	-0.034082644
107	0x3d16d58c	0.036824748
108	0xbd2aca8e	-0.041697077
109	0xbdecfea4	-0.11572006
110	0x3d95d12a	0.073152855
111	0xbc239014	-0.009983081
112	0x3d5d9b78	0.054103345
113	0xbd35a8dd	-0.044350494
114	0xbdfebe0a	-0.12438591
115	0xbd79be2c	-0.060972378
116	0x3da54919	0.08070583
117	0x3d990e2c	0.07473406
118	0x3b412c89	0.0029476008
119	0x3cb547c1	0.022128941
120	0x3d089056	0.033340774
121	0x3dc782bf	0.09741735
122	0xba50c7f0	-0.00079643633
123	0xbd126075	-0.03573652
124	0x3d942722	0.072340265
125	0xbd2e9028	-0.042617947
126	0x3d9860b1	0.074403174
127	0xbd1885bb	-0.03723691

network_body._body_endoder.seq_layers.0.weight f4 [128, 44]
0	0xbe31a10e	-0.17346594
1	0x3e8f26de	0.2795934
2	0xbea230db	-0.316779
3	0xbf3774ad	-0.7166241
4	0x3d2adcb5	0.04171439
5	0xbe2ac8fb	-0.1667823
6	0xbe093e30	-0.13402629
7	0xbd9573af	-0.072974555
8	0xbdb12627	-0.08649855
9	0xbde5c771	-0.11219681
10	0xbd0e40a9	-0.034729633
11	0xbe1acf82	-0.1511822
12	0x3e616d5d	0.22014375
13	0xbe9018af	-0.28143832
14	0xbdc12918	-0.09431666
15	0x3d10f91a	0.03539381
16	0x3e704809	0.23464979
17	0x3cd1d962	0.025616352
18	0x3da5d4c9	0.08097226
19	0x3e197b6a	0.14988485
20	0xbd91b451	-0.07114471
21	0xbe787dc4	-0.24266726
22	0x3dc43410	0.09580243
23	0xbdd6f61e	-0.10496162
24	0xbe37e570	-0.17958617
25	0xbe0d7cc9	-0.13817133
26	0xbea0b1ee	-0.3138575
27	0xbe3d4a7d	-0.18485446
28	0x3d1800fd	0.037110317
29	0xbd213742	-0.03935934
30	0xbcb40cff	-0.021978853
31	0x3d52b685	0.051443595
32	0x3e21fd34	0.15819246
33	0xbec5e9d2	-0.38654953
34	0x3c6ca18b	0.014442812
35	0xbe18f6cc	-0.14937896
36	0x3d4b35d7	0.049611893
37	0xbebd3b85	-0.36959472
38	0x3e21bd8a	0.1579496
39	0x3cb78817	0.02240376
40	0xbeb4c6b8	-0.3530786
41	0x3e384836	0.17996296
42	0xbe35dbc9	-0.17759623
43	0x3d35d492	0.044392176
44	0x3d4ed066	0.050491713
45	0x3c497178	0.012295119
46	0xb9fd730b	-0.00048341634
47	0xbe832349	-0.25612858
48	0x3e916055	0.28393808
49	0xbe555a3c	-0.20835203
50	0xbe6440cd	-0.22290345
51	0xbcda4926	-0.026646208
52	0xbe78cacf	-0.24296115
53	0x3e8a4c24	0.27011216
54	0xbe792757	-0.24331413
55	0xbd018020	-0.03161633
56	0xbe026d77	-0.1273707
57	0x3e92c25e	0.28663915
58	0xbc3da733	-0.011575508
59	0x3cd38f5a	0.025825191
60	0x3db00eb5	0.08596555
61	0x3cf65324	0.030068941
62	0x3d13e383	0.036105644
63	0xbe02ba19	-0.12766303
64	0xbea3fcbc	-0.3202876
65	0xbd7abcc6	-0.061215185
66	0xbe1c4be0	-0.15263319
67	0xbe08247f	-0.13295172
68	0xbe5997d1	-0.2124932
69	0xbd8a3cef	-0.067499034
70	0xbda00749	-0.078138895
71	0xbcb3a7a2	-0.02193052
72	0x3bd5297f	0.006505191
73	0xbdb7f13d	-0.089815594
74	0xbbf249a1	-0.007394031
75	0x3dfd9d42	0.1238351
76	0xbdab6597	-0.08368986
77	0x3d6ed49a	0.05830822
78	0xbee75f58	-0.4518993
79	0x3e5cf8de	0.2157931
80	0xbd6742ed	-0.05646031
81	0x3da78680	0.08179951
82	0x3e927bc7	0.2861006
83	0x3cfd2012	0.030899081
84	0x3d1bcd6e	0.03803771
85	0xbdbe6e82	-0.092984214
86	0x3cea02d3	0.0285658
87	0xbabbe270	-0.0014334451
88	0x3e1422b5	0.14466365
89	0xbd2fc0be	-0.042908423
90	0x3c96cd41	0.01840842
91	0xbd6f8dc9	-0.058484826
92	0xbdcd5bae	-0.10027252
93	0x3c65a6a4	0.014016781
94	0xbc0c7d34	-0.008574773
95	0x3cdfec0d	0.027334237
96	0xbe443d5c	-0.19164032
97	0xbe1b665b	-0.15175764
98	0xbda583ee	-0.08081804
99	0xbdb8bde6	-0.09020595
100	0x3e98b80b	0.29827914
101	0xbdd05ed4	-0.10174337
102	0xbd20a068	-0.039215475
103	0xbe650998	-0.22366941
104	0x3de98c10	0.11403668
105	0x3e00916c	0.12555474
106	0x3de2a896	0.110673115
107	0x3e19a58f	0.15004562
108	0x3e068316	0.13135943
109	0x3dc84450	0.097786546
110	0xbe3bd0d3	-0.18341379
111	0x3e2e0419	0.1699375
112	0xbc942763	-0.018085187
113	0x3c4a98c3	0.012365523
114	0xbdc6ee80	-0.09713459
115	0xbb793936	-0.0038028485
116	0xbb86cd99	-0.0041138646
117	0x3c90f45f	0.01769465
118	0x3e980bf0	0.29696608
119	0xbe833cd5	-0.2563235
120	0x3e292fd5	0.16522153
121	0x3c4fcc17	0.012682936
122	0x3e489dc0	0.19591427
123	0xbea6bbf9	-0.32565287
124	0x3d378c30	0.044811428
125	0xbe0bdaac	-0.13657635
126	0x3dcf1f76	0.101134226
127	0xbec0997b	-0.37617096
128	0x3e06b01e	0.13153121
129	0xbda8b3cd	-0.08237419
130	0x3e0b5bbe	0.13609216
131	0xbd28b650	-0.04118949
132	0xbd3f6c88	-0.046734363
133	0xbe6d34b8	-0.23164642
134	0x3dfa4b2d	0.1222137
135	0x3d2aeb2b	0.04172818
136	0xbd12bd0d	-0.035824824
137	0xbe0b8f32	-0.13628843
138	0x3e1f2adf	0.15543698
139	0xbcf6105e	-0.030037101
140	0x3df24a16	0.11830537
141	0xbd43b7d3	-0.04778273
142	0x3e0af4fa	0.13570014
143	0xbcf299a0	-0.02961427
144	0x3ce58f02	0.028022293
145	0xbea309eb	-0.31843504
146	0xbe8c9c48	-0.27462983
147	0xbbb353b3	-0.005472624
148	0xbe0f7a95	-0.14011605
149	0x3d9d4440	0.07679033
150	0xbd0b46ae	-0.034002952
151	0xbd9970ed	-0.07492242
152	0xbe024196	-0.12720332
153	0x3d80021c	0.06250402
154	0x3c45e192	0.012077706
155	0xbe2cfd2a	-0.1689345
156	0x3eb52f23	0.35387525
157	0xbcbddfb6	-0.023177963
158	0xbea42e48	-0.3206656
159	0xbd878f28	-0.06619102
160	0xbd32561f	-0.043539163
161	0xbc57a16a	-0.013161043
162	0x3e412dca	0.18865123
163	0xbe79942f	-0.24372934
164	0x3e1abc56	0.15110907
165	0xbd0b1a6d	-0.03396075
166	0x3e36a300	0.17835617
167	0xbe906b8e	-0.28207058
168	0xbd6ca1a7	-0.05777135
169	0x3b2a4226	0.002597937
170	0x3dab4c75	0.083641924
171	0xbe707da6	-0.23485431
172	0x3e46a8a2	0.19400266
173	0x3cb59fae	0.022170868
174	0x3d26a6f2	0.040686555
175	0xbd3d7877	-0.046257462
176	0x3e6cb566	0.23116073
177	0xbd53a848	-0.051674157
178	0xbe29a6e1	-0.16567566
179	0x3e3d9161	0.18512489
180	0x3d897ef0	0.067136645
181	0x3d90914d	0.07058964
182	0x3c84b456	0.016199272
183	0xbd6b7751	-0.057486836
184	0xbeb2604e	-0.348391
185	0xbd40a39b	-0.047031026
186	0xbd9fdab8	-0.07805389
187	0x3e4cd776	0.20004067
188	0xbd74c0c1	-0.059754137
189	0xbe2dcff0	-0.16973853
190	0xbe26b5d4	-0.162803
191	0xbe29e605	-0.16591652
192	0xbe189242	-0.14899543
193	0xbdbbfa75	-0.0917863
194	0x3d03fb68	0.03222218
195	0x3ca1c49c	0.019747071
196	0xbddf7238	-0.109104574
197	0x3dba2f0b	0.09091004
198	0xbdcc8a44	-0.099873096
199	0x3d7b4672	0.06134648
200	0x3db02141	0.08600093
201	0xbe11db03	-0.14243703
202	0xbd8fb853	-0.07017579
203	0x3dbf849d	0.09351466
204	0x3d6af6e1	0.05736435
205	0xbd8c09fc	-0.06837842
206	0xbeb0021a	-0.34376603
207	0xbe8d2508	-0.27567315
208	0xbe3eced3	-0.18633585
209	0xbe2c50ab	-0.16827647
210	0xbdd93fc1	-0.10607863
211	0xbd8ed992	-0.06975092
212	0x3da439ce	0.08018838
213	0xbd85e010	-0.06536877
214	0x3eab5fd7	0.33471557
215	0x3d9f28c1	0.07771445
216	0xbd7e75c6	-0.062124036
217	0x3def2039	0.11676068
218	0x3db341a5	0.08752755
219	0xbd4a3bf3	-0.04937358
220	0xbe5343fc	-0.20631403
221	0x3e39fb15	0.18162186
222	0x3da52d13	0.08065238
223	0x3dcefc43	0.10106709
224	0xbe784fe8	-0.24249232
225	0x3e756ee2	0.2396808
226	0xbd870a7d	-0.06593797
227	0x3ea01440	0.3126545
228	0xbd8a04a4	-0.067391664
229	0x3e05db75	0.13071997
230	0x3e824b2f	0.25447986
231	0xbcbd9f23	-0.023147171
232	0x3e85e050	0.261477
233	0xbd1157f6	-0.035484277
234	0xbd8c68fe	-0.06855963
235	0x3cdf8932	0.0272871
236	0xbd9c22ef	-0.076238506
237	0x3ce052ab	0.02738317
238	0x3d85f37b	0.06540581
239	0x3ccdc759	0.02511947
240	0x3c84fcb8	0.016233787
241	0xbe25d8a9	-0.1619593
242	0xbef33ce4	-0.47507393
243	0x3e84dc21	0.25949195
244	0xbdef9f57	-0.117003135
245	0xbe604a50	-0.21903348
246	0xbdd01561	-0.10160328
247	0xbd64ccfd	-0.055859555
248	0xbd1ec93d	-0.038766135
249	0xbe483297	-0.19550548
250	0xbd99d9d4	-0.075122505
251	0x3dfcddcd	0.12346993
252	0x3d042213	0.03225906
253	0x3cfca134	0.030838586
254	0xbdd844c5	-0.10559992
255	0xbe09bd11	-0.1345103

network_body._body_endoder.seq_layers.2.bias f4 [128]
0	0xbc8a31b5	-0.016869405
1	0xbd17b427	-0.03703704
2	0xbd5d9438	-0.05409643
3	0xbd297634	-0.041372493
4	0x3be7dfcc	0.007076239
5	0xbd09bd20	-0.03362763
6	0x3d852526	0.06501226
7	0x3d09ced0	0.033644497
8	0x3c193e67	0.009353257
9	0xbd7a4633	-0.061102103
10	0x3ab74db8	0.0013984954
11	0x3c2e0300	0.010620832
12	0xbd5e9bed	-0.05434792
13	0xbd2485d9	-0.04016671
14	0x3d97f8ed	0.07420526
15	0xbc34cba2	-0.011034878
16	0xbd36fc9f	-0.044674512
17	0xbd289c61	-0.04116476
18	0x3c17426b	0.009232144
19	0x3d87309d	0.06601069
20	0xbd2ac23d	-0.041689146
21	0x3c0e7187	0.008694059
22	0xbcdbf568	-0.026850417
23	0xbd50193f	-0.050805327
24	0x3c3d70a0	0.011562496
25	0x3d653d8c	0.0559669
26	0xbb8b68b9	-0.0042544273
27	0xbb014d1d	-0.00197298
28	0x3d15f952	0.036614724
29	0x3d6f1129	0.058365975
30	0x3d0ba741	0.034095053
31	0xbce5350b	-0.027979394
32	0x3d792516	0.060826384
33	0xbc88c52e	-0.016695585
34	0x3ca5819a	0.0202034
35	0xbc0f6dfb	-0.008754249
36	0xbd13283c	-0.035927042
37	0xbcd0f0ac	-0.025505386
38	0xbd327575	-0.043569047
39	0x3c24b54d	0.010052991
40	0xbd1f2c6e	-0.03886073
41	0xbd35486a	-0.044258513
42	0x3d5113b5	0.051044185
43	0xbd11a781	-0.035560135
44	0xbc2f58be	-0.01070231
45	0xbc6d4c32	-0.014483498
46	0xbc7262dd	-0.014794079
47	0x3d3a883e	0.045540087
48	0x3d9d4dc9	0.07680852
49	0x3d5f2691	0.05448014
50	0xbd1af417	-0.03783044
51	0x3d867235	0.06564752
52	0x3d7ca2d7	0.061678734
53	0x3d510194	0.051026896
54	0x3d054c45	0.03254344
55	0x3d33d2e1	0.04390228
56	0xbd4956cf	-0.049155053
57	0x3d600820	0.05469525
58	0xbbb0e275	-0.0053980895
59	0x3d4613be	0.04835867
60	0xbcc1aea4	-0.023642845
61	0xbd6493ea	-0.055805124
62	0xbd0c20b5	-0.03421088
63	0x3cff7fd2	0.03118888
64	0x3b00600f	0.0019588505
65	0xbbf77c11	-0.0075526317
66	0x3c5fd187	0.013660795
67	0xbb2c584c	-0.0026297746
68	0x3cfe3cc5	0.031034837
69	0xbc9ef594	-0.01940421
70	0xbbf37236	-0.0074293865
71	0xbce771cd	-0.028252507
72	0x3cc69864	0.024242587
73	0xbd106698	-0.03525409
74	0xbd4cfb7c	-0.05004452
75	0x3d1bab48	0.038005143
76	0x3d47a1df	0.048738357
77	0xbd2a92dc	-0.041643962
78	0x3cd48bbc	0.025945537
79	0xbd2f27e9	-0.04276267
80	0xbd18acb3	-0.037274074
81	0x3d1ce36e	0.03830283
82	0xbd108f83	-0.035293113
83	0xbb81634c	-0.0039486047
84	0xbaf5b282	-0.0018745216
85	0x3d6b5c62	0.05746115
86	0x3d0c0892	0.03418786
87	0xbd19de33	-0.03756542
88	0xbce37176	-0.027764063
89	0xbc38d680	-0.01128161
90	0xbd20de3b	-0.039274435
91	0xbd0680b1	-0.032837573
92	0x3d1f6ebb	0.03892396
93	0xbd003fee	-0.031310968
94	0x3d073d28	0.033017308
95	0x3d108812	0.035286017
96	0x3d6e33b2	0.05815477
97	0x3cf41f09	0.029799955
98	0x3d26693d	0.040627707
99	0x3cef8091	0.02923611
100	0xbc5045bb	-0.012711938
101	0x3d636d64	0.055524245
102	0x3d1a84e9	0.03772441
103	0xbbe276aa	-0.0069111185
104	0xbcd12cd2	-0.025534067
105	0x3d2a51b5	0.04158183
106	0xbd078fd2	-0.033096142
107	0xbd138312	-0.03601367
108	0xbd3cc8e1	-0.04609001
109	0x3ced24b1	0.02894816
110	0x3d806c2d	0.06270633
111	0x3cfcd112	0.030861411
112	0x3c45c8db	0.012071813
113	0x3d8760d1	0.06610263
114	0xba819dc2	-0.0009888934
115	0xbacd24fe	-0.0015651283
116	0x3d33a3ac	0.04385726
117	0x3d3cf99a	0.046136476
118	0xbccd3b98	-0.02505283
119	0x3d86ca5e	0.06581567
120	0xbc820544	-0.015871651
121	0x3addf505	0.0016933983
122	0xbd28e89f	-0.04123747
123	0xbd6bed42	-0.057599314
124	0x3d9589fa	0.073017076
125	0x3d0020e0	0.031281352
126	0x3c781672	0.01514207
127	0x3d0cfe70	0.034422338

network_body._body_endoder.seq_layers.2.weight f4 [128, 128]
0	0xbd8a6363	-0.06757238
1	0x3da26053	0.07928529
2	0x3e14fa0f	0.14548515
3	0x3e1fb38d	0.15595837
4	0xbcc1d028	-0.023658827
5	0xbd3eae9f	-0.04655325
6	0xbe93981e	-0.28826994
7	0xbdc37bc8	-0.09545094
8	0xbea96263	-0.33082876
9	0x3d63c699	0.05560932
10	0xbd4d6f5d	-0.050155032
11	0xbccad781	-0.024760963
12	0xbd6dec06	-0.058086418
13	0xbd378fc6	-0.044814847
14	0xbd5d1f9f	-0.053985234
15	0x3e7b84fd	0.2456245
16	0x3afe97cb	0.00194239
17	0xbd4268ac	-0.047463104
18	0xbd0eb920	-0.034844518
19	0x3d8d3d25	0.06896428
20	0x3d7aab22	0.06119836
21	0xbc90db94	-0.017682828
22	0xbda15d8f	-0.07879173
23	0xba642ac0	-0.000870388
24	0x3c9ef936	0.019405942
25	0xbcce28db	-0.025165966
26	0xbc498032	-0.012298631
27	0xbe1cea1c	-0.1532368
28	0xbe11c3fc	-0.14234918
29	0x3e125c16	0.1429294
30	0xbe147259	-0.14496745
31	0x3cc7cb80	0.024389029
32	0xbd65dcad	-0.056118656
33	0x3e7f2eac	0.24920148
34	0xbe194f78	-0.14971721
35	0x3dd53f2b	0.10412439
36	0xbdc228e1	-0.09480453
37	0xbd58c7a0	-0.052924752
38	0xbdf3447d	-0.118782975
39	0xbdb6d41a	-0.08927174
40	0x3cf61ab2	0.030042026
41	0xbda00640	-0.07813692
42	0xbdf74a8b	-0.12074765
43	0x3d0f93a1	0.0350529
44	0xbd532355	-0.051547367
45	0xbcedf09d	-0.029045397
46	0x3dba1162	0.09085347
47	0x3b17d06c	0.0023165
48	0x3e064232	0.13111189
49	0x3d8ad872	0.06779565
50	0xbd9b085d	-0.075699545
51	0x3d9c9af8	0.076467454
52	0xbdfdab1c	-0.12386152
53	0xbdf9c895	-0.12196461
54	0x3db81111	0.0898763
55	0xbdb63c6d	-0.08898244
56	0xbe6495d5	-0.22322781
57	0xbd009354	-0.031390503
58	0xbdbd85e4	-0.09254053
59	0xbe420f8b	-0.18951242
60	0xbbaba199	-0.00523777
61	0x3e700a77	0.23441492
62	0xbd9d8f0e	-0.07693301
63	0x3e4a21ea	0.197395
64	0xbe0d7012	-0.13812283
65	0xbe48cb9d	-0.19608922
66	0x3d786d1c	0.06065093
67	0x3deb7e0e	0.114986524
68	0xbe66448e	-0.22487089
69	0x3da93e84	0.08263877
70	0x3d93e125	0.07220677
71	0x3e0a279c	0.13491672
72	0x3d83b8f7	0.064317636
73	0xbe6af6b9	-0.2294568
74	0x3db203aa	0.08692105
75	0x3dd832bf	0.10556554
76	0x3ca01525	0.019541332
77	0x3e01a7f2	0.12661722
78	0x3da8d40d	0.082435705
79	0xbd420176	-0.047364675
80	0xbe31221d	-0.1729817
81	0x3cbe54e1	0.023233833
82	0x3db98b43	0.09059765
83	0xbe1708b8	-0.1474942
84	0xbd8f4806	-0.06996159
85	0xbdbd3949	-0.09239442
86	0x3d7f5bb3	0.06234331
87	0xbcaf0cc9	-0.021368401
88	0x3be782fc	0.007065175
89	0x3df64279	0.120243974
90	0x3e140810	0.144562
91	0xbd486a92	-0.04892976
92	0x3b3f87a9	0.0029225147
93	0x3e548562	0.20754007
94	0x3ba84a8b	0.0051358393
95	0xbd8a7c14	-0.06761947
96	0xbd8df52d	-0.06931529
97	0xbdbd6d13	-0.0924932
98	0xbcd108b6	-0.025516849
99	0xbdb07eed	-0.08617959
100	0x3dae7827	0.08519011
101	0xbd9b6416	-0.07587449
102	0x3d3de0e9	0.04635707
103	0xbceb64d9	-0.028734611
104	0x3b56c987	0.0032773928
105	0x3d706fa7	0.05870023
106	0x3db27cda	0.0871522
107	0xbda56284	-0.08075431
108	0x3de60415	0.11231247
109	0xbdddd7bc	-0.10832164
110	0xbd34f881	-0.044182304
111	0xbde9a8b2	-0.11409129
112	0x3e7d396f	0.2472894
113	0x3e643330	0.22285151
114	0x3a654a80	0.0008746758
115	0x3e1eefde	0.1552119
116	0x3c904724	0.017612047
117	0x3cc5b9db	0.024136474
118	0x3dad64bb	0.084664784
119	0x3d8256dd	0.06364224
120	0xbd9b29f3	-0.075763606
121	0xbe27d7d4	-0.16390926
122	0x3e143241	0.14472295
123	0xbd74ff72	-0.059813924
124	0xbd9b34c7	-0.07578426
125	0xbe3d317e	-0.18475911
126	0xbd357b4b	-0.044307034
127	0x3d248be4	0.040172473
128	0x3d9db76d	0.07701001
129	0x3b80de29	0.0039327336
130	0x3e010d8c	0.12602824
131	0x3e3b19f4	0.18271619
132	0x3dc4a1f5	0.09601203
133	0xbd6a82fd	-0.057253826
134	0xbaf3d015	-0.0018601442
135	0x3da50464	0.08057478
136	0x3d4412a0	0.047869325
137	0xbd331335	-0.04371949
138	0x3e1f05f5	0.15529616
139	0xbdcb5d41	-0.09929896
140	0xbd6a36fd	-0.057181347
141	0xbdcdd162	-0.10049702
142	0xbd945bc7	-0.07244068
143	0x3dcbe57e	0.099558815
144	0x3ddcc467	0.10779648
145	0xbe3e97ff	-0.1861267
146	0x3d25f017	0.04051217
147	0xbb3e0e51	-0.0029000232
148	0xbd7b8eff	-0.06141567
149	0xbdc97b02	-0.09837915
150	0xbb80b295	-0.0039275386
151	0x3c9a51be	0.018837806
152	0x3de01a40	0.10942507
153	0xbdb62a07	-0.08894735
154	0x3e535904	0.20639426
155	0xbdaa3e85	-0.08312706
156	0xbe642c9b	-0.2228264
157	0x3dfe32e2	0.12412049
158	0xbdcb7339	-0.09934086
159	0xbd651146	-0.055924676
160	0x3d67ad2e	0.05656164
161	0x3e5aee68	0.21380007
162	0xbd616ea1	-0.055037145
163	0xbdb47074	-0.08810511
164	0x3c771350	0.015080288
165	0xbe2fcafb	-0.17167275
166	0xbdb13646	-0.0865293
167	0x3d397bdf	0.04528415
168	0xbd01adb7	-0.031659808
169	0x3e148331	0.1450317
170	0xbc98d365	-0.018655488
171	0xbd1fcc94	-0.03901346
172	0xbe23030e	-0.15919134
173	0xbd1cf7e8	-0.03832236
174	0x3d00f6c0	0.03148532
175	0xbd959859	-0.07304449
176	0x3d4ce15e	0.050019614
177	0x3d975800	0.073898315
178	0x3d09c9fb	0.03363989
179	0x3e7805ab	0.24220912
180	0x3d0462d5	0.032320816
181	0x3d80e01f	0.06292748
182	0x3df21740	0.11820841
183	0x3d42731d	0.04747306
184	0xbdb5688b	-0.088578306
185	0x3daf399b	0.08555909
186	0x3d972426	0.07379942
187	0x3e5e2ce9	0.2169682
188	0xbe2d1083	-0.1690083
189	0xbe0b32ec	-0.13593644
190	0x3e30df2c	0.17272633
191	0xbe411bdb	-0.18858282
192	0xbdec5f59	-0.115416236
193	0xbda89edd	-0.08233426
194	0x3da12d33	0.07869949
195	0x3ad0f296	0.0015941437
196	0x3b99bbeb	0.004691591
197	0x3ce479ca	0.027890105
198	0xbda0dbb9	-0.07854409
199	0x3d68a197	0.05679473
200	0x3d92f511	0.07175649
201	0xbdda0566	-0.10645561
202	0xbd059127	-0.03260913
203	0x3e1cf1f0	0.15326667
204	0xbddfc864	-0.10926893
205	0xbdc6e3b4	-0.097114
206	0xbde6612e	-0.11249004
207	0x3d8d9583	0.06913283
208	0x3d18583a	0.037193514
209	0x3e18e32e	0.14930412
210	0x3e0253e0	0.12727308
211	0x3d486823	0.048927438
212	0xbdb92f67	-0.090422444
213	0xbca62eec	-0.020286046
214	0x3d8e0370	0.069342494
215	0xbe0a1e20	-0.13488054
216	0xbe1281b9	-0.14307298
217	0x3e19a819	0.1500553
218	0x3e34c348	0.17652619
219	0xbceb7e58	-0.028746769
220	0xbd42a015	-0.047515947
221	0x3e490536	0.19630894
222	0x3cdf86d6	0.027285974
223	0x3dfd9be2	0.12383248
224	0x3d1434d1	0.036183182
225	0xbe175f52	-0.14782456
226	0x3c00e808	0.007867821
227	0xbe0b8013	-0.13623075
228	0x3dd90704	0.10597041
229	0xbd1de463	-0.038547885
230	0xbd01a0d4	-0.03164752
231	0x3d8597cb	0.06523093
232	0x3d7c1f45	0.06155326
233	0xbd67983a	-0.05654166
234	0x3e36d544	0.17854792
235	0x3c858945	0.016300807
236	0xbdadaaa9	-0.084798165
237	0x3c15d791	0.009145633
238	0xbe595d40	-0.21226978
239	0x3b9eb69b	0.0048435456
240	0x3bb02df9	0.005376574
241	0xbc651020	-0.013980895
242	0xbe345757	-0.17611443
243	0xbde0d008	-0.10977179
244	0x3d60dae8	0.054896265
245	0x3dd269e1	0.10274101
246	0x3d4c9b9b	0.049953084
247	0x3be5a28f	0.007007904
248	0x3d0d88a8	0.034554154
249	0xbd553616	-0.052053533
250	0x3bec14dc	0.007204635
251	0xbca2af2c	-0.01985892
252	0xbd8feddb	-0.07027789
253	0x3dd9e8a9	0.106400795
254	0xbda7c9b1	-0.081927665
255	0xbe09c2c1	-0.13453199
