Unity Project/CSC 30014 Project/results/test2/Car.onnx (onnx, 108006 bytes, 7 tensors)

action_model._continuous_distribution.log_sigma f4 [1, 2]
0	0x00000000	0.0
1	0x00000000	0.0

action_model._continuous_distribution.mu.bias f4 [2]
0	0x00000000	0.0
1	0x00000000	0.0

action_model._continuous_distribution.mu.weight f4 [2, 128]
0	0xbba586cd	-0.00505147
1	0x3bda0bcf	0.0066542397
2	0xbcdbe2af	-0.02684149
3	0x3d126d89	0.035748992
4	0xbc65c3f0	-0.014023766
5	0x3caa721f	0.02080637
6	0xbc404ead	-0.011737508
7	0xbc09524c	-0.0083814375
8	0x3ca33605	0.01992322
9	0x3cd5cf45	0.02609981
10	0x3be123d8	0.006870728
11	0xbc118449	-0.008881637
12	0x3afa8688	0.001911358
13	0xbc7e5c8b	-0.015524994
14	0xbd26de32	-0.040739246
15	0xba261f3e	-0.0006337053
16	0xbbef6cc5	-0.0073066675
17	0x3cbd5f53	0.023116743
18	0x3c65f8cd	0.0140363695
19	0xbb03c2bb	-0.0020105082
20	0x3ca51773	0.020152783
21	0x3bc08fc3	0.0058765127
22	0x3ca20bab	0.019780954
23	0xb994d3a8	-0.00028386456
24	0xbc3bbf98	-0.011459254
25	0xbd11e628	-0.035619885
26	0x3c6c0f7f	0.014407991
27	0xbc2447fd	-0.010026929
28	0xbc3d3692	-0.011548655
29	0x3b8446f8	0.0040367804
30	0x3a34fec7	0.000690442
31	0xbc499e84	-0.0123058595
32	0x3b61ac23	0.0034434877
33	0x3c6ac7f7	0.014329902
34	0xbca7e5cb	-0.020495316
35	0xbc218a95	-0.009859701
36	0xbcd986f2	-0.026553605
37	0x3a1ce411	0.0005984912
38	0x3b7f7d55	0.0038984616
39	0xbb2ed8f7	-0.0026679614
40	0x3c4f7a8f	0.012663498
41	0xbbaf799a	-0.005355072
42	0xbb478ede	-0.0030450146
43	0x3c8967a9	0.016773062
44	0x3c8e9019	0.017402695
45	0x3cbb2d7d	0.022848839
46	0x3cb3bb3f	0.021939872
47	0x3c1aa46b	0.009438614
48	0x3d0ba237	0.034090247
49	0xbb21872a	-0.0024647214
50	0xbc5f1e2b	-0.013618032
51	0x3c8f96b7	0.017527921
52	0x3b267a33	0.0025402426
53	0xbb056aab	-0.0020357769
54	0x3ad8933d	0.0016523373
55	0x3d05f44f	0.032703694
56	0x3ba460f4	0.0050164405
57	0x3a441276	0.00074795575
58	0xbc08844d	-0.008332324
59	0x3ca6f79a	0.020381738
60	0x3cab2f48	0.020896569
61	0xbcecef98	-0.028922841
62	0x3c4cdfeb	0.012504558
63	0x3c165a10	0.009176746
64	0xbc8e4ebe	-0.017371532
65	0x3cf4d4ed	0.029886687
66	0xbbe38e0d	-0.006944424
67	0xbab7e0a1	-0.0014028737
68	0xbbf71d13	-0.0075413077
69	0x3ce87e10	0.028380424
70	0x3cc71fac	0.024307095
71	0x3c0e0288	0.008667596
72	0x3c31e2f5	0.010857333
73	0xbb05d007	-0.0020418183
74	0xbb41b673	-0.002955821
75	0x3cc3035e	0.023805317
76	0x3cd97b03	0.026547914
77	0xbb723680	-0.0036958754
78	0x3b46c6ba	0.0030330853
79	0x3b953b29	0.0045541716
80	0x3d2552e4	0.040362254
81	0xbc748b43	-0.014925781
82	0xba663bb2	-0.0008782699
83	0x3b671872	0.0035262373
84	0xbc1173cd	-0.008877707
85	0x3c96bd0c	0.018400691
86	0xbb9c9083	-0.0047779693
87	0xba54801a	-0.0008106247
88	0xbc9543e9	-0.018220859
89	0x3bda9c0a	0.0066714333
90	0xbd19a2ab	-0.037508648
91	0xbc9ed716	-0.01938967
92	0x3ba8ba4a	0.0051491605
93	0xbc8004a0	-0.015627205
94	0xbba38a88	-0.0049908794
95	0xbcc3b7bf	-0.023891328
96	0xbbb17e4f	-0.0054166685
97	0x3ca7c72f	0.02048072
98	0x3d136a29	0.035989914
99	0x3be8ea05	0.0071079754
100	0xbd1a9ee1	-0.037749175
101	0x3c9ae7b0	0.018909305
102	0xbc09effa	-0.008419031
103	0x3baec26e	0.0053332364
104	0x3c511e3d	0.012763557
105	0x3bca0eb7	0.006166305
106	0x3b779988	0.003778072
107	0xbc6fa5a8	-0.014626898
108	0xbb3d6d5e	-0.00289043
109	0x3cdf64c3	0.027269727
110	0xbb2d366f	-0.002643015
111	0x3d45725e	0.048204772
112	0xbb1bf5ad	-0.0023797557
113	0x3cd2fe78	0.025756106
114	0xbc2898e0	-0.0102903545
115	0x3c0d9f33	0.008643913
116	0xbb3fbc92	-0.0029256684
117	0x3bdad3b5	0.0066780695
118	0xba7a4f15	-0.00095485273
119	0xbbe485d8	-0.006973963
120	0xbc40560a	-0.011739263
121	0x3c0e4df3	0.008685577
122	0x3cd10157	0.025513334
123	0xbc063a93	-0.008192676
124	0x3c84d83b	0.016216388
125	0x3cdc7c5a	0.026914764
126	0x3cd47a5d	0.025937254
127	0x3c066bc4	0.008204404
128	0xbb90f25a	-0.004423422
129	0xba607dd0	-0.00085636694
130	0xbb0afe86	-0.0021208837
131	0x3c361b27	0.011114872
132	0x3cd6f203	0.026238447
133	0xbbbbdba6	-0.0057329712
134	0x3a870cdf	0.0010303519
135	0xbba1dab8	-0.0049394034
136	0x3b183fc2	0.0023231362
137	0x3c462bbd	0.012095389
138	0x3c5e8457	0.013581357
139	0xbcbc3313	-0.022973573
140	0x3d105bdb	0.03524385
141	0xbcf3eac8	-0.029775038
142	0x3cf005fa	0.029299725
143	0x3ce56bab	0.028005442
144	0x3ad1277a	0.00159572
145	0x3c0f240f	0.008736624
146	0xba6b46a5	-0.00089750654
147	0x3be70403	0.007050039
148	0x3b46089e	0.0030217539
149	0x3cef88b7	0.029239995
150	0xbc32188c	-0.01087011
151	0x3d11a6e7	0.03555956
152	0xbb41be77	-0.0029562989
153	0xbc24a62b	-0.010049383
154	0xbb780148	-0.003784256
155	0xbb0250dc	-0.0019884622
156	0x3c09eaa8	0.008417763
157	0x3be515cb	0.0069911233
158	0x3c861ce5	0.0163712
159	0xbc96213f	-0.0183264
160	0xbb85e999	-0.004086685
161	0x3caaf1ad	0.020867193
162	0x3c8b0215	0.016968766
163	0xbc09678e	-0.008386506
164	0x3cdc7863	0.026912874
165	0xbcda8c4d	-0.026678229
166	0x3c8bab98	0.017049596
167	0xbadb4b8d	-0.001673089
168	0x3cb684f5	0.022280196
169	0x3c1ac313	0.009445923
170	0xbb772953	-0.003771384
171	0x3b2a85c3	0.002601967
172	0xbc1285d2	-0.008943038
173	0x3cebd19b	0.028786471
174	0x3b8e8679	0.0043495265
175	0xbc3bd28b	-0.011463772
176	0x3ca64d0f	0.020300416
177	0xbadef8e5	-0.0017011432
178	0xbc003b4d	-0.007826638
179	0x3c9ad4a7	0.018900229
180	0x3ad860d2	0.0016508347
181	0x3c0f5c77	0.008750073
182	0xbb1a3cd6	-0.0023534796
183	0xbb64d012	-0.0034914059
184	0xbc94993e	-0.018139478
185	0xbc2bedeb	-0.010493736
186	0x3bc6f2f3	0.0060714423
187	0x3ce103d0	0.027467638
188	0xbaf89d67	-0.0018967808
189	0xbcb2dc62	-0.021833602
190	0x3c464e21	0.012103588
191	0xbc996722	-0.018725935
192	0x3cd19a6a	0.025586326
193	0x3c90fc9f	0.017698584
194	0xbd02df1a	-0.031951047
195	0xbb441997	-0.002992248
196	0x3aef5367	0.0018259109
197	0x3c0f4852	0.00874527
198	0x3aaa423c	0.001298971
199	0xbc033a93	-0.008009571
200	0xbc9b3c49	-0.018949645
201	0xbaa3ff7b	-0.0012512052
202	0x3c579183	0.013157251
203	0xbbd153a5	-0.006388145
204	0xbafd1952	-0.0019309914
205	0x3caa5c3e	0.020795938
206	0xbbba1e12	-0.005679854
207	0x3c88d5e0	0.016703546
208	0xba34a21b	-0.00068906107
209	0x3c8bff52	0.01708952
210	0xbccd44db	-0.025057247
211	0xbc55ccbb	-0.0130493
212	0xbb284edb	-0.0025681767
213	0xbb468c5d	-0.0030296065
214	0x3bc4179f	0.005984261
215	0xbb5edf2d	-0.0034007535
216	0x3c647a2b	0.013945143
217	0xbb0acaa0	-0.0021177903
218	0x3c977acb	0.01849117
219	0x3ba2a80c	0.0049638804
220	0x3c87d743	0.016582137
221	0x3bea004a	0.0071411477
222	0xbc9a2292	-0.018815313
223	0xbabc7548	-0.0014378214
224	0x3bc84b43	0.0061124875
225	0x3be3eab8	0.006955471
226	0x3c8e59e4	0.017376848
227	0xbc4c71c3	-0.012478295
228	0xbaba2ee8	-0.0014204653
229	0xba112c1a	-0.00055378827
230	0xbc7faa9a	-0.015604639
231	0x3d09cade	0.033640735
232	0x3b4329de	0.0029779593
233	0xbc3f6abf	-0.011683165
234	0xbd005741	-0.03133321
235	0xbbcc0771	-0.006226473
236	0xbc779b53	-0.015112716
237	0xbc64bc65	-0.013960932
238	0x3cb2843c	0.02179157
239	0xbc2f08ec	-0.0106832795
240	0x3c089e5b	0.008338536
241	0xbc172d5c	-0.009227123
242	0x3c42086c	0.011842828
243	0xbb618640	-0.0034412295
244	0x3c82ebea	0.015981633
245	0x3ce63ead	0.028106058
246	0xbd072567	-0.032994654
247	0x3c291e32	0.0103221405
248	0x3ad7318a	0.0016417962
249	0x3c3693fa	0.011143679
250	0xbb479cd7	-0.0030458474
251	0xb9921ce6	-0.0002786882
252	0x3bb88cd6	0.0056320233
253	0xbc68044b	-0.01416118
254	0xbce3aeb0	-0.027793258
255	0xbd0f94bf	-0.035053965

network_body._body_endoder.seq_layers.0.bias f4 [128]
0	0x00000000	0.0
1	0x00000000	0.0
2	0x00000000	0.0
3	0x00000000	0.0
4	0x00000000	0.0
5	0x00000000	0.0
6	0x00000000	0.0
7	0x00000000	0.0
8	0x00000000	0.0
9	0x00000000	0.0
10	0x00000000	0.0
11	0x00000000	0.0
12	0x00000000	0.0
13	0x00000000	0.0
14	0x00000000	0.0
15	0x00000000	0.0
16	0x00000000	0.0
17	0x00000000	0.0
18	0x00000000	0.0
19	0x00000000	0.0
20	0x00000000	0.0
21	0x00000000	0.0
22	0x00000000	0.0
23	0x00000000	0.0
24	0x00000000	0.0
25	0x00000000	0.0
26	0x00000000	0.0
27	0x00000000	0.0
28	0x00000000	0.0
29	0x00000000	0.0
30	0x00000000	0.0
31	0x00000000	0.0
32	0x00000000	0.0
33	0x00000000	0.0
34	0x00000000	0.0
35	0x00000000	0.0
36	0x00000000	0.0
37	0x00000000	0.0
38	0x00000000	0.0
39	0x00000000	0.0
40	0x00000000	0.0
41	0x00000000	0.0
42	0x00000000	0.0
43	0x00000000	0.0
44	0x00000000	0.0
45	0x00000000	0.0
46	0x00000000	0.0
47	0x00000000	0.0
48	0x00000000	0.0
49	0x00000000	0.0
50	0x00000000	0.0
51	0x00000000	0.0
52	0x00000000	0.0
53	0x00000000	0.0
54	0x00000000	0.0
55	0x00000000	0.0
56	0x00000000	0.0
57	0x00000000	0.0
58	0x00000000	0.0
59	0x00000000	0.0
60	0x00000000	0.0
61	0x00000000	0.0
62	0x00000000	0.0
63	0x00000000	0.0
64	0x00000000	0.0
65	0x00000000	0.0
66	0x00000000	0.0
67	0x00000000	0.0
68	0x00000000	0.0
69	0x00000000	0.0
70	0x00000000	0.0
71	0x00000000	0.0
72	0x00000000	0.0
73	0x00000000	0.0
74	0x00000000	0.0
75	0x00000000	0.0
76	0x00000000	0.0
77	0x00000000	0.0
78	0x00000000	0.0
79	0x00000000	0.0
80	0x00000000	0.0
81	0x00000000	0.0
82	0x00000000	0.0
83	0x00000000	0.0
84	0x00000000	0.0
85	0x00000000	0.0
86	0x00000000	0.0
87	0x00000000	0.0
88	0x00000000	0.0
89	0x00000000	0.0
90	0x00000000	0.0
91	0x00000000	0.0
92	0x00000000	0.0
93	0x00000000	0.0
94	0x00000000	0.0
95	0x00000000	0.0
96	0x00000000	0.0
97	0x00000000	0.0
98	0x00000000	0.0
99	0x00000000	0.0
100	0x00000000	0.0
101	0x00000000	0.0
102	0x00000000	0.0
103	0x00000000	0.0
104	0x00000000	0.0
105	0x00000000	0.0
106	0x00000000	0.0
107	0x00000000	0.0
108	0x00000000	0.0
109	0x00000000	0.0
110	0x00000000	0.0
111	0x00000000	0.0
112	0x00000000	0.0
113	0x00000000	0.0
114	0x00000000	0.0
115	0x00000000	0.0
116	0x00000000	0.0
117	0x00000000	0.0
118	0x00000000	0.0
119	0x00000000	0.0
120	0x00000000	0.0
121	0x00000000	0.0
122	0x00000000	0.0
123	0x00000000	0.0
124	0x00000000	0.0
125	0x00000000	0.0
126	0x00000000	0.0
127	0x00000000	0.0

network_body._body_endoder.seq_layers.0.weight f4 [128, 75]
0	0x3e3bcd91	0.18340136
1	0x3d15e590	0.03659588
2	0xbd53268d	-0.051550437
3	0xbb774235	-0.0037728671
4	0xbb1033eb	-0.0022003602
5	0xbe2c47f8	-0.16824329
6	0x3cb109a0	0.021611035
7	0xbe0d0e5c	-0.13775009
8	0x3c989242	0.018624429
9	0x3d27e56d	0.04099028
10	0x3e48121e	0.19538161
11	0xbc4564d8	-0.012047969
12	0x3dcda371	0.100409396
13	0x3b0b5168	0.0021258239
14	0x3d9db0fe	0.07699774
15	0x3d361e31	0.044462387
16	0x3e2f1db7	0.17101179
17	0x3abf0f45	0.0014576694
18	0xbdc463a6	-0.09589319
19	0x3d8b9caf	0.068169944
20	0x3c841d4a	0.016127247
21	0x3e386455	0.18007024
22	0x3e18a97d	0.14908405
23	0x3e0a10cf	0.13482974
24	0xbd3c79e8	-0.046014696
25	0xbe62acd0	-0.22136235
26	0x3e34c0f0	0.17651725
27	0x3b5295d0	0.0032132752
28	0x3caf77e6	0.021419477
29	0xbe0da11f	-0.13830994
30	0xbbbfd4f0	-0.0058542415
31	0xbe3e06b4	-0.18557245
32	0x3e75ba0b	0.23996751
33	0xbe1421a1	-0.14465953
34	0xbd2c0b13	-0.04200275
35	0xbdb29cb5	-0.08721296
36	0xbdc6ab42	-0.097006336
37	0xbe44598f	-0.19174789
38	0xbd99aafc	-0.07503316
39	0x3e260abd	0.16215034
40	0xbe736418	-0.23768651
41	0xbe8ccf4f	-0.27501914
42	0x3cf8969f	0.03034526
43	0xbd8b8756	-0.06812923
44	0x3cc9113d	0.024544353
45	0x3dc55fa2	0.09637381
46	0xbe1da0fb	-0.1539344
47	0xbe018daa	-0.12651697
48	0xbe345a4f	-0.17612575
49	0xbe659bad	-0.22422667
50	0x3d05d13e	0.032670252
51	0xbd2d709c	-0.04234372
52	0xbdac884e	-0.084244356
53	0xbce9ce6d	-0.028540814
54	0xbd9f9828	-0.077926934
55	0xbda3e541	-0.08002711
56	0xbcd9f85f	-0.02660769
57	0x3d81fa17	0.06346529
58	0x3e2b28a0	0.16714716
59	0xbe0f8db2	-0.14018896
60	0xbc869838	-0.016430005
61	0x3dcf7cd3	0.1013123
62	0x3d1c7ff8	0.038207978
63	0x3c80f18a	0.015740175
64	0xbd66abeb	-0.056316298
65	0x3e7dc030	0.24780345
66	0x3d8f72cc	0.07004318
67	0xbca8fe3d	-0.020629043
68	0xbd23c66c	-0.03998415
69	0x3c6c3c06	0.014418608
70	0xbc42b1a1	-0.01188317
71	0x3d73e3fa	0.059543587
72	0xbccb514e	-0.024819043
73	0x3e276574	0.16347295
74	0x3da72349	0.08161027
75	0xbe4bf213	-0.19916563
76	0x3e195a7d	0.14975925
77	0xbd9c9d5e	-0.07647203
78	0x3d942276	0.072331354
79	0xbe098ea9	-0.13433327
80	0x3b37b17d	0.0028029375
81	0xbd575b3f	-0.052577253
82	0x3dbdc461	0.09265972
83	0xbd9fcb3a	-0.07802434
84	0x3dd52416	0.104072735
85	0x3e4634ac	0.1935603
86	0xbe16cc98	-0.14726484
87	0x3d19f400	0.037586212
88	0xbe52f8eb	-0.20602767
89	0x3c6e0061	0.0145264575
90	0xbdd76ce4	-0.10518816
91	0x3d176c1d	0.03696834
92	0xbd28cea3	-0.04121269
93	0xbd840d21	-0.06447817
94	0x3e3cf077	0.18451105
95	0xb987fccd	-0.00025937558
96	0xbd0eefa4	-0.034896508
97	0x3d8e4ce6	0.06948261
98	0x3e13ffc9	0.14453043
99	0x3ce8ddf3	0.028426146
100	0xbdaf402d	-0.085571624
101	0x3e0bd313	0.13654737
102	0xbdccc777	-0.099989824
103	0xbe009305	-0.12556084
104	0x3d084dbc	0.03327726
105	0xbdb0f5b4	-0.08640614
106	0x3e3e07b6	0.18557629
107	0xbdada9dc	-0.08479664
108	0x3e2e5eda	0.1702837
109	0xbd523c7c	-0.051327214
110	0xbb62d2e7	-0.003461057
111	0xbb4c5f4f	-0.0031184738
112	0x3dd97f01	0.10619927
113	0x3e4eae0e	0.20183584
114	0x3dce0dab	0.10061201
115	0x3d3253c4	0.043536916
116	0x3d4fdf45	0.050750036
117	0xbd81161e	-0.06303047
118	0x3d747be6	0.05968847
119	0xbd5df0de	-0.054184787
120	0xbe460c19	-0.19340552
121	0xbd713947	-0.058892515
122	0x3d6a7cd9	0.05724797
123	0x3e52df2a	0.20592943
124	0x3d23bc82	0.039974697
125	0xbdb17cc1	-0.08666373
126	0xbd1a31e0	-0.03764522
127	0xbd32b6e3	-0.043631446
128	0x3d54adb4	0.05192347
129	0xbcb64cfa	-0.022253502
130	0xbd0c61b1	-0.034272853
131	0xbc2f121a	-0.010685468
132	0x3dc6fad2	0.09715809
133	0x3dba163e	0.090862736
134	0x3e2985d6	0.1655496
135	0xbe52c9f0	-0.20584846
136	0xbd91c464	-0.07117537
137	0xbe880119	-0.26563337
138	0x3dc724bb	0.09723803
139	0xbd2924d3	-0.041294884
140	0x3da85f18	0.08221263
141	0x3da20002	0.07910158
142	0x3db8bf11	0.09020818
143	0x3e1179a1	0.14206554
144	0x3d3df94c	0.046380326
145	0xbc3b3b68	-0.011427738
146	0xbd66d34f	-0.056353863
147	0x3e02a20c	0.12757128
148	0xbd2b8ef5	-0.04188438
149	0x3ddd2a68	0.10799104
150	0x3dbd2a3c	0.09236571
151	0xbcfce5f5	-0.03087137
152	0xbdd20a9f	-0.10255932
153	0x3c88357a	0.016627062
154	0x3d15f587	0.036611106
155	0x3da9e58b	0.08295735
156	0xbdc140ec	-0.09436211
157	0x3ce0dfe7	0.027450515
158	0x3dc754e5	0.09732989
159	0xbbd5d75f	-0.0065259184
160	0xbdacd4c3	-0.084390186
161	0x3d4b9663	0.049703967
162	0x3d634c64	0.055492774
163	0xbc21265d	-0.009835807
164	0xbd39ba8e	-0.045343928
165	0xbdf266a3	-0.11835983
166	0xbdc4a595	-0.09601895
167	0xbd83a130	-0.064272285
168	0xbe25a4c6	-0.16176137
169	0xbcdd0727	-0.02698095
170	0xbceffef7	-0.029296381
171	0x3da3d34f	0.07999288
172	0xbdb16a2e	-0.0866283
173	0x3dd294b2	0.10282268
174	0xbd34f40c	-0.044178054
175	0xbbc638ef	-0.0060492675
176	0xbda011d9	-0.07815904
177	0x3cba98d2	0.022777949
178	0xbc45b3f8	-0.012066834
179	0xbd224ee7	-0.03962603
180	0xbdf4b7c5	-0.11949114
181	0xbcc6de3b	-0.02427589
182	0x3e305795	0.1722091
183	0x3d8da2a8	0.0691579
184	0xbe09dc77	-0.13463007
185	0x3e4041a8	0.18775046
186	0xbe12149d	-0.14265676
187	0xbdb1ef76	-0.08688252
188	0x3db93fd5	0.09045378
189	0xbd1c5339	-0.038165305
190	0xbd288510	-0.041142523
191	0xbe13f684	-0.14449507
192	0xbd0da369	-0.03457967
193	0x3dc90be0	0.09816718
194	0xbd299ac9	-0.04140738
195	0x3df6df24	0.120542794
196	0x3db17bd9	0.086662
197	0xbd35d193	-0.04438932
198	0x3e797b07	0.24363337
199	0xbd3e5a4f	-0.046472844
200	0x3d5a41ca	0.053285398
201	0x3e01af7b	0.12664597
202	0xbe5f9e80	-0.21837807
203	0x3d9ab951	0.075548775
204	0x3d758526	0.059941433
205	0x3e08dac4	0.13364702
206	0x3b172882	0.0023064916
207	0x3da4aa13	0.080402516
208	0xbd7ff2f1	-0.062487546
209	0x3c53b05b	0.012920464
210	0xbc85140d	-0.016244913
211	0xbd943874	-0.0723733
212	0x3d70cadf	0.058787223
213	0xbe19dad5	-0.15024884
214	0xbdc22f5a	-0.09481688
215	0xbda9c4ce	-0.08289491
216	0x3cd144a6	0.02554543
217	0xbdc3c3fe	-0.09558867
218	0xbca39fd4	-0.019973673
219	0xbd391018	-0.045181364
220	0xbc2ceca5	-0.010554467
221	0x3da6d535	0.08146135
222	0x3e89350b	0.2679828
223	0xbdfcfba9	-0.12352688
224	0x3c4702b5	0.0121466415
225	0xbdf4f4ca	-0.11960752
226	0xbe66cad0	-0.22538304
227	0xbe3237cc	-0.17404097
228	0xbda09e26	-0.078426644
229	0xbe0a992a	-0.1353499
230	0x3e109f07	0.14123164
231	0x3de348b8	0.110978544
232	0xbdb04451	-0.0860678
233	0xbca642cd	-0.020295525
234	0xbe28edc4	-0.1649695
235	0xbd66e237	-0.05636808
236	0x3d02ada8	0.031903893
237	0x3c2db42c	0.010602038
238	0x3e2e6287	0.17029773
239	0xbe063472	-0.13105944
240	0xbe03dadc	-0.12876457
241	0x3d328d5e	0.04359185
242	0xbea8b9bf	-0.32954213
243	0xbd59114d	-0.052995015
244	0xbe1b4991	-0.15164782
245	0x3e244722	0.1604276
246	0xbdb71f16	-0.08941476
247	0xbd80019a	-0.062503055
248	0xbdcf8947	-0.101336055
249	0x3e1f1823	0.15536551
250	0xbe1c3f2f	-0.15258478
251	0x3b8641f0	0.004097216
252	0x3ba98702	0.005173565
253	0x3beaf82e	0.0071706986
254	0x3dae155f	0.0850017
255	0xbd7ee7ad	-0.062232662

network_body._body_endoder.seq_layers.2.bias f4 [128]
0	0x00000000	0.0
1	0x00000000	0.0
2	0x00000000	0.0
3	0x00000000	0.0
4	0x00000000	0.0
5	0x00000000	0.0
6	0x00000000	0.0
7	0x00000000	0.0
8	0x00000000	0.0
9	0x00000000	0.0
10	0x00000000	0.0
11	0x00000000	0.0
12	0x00000000	0.0
13	0x00000000	0.0
14	0x00000000	0.0
15	0x00000000	0.0
16	0x00000000	0.0
17	0x00000000	0.0
18	0x00000000	0.0
19	0x00000000	0.0
20	0x00000000	0.0
21	0x00000000	0.0
22	0x00000000	0.0
23	0x00000000	0.0
24	0x00000000	0.0
25	0x00000000	0.0
26	0x00000000	0.0
27	0x00000000	0.0
28	0x00000000	0.0
29	0x00000000	0.0
30	0x00000000	0.0
31	0x00000000	0.0
32	0x00000000	0.0
33	0x00000000	0.0
34	0x00000000	0.0
35	0x00000000	0.0
36	0x00000000	0.0
37	0x00000000	0.0
38	0x00000000	0.0
39	0x00000000	0.0
40	0x00000000	0.0
41	0x00000000	0.0
42	0x00000000	0.0
43	0x00000000	0.0
44	0x00000000	0.0
45	0x00000000	0.0
46	0x00000000	0.0
47	0x00000000	0.0
48	0x00000000	0.0
49	0x00000000	0.0
50	0x00000000	0.0
51	0x00000000	0.0
52	0x00000000	0.0
53	0x00000000	0.0
54	0x00000000	0.0
55	0x00000000	0.0
56	0x00000000	0.0
57	0x00000000	0.0
58	0x00000000	0.0
59	0x00000000	0.0
60	0x00000000	0.0
61	0x00000000	0.0
62	0x00000000	0.0
63	0x00000000	0.0
64	0x00000000	0.0
65	0x00000000	0.0
66	0x00000000	0.0
67	0x00000000	0.0
68	0x00000000	0.0
69	0x00000000	0.0
70	0x00000000	0.0
71	0x00000000	0.0
72	0x00000000	0.0
73	0x00000000	0.0
74	0x00000000	0.0
75	0x00000000	0.0
76	0x00000000	0.0
77	0x00000000	0.0
78	0x00000000	0.0
79	0x00000000	0.0
80	0x00000000	0.0
81	0x00000000	0.0
82	0x00000000	0.0
83	0x00000000	0.0
84	0x00000000	0.0
85	0x00000000	0.0
86	0x00000000	0.0
87	0x00000000	0.0
88	0x00000000	0.0
89	0x00000000	0.0
90	0x00000000	0.0
91	0x00000000	0.0
92	0x00000000	0.0
93	0x00000000	0.0
94	0x00000000	0.0
95	0x00000000	0.0
96	0x00000000	0.0
97	0x00000000	0.0
98	0x00000000	0.0
99	0x00000000	0.0
100	0x00000000	0.0
101	0x00000000	0.0
102	0x00000000	0.0
103	0x00000000	0.0
104	0x00000000	0.0
105	0x00000000	0.0
106	0x00000000	0.0
107	0x00000000	0.0
108	0x00000000	0.0
109	0x00000000	0.0
110	0x00000000	0.0
111	0x00000000	0.0
112	0x00000000	0.0
113	0x00000000	0.0
114	0x00000000	0.0
115	0x00000000	0.0
116	0x00000000	0.0
117	0x00000000	0.0
118	0x00000000	0.0
119	0x00000000	0.0
120	0x00000000	0.0
121	0x00000000	0.0
122	0x00000000	0.0
123	0x00000000	0.0
124	0x00000000	0.0
125	0x00000000	0.0
126	0x00000000	0.0
127	0x00000000	0.0

network_body._body_endoder.seq_layers.2.weight f4 [128, 128]
0	0xbd1207d6	-0.035652004
1	0xbde71c18	-0.11284655
2	0xbc6d36df	-0.014478414
3	0x3c578043	0.013153139
4	0x3c2deaea	0.01061509
5	0x3e1e1d1c	0.15440792
6	0x3d06bfeb	0.03289787
7	0x3e037e3d	0.12841125
8	0xbd4e758a	-0.050405063
9	0x3db01ec0	0.08599615
10	0xbe3faa97	-0.18717419
11	0xbbc3bfbc	-0.0059737843
12	0xbd98b56e	-0.0745648
13	0xbc33d980	-0.010977149
14	0x3c553f1a	0.013015533
15	0x3e21b6e5	0.15792425
16	0x3e25da7c	0.16196626
17	0x3dd7370b	0.105085455
18	0xbc3e7c75	-0.011626353
19	0xbe3ecb2b	-0.1863219
20	0xbd293f32	-0.041320033
21	0x3e20496c	0.15653008
22	0x3de02721	0.10944963
23	0xbc8cb25f	-0.017174898
24	0x3d5206d9	0.05127606
25	0x3be12cb2	0.006871783
26	0xbc9bc7d0	-0.019016176
27	0x3d5f7a5a	0.054560043
28	0xbcd2a878	-0.025715098
29	0x3c90e431	0.017686935
30	0x3da5aea7	0.08089953
31	0xbe0282b8	-0.12745178
32	0xbaa0b349	-0.0012260462
33	0xbe03875f	-0.12844609
34	0x3c7ac11a	0.015304828
35	0x3d66eff8	0.056381196
36	0xbc258c5f	-0.010104268
37	0x3c15b183	0.00913656
38	0xbbbeb7da	-0.0058202567
39	0xbd6b9dbb	-0.05752347
40	0x3d6b619f	0.057466146
41	0x3de29214	0.110630184
42	0xbd28d68e	-0.04122024
43	0x3bb4d774	0.005518848
44	0x3e02ae95	0.1276191
45	0xbda93cef	-0.08263575
46	0x3d86ec67	0.06588059
47	0xbc545be2	-0.01296136
48	0x3c45b55e	0.012067167
49	0xbd9ad510	-0.0756017
50	0xbd82edf7	-0.063930444
51	0x3c9eb504	0.019373424
52	0xbd956216	-0.07294099
53	0x3d1c7499	0.038197134
54	0x3e0fc2c5	0.14039142
55	0xbda15802	-0.07878114
56	0x3dc9d534	0.098551184
57	0xbdc37f18	-0.095457256
58	0xbd70855b	-0.058720928
59	0x3e402be9	0.1876675
60	0x3cc8e820	0.024524748
61	0x3e0a85b7	0.1352757
62	0xbe2238f9	-0.15842046
63	0xbe269aca	-0.16269985
64	0x3ba5618e	0.00504703
65	0x3ddb221b	0.106998645
66	0x3d149c7b	0.036282044
67	0x3cd5ce3f	0.026099322
68	0xbd2bdb26	-0.041957043
69	0x3dd65811	0.10466016
70	0x3d9a82e8	0.075445
71	0x3ddca2d5	0.10773245
72	0x3e1ff9e2	0.15622666
73	0xbe07c45a	-0.13258496
74	0x3c8da10c	0.017288707
75	0xbccd71e2	-0.025078718
76	0xbcdd8f99	-0.027046012
77	0xbbf627b4	-0.007512057
78	0x3cac4b17	0.0210319
79	0x3d89f53b	0.06736227
80	0x3d8ee2ac	0.06976828
81	0x3bda7b4d	0.0066675306
82	0xbdf1bbb7	-0.11803382
83	0xbcae5263	-0.02127952
84	0x3c81c2ec	0.015840016
85	0x3de6dd88	0.112727225
86	0xbbe685a8	-0.007034976
87	0xbdef70fd	-0.11691473
88	0x3d16f6fd	0.03685664
89	0xbd947673	-0.07249155
90	0x3de3365f	0.11094355
91	0xbd4c1d23	-0.049832474
92	0x3d9d1749	0.07670457
93	0xbd9b5032	-0.075836554
94	0x3e05328b	0.13007562
95	0x3dfffcf8	0.12499422
96	0x3ea43ab4	0.32076037
97	0x3d175948	0.03695038
98	0xbdc52c0f	-0.09627544
99	0x3ba1d671	0.0049388935
100	0x3d83bd08	0.06432539
101	0xbc8faafb	-0.017537585
102	0x3e24a00c	0.16076678
103	0x3e29c8f9	0.16580571
104	0xbd7d345a	-0.061817504
105	0x3d0008ac	0.03125827
106	0xbd762c62	-0.06010092
107	0x3d38f024	0.04515089
108	0x3deaebbb	0.11470743
109	0x3d5bc6df	0.053656455
110	0x3dbd15e9	0.09232695
111	0x3e4d0408	0.20021069
112	0x3cb72bfc	0.02235984
113	0x3c63ce88	0.013904221
114	0x3e01e87e	0.12686345
115	0x3e2a0472	0.16603258
116	0x3c4644ad	0.0121013345
117	0x3e8fe26c	0.28102434
118	0xbdf7c33b	-0.12097784
119	0x3e290298	0.16504896
120	0x3d2bf6a9	0.04198328
121	0xbd941ffb	-0.07232662
122	0x3c828f98	0.015937611
123	0x3defcace	0.11708604
124	0x3e59efbb	0.21282856
125	0x3ab52e5c	0.001382302
126	0xbd8b3d24	-0.06798771
127	0xbdd82c3a	-0.105553105
128	0x3e161d3c	0.1465959
129	0xbd0dd747	-0.034629133
130	0x3db5a937	0.08870166
131	0x3da07c7c	0.078362435
132	0xbda68595	-0.081309475
133	0xbda41ae5	-0.08012942
134	0xbdfe83ec	-0.12427506
135	0x3c1436c9	0.009046265
136	0x3ca431ea	0.020043332
137	0x3ccebc9f	0.025236426
138	0x3dec83db	0.11548587
139	0xbda9c72a	-0.08289941
140	0xbda2726f	-0.07931983
141	0xbe295810	-0.165375
142	0xbd1ede42	-0.03878618
143	0x3d90d67a	0.07072158
144	0xbd2a0ec8	-0.041518003
145	0xbd8f7741	-0.07005168
146	0x3c9c814c	0.019104622
147	0xbdba5c46	-0.09099631
148	0x3c0ee1a8	0.008720793
149	0x3d4f351b	0.050587755
150	0xbd558f98	-0.052138895
151	0x3db103ed	0.08643327
152	0x3c06566f	0.008199318
153	0xbc020355	-0.007935365
154	0x3db47695	0.0881168
155	0xbd437ef3	-0.04772849
156	0xbd5ac6c7	-0.053412225
157	0xbdd318ca	-0.103074625
158	0xbd486ba4	-0.04893078
159	0xbb5c41ec	-0.0033608628
160	0xbd0bf25b	-0.034166675
161	0x3dcb7564	0.099345
162	0x3e2db3e9	0.16963162
163	0x3dd9d1f7	0.10635751
164	0xbbd1a58c	-0.0063979086
165	0x3e033c17	0.12815891
166	0x3e3d94f8	0.18513858
167	0xbc898721	-0.016788067
168	0xbdada67a	-0.084790185
169	0x3da9ce9d	0.082913615
170	0x3d064c62	0.032787688
171	0xbd7bb531	-0.061452094
172	0x3d66e4d8	0.056370586
173	0xbd935bca	-0.07195242
174	0x3d8d077b	0.068861924
175	0x3e319868	0.17343295
176	0x3de6d5e3	0.112712644
177	0x3dcc92be	0.09988926
178	0xbd41d25d	-0.04731976
179	0x3ddfc4f1	0.109262355
180	0xbd0381af	-0.032106098
181	0x3e1316e7	0.14364205
182	0xbd9848a5	-0.07435731
183	0xbe1956f0	-0.1497457
184	0x3ac94a54	0.0015357235
185	0xbc1c1191	-0.0095256725
186	0xbd08c330	-0.03338927
187	0xbc4ecabb	-0.012621577
188	0x3dee851a	0.11646481
189	0x3e09c45d	0.13453813
190	0x3dbd0974	0.09230319
191	0x3cbafda3	0.022826022
192	0x3dc3fc9f	0.09569668
193	0xbd8ee209	-0.069767065
194	0xbe961f6f	-0.29320857
195	0xbde03115	-0.10946862
196	0x3c35f7a1	0.011106403
197	0xbc4eb167	-0.012615538
198	0x3e4f87b3	0.20266609
199	0xbd0f9abc	-0.035059676
200	0x3bd24ff7	0.006418224
201	0xbbd0c027	-0.0063705626
202	0xbdf0958f	-0.11747276
203	0xbda615d6	-0.081096336
204	0x3c4c5fc9	0.012474009
205	0x3d1a4050	0.03765899
206	0x3e0b4701	0.13601305
207	0xbcd41d16	-0.025892776
208	0xbdf9eba5	-0.12203149
209	0xbd52df4b	-0.05148248
210	0xbe02d31a	-0.12775841
211	0x3d998ac9	0.07497174
212	0x3bb2f7c2	0.005461664
213	0x3e018ea9	0.12652077
214	0xbd99b0b4	-0.075044066
215	0xbda412fd	-0.08011434
216	0xbda5aed8	-0.080899894
217	0x3d2f7f87	0.04284623
218	0xbd910cd9	-0.070825286
219	0x3ceca324	0.028886385
220	0xbdda5f64	-0.106627256
221	0x3d0a4a1d	0.033762086
222	0xbdbe7563	-0.092997335
223	0xbdb806d5	-0.08985678
224	0x3d8db874	0.06919947
225	0x3ce438be	0.027859088
226	0xbdce8aa8	-0.1008504
227	0xbd79872e	-0.060919933
228	0xbdaa198e	-0.083056554
229	0x3d968f07	0.07351499
230	0x3c84f070	0.01622793
231	0xbc1fcadf	-0.009752958
232	0x3d4eae49	0.05045918
233	0xbddea1e3	-0.10870721
234	0xbdddf355	-0.108374275
235	0xbd8991da	-0.06717272
236	0xbd01cda2	-0.031690247
237	0xbd84cf4e	-0.06484853
238	0x3dd1af3d	0.10238502
239	0xbdee113b	-0.1162438
240	0x3dd6036c	0.104498714
241	0x3da59407	0.080848746
242	0x3e489752	0.19588974
243	0x3cd27e55	0.025695005
244	0x3d7b5a4d	0.061365414
245	0x3db0e0b4	0.08636609
246	0x3d6bd725	0.057578225
247	0xbcea8c14	-0.028631248
248	0xbd34fb70	-0.044185102
249	0xbcf738a3	-0.030178374
250	0xbd1e9118	-0.03871259
251	0xbd7e1f85	-0.062041778
252	0x3dad48ec	0.08461174
253	0xbd38eed8	-0.045149654
254	0x3ce5ac18	0.028036162
255	0x3c72c9b8	0.014818601
