Unity Project/CSC 30014 Project/results/tester/Car/Car-98029.onnx (onnx, 92134 bytes, 7 tensors)

action_model._continuous_distribution.log_sigma f4 [1, 2]
000000 e6 4d 37 be 5c cd 6c be
       -0.1790081 -0.23125213

action_model._continuous_distribution.mu.bias f4 [2]
000000 c2 9e 62 bb ce b9 0e 3d
       -0.003457949 0.034845166

action_model._continuous_distribution.mu.weight f4 [2, 128]
000000 38 6b 7c 3d 4c e2 09 bd 48 71 ab bd 90 c9 e9 39
       0.06162569 -0.03366308 -0.08371216 0.000445914
000010 93 6f 37 bb fc d0 3e bd 49 f3 01 3e 0c c2 d6 bd
       -0.0027990087 -0.04658602 0.12690462 -0.1048623
000020 92 5b 81 3c 88 b7 92 bc a7 88 1a bd 5b 59 83 3d
       0.015790734 -0.01790978 -0.037727978 0.064135276
000030 9b 60 b6 3d a1 16 c2 3b 8b 02 d3 bc 52 54 84 3d
       0.08905145 0.0059231077 -0.025758049 0.06461395
000040 df e6 ed 3d 8d d6 7b 3b e0 04 41 3d ae 8b 9e 3b
       0.11616301 0.0038427443 0.04712379 0.0048384285
000050 fc 75 e0 3c 56 47 ba bc 01 f4 97 bb a1 d0 b6 3c
       0.02740001 -0.022739094 -0.004637242 0.022316279
000060 e9 71 8a 3d 4e 97 53 3d 55 62 6a 3d ba a3 72 bd
       0.06760008 0.051657967 0.057222683 -0.059238173
000070 28 81 8a 3d b2 10 6b 3d ba 1b d7 3c fe 01 e6 3c
       0.06762916 0.05738897 0.026258338 0.028077122
000080 86 6c ad 3d 3e 51 d7 bd 25 e4 16 3d 95 48 39 3a
       0.08467965 -0.105135426 0.03683867 0.00070680055
000090 af 0d 39 3d 39 78 53 3c 30 51 51 3d 6a 8a 6c bd
       0.045179065 0.012907081 0.051102817 -0.05774919
0000a0 6b 18 b5 3b 2c 3e 8c 3c 9e 4e 1c bd 3e db 68 3d
       0.0055265925 0.01711949 -0.038160913 0.05684971
0000b0 30 e3 b9 3c 8b 51 8b 3d 8f 62 31 3d 0d bc 71 3d
       0.02269134 0.068026625 0.043306883 0.05901723
0000c0 db 15 ac bc d7 4f ae 3c 14 00 5e bd 13 84 b2 3c
       -0.021006515 0.021278305 -0.054199293 0.021791494
0000d0 07 a0 d6 3c 88 33 17 bd 53 db b9 3c d5 61 26 3d
       0.026199354 -0.03691438 0.02268759 0.040620644
0000e0 d0 e2 82 bc b8 f1 48 bd 59 dc 55 3a f6 b6 95 3c
       -0.015977293 -0.049058646 0.00081581395 0.01827572
0000f0 93 27 2c bc e0 f5 de bb 6b 37 4e bc a8 f7 64 3b
       -0.010507482 -0.006804213 -0.012586455 0.0034937654
000100 ee f9 b2 3c 4a 40 ca 3d 93 c2 57 3a 84 92 a6 bb
       0.021847691 0.098755434 0.0008230593 -0.005083384
000110 bc 27 c8 bc 50 be 8c 3c b2 52 03 bb 75 05 db 3c
       -0.02443301 0.017180592 -0.0020038304 0.026736
000120 cb 40 4c bc 8a e7 db bc 39 5c 49 3d c0 b7 50 3b
       -0.01246662 -0.026843805 0.049160216 0.0031847805
000130 47 12 48 3d 35 ca c7 bb 09 95 3f 3d f9 10 6c bd
       0.048845556 -0.006097103 0.04677299 -0.057633374
000140 8f 3a cb 3d bf e4 a3 3c 12 b6 78 3c c2 f7 55 3c
       0.099232785 0.020006536 0.015180128 0.013059558
000150 b1 27 ae 3b ee 0f 1b 3d 92 3a 65 3d 49 5e 45 3d
       0.00531479 0.03785699 0.05596406 0.04818562
000160 d5 fb b9 3d ec 35 d9 bd bb d5 10 3d 58 68 2b bd
       0.09081236 -0.10605988 0.03536008 -0.041847557
000170 12 d3 2d 3d d1 b6 e3 3d f0 f0 e2 bc 41 cd b0 3d
       0.04243762 0.11118854 -0.027702779 0.08632899
000180 88 c4 52 3d 2c 27 ac 3d 93 61 4a bb 85 08 6a 3d
       0.051456958 0.08405909 -0.0030880913 0.05713703
000190 c9 44 7a 3c 0b b3 4c 3d 45 17 52 3d af 33 ff ba
       0.015275189 0.049975436 0.051291723 -0.0019470359
0001a0 26 82 c4 3d e6 67 ae 3c f2 39 a3 3d 21 36 88 bc
       0.09595136 0.021289777 0.079700366 -0.016627373
0001b0 9b 0d db bc 86 06 3c bd 57 4e f0 3c 91 97 4b 3c
       -0.026739886 -0.04590466 0.02933423 0.012426273
0001c0 95 77 24 3d b6 d0 47 bd 63 9f 31 3c 2f c4 ef bc
       0.040153105 -0.048783027 0.010841223 -0.029268352
0001d0 a7 5c 5e 3d d5 db ba 3d 3b ac 90 bd 46 df ef bb
       0.05428758 0.09123961 -0.070641 -0.0073203174
0001e0 90 a7 4f bc 77 80 82 3d 6c 7a 57 3d 30 d2 25 bd
       -0.012674227 0.06372159 0.052606985 -0.040483654
0001f0 20 6b 33 3d 5f 99 03 3d 37 5e b1 bc 6c 8d 48 bd
       0.043803334 0.032128688 -0.02165137 -0.048962995
000200 ea 4a b0 3d 53 56 55 bd 94 d6 7e bc a5 5c e8 bc
       0.08608039 -0.05208428 -0.015554089 -0.028364489
000210 dc 1d 0d 3d e3 03 6d bd 91 da 29 3d 57 81 f4 bc
       0.034452304 -0.057865035 0.041468207 -0.02984683
000220 40 90 74 bd 03 f0 a9 3d 18 f6 12 bb 9b c5 90 3d
       -0.05970788 0.08297732 -0.0022424515 0.0706894
000230 a9 f3 98 3d f3 5b 80 3d 6f a7 bd 3d 9d 2a f3 3d
       0.074683495 0.06267538 0.09260451 0.11873362
000240 0c 2c 9b 3d c7 f5 6e bd 70 b3 8e 3d 27 6f 8d bd
       0.07576761 -0.05833986 0.06967819 -0.06905966
000250 50 b6 d3 bd 5b 36 b3 bd 5b 76 27 bd ea 43 d3 3d
       -0.10337508 -0.08750602 -0.040884357 0.10315688
000260 ab f2 a3 3d 19 66 a7 bd ed 78 2b 3d 79 97 dd 3d
       0.080052696 -0.081737705 0.04186337 0.10819907
000270 53 10 87 3d 3c ea 14 3e 8e 4a ce bc c7 28 f1 3d
       0.065949105 0.14542478 -0.025182035 0.11775356
000280 ae 6e 23 3e 47 e9 b5 3d 84 28 a3 3d 9d 02 50 bd
       0.1596019 0.08882385 0.07966712 -0.050783742
000290 bb 84 b8 3d 79 e1 3b bd 9f 92 ce 3c 6a bb 4f 3c
       0.09009691 -0.045869324 0.025216399 0.01267896
0002a0 10 e8 80 bd 88 d2 3f 3c ba 9d ad 3c 92 14 87 3d
       -0.062942624 0.011707909 0.021193374 0.0659572
0002b0 62 12 3a 3d 74 d9 11 3d 3e bc 9c bd 3c 08 a3 3d
       0.045427687 0.03560777 -0.07653092 0.07960555
0002c0 6a a7 1d 3d d6 1d 38 bc 43 df 69 bc 6c 9b 13 bd
       0.038489737 -0.011237582 -0.014274421 -0.036036894
0002d0 08 fd f3 3d 5e b4 d7 bc 1e 63 b0 bd 8d 4f 48 3d
       0.11913496 -0.026331123 -0.08612655 0.04890399
0002e0 3b 87 7f 3d 43 9e 2c 3c d6 2b 90 bd 60 29 b3 bd
       0.062384825 0.010535779 -0.07039611 -0.08748126
0002f0 d0 68 5e bd 14 9a 77 bd 2d 1b 63 bd 2e e2 89 bd
       -0.054299176 -0.060449675 -0.05544584 -0.067325935
000300 5a 85 73 bd 14 6f d4 3d dd b6 61 bd 44 dc 19 bd
       -0.059453346 0.10372749 -0.055106033 -0.037563577
000310 88 93 42 bd 52 9e ad 3d c5 dd 89 3d 6c 92 e1 bd
       -0.047503978 0.08477463 0.06731752 -0.11014256
000320 e9 e8 37 bd 5d a8 3f 3c 4e 2e d3 3d 59 c1 09 3e
       -0.044899855 0.011697856 0.10311566 0.13452663
000330 ba c3 86 3d e0 a0 54 bd 4b 9f e1 3c b2 1e ac 3c
       0.06580301 -0.051911235 0.027541777 0.02101073
000340 1b 5e a2 3d 9d b6 0e bd 32 5b 52 bd 15 38 50 bd
       0.079281054 -0.034842122 -0.051356502 -0.050834734
000350 c7 e1 5c bd f3 79 e1 bb 0e 75 97 3d 41 90 bb 3d
       -0.053926256 -0.0068809926 0.07395373 0.091583736
000360 aa a6 6c 3d 99 ec ff 3c 99 8b 04 bd 16 e1 80 3d
       0.05777613 0.031240748 -0.032359693 0.06292932
000370 d5 5b 92 3d 88 d0 a5 3c 20 37 60 bd 1e 5d 9c 3d
       0.07146422 0.020241037 -0.05474007 0.07634948
000380 4a bd 1e 3d 0b 74 1b 3e 48 48 31 bd 81 57 02 3e
       0.03875474 0.15180986 -0.043281823 0.12728693
000390 65 0d b2 bd 99 0a 3c 3d b3 0e 79 bd 04 63 4d bd
       -0.08693961 0.045908544 -0.060805034 -0.050143257
0003a0 40 ee 53 bd c0 38 76 bd 21 4e fb 3d 0c 3c 86 3d
       -0.051740885 -0.060112715 0.12270761 0.06554422
0003b0 00 3c d4 bc 13 cc 83 bd 88 ce 01 3e d4 e5 99 3b
       -0.025907516 -0.064354084 0.12676442 0.004696587
0003c0 c1 cb 07 3d 0e e8 2a bc 3d f8 40 bd e6 af e2 3d
       0.0331533 -0.010431303 -0.04711174 0.11068706
0003d0 13 2d 8f 3c 00 ec da 3d 58 1e 58 3b 0a 7b 76 bd
       0.017477548 0.10689545 0.003297707 -0.060175933
0003e0 a7 57 6b bd 9c dd 68 3c 11 b4 a6 3d d8 db 04 bc
       -0.05745664 0.014212992 0.08139814 -0.008109055
0003f0 ae ca 31 3d 9c 13 89 bd 5a c6 3d bd e6 07 4d bc
       0.04340618 -0.06693193 -0.04633174 -0.01251409

network_body._body_endoder.seq_layers.0.bias f4 [128]
000000 7a a6 36 bd 8c 3f 3e bd 41 f5 91 bd 54 28 fc 3c
       -0.04459236 -0.04644732 -0.071268566 0.030780949
000010 9e d4 ac 3c 02 52 47 3d 38 47 e1 bd ca 90 f3 bc
       0.021097478 0.048662193 -0.10999912 -0.029732127
000020 34 2c 5d 3d ea a4 f0 3c e7 9e 86 3c ee 37 0b bd
       0.053997234 0.029375512 0.016433192 -0.033988886
000030 70 20 ac 3c 01 06 61 3d e2 31 9d 3d 25 11 dc 3c
       0.021011561 0.054937366 0.0767553 0.026863644
000040 32 bd 02 bd 48 51 f8 bc c6 56 8d bd 70 9b f2 bd
       -0.031918712 -0.030312195 -0.06901316 -0.118460536
000050 c9 ad 81 ba 7a c1 5f bd c9 57 fa bc 04 04 82 3d
       -0.0009893711 -0.054627873 -0.030559437 0.06348422
000060 47 e6 cc 3c 1b d7 6c bd 5a 53 5c 3c 4f 57 0d bd
       0.025012149 -0.057822328 0.013447607 -0.034507092
000070 ec 18 27 3c a3 31 fa 3c 8d d5 cb bd e6 8a 86 bd
       0.010198813 0.030541247 -0.09952841 -0.065694615
000080 9e de 16 3d 22 7a 63 3d f3 83 e9 bc 4f 11 8d 3c
       0.036833398 0.055536397 -0.028505301 0.017220167
000090 2b cc ea bc c2 77 2f 3d 2d 9b 30 bd e2 ac 01 bd
       -0.028661808 0.04283882 -0.043116737 -0.031659015
0000a0 f5 76 8b bd 76 eb 6f bd 87 a8 7e bd c9 d0 02 be
       -0.06809799 -0.058574162 -0.06217244 -0.12774958
0000b0 06 7a 96 bc 42 2d 8e bd f7 90 75 3d 62 58 f6 3d
       -0.018368732 -0.06942226 0.059952702 0.120285764
0000c0 ec f8 98 bd 3e f4 dd bc 22 f3 9f bd cc 9b 65 3d
       -0.07469353 -0.027094003 -0.07810046 0.056056783
0000d0 0c ff b3 3c f7 83 5b 3c fb e6 93 3d b6 f8 99 3d
       0.021972202 0.013398162 0.072217904 0.07518141
0000e0 39 2a 35 3d 17 1a e6 3b fb 45 80 bd 69 b5 02 3d
       0.04422972 0.007022153 -0.06263348 0.031911287
0000f0 6c ac 52 3a d0 be 6c 3d 75 b2 07 3b 09 b5 eb bd
       0.0008036557 0.05779916 0.0020705734 -0.11509139
000100 73 31 7d bb 02 fb bf bc 99 31 bf 3d 3e 94 f6 3c
       -0.003863421 -0.02343512 0.09335632 0.030099984
000110 37 1f af 3d 36 7b 7c bd 86 dd 51 3c 78 39 24 3d
       0.08550876 -0.06164094 0.012809163 0.04009387
000120 63 d5 f4 3c d3 08 87 bd 23 f2 d1 3d aa 59 2d bd
       0.029886907 -0.0659348 0.10251262 -0.04232184
000130 3c 0e 2b bd 92 2a b4 3d c4 d1 47 bc bd 3d 35 3d
       -0.04176162 0.08797182 -0.012196008 0.04424833
000140 5e 4c 63 3d 87 e5 0d bd c2 9e 3e 3d 8f d6 00 bd
       0.05549275 -0.034642722 0.046538122 -0.03145462
000150 a1 30 f3 bd 6a 79 86 bd 3c 1a 0e 3e 8b 15 c9 bd
       -0.118745096 -0.06566127 0.13877195 -0.09818562
000160 3c a8 88 bc dd 59 da 3d 2e 8e 20 3d 3b d1 93 bd
       -0.016681783 0.10661671 0.039198093 -0.07217642
000170 44 c0 25 bd 8c f0 56 bd 3e 51 f9 3a 7d 01 8f 3d
       -0.040466562 -0.052475497 0.0019021404 0.06982706
000180 95 8d ce 3d 8e 02 6a bd 8c 5e 65 bd 9c 42 24 bd
       0.100855984 -0.057131343 -0.05599837 -0.040102586
000190 11 5b 26 bd ac c3 ba 3d e6 ff 7d 3d 6a ce b2 3d
       -0.04061419 0.09119353 0.062011622 0.087307766
0001a0 95 00 99 3d 71 4a 9d 3d 86 68 91 bd 09 88 58 bb
       0.07470814 0.07680214 -0.071000144 -0.0033040068
0001b0 ba 64 84 3c 14 db 63 3d a3 5e b5 3d 9f fc aa bb
       0.016161311 0.05562885 0.08855941 -0.005218103
0001c0 a5 12 e3 3c f2 4f 12 bd df 62 6c bd 72 80 3e bd
       0.027718851 -0.035720773 -0.05771148 -0.046509214
0001d0 9e 63 ba 3d fd a1 96 3d 93 20 30 bd 0d e5 21 bd
       0.09101032 0.073551156 -0.042999815 -0.03952508
0001e0 35 68 07 bd fd 20 b2 3d 47 32 05 3e a0 5a 4b 3d
       -0.033058364 0.08697698 0.1300746 0.049646974
0001f0 ac 01 69 bd f7 18 eb 3c da f7 16 bd f5 a7 65 3d
       -0.05688636 0.028698428 -0.036857463 0.05606838

network_body._body_endoder.seq_layers.0.weight f4 [128, 44]
000000 cc 71 00 3c 05 bd 9b bd 3e c1 3a 3e 5a 2b d8 3d
       0.007839631 -0.07604412 0.18237779 0.10555144
000010 6c 9e bc bd 26 18 a1 bc c6 0b 9b bd c9 16 77 3d
       -0.09209904 -0.019664835 -0.07570605 0.060324464
000020 47 07 e6 3d b8 86 d3 bd 1c 87 b6 3d d5 4a 27 bd
       0.11231857 -0.1032843 0.08912489 -0.04084285
000030 7d 00 97 3d 95 ac 09 3e 92 43 13 be 37 3c 02 be
       0.0737314 0.13444741 -0.14381245 -0.12718283
000040 06 2f 8e 3e 30 dd 3d be f5 07 fc 3c 45 f7 a7 3e
       0.2777025 -0.18541408 0.030765513 0.3280584
000050 29 5a 11 3e f6 c8 91 bd 0c 67 69 bc 63 32 f4 bd
       0.1419455 -0.071184084 -0.01424576 -0.11923673
000060 6e 7a 08 bc 1e 74 43 3d 21 cd 68 3d 97 43 9a 3e
       -0.008329971 0.04771816 0.05683625 0.30129692
000070 46 30 9d bd 5e 66 4c be d9 6c 26 be dd a6 5d 3d
       -0.07675223 -0.19960925 -0.1625246 0.05411421
000080 53 92 bd 3d 9c 11 0a be 30 3f 99 3e e7 17 80 3e
       0.09256425 -0.1348328 0.2993102 0.25018236
000090 b7 08 d4 bc 81 25 5e be a4 db 75 bd fa 10 21 be
       -0.025883062 -0.21693994 -0.06002392 -0.15729132
0000a0 c3 e4 d0 3d 42 ca 37 bd b2 d8 46 3e 8b fb 17 3d
       0.10199883 -0.044870622 0.194186 0.037105124
0000b0 42 24 e5 3b ed 4b 79 be 70 91 11 be e1 7f a8 be
       0.0069928477 -0.2434537 -0.14215636 -0.32910064
0000c0 16 38 0d 3e de b5 43 be 27 05 ed bd 39 9f 9d bb
       0.13790926 -0.19112346 -0.11573248 -0.0048102406
0000d0 aa 9d 83 be 0e 41 a7 be af e6 7c be 62 fe 31 3d
       -0.25706226 -0.3266682 -0.24697374 0.04345549
0000e0 4a f4 22 be 9a b6 b9 bd 36 aa 46 3e 88 ba cd be
       -0.15913501 -0.090680316 0.19400868 -0.40181375
0000f0 10 94 2d be c5 d7 e1 3c a4 4c 78 bd 38 dd bd bd
       -0.16951013 0.027568707 -0.060619965 -0.0927071
000100 3b 65 4e 3e b3 3a 15 bb c2 79 06 be 33 c7 e3 bd
       0.20155804 -0.0022770583 -0.13132384 -0.111219786
000110 a8 73 33 be 7a 18 f5 bd 45 51 2a 3e 1c 4a 80 bd
       -0.17524588 -0.11967559 0.16632564 -0.06264135
000120 d9 ee 56 3e 06 8d b6 3d 58 d8 a8 be 0c ca 58 bd
       0.2098955 0.08913617 -0.32977557 -0.052927062
000130 cb a9 f6 3d 59 43 12 be f4 27 4d 3e 4f 60 8b 3d
       0.12044104 -0.14283504 0.20034772 0.06805479
000140 a8 59 f2 bd 04 67 39 be ee 0a 0e be ab 41 10 be
       -0.11833507 -0.18105704 -0.13871357 -0.1408755
000150 3a 7f d5 3e 34 65 d6 bd 06 a0 de 3d e8 d8 47 be
       0.4169863 -0.10468522 0.10870366 -0.19516337
000160 2a 6a 3e be 40 57 87 3c 16 c0 c4 bd 6a c9 45 3d
       -0.18595186 0.016521096 -0.0960695 0.048287787
000170 5c e5 ad be ae fd 81 bd 45 f4 ef 3d 02 9c 05 be
       -0.3396405 -0.06347214 0.117165126 -0.13047794
000180 1b d8 f0 bd 72 3a 3d bd e5 14 14 3a 4d c6 01 3d
       -0.11759969 -0.046198316 0.00056488655 0.031683255
000190 3a 67 00 be 1e 97 92 be aa ab f9 3d b1 91 4e be
       -0.12539378 -0.28630918 0.121909454 -0.20172764
0001a0 4f a2 67 3d fe a0 54 be f6 5b 34 be f4 90 e3 3d
       0.056551274 -0.20764539 -0.17613205 0.11111632
0001b0 14 d4 fb bd d5 c1 95 bd fe 8e a1 bb 25 8b b0 bd
       -0.1229631 -0.07312361 -0.004930376 -0.0862029
0001c0 f2 aa 89 3d 91 5d 1b be ea 01 73 3d 18 e1 14 bd
       0.06722058 -0.15172412 0.059327997 -0.03634748
0001d0 db 65 13 bd 72 e0 56 be 06 01 e0 3d be cd ae bd
       -0.03598581 -0.20984057 0.10937695 -0.08535336
0001e0 0a 84 7d be 5a e7 75 3d 14 72 e0 bd 0c 4e 13 bd
       -0.247574 0.060035087 -0.10959259 -0.035963103
0001f0 d9 7b 3f be 59 a5 71 be 50 93 6a 3c 38 bd 58 3e
       -0.18699588 -0.23598231 0.014317349 0.21165931
000200 12 fc b2 be a8 ae e6 3d 01 8f de be 7e 82 e2 3c
       -0.3495794 0.11263782 -0.43468478 0.027650114
000210 94 73 dd be 13 5f 38 3e f0 9e a4 3e be 4d 15 bd
       -0.43252242 0.18005018 0.3215251 -0.036451094
000220 94 2b 78 3d a1 40 e0 3d f5 24 bb 3d 58 ae 93 be
       0.060588434 0.10949827 0.09137908 -0.2884395
000230 cf 47 1f bc 01 07 72 3e 8c d8 81 be 21 c4 f7 bd
       -0.00972171 0.23635484 -0.25360525 -0.120979555
000240 e3 6a 44 3c 53 14 f0 3c 44 b4 70 be fb da a5 bd
       0.011988374 0.029306566 -0.23506266 -0.08098408
000250 48 e7 18 be c4 30 3d bd 5b 44 5d be 6c c7 4a be
       -0.14931977 -0.046189085 -0.21608107 -0.19802636
000260 f2 ad b6 bd 80 e6 03 3f 2a 20 28 3e 62 8f 29 3e
       -0.08919896 0.5152359 0.1641852 0.16558602
000270 13 b4 a7 3d 03 52 f2 3d c4 34 a6 be 22 87 8e bd
       0.08188643 0.11832049 -0.32462132 -0.06959368
000280 e4 34 ad 3d 3c d2 87 be 90 62 d0 3d 63 d0 28 3e
       0.08457354 -0.26527584 0.10175049 0.16485743
000290 2a c5 0f be 06 3c 85 bd 83 e3 dc 35 ad b1 e8 3e
       -0.14040056 -0.06505589 1.6457492e-06 0.45448056
0002a0 06 65 fc 3d 17 3c 51 bc fa 98 1c 3e 95 d3 26 be
       0.12323956 -0.012770674 0.15292731 -0.1629165
0002b0 37 74 64 bb 50 71 4a bd ab 61 2a be cb 22 41 3e
       -0.0034859309 -0.04942447 -0.1663882 0.18860929
0002c0 53 2a 5a 3d 84 ca 5b 3e 41 1d 0b be 89 d0 01 3e
       0.05326302 0.21463972 -0.13585378 0.12677206
0002d0 b6 27 3f 3d 7c e9 b5 3e fa b8 b9 3d 74 b9 18 3e
       0.04666873 0.35529697 0.090684846 0.14914495
0002e0 a7 78 d9 3d a5 6c 59 3e 57 8d 29 3e b2 26 1e bd
       0.10618716 0.21232851 0.16557823 -0.03861112
0002f0 46 35 86 3d ff 3f 30 3e 60 67 31 3d 21 f9 17 bd
       0.0655313 0.17211913 0.043311477 -0.037102822
000300 d7 1c 08 bd 94 11 a9 3e 4b a3 56 be e9 3e 89 be
       -0.03323063 0.33021224 -0.20960729 -0.2680581
000310 1c 86 30 3e 96 a7 db bc 1a 12 be 3c 73 8a 04 3e
       0.17238659 -0.02681331 0.02320199 0.12943439
000320 11 c3 2a bd a1 5b 69 be 8c 4c 97 3e 92 a0 e8 bc
       -0.041689936 -0.2278886 0.29550588 -0.028396878
000330 31 58 1d be 91 c0 13 3d c5 3f 1c bd 5e 39 f1 3d
       -0.15365674 0.036072318 -0.038146753 0.1177852
000340 9f ef d7 3d 10 2a 4e be 98 01 93 bd 7a 21 27 3e
       0.10543751 -0.20133233 -0.07178038 0.16321364
000350 57 83 8e be 70 90 9e 3d 0b 32 a0 3e 10 b4 87 be
       -0.2783458 0.07742393 0.3128818 -0.26504564
000360 13 8c 83 bc c5 64 92 be 1f a0 f9 bd b4 c6 a8 bd
       -0.016058004 -0.28592506 -0.12188744 -0.082410246
000370 ea 2e 70 3e b7 91 bf 3e f2 c5 54 bd e3 de 66 3e
       0.23455396 0.3741586 -0.051946588 0.22545962
000380 5c 6e bd be 88 45 df bd 2a 91 60 3c 57 f9 26 be
       -0.3699826 -0.10901934 0.013706485 -0.16306053
000390 c4 8d 59 3d 44 c2 f0 3c 06 63 98 bd 51 67 8d be
       0.053113714 0.029389508 -0.07440762 -0.27617887
0003a0 b9 70 5c bc 7c 43 31 bb cd bb 1c 3d 4e 7d f1 bd
       -0.01345461 -0.002704828 0.03826504 -0.11791478
0003b0 b9 03 b3 bd a6 e6 95 bb 9c 10 b6 3d b6 fa d5 bc
       -0.087409444 -0.0045746146 0.08889887 -0.026120525
0003c0 1c 84 2e be d3 59 1d be d8 85 91 3d 92 2d 56 3e
       -0.17042583 -0.15366296 0.07105607 0.20915821
0003d0 e2 a2 35 be 7b da 1e 3b bd 19 ab bd cc 69 71 3c
       -0.17737916 0.0024239111 -0.083545186 0.014734697
0003e0 bb d2 93 be 34 31 52 bd bc f9 bf bd 5a bc 6c bc
       -0.28871712 -0.051316455 -0.09373805 -0.014449203
0003f0 12 17 dc 3d a8 ab b9 bd 27 d9 e5 bd fa 97 1f be
       0.10746588 -0.09065944 -0.11223059 -0.15585318

network_body._body_endoder.seq_layers.2.bias f4 [128]
000000 9b 3b 40 3d 5c f4 96 bd 4f 3b a0 3b 26 20 b4 bd
       0.046931844 -0.073708266 0.0048898826 -0.08795194
000010 d5 79 a1 bb bf a3 20 bd fb 88 39 3d 69 6e 5e bb
       -0.0049278536 -0.03921866 0.04529665 -0.0033940321
000020 a1 b6 f6 bd 99 40 09 3d 0d af c4 bc 71 23 35 3d
       -0.120465524 0.03350887 -0.024009252 0.044223253
000030 97 d6 25 3d f9 0c aa 3c 14 34 5d 3d e4 81 3e 3d
       0.040487852 0.020758139 0.054004744 0.046510592
000040 a7 90 5a 3d 1e 4a a7 bd c6 23 17 3d 3d 63 e1 bd
       0.053360607 -0.081684336 0.03689935 -0.11005256
000050 eb 5a 11 3c b2 be ee bc 06 c8 f2 bd 01 d8 30 3d
       0.008871774 -0.029143665 -0.11854558 0.043174747
000060 ed 55 44 3d 06 1e 00 3c 38 df c3 3c 83 11 4f 3d
       0.047933508 0.007819658 0.02391015 0.05055381
000070 ee b7 1d 3d 34 68 80 3d 72 b0 8b bd 71 18 5a 3d
       0.038505487 0.06269875 -0.06820764 0.053245965
000080 1d b7 7d 3d f3 ee 49 3d d5 13 93 3c 3b 23 f3 bd
       0.06194221 0.049300145 0.017953793 -0.11871954
000090 bc 56 3f 3d 9a 60 f8 bd 20 5e 0a 3d 64 ba 87 bb
       0.046713576 -0.121278 0.03378117 -0.0041420925
0000a0 46 46 00 be 62 79 89 3b 66 00 fe bb 12 aa 66 3d
       -0.12526807 0.004195378 -0.0077515123 0.056314535
0000b0 87 17 6b 3c 66 25 b6 3c 3e 14 ec 3a f7 6e 5b 3d
       0.014348871 0.02223463 0.0018011404 0.05357262
0000c0 fd 26 73 bb d2 45 ae bd 0f 88 9c bc 97 b5 d0 bd
       -0.0037102096 -0.08509411 -0.019107847 -0.101908855
0000d0 0b 0a 8a 3d 2b 27 2b bd c1 d2 c4 bd 34 2f 03 3d
       0.06740197 -0.0417854 -0.096105106 0.03202744
0000e0 ae 60 5c 3c 19 69 a0 bb 16 6e e2 bd c6 ea cc bd
       0.013450785 -0.004895341 -0.110561535 -0.10005717
0000f0 1b 10 ee bd 88 15 e0 bd 8a 71 da bd 0a 4d da bd
       -0.116241656 -0.10941607 -0.10666187 -0.10659225
000100 4d c5 dd bd 6b 8e 51 3d 44 66 ed bd 4a 08 be bd
       -0.10828648 0.05116121 -0.11591771 -0.09278925
000110 77 fd c0 bd 46 78 36 3d 6f a8 86 3c 14 04 3a 3c
       -0.094233446 0.044548295 0.016437737 0.011353511
000120 0a 04 8d bc aa d4 b7 bc e8 53 60 3d d5 85 8f 3d
       -0.01721384 -0.022440273 0.05476752 0.07007948
000130 72 7a e4 3c 79 2e 04 be 3b 27 9d 3c 62 a5 c7 3b
       0.027890418 -0.12908353 0.019183746 0.006092713
000140 c5 b5 4a 3d 05 2d b2 bd 38 9d d4 bd 78 08 eb bd
       0.049489755 -0.08699993 -0.103815496 -0.11476225
000150 fd 6d e2 bd 01 8c 85 3c 08 08 15 3d e9 cd 8a 3d
       -0.11056135 0.01630211 0.036384612 0.067775555
000160 3f 67 1f 3d 9f 2a 4d 3b a6 48 91 bd 8f d8 05 3c
       0.038916823 0.0031305922 -0.07093935 0.008169307
000170 56 34 08 3d d7 f2 f0 3c 09 af bb bd 05 25 29 3d
       0.033253036 0.02941267 -0.09164245 0.04129507
000180 b3 bb ed 3c 7d 8e b2 3d f3 a3 e0 bd 67 ed 85 3d
       0.029020166 0.08718584 -0.10968771 0.065394215
000190 01 79 bc 3b 8e 5b f0 3c d8 3f f1 3b db 5a ba bd
       0.0057517295 0.029340532 0.007362347 -0.090993606
0001a0 d6 5e 89 3c 2d 95 dc bd 5e 1b 7f 3d 53 90 5c 3c
       0.016768854 -0.107706405 0.06228196 0.013462144
0001b0 61 24 71 bd 99 4d 1f bd 37 ef 8e 3d 46 b4 96 3b
       -0.058872584 -0.038892362 0.0697922 0.004599127
0001c0 a3 72 db 3c 47 0e 04 bd 3d 12 e6 bd 6a b7 1d 3d
       0.026788061 -0.03224018 -0.112339474 0.038504995
0001d0 79 94 d3 3c 65 b8 bb 3d 52 f7 8f bb c8 fc d9 bd
       0.025827633 0.0916603 -0.0043934966 -0.10643917
0001e0 d0 d6 d7 bd 2a 3b e1 3c ef 07 46 3d 4b ef 00 bd
       -0.10539019 0.027494032 0.04834741 -0.031478208
0001f0 05 27 98 3c f8 7f da bd fc d3 db bb 41 cf ff bc
       0.018573293 -0.10668939 -0.00670862 -0.031226756

network_body._body_endoder.seq_layers.2.weight f4 [128, 128]
000000 29 30 fb bd 88 78 8a bd fb f0 cd 3d 52 c9 67 3d
       -0.12265045 -0.06761271 0.10055729 0.05658848
000010 ab 9e dc 3d 86 a5 98 3e 69 21 8b bc 77 4b 1d bd
       0.10772451 0.29813784 -0.016983705 -0.038402047
000020 f7 da 4a 3e e9 f0 2d 3e f6 77 c0 3c e4 cc 7a bd
       0.19810091 0.16986431 0.023494702 -0.061230555
000030 76 5f 07 bd e4 83 12 3e b6 fe 2a 3e b5 fb 56 bc
       -0.033050023 0.14308125 0.16698727 -0.013121535
000040 22 1e 35 be 11 4f fc bd 6a 37 90 3d 5d f5 f5 3c
       -0.17687276 -0.12319768 0.070418194 0.030024225
000050 70 cb d5 bc dc 06 8b 3b e0 c3 1a 3c 5d 6b 89 3d
       -0.026097983 0.004242761 0.009446114 0.06709931
000060 bd 68 ec bd 26 0d f9 bd 07 e3 14 ba ea 9d 6f bd
       -0.11543415 -0.12160711 -0.00056795817 -0.058500208
000070 58 d1 2d 3d 50 ed 9c 3e c5 8b f6 3d 4c ce fd bd
       0.042435974 0.30649805 0.12038378 -0.12392864
000080 c8 45 1b 3e 7e 18 59 3d 89 50 c0 be f3 82 37 bd
       0.15163338 0.053001873 -0.37561443 -0.044802617
000090 5b e8 cf bc 99 39 31 3d 29 f1 ce bd b4 e2 e0 bd
       -0.02537935 0.04326782 -0.101045914 -0.1098074
0000a0 0e 85 0c 3d 54 73 2c 3b e6 d2 42 bc 1f 37 e5 bd
       0.03430658 0.0026313858 -0.011891102 -0.11192154
0000b0 6c 60 ea 3c 70 2a c5 bd 5c 68 60 3d 02 c7 c0 3d
       0.02861043 -0.09627235 0.054787025 0.09412958
0000c0 66 ee 33 be 1c 57 fe bc cd 5b 72 bc 1c d5 d7 3d
       -0.1757141 -0.031047396 -0.014792395 0.10538694
0000d0 bb 73 f8 3c ec 58 d3 bd 71 e1 f9 3d ee 44 16 3e
       0.030328622 -0.10319695 0.12201203 0.14674732
0000e0 35 04 da 3d 4e 1f 03 3e 67 ae 5e be f7 e8 7a 3e
       0.10645334 0.1280491 -0.21746217 0.24502932
0000f0 c3 82 d1 3d 20 0d 49 3d a3 e2 1e bc 01 66 17 3e
       0.10230019 0.049084783 -0.009697589 0.14785005
000100 68 ca 75 bd eb 84 55 3d 23 b4 4d 3e f0 ea 16 3e
       -0.060007483 0.052128714 0.20088248 0.14738059
000110 f9 50 46 3e 37 e5 0d be 19 69 4f bc 97 76 db 3d
       0.19366826 -0.1385697 -0.012659335 0.107159786
000120 14 6e 75 bd b1 64 aa 3d 77 9b 2e 3e 39 2e cd 3d
       -0.05991943 0.083199866 0.17051493 0.10018582
000130 32 02 86 bd d1 2f 2e bd b1 cc bb 3d 42 21 2f 3e
       -0.065433875 -0.04252607 0.09169901 0.1710253
000140 10 aa dd bc 3f a4 db bd ae 84 96 3d a9 de bf bc
       -0.027058631 -0.10724687 0.073495254 -0.023421602
000150 7e 2f 88 bd bd 01 a0 3d 4c 56 e5 3d 22 11 40 3d
       -0.066496834 0.078128316 0.111981004 0.04689134
000160 d1 e7 df bc ef b1 8c 3e 67 42 55 3d ae 05 c2 bc
       -0.027332218 0.27479503 0.05206528 -0.023684349
000170 b1 91 3b be 49 3a 18 3c 93 ae d1 3d 9c dc 24 3e
       -0.18317296 0.00929124 0.102383755 0.16099781
000180 64 87 14 3e 1e ca 1d bc ee ed 2d 3d 9a b6 af 3d
       0.14504772 -0.009630708 0.042463236 0.0857975
000190 7b 64 ad bd c1 89 91 3b 95 3f 36 ba e8 bd bd 3c
       -0.08466431 0.0044414704 -0.00069522235 0.023161843
0001a0 97 d3 37 bc 4f 8e d4 3d 5e a8 21 3d 7d 75 6d 3c
       -0.011219881 0.10378706 0.039467208 0.014493343
0001b0 50 ad 46 bd cc b1 2b 3c 5a 42 00 3e 85 b6 e6 ba
       -0.048505127 0.010479402 0.12525311 -0.0017602002
0001c0 ae 96 03 3e e8 93 e5 3c f5 5e 99 bb f3 30 e4 bd
       0.12850448 0.028024629 -0.004680509 -0.11142149
0001d0 d3 b8 20 3e 23 2e fb 3d ca 0f e7 bd 60 2e 95 3d
       0.15695505 0.12264659 -0.112823084 0.07284236
0001e0 a9 44 5f 3d 51 15 8b bd 45 51 ed 3b 5b f4 bc 3d
       0.05450884 -0.06791175 0.007242354 0.092262946
0001f0 2c f5 6c 3d 7e c9 e8 3d b6 5f 36 bd 2f 6d 02 3e
       0.057851 0.113665566 -0.04452487 0.12736963
000200 e3 7c 00 be 64 4b a4 bd 94 b8 15 3e ee b9 a9 bd
       -0.1254764 -0.08022192 0.14621192 -0.082874164
000210 b0 88 af bd 61 5a 70 3d 8c 2e 07 3d 39 14 90 bd
       -0.08570993 0.058679942 0.033003375 -0.07035107
000220 52 11 a2 bd 43 97 e5 3d 40 ae fd 3d ec f3 73 3c
       -0.0791346 0.112104915 0.12386751 0.0148896985
000230 0b 7b 70 3c db 44 79 3d 16 0d 7b be 63 d2 c3 bd
       0.014677773 0.06085668 -0.2451671 -0.095616125
000240 a2 b4 c5 bb 7d c9 4a bd ce d8 8e bd 04 6a ca 3d
       -0.006033496 -0.04950856 -0.06974946 0.09883502
000250 da 16 32 bd 7a 29 68 bd dd 4b a7 bd 35 8a 71 3a
       -0.043478824 -0.05668018 -0.08168767 0.0009214015
000260 2d 1f bf bd 74 2e 2d 3d 7d 59 87 39 fe 79 cf 3d
       -0.09332118 0.04228063 0.0002581588 0.1013069
000270 26 dd bf bd 92 ec c5 3d cf e3 ec 3d a2 8a 10 bd
       -0.093683526 0.09664263 0.115668885 -0.03528846
000280 98 28 05 be 52 2e 15 bc 18 f3 c3 bc 87 fb 07 be
       -0.13003767 -0.009105282 -0.023919627 -0.13279544
000290 1c c8 eb 3d f3 ff b8 3d 83 f3 98 3e bf 68 49 3d
       0.11512777 0.090331934 0.29873285 0.04917216
0002a0 27 53 a9 3c 8f 58 d2 bd 89 ab 03 3d b3 a8 70 3e
       0.020669533 -0.102707975 0.03214601 0.23501854
0002b0 db f3 9d 3d 63 ef 52 3e d2 c4 81 3d d0 28 2e bd
       0.07712527 0.20599131 0.063363686 -0.04251939
0002c0 9c f5 24 3e 2a 04 31 bc 66 60 d2 3c 60 fa 79 bb
       0.16109318 -0.010804215 0.025680732 -0.003814362
0002d0 bb 0e 4f bd 88 0a b2 bd 66 88 5a be f4 cd 46 3c
       -0.050551157 -0.08693415 -0.21341094 0.012134064
0002e0 f2 32 bd bd d1 06 17 be da 01 8f bc 28 8c e6 bc
       -0.09238233 -0.14748694 -0.017456938 -0.028143004
0002f0 fb d3 2e be 95 d6 1b bc 7d 92 e5 bc aa c1 12 3d
       -0.17073052 -0.00951161 -0.028023953 0.035829224
000300 70 1e eb bc 16 d9 38 3d 0b b6 34 3b de cf a3 bd
       -0.028701037 0.045128904 0.0027574326 -0.07998632
000310 92 b8 ef 3d a4 98 af 3d e9 ac 56 be 7e f6 ca bb
       0.11705126 0.08574036 -0.20964397 -0.006193935
000320 fb 8e 0f bd 7a 51 0c 3c 56 83 81 bd 7d da e8 bd
       -0.035048466 0.008564347 -0.063238785 -0.11369798
000330 84 ea c9 3d fc e5 ff bd e0 71 67 be 31 ea 9f be
       0.098591834 -0.12495038 -0.22602034 -0.3123336
000340 da 6d 33 3c 04 65 2e bd 2f fe 62 bd 17 f3 9e bc
       0.010951484 -0.042576805 -0.05541819 -0.019403024
000350 70 c0 66 3e 34 c0 5f bd 74 80 45 3c c2 9f 97 3d
       0.22534347 -0.05462666 0.012054551 0.07403518
000360 1a 3e 72 bd 03 6f 85 3d 2b a1 ac bd ed d9 6e 3e
       -0.059141256 0.065153144 -0.08429178 0.2332532
000370 3b f4 2d be e4 d6 a8 ba 8e fc c0 3c ae 91 64 3c
       -0.16987698 -0.0012881425 0.023557927 0.013950748
000380 4d d1 1c bc 66 ce ed 3d 54 33 b8 bb 8b 62 e9 3d
       -0.009571386 0.11611633 -0.005621353 0.11395749
000390 21 1f c2 bd e7 02 13 be 91 92 13 be db 29 9a 3d
       -0.094785936 -0.14356576 -0.1441138 0.075275145
0003a0 22 db 4c 3d d5 5b a8 3c fe e8 b3 bd ea f3 44 bd
       0.05001367 0.020551601 -0.08784674 -0.048084177
0003b0 65 b4 d8 bd fe dd 80 bc ca 2a 28 be 3e de 07 3d
       -0.105812825 -0.015730854 -0.16422573 0.03317093
0003c0 a3 38 f2 bd 98 82 2d 3d 08 42 71 bd 08 6d f5 3d
       -0.11827209 0.042360872 -0.058900863 0.11983687
0003d0 f4 2a fb bd eb 59 41 3c 74 ce fd 3d e4 71 b4 3d
       -0.12264052 0.011801223 0.123928934 0.088107854
0003e0 a4 3f 7a bd 1f 22 8d 3e 8c 2b f0 bb 54 a4 37 be
       -0.06109585 0.27565095 -0.00732941 -0.1793378
0003f0 9f d8 4e 3d 6d e7 17 be e1 b4 b2 bc fd 6e a5 bd
       0.050499555 -0.14834376 -0.021814765 -0.0807781
