Unity Project/CSC 30014 Project/results/ppo/Car.onnx (onnx, 92134 bytes, 7 tensors)

action_model._continuous_distribution.log_sigma f4 [1, 2]
00000000: 0000 0000 0000 0000
0.0 0.0

action_model._continuous_distribution.mu.bias f4 [2]
00000000: 0000 0000 0000 0000
0.0 0.0

action_model._continuous_distribution.mu.weight f4 [2, 128]
00000000: 3d49 723c 48a7 0d3d d558 543c e916 823c
00000010: 0fb2 933c 4b39 f33b 038b 5dbc f3dc 55bc
00000020: 0ba1 2ebc 05a9 a2bc cac6 8e3c 889e eb3b
00000030: cfea 73bc 4d30 afb8 8a2e 57bc fb0d bcbb
00000040: 0b43 eebc e73d 853b 0760 71bb 8c52 37bc
00000050: 7ffc c63c 5b0b 6e3c c027 a2bb b76d 8a39
00000060: 7dcf 203c 485e 8ebc cd91 2f3c d68f 153d
00000070: 4385 79bb 6d43 56bc d359 a33b 632e 3abc
00000080: ee9b c33b d542 ff3a b8eb 87bc b140 c63c
00000090: cbae 6f3c 3563 7e3c 2f16 e23c 6bad d03b
000000a0: 2050 fa3c 4be7 27bc 604f ffb6 3f34 cdbb
000000b0: 0b20 59ba 3c5f be3b 5376 d23c 1ba5 e63c
000000c0: fd2b 7b3c ba4e 79bc ca83 2dbd 1735 13bd
000000d0: 8fd1 a83c 831e 383c 32c3 703c 87d3 5f3b
000000e0: d56e 9d3c a7e0 c2bc 22e4 883c 951f b33c
000000f0: cc6f af3b 821b a93b b390 d7ba 0287 78bc
00000100: 0d71 aa3b 167d a63c 3f7c 80bc 872a 493b
00000110: 3030 8dbc 4e97 953a d620 b33c 0b55 5abb
00000120: adce 87bc 3b2a 19bd 4942 89bb cfd9 fdbc
00000130: 6ff7 e8bc fb3a 6b3c efea 96bc f212 b73c
00000140: 41b8 3fbc 0ab6 dabc 0abc bbbb db42 56bc
00000150: df62 d8bb 9d38 a93c 0f40 063b 3518 273b
00000160: cd7c 3a3c dbd5 38bb c8bd efba 3b63 c73c
00000170: 211a 80bd e9f3 333c fa5c 11bc cac8 783c
00000180: 7fa2 aa3c 3c87 83bc 4368 193c 1fae c73c
00000190: 38c7 43bc 942d 223d bd95 623c f920 9cbc
000001a0: f02b b33b 501f b4bc d3b1 d33b d7b5 cdbc
000001b0: 9087 9cbc 8660 b2b9 2fef 33bc 533e b03b
000001c0: 2b04 76ba 3fd7 07bc 4b7d f73c 4ff3 c83b
000001d0: 7d45 de3c 83fd d4bc bfcf 32bd a203 6c3c
000001e0: c1d8 263c e298 1b3c 0e3e 03bc 7adb a03b
000001f0: 1072 f4bc 8330 113d 82de 58bb 7b95 98b9
00000200: 0d5d c03c 50e8 9dbb 878e 97bc 5e58 153c
00000210: ae6d 92bc f51f 95bc 2b64 88bb 27d0 8abc
00000220: fa2b 323d 23e6 18bc effc 0abc b988 2bbb
00000230: 961c a43b 8eaf 423b 5253 94bb 6d30 d13b
00000240: c7e2 8cbb 9853 ec3b b677 8dbd fa25 aa3c
00000250: 9d5c ac3b b886 5ebc 20a7 f9b7 61d8 0a3b
00000260: 9c1a 88bb add6 133c e553 d43b c071 64bc
00000270: e258 743c d1a4 97b9 1f75 8b3b 6b51 4f3c
00000280: c1a2 c5bb cdd9 5fbb e4bc 3bbc 7b8d 383c
00000290: c6f8 b2bc 82c5 c5bc ed40 3f3c c5c9 d93c
000002a0: a70c dfbc 624b 57bb 9433 ba3b ca72 633c
000002b0: 50c4 b33c 1a96 d63c a550 ea3c 1310 c7bb
000002c0: e8f6 c13a 0284 733c 0a6d 0ebb 0e9a 803b
000002d0: 6cb2 aa39 03b2 2c3c 1fda 92bb b56b ba3a
000002e0: 947d 283d 8389 b03c 3b00 98bc f318 4a3c
000002f0: 7d7c e0bb 839b ff3b a0ab 673c c3d5 d1bc
00000300: 7b6c 003b 0077 1c3d 8206 9eb9 60b0 52bc
00000310: cf8b 3fbc 43d8 583c f784 d33c 658f 9ebb
00000320: 568a 173c 539e ccbb 13dc 0739 8922 943c
00000330: 3d8d 0fbc f046 f53a 5de5 6c3c af98 403b
00000340: 03b2 6d3b a505 fa38 d09a 593b 8ba6 f53b
00000350: 2dc2 dbbb c7ee ae3c 77dc ccbc 5542 2a3c
00000360: 4ef3 a9bc 90dd 823c 8fb9 9dbc 352b 363d
00000370: 9cfd 3ebb a0b2 733c 6b19 de3c c375 a93c
00000380: 9f5c aabb da16 6d3c 643f 9bba d566 cd3c
00000390: 2735 713b 2f2b c2bb 4b9b ab3b b598 4bba
000003a0: 5a01 4ebc 3711 47bb 6684 9f3b 6d4d d83b
000003b0: 3797 55bc d15a a5bc 6399 9b3a eed2 923c
000003c0: b033 fabc 4a17 8dbc 7e18 203c 9ce2 8935
000003d0: d698 2e3c b814 953b 4fa9 cebc e846 e63b
000003e0: 8bc7 cc3b cd8a 78bc 65f4 933b b8d7 e3ba
000003f0: e6a9 8fbc 5877 acbc 0b8c b33a e6ff 9c3c
0.014787969 0.03458336 0.012960632 0.015880065 0.01802924 0.0074226013 -0.0135219125 -0.013053167
-0.010658513 -0.019855985 0.017428774 0.0071905293 -0.014887526 -8.353647e-05 -0.013133654 -0.0057389713
-0.029084703 0.004066217 -0.0036830918 -0.011189114 0.024290321 0.014529075 -0.004948586 0.00026403155
0.009815094 -0.017378941 0.010715914 0.036514126 -0.0038073815 -0.013077599 0.004985073 -0.0113635985
0.005969516 0.0019474874 -0.016591892 0.02420077 0.014629076 0.0155265825 0.027598469 0.0063683293
0.030555785 -0.010248016 -7.6088327e-06 -0.0062623317 -0.0008282668 0.0058096927 0.025691187 0.0281549
0.015330312 -0.015216524 -0.042362012 -0.035939302 0.020607738 0.011237743 0.014694976 0.003415318
0.019217888 -0.023788763 0.016710345 0.021865645 0.0053539034 0.00516075 -0.0016446322 -0.015168907
0.005201465 0.020323317 -0.015684245 0.0030695514 -0.017234892 0.001141289 0.021866243 -0.003331485
-0.016578043 -0.03739379 -0.00418881 -0.030987648 -0.028438298 0.014357324 -0.018422572 0.022347901
-0.011701644 -0.026698131 -0.005729203 -0.013077463 -0.006603583 0.020656878 0.002048496 0.0025496606
0.011382294 -0.002820364 -0.0018290812 0.024339309 -0.06254984 0.010983446 -0.008872265 0.015184591
0.020829437 -0.016055696 0.009363237 0.02437502 -0.011949353 0.039594248 0.013829646 -0.019058691
0.0054678842 -0.021987587 0.0064604073 -0.025111122 -0.01910761 -0.0003402272 -0.010982319 0.0053785234
-0.00093847763 -0.008291065 0.030211112 0.0061325203 0.027132744 -0.02599979 -0.043655153 0.014405163
0.010183514 0.009496899 -0.0080104 0.004908976 -0.029839545 0.035446655 -0.003309161 -0.0002910307
0.02348187 -0.0048189536 -0.01850058 0.009115307 -0.017874565 -0.018203715 -0.0041623316 -0.016944958
0.04349897 -0.009332213 -0.008483156 -0.0026174022 0.0050082905 0.002970669 -0.004526534 0.0063839466
-0.004299495 0.0072121136 -0.06907599 0.020770062 0.005260064 -0.013581924 -2.9760937e-05 0.00211861
-0.0041535627 0.009023351 0.0064797276 -0.013943136 0.014913769 -0.00028923762 0.0042559053 0.012653689
-0.0060313647 -0.003415692 -0.011458609 0.0112642 -0.02184714 -0.02414203 0.011673194 0.026585469
-0.027227713 -0.0032851328 0.005682418 0.013882348 0.021944195 0.02619462 0.028602907 -0.0060749142
0.0014798315 0.014863016 -0.0021732473 0.0039246147 0.0003255786 0.010540488 -0.0044815685 0.0014222773
0.041135386 0.021549946 -0.018554797 0.01233505 -0.0068507777 0.007800521 0.01414004 -0.025614625
0.001959591 0.038199425 -0.00030140957 -0.012859434 -0.011691048 0.013235155 0.025820239 -0.0048388713
0.00924929 -0.0062444597 0.00012956587 0.018082874 -0.008761701 0.0018713158 0.014458981 0.0029387882
0.0036269433 0.0001192198 0.0033203848 0.00749666 -0.006706497 0.021354092 -0.02500747 0.010391791
-0.0207459 0.01597479 -0.01925352 0.0444748 -0.0029142862 0.0148741305 0.02711173 0.020686036
-0.0051990296 0.01447078 -0.0011844453 0.025073448 0.0036805363 -0.005925558 0.005237018 -0.00077665906
-0.012573564 -0.003037525 0.004868078 0.0066010267 -0.013036541 -0.020184906 0.0011871274 0.017922845
-0.030542225 -0.01722302 0.009771464 1.0273247e-06 0.010656556 0.004549589 -0.025227217 0.0070274957
0.0062493733 -0.015169811 0.004515218 -0.0017383015 -0.017537069 -0.021053001 0.0013698352 0.01916499

network_body._body_endoder.seq_layers.0.bias f4 [128]
00000000: 0000 0000 0000 0000 0000 0000 0000 0000
00000010: 0000 0000 0000 0000 0000 0000 0000 0000
00000020: 0000 0000 0000 0000 0000 0000 0000 0000
00000030: 0000 0000 0000 0000 0000 0000 0000 0000
00000040: 0000 0000 0000 0000 0000 0000 0000 0000
00000050: 0000 0000 0000 0000 0000 0000 0000 0000
00000060: 0000 0000 0000 0000 0000 0000 0000 0000
00000070: 0000 0000 0000 0000 0000 0000 0000 0000
00000080: 0000 0000 0000 0000 0000 0000 0000 0000
00000090: 0000 0000 0000 0000 0000 0000 0000 0000
000000a0: 0000 0000 0000 0000 0000 0000 0000 0000
000000b0: 0000 0000 0000 0000 0000 0000 0000 0000
000000c0: 0000 0000 0000 0000 0000 0000 0000 0000
000000d0: 0000 0000 0000 0000 0000 0000 0000 0000
000000e0: 0000 0000 0000 0000 0000 0000 0000 0000
000000f0: 0000 0000 0000 0000 0000 0000 0000 0000
00000100: 0000 0000 0000 0000 0000 0000 0000 0000
00000110: 0000 0000 0000 0000 0000 0000 0000 0000
00000120: 0000 0000 0000 0000 0000 0000 0000 0000
00000130: 0000 0000 0000 0000 0000 0000 0000 0000
00000140: 0000 0000 0000 0000 0000 0000 0000 0000
00000150: 0000 0000 0000 0000 0000 0000 0000 0000
00000160: 0000 0000 0000 0000 0000 0000 0000 0000
00000170: 0000 0000 0000 0000 0000 0000 0000 0000
00000180: 0000 0000 0000 0000 0000 0000 0000 0000
00000190: 0000 0000 0000 0000 0000 0000 0000 0000
000001a0: 0000 0000 0000 0000 0000 0000 0000 0000
000001b0: 0000 0000 0000 0000 0000 0000 0000 0000
000001c0: 0000 0000 0000 0000 0000 0000 0000 0000
000001d0: 0000 0000 0000 0000 0000 0000 0000 0000
000001e0: 0000 0000 0000 0000 0000 0000 0000 0000
000001f0: 0000 0000 0000 0000 0000 0000 0000 0000
0.0 0.0 0.0 0.0 0.0 0.0 0.0 0.0
0.0 0.0 0.0 0.0 0.0 0.0 0.0 0.0
0.0 0.0 0.0 0.0 0.0 0.0 0.0 0.0
0.0 0.0 0.0 0.0 0.0 0.0 0.0 0.0
0.0 0.0 0.0 0.0 0.0 0.0 0.0 0.0
0.0 0.0 0.0 0.0 0.0 0.0 0.0 0.0
0.0 0.0 0.0 0.0 0.0 0.0 0.0 0.0
0.0 0.0 0.0 0.0 0.0 0.0 0.0 0.0
0.0 0.0 0.0 0.0 0.0 0.0 0.0 0.0
0.0 0.0 0.0 0.0 0.0 0.0 0.0 0.0
0.0 0.0 0.0 0.0 0.0 0.0 0.0 0.0
0.0 0.0 0.0 0.0 0.0 0.0 0.0 0.0
0.0 0.0 0.0 0.0 0.0 0.0 0.0 0.0
0.0 0.0 0.0 0.0 0.0 0.0 0.0 0.0
0.0 0.0 0.0 0.0 0.0 0.0 0.0 0.0
0.0 0.0 0.0 0.0 0.0 0.0 0.0 0.0

network_body._body_endoder.seq_layers.0.weight f4 [128, 44]
00000000: 0517 833e 3dec 373d eecb 813e 604b 483e
00000010: 1673 193d c413 52be 31e6 07be d5e6 09be
00000020: 06bf 1ebe 2c10 c8bd f23e 98bd c2bc b7bd
00000030: 3539 65be 2c5b 683d a51e 99bd 7633 8e3e
00000040: 2e32 c13d 8e51 b03d 750a a33d 568c 713d
00000050: c47b 4bbe c233 b13e 8919 95bd 4e61 8abe
00000060: ba0b 493e 47ff 653c 5548 073e 3518 1c3e
00000070: c190 6a3e 9803 74bd 6ef5 c63d a34c d7bc
00000080: e898 5f3d 72a3 e23d 56a1 673d 3efa 01be
00000090: c1b5 12bd 2c87 b13d 38cc 5e3e 2afb 15bc
000000a0: 6079 f23d 9763 ed3d 0665 d83d 0fd8 edbb
000000b0: 8bc0 623d 75b8 83be f768 f3bd c78f 10bc
000000c0: b3b5 08be 2280 873e c46d 3fbd d651 05bd
000000d0: a8f3 8a3d 33f3 073e dd08 a13d b88c abbd
000000e0: 9db1 29be a786 26be 7205 7d3e e7b7 793d
000000f0: 6883 a1bd 3148 913d d433 ac3d c3e4 1f3e
00000100: 2e37 7239 47f3 38bd 5cf2 d0be 4083 9f3d
00000110: 1706 103e ac03 5ebe 5522 c73d 59c4 57be
00000120: 9066 333e c6fe 3c3d e271 e23a f215 113e
00000130: dc39 07be bca9 823e 5b70 573d dce9 473d
00000140: 4e25 6c3e 241d 2abe f575 733d c7a6 bebd
00000150: 9f1c 8f3d a9b0 963e d51d 96bd 605f fa3d
00000160: d773 153d 324b afbe d615 4dbd 551c 3a3e
00000170: 9b50 41be 6b22 c4bb 3b96 8b3e 1c4d 1cbe
00000180: 5d83 76be 7efd 213d 2185 fc3d 3d7d b8be
00000190: 37ea e03c 7c22 15be db03 023e e082 babd
000001a0: 5624 7f3d 5bf3 1cbe f739 d43c 3697 b1be
000001b0: 63a5 28be d682 22bd 73f9 8abd 15db 443d
000001c0: 9f1b 713c 8ae8 b43d 1c7a 2abe bd0c 54bd
000001d0: efd3 9fbc 6250 77bc e877 143e 4128 2cbd
000001e0: b2f3 c63e 98a4 b53d 1e19 21bd 23b3 223c
000001f0: cc80 773e a524 22bd 9128 23be b9d3 8fbd
00000200: 4796 ed3b 657a 82be 8c1a 863c 78a7 2b3e
00000210: ae1f d7bc 176a 74be ce2a 0ebd b6df cdbe
00000220: 0b38 3e3e f6dc 8bbe a146 3a3e 8e42 4e3e
00000230: faf4 90be e1b3 243e 4c88 d4be 738e 05be
00000240: 6417 693d 0e39 48bd 5a83 3cbd 6f21 a73d
00000250: 80f1 82be 9406 3f3e 8c93 ffbd 60a8 653e
00000260: 7a3f aabd ecb4 be3d fe6b cebd 0bc9 f53c
00000270: f177 b73c f7df e9bd 4686 883e d0a0 173d
00000280: 113e 9c3c 985f 82be 4884 6ebe 7674 3a3c
00000290: 1733 cebd 8e19 c73c b6a8 adbe f96d d2bd
000002a0: 5f2a 29be b083 0e3f da25 d13d 5a80 113d
000002b0: 80ab 293d 5970 1f3d 0551 593e fa0c 91bc
000002c0: 17ab 103d 4b8b 2d3e b4e7 1e3e a5ec 643d
000002d0: 2c45 2b3e 727e 473d 1ea3 8fbc ca14 8d3d
000002e0: 3d5e 943d 6d67 013e 6963 c7bd dc24 d6bd
000002f0: a389 09be 14f8 f3bd 1c38 04bd 15ae 153e
00000300: a094 babd f4ff ddbd 8452 fdbc 59e7 4f3e
00000310: 08cf 17be 56df 7abd b9d2 5ebe 8bf4 753e
00000320: e9f8 a3bb 8cb8 75be 199c 71bd e2b8 9bbb
00000330: c775 9c3e 7219 e83c 7c7e 883d a962 26be
00000340: c110 7a3e 41e9 d2bd 4d4c ffbd fd6e 62be
00000350: 4937 7bbd 18cf 623e 2fd8 303e 07d8 04bd
00000360: ff36 e23d 2ced cfbc a928 48be 616c 813d
00000370: be4b c73d e992 e93d 2fc0 473d a577 053e
00000380: db12 91bb 8528 283e 95b6 473e ef1f 993d
00000390: 155b 41bd 1435 16be a803 1ebc 68f4 d0bc
000003a0: ca9a 4f3e 1157 eebc 030f 98be 0567 af3d
000003b0: 8fe7 80bd d6b9 35bc 414e b43e 1138 b23d
000003c0: 2b80 0e3e c604 203e 9911 d43c 318b 163d
000003d0: ca42 93be ac0e bb3d 1efd 0c3e d348 573e
000003e0: dae7 ebbd 0a55 2a3e 73f3 013e 99c7 9fbd
000003f0: c65a 1b3d 2aea 553e b988 7dbe f370 63be
0.256035 0.04490303 0.25350899 0.19560003 0.03746327 -0.20515352 -0.13271405 -0.13466962
-0.15502557 -0.097687095 -0.07433881 -0.089715496 -0.22385104 0.056727573 -0.07476548 0.27773637
0.09433399 0.08609305 0.07960979 0.058971725 -0.19871432 0.346098 -0.07280261 -0.27027363
0.1963338 0.014037914 0.13211186 0.15243609 0.22906782 -0.05957374 0.09714781 -0.02628166
0.054589182 0.11066331 0.056550346 -0.12693116 -0.035817865 0.0866836 0.21757591 -0.00915412
0.11839557 0.11591261 0.10566144 -0.007258422 0.055359405 -0.25726667 -0.11885255 -0.008823342
-0.13350563 0.26464945 -0.04673554 -0.032548748 0.06784755 0.13276367 0.07863019 -0.08376449
-0.1657166 -0.16262303 0.24709108 0.0609664 -0.07886392 0.070938475 0.08408323 0.1561461
0.00023099474 -0.045153882 -0.40809906 0.07788706 0.14064823 -0.21681088 0.09723345 -0.21070994
0.17519593 0.04614141 0.0017276371 0.14168528 -0.13205665 0.25520122 0.052597385 0.04880701
0.23061106 -0.16612679 0.059438664 -0.09309154 0.06987881 0.29431656 -0.07329909 0.122252226
0.036487427 -0.34237057 -0.050069652 0.1817487 -0.18878405 -0.0059855483 0.27263054 -0.1526379
-0.24073549 0.03954839 0.1233008 -0.3603305 0.027455432 -0.14563936 0.12696783 -0.09106994
0.062290512 -0.15327208 0.025906546 -0.34685677 -0.1646934 -0.039675556 -0.0678586 0.048060495
0.014716058 0.08833416 -0.16648144 -0.05176996 -0.019510238 -0.015094848 0.14498866 -0.042030577
0.388578 0.088692844 -0.039330594 0.009930405 0.24170226 -0.03958573 -0.15933444 -0.07022805
0.0072505805 -0.25484005 0.01637008 0.16763103 -0.026260223 -0.23868595 -0.03470879 -0.4020974
0.18576066 -0.27317017 0.18191005 0.20142576 -0.28311902 0.16084243 -0.41510236 -0.13042621
0.056907073 -0.048882537 -0.046023704 0.08160674 -0.25574875 0.18654853 -0.12479314 0.22427511
-0.083128884 0.09311852 -0.100791916 0.030003091 0.02239606 -0.11419671 0.26664943 0.037018597
0.019072564 -0.25463557 -0.23292649 0.0113803055 -0.10068338 0.024304178 -0.3391778 -0.10274882
-0.1652007 0.5566969 0.10212298 0.035522796 0.04142332 0.038925502 0.21222313 -0.017706383
0.035319414 0.16947667 0.15518075 0.055889744 0.16725606 0.048704572 -0.017533835 0.06888731
0.07244537 0.1263711 -0.09735758 -0.10456249 -0.1343141 -0.119125515 -0.032280073 0.14617188
-0.09110379 -0.10839835 -0.030923136 0.20303096 -0.1482507 -0.061248146 -0.21760072 0.24019067
-0.0050040376 -0.2399618 -0.058986757 -0.0047522644 0.30558607 0.028332446 0.0666475 -0.16248573
0.24420454 -0.10298396 -0.12465725 -0.22112651 -0.06133202 0.22149312 0.17269967 -0.032432582
0.11045646 -0.025381647 -0.1954676 0.063195 0.097312436 0.11404974 0.048767265 0.13033922
-0.0044272966 0.16421707 0.19503243 0.07476794 -0.047206003 -0.14668685 -0.009644426 -0.025507167
0.20273891 -0.02909425 -0.29698953 0.08564571 -0.06294166 -0.01109167 0.35215953 0.087021
0.1391608 0.15626821 0.025887297 0.036753837 -0.28761894 0.09133658 0.13768432 0.21023874
-0.115188316 0.16634002 0.12690525 -0.07801742 0.037928365 0.20890108 -0.24759187 -0.22211055

network_body._body_endoder.seq_layers.2.bias f4 [128]
00000000: 0000 0000 0000 0000 0000 0000 0000 0000
00000010: 0000 0000 0000 0000 0000 0000 0000 0000
00000020: 0000 0000 0000 0000 0000 0000 0000 0000
00000030: 0000 0000 0000 0000 0000 0000 0000 0000
00000040: 0000 0000 0000 0000 0000 0000 0000 0000
00000050: 0000 0000 0000 0000 0000 0000 0000 0000
00000060: 0000 0000 0000 0000 0000 0000 0000 0000
00000070: 0000 0000 0000 0000 0000 0000 0000 0000
00000080: 0000 0000 0000 0000 0000 0000 0000 0000
00000090: 0000 0000 0000 0000 0000 0000 0000 0000
000000a0: 0000 0000 0000 0000 0000 0000 0000 0000
000000b0: 0000 0000 0000 0000 0000 0000 0000 0000
000000c0: 0000 0000 0000 0000 0000 0000 0000 0000
000000d0: 0000 0000 0000 0000 0000 0000 0000 0000
000000e0: 0000 0000 0000 0000 0000 0000 0000 0000
000000f0: 0000 0000 0000 0000 0000 0000 0000 0000
00000100: 0000 0000 0000 0000 0000 0000 0000 0000
00000110: 0000 0000 0000 0000 0000 0000 0000 0000
00000120: 0000 0000 0000 0000 0000 0000 0000 0000
00000130: 0000 0000 0000 0000 0000 0000 0000 0000
00000140: 0000 0000 0000 0000 0000 0000 0000 0000
00000150: 0000 0000 0000 0000 0000 0000 0000 0000
00000160: 0000 0000 0000 0000 0000 0000 0000 0000
00000170: 0000 0000 0000 0000 0000 0000 0000 0000
00000180: 0000 0000 0000 0000 0000 0000 0000 0000
00000190: 0000 0000 0000 0000 0000 0000 0000 0000
000001a0: 0000 0000 0000 0000 0000 0000 0000 0000
000001b0: 0000 0000 0000 0000 0000 0000 0000 0000
000001c0: 0000 0000 0000 0000 0000 0000 0000 0000
000001d0: 0000 0000 0000 0000 0000 0000 0000 0000
000001e0: 0000 0000 0000 0000 0000 0000 0000 0000
000001f0: 0000 0000 0000 0000 0000 0000 0000 0000
0.0 0.0 0.0 0.0 0.0 0.0 0.0 0.0
0.0 0.0 0.0 0.0 0.0 0.0 0.0 0.0
0.0 0.0 0.0 0.0 0.0 0.0 0.0 0.0
0.0 0.0 0.0 0.0 0.0 0.0 0.0 0.0
0.0 0.0 0.0 0.0 0.0 0.0 0.0 0.0
0.0 0.0 0.0 0.0 0.0 0.0 0.0 0.0
0.0 0.0 0.0 0.0 0.0 0.0 0.0 0.0
0.0 0.0 0.0 0.0 0.0 0.0 0.0 0.0
0.0 0.0 0.0 0.0 0.0 0.0 0.0 0.0
0.0 0.0 0.0 0.0 0.0 0.0 0.0 0.0
0.0 0.0 0.0 0.0 0.0 0.0 0.0 0.0
0.0 0.0 0.0 0.0 0.0 0.0 0.0 0.0
0.0 0.0 0.0 0.0 0.0 0.0 0.0 0.0
0.0 0.0 0.0 0.0 0.0 0.0 0.0 0.0
0.0 0.0 0.0 0.0 0.0 0.0 0.0 0.0
0.0 0.0 0.0 0.0 0.0 0.0 0.0 0.0

network_body._body_endoder.seq_layers.2.weight f4 [128, 128]
00000000: 233f 993c e16f ad3d 8a68 013e 9840 693c
00000010: 55e3 c43d 77c0 b7bd 9439 a1bc 1510 66bc
00000020: ffba 78bd a9f2 5f3d 3523 3e3d b277 bbbd
00000030: 4957 3f3e 7514 403c 39de 54be 347f 96bc
00000040: 9500 bbbd 45e5 c93d d418 58bd ebcd ae3c
00000050: 68c6 e43c 2702 48be 7a3c 943d 48b6 55be
00000060: b52e 75bd 43ce f93d 0ab0 1cbd c4f8 33be
00000070: be56 29bd 2fd5 903d b217 443e 973b f1bd
00000080: 64ac 803d ef71 d0bd a146 4c3e 565b 0c3e
00000090: d1e3 3d3c 5726 fe3d e5e1 1bbe 777c 0a3d
000000a0: c0df 193d 3652 6c3d 26c8 d6bd 9280 5bbd
000000b0: 59df 8ebd 360b e53d a13c 073e 9773 0abc
000000c0: f2ed d9bd 8d08 0f3d 1b7f 28bd 37f4 8cbd
000000d0: 97e8 a2bd bd5d ffbd 8eab 2c3e 70ae 8abe
000000e0: 990f 0a3e 7492 44bd 79b3 0bbc d3b5 173d
000000f0: 208f c4bb 2116 07bd 5fde be3d cfc8 fe3b
00000100: b051 963b 2a52 f6bd 6cc6 04bd eb5f 5eba
00000110: 75af 0b3e 922f 683c 8951 ecbb a169 eb3d
00000120: 9a20 84ba 7e0d fd3d 0cec d33d 4578 863d
00000130: 6f26 60bd 2fdd c0bd 099d e53d 2705 46bd
00000140: 5f81 54be 0e20 fa3c d1ab 823e e312 88bd
00000150: bc75 5e3c b20c 333d 40ef 31bd 635f 463e
00000160: ed34 8dbd 98bf 1f3d 5b75 a3bc 0eb2 a4bc
00000170: fcd9 39bd f4f3 5f3d 1001 d5bc 76e6 163d
00000180: 9e2d 803a d282 193d c6b6 013d 211d b23d
00000190: 8114 8bbd 4a10 debd 7ada 333d 928d 483d
000001a0: 49cc 9b3d ee58 8dbd 8438 8cbd f6ff 37bd
000001b0: a139 da3d e5c5 003e 77ae 80bd 3ae2 663d
000001c0: e917 1fbd 4cd6 2f3d 3c23 e1bd b10b aa3d
000001d0: 0cff 89bd a2ea 4a3d 11e9 fe3d bb74 1bbc
000001e0: f9d3 4e3d 6b76 49bd 7cdf ed3d aa77 0abe
000001f0: 728c 0ebe aef8 5ebd 1e7f 9bbd 448c 043c
00000200: f20d 30bd c777 10bc 3c94 43bc 5583 53bd
00000210: 4a03 d9bd b6c5 90bd a566 1fbd d411 4abd
00000220: 0fd8 06bd f930 f3bc 9d3f 4b3d f652 023d
00000230: f4aa 80bd f0c4 bd3d f68c 983d 9377 e93d
00000240: 4239 f0ba 5339 03bd 6e5b c33d ab89 943c
00000250: d212 0dbd cad9 12bc bd9b ac3d c91d 683d
00000260: 5c12 a73d dd80 c8bd f8a7 163d 0d7e 8dbc
00000270: 9076 54bd c023 8f3d b454 90bd 9d08 e9bd
00000280: 12b7 7f3d 3453 233e 4c66 233d ed27 873c
00000290: 6156 83bd 5938 723c d2bc e5bb ebc4 fabd
000002a0: 41cd 4b3e 1daa 46be 0dd0 66be 7bd9 afbd
000002b0: ec1e 7fbd 7cd4 00be d138 61bd c5d0 d6bd
000002c0: bbc6 273e 9f25 11be 331e b03d 06d0 343d
000002d0: c568 1abd ba9f 103e 837e 89bd 127c a03d
000002e0: 64af b53d bdeb 873c 153f 17be 7623 28be
000002f0: 35f8 0bbe 4295 3e3e f358 06bd e336 bfbd
00000300: a164 08bc de60 ebbd 3c83 83bd 8bce 413d
00000310: 44b6 47bd 24a9 22bd 8f04 65bd 17cf 663d
00000320: 21b9 3b3d d7f5 7fbd 1614 803e 5eae 92bd
00000330: 6d27 5c3d b536 28bd e396 e13d 4303 b13d
00000340: ca2c 993d 1e00 563d 52a6 cc3d 9798 12be
00000350: 84ab 82bd 1106 18bc 4436 2cbc acff c83d
00000360: 378d a43c ddf7 163c 8079 9a3d d15b 833e
00000370: ab52 32bd cab8 87bd 8d1b 823c 44e2 42bd
00000380: c7aa cf3d 2ae9 143d f095 c53d d0e4 913d
00000390: e623 2cbd 33cd 1cbd 56d1 5ebc 1613 343d
000003a0: 31d9 1c3d aa1d 243e 1691 f63d 8f66 963d
000003b0: 4bb8 c5bd 986e b0bd 51e2 e7bd f02a 50bd
000003c0: 896c 89bd 0156 9d3d 34f8 c63b b72c 1ebe
000003d0: b362 1c3e c8d9 22bd f1c1 b7bd e64d 63bb
000003e0: e26d 90bd 377d bd3d fd20 053e e439 4fba
000003f0: 6c13 f43b b294 8f3c 89e4 80bc ece0 68bd
0.018706864 0.08468605 0.12637535 0.014236592 0.09613673 -0.08972257 -0.019680776 -0.01404192
-0.06072521 0.054674778 0.046420295 -0.091536894 0.1868564 0.011723627 -0.20787896 -0.018371202
-0.091309704 0.09858183 -0.052758053 0.021338424 0.027926639 -0.19532071 0.072380975 -0.20870316
-0.059858996 0.121975444 -0.03825382 -0.17575365 -0.04134249 0.070719115 0.19149664 -0.11778944
0.06282881 -0.10177981 0.19948818 0.13706717 0.01158996 0.124096565 -0.1522289 0.033810105
0.0375669 0.05769559 -0.10487394 -0.05358941 -0.06976194 0.11183779 0.13206722 -0.00845041
-0.106410876 0.034920264 -0.041136842 -0.06882518 -0.07954519 -0.12469051 0.16862318 -0.2708621
0.13482513 -0.04799123 -0.008526676 0.037038635 -0.005998507 -0.03298009 0.09319758 0.007775403
0.0045873746 -0.1202739 -0.032415792 -0.0008482921 0.1364115 0.014171498 -0.007211868 0.114947565
-0.0010080517 0.12356089 0.10347757 0.06565908 -0.054724153 -0.094171874 0.11211593 -0.048344757
-0.20752476 0.030532863 0.2552171 -0.06644227 0.013577875 0.04371328 -0.043441057 0.19372325
-0.068948604 0.039001077 -0.01995342 -0.020104434 -0.0453739 0.05467601 -0.026001483 0.03684088
0.000977922 0.037478276 0.031668447 0.08696962 -0.0679102 -0.10842951 0.043909527 0.048963137
0.07607324 -0.069017276 -0.06846717 -0.044921838 0.10655523 0.12575491 -0.062832765 0.05636809
-0.038841162 0.04292898 -0.109930485 0.08303011 -0.067380995 0.04954017 0.12446798 -0.00948828
0.05049512 -0.049185198 0.11614892 -0.1352221 -0.13920763 -0.05443638 -0.07592605 0.008090083
-0.04298205 -0.00881762 -0.011937197 -0.05163892 -0.105963305 -0.0706896 -0.03891625 -0.04933341
-0.032920893 -0.029686438 0.049621213 0.0318174 -0.06282607 0.092660785 0.07448761 0.1139976
-0.0018327611 -0.03203709 0.09538923 0.018132051 -0.034441777 -0.008963058 0.08428142 0.05666903
0.08157799 -0.09790204 0.03678128 -0.01727202 -0.051870883 0.06989241 -0.07047406 -0.11378596
0.06243045 0.15949708 0.03989248 0.01649853 -0.0641296 0.014783942 -0.0070110345 -0.1224459
0.19902517 -0.1940083 -0.22540303 -0.08586403 -0.06228535 -0.12581056 -0.054985825 -0.104890384
0.16384403 -0.14174508 0.0859951 0.0441437 -0.037697572 0.14123431 -0.06713583 0.078361645
0.08871344 0.016591901 -0.14770158 -0.16419777 -0.13668902 0.18611625 -0.032799672 -0.09336641
-0.008324773 -0.11493085 -0.06421515 0.047316115 -0.048757806 -0.039712086 -0.05591255 0.05634984
0.04583085 -0.06249031 0.25015324 -0.07162164 0.053748537 -0.041067798 0.110151075 0.086432
0.07479246 0.052246206 0.099926606 -0.14316021 -0.0638037 -0.00927879 -0.010510985 0.098143905
0.020086868 0.009214369 0.075427055 0.25655988 -0.04353587 -0.066270426 0.015882278 -0.047579065
0.10139995 0.036355175 0.09647739 0.07123721 -0.042026423 -0.03828163 -0.013599714 0.043963514
0.038293067 0.16026941 0.12039392 0.0734378 -0.09654292 -0.08614844 -0.11322463 -0.0508222
-0.067101546 0.076824196 0.0060720686 -0.15446745 0.15272026 -0.039758474 -0.08972538 -0.0034683882
-0.070522085 0.092523985 0.13000865 -0.000790505 0.0074486043 0.017526958 -0.015733974 -0.056855127
