Unity Project/CSC 30014 Project/results/6/Car.onnx (onnx, 92134 bytes, 7 tensors)

action_model._continuous_distribution.log_sigma f4 [1, 2]
0	0xbaa7e89e	-0.0012810414
1	0x3b9200af	0.004455648

action_model._continuous_distribution.mu.bias f4 [2]
0	0xbb4dcfb1	-0.0031404311
1	0xbb8d66d7	-0.004315238

action_model._continuous_distribution.mu.weight f4 [2, 128]
0	0x3c36c695	0.011155744
1	0x3c1232b6	0.008923223
2	0x3cb06345	0.02153171
3	0x3ca682a8	0.020325974
4	0x3a003f29	0.0004892224
5	0xbb6e6b00	-0.0036379695
6	0xbc0ffced	-0.00878833
7	0x3cca2295	0.024674693
8	0xbcc210c2	-0.023689631
9	0xbd4e96c0	-0.050436735
10	0x3d115638	0.035482615
11	0xbcac83e4	-0.021058984
12	0x3d0ddeb8	0.03463623
13	0x3b621b7c	0.0034501245
14	0x3c78e35f	0.015190928
15	0xbd1901b0	-0.037355125
16	0x3b428ab8	0.0029684734
17	0x3cb7ed95	0.022452155
18	0x3c543176	0.0129512455
19	0x3c06f5a2	0.008237274
20	0x3d02642d	0.031833816
21	0x3b604a8a	0.0034224116
22	0xbcdfc1a8	-0.027314022
23	0xbc052e0a	-0.008128652
24	0x3c49901c	0.012302425
25	0xbc10fcaf	-0.008849307
26	0x3cc68611	0.02423385
27	0xbba968e8	-0.0051699765
28	0xbb42793a	-0.0029674307
29	0x3ca4f77b	0.02013754
30	0x3ccae4d3	0.024767315
31	0x3b6a805e	0.003578208
32	0xbc8db1d6	-0.017296713
33	0xbc98dffb	-0.01866149
34	0xbb7050d2	-0.0036669266
35	0xbbf0497e	-0.0073329797
36	0xbcc8c48a	-0.02450778
37	0x3b0a515f	0.002110563
38	0x3cb0c47e	0.02157807
39	0xbaafdaac	-0.001341661
40	0xbb2f01d8	-0.002670398
41	0xbd1a89d2	-0.037729092
42	0x3a6946b8	0.00088987825
43	0xbc87bbac	-0.016568981
44	0xbcaa78d6	-0.020809572
45	0x3c7d33f7	0.015454284
46	0x3ccbb3ea	0.024866063
47	0x3b592857	0.0033135617
48	0x3bbfe57d	0.0058562146
49	0x3ca5a4b0	0.02022013
50	0xbc55a796	-0.013040444
51	0x3cc27ad6	0.023740213
52	0x3c158dd1	0.00912805
53	0x3cbb666d	0.022875989
54	0xbbfa325c	-0.007635398
55	0x3c9bee1e	0.019034442
56	0xbc945865	-0.018108556
57	0xbcb11636	-0.021617036
58	0xb9bcf9b1	-0.0003604419
59	0x39d9864c	0.00041489524
60	0xbc717fd0	-0.0147399455
61	0xbc838ef3	-0.016059374
62	0x3cd9fcf0	0.026609868
63	0xbc921359	-0.017831491
64	0xbb257755	-0.002524813
65	0x3d153892	0.036430903
66	0xbbb6eb82	-0.005582274
67	0xbbcdb6e5	-0.0062779062
68	0x3c2baf98	0.0104788765
69	0xb8ea0dc1	-0.000111605514
70	0xbc205978	-0.009786956
71	0xbb237f0e	-0.0024947557
72	0x3af66252	0.0018797612
73	0xbc1abb5b	-0.009444083
74	0xbd2afdde	-0.041746013
75	0x3cc82ddc	0.02443593
76	0xbbec4f01	-0.0072115664
77	0x3b178f0b	0.0023126032
78	0x3ced5e15	0.028975526
79	0xbc59c862	-0.013292404
80	0x3c65a70e	0.01401688
81	0xbc21bd4c	-0.009871792
82	0x3b6ee92d	0.0036454902
83	0xbba12c9e	-0.004918649
84	0x3bfab545	0.0076510035
85	0xbb6f682c	-0.0036530597
86	0xba8030fb	-0.0009780222
87	0x3b96ecab	0.0046058497
88	0xbaefff25	-0.0018310292
89	0x3d3ba9eb	0.045816343
90	0x3c5c60a7	0.013450778
91	0x3a9d3b0f	0.001199575
92	0x3c8bc3cc	0.017061137
93	0xba008a26	-0.0004903398
94	0xbbe9195c	-0.007113619
95	0xbcb52e15	-0.0221167
96	0x3c404e19	0.01173737
97	0x3a91cc9b	0.0011123599
98	0xbc8edd1e	-0.017439421
99	0x372ac449	1.0178491e-05
100	0x3bdd3d49	0.0067516905
101	0x3c9038d9	0.017605232
102	0xbcf3ebac	-0.029775463
103	0xbab062ba	-0.0013457157
104	0xba705f12	-0.000916944
105	0xbd0dc25c	-0.034609184
106	0xbc5c23f4	-0.013436306
107	0xbc85fba1	-0.016355338
108	0x3aebc09c	0.0017986479
109	0xbc31d673	-0.010854351
110	0xbd160e9c	-0.036635026
111	0x39d3a530	0.0004036813
112	0x3c6e7353	0.014553863
113	0xbcbbcd71	-0.02292511
114	0xbc29e215	-0.010368844
115	0x3c32dcc2	0.010916891
116	0x3c2bb042	0.010479035
117	0x3ca07800	0.01958847
118	0x3caa26ac	0.020770393
119	0xbca5d522	-0.020243231
120	0x3c94d802	0.018169407
121	0xbc536009	-0.0129013145
122	0x3ceb2a52	0.028706703
123	0xbb873cf8	-0.004127141
124	0xbca23c2b	-0.019804081
125	0xbcb3905e	-0.021919426
126	0x3ce24d5a	0.027624775
127	0xbc854441	-0.016267898
128	0xbcc31589	-0.02381398
129	0x3c8bbf1a	0.017058898
130	0xbbf010e4	-0.0073262323
131	0xbc3a4f9c	-0.011371519
132	0x3a875e0c	0.0010327711
133	0xbc9ba478	-0.018999323
134	0x3c7fc87a	0.015611762
135	0xbcfd8140	-0.03094542
136	0xbae64cd1	-0.00175705
137	0xbd14a5e8	-0.036291033
138	0xbb04d90a	-0.0020270967
139	0x3c0e8b34	0.008700181
140	0x3c0ead6d	0.00870834
141	0xbc894347	-0.016755713
142	0x3c967865	0.018367955
143	0xbc8bf154	-0.017082848
144	0xbbf729b6	-0.007542814
145	0xbc863e4e	-0.016387131
146	0x3cd5324b	0.026024958
147	0x3c5b9b35	0.013403703
148	0x3bf42c23	0.0074515506
149	0xbcf687bd	-0.030094022
150	0x3d20a4bb	0.0392196
151	0xbbff3843	-0.0077886893
152	0xbcbddbcd	-0.023176098
153	0x3c5b0aa6	0.013369238
154	0xbc011973	-0.007879603
155	0xbd0b1187	-0.033952262
156	0xba63b39b	-0.0008686126
157	0x3bb43225	0.0054991418
158	0x3c317ba0	0.010832697
159	0x3c2e0cbc	0.010623153
160	0xbc883b58	-0.01662986
161	0xbcf2b7b8	-0.02962862
162	0xbce5c9c5	-0.028050313
163	0x3ce984ff	0.0285058
164	0x3c8a34fa	0.016870964
165	0xbcc2086b	-0.023685655
166	0x3c05ffd2	0.008178668
167	0x3b91ab30	0.004445456
168	0x3ce763e5	0.028245876
169	0x3c85cfe3	0.01633448
170	0xbc94cdbe	-0.018164512
171	0xbc1b396a	-0.009474138
172	0xbc6a23c9	-0.014290758
173	0x3ac88251	0.0015297626
174	0x3c64743f	0.013943731
175	0xbc2c9368	-0.010533191
176	0xbcbe94a4	-0.023264237
177	0xbc507476	-0.012723079
178	0x3b881922	0.0041533867
179	0x3b6d4500	0.0036204457
180	0xbcb1bc64	-0.021696277
181	0xbcdf11f4	-0.02723024
182	0xbc5760b3	-0.0131456135
183	0x3ceb8a6b	0.028752526
184	0x3bc244ec	0.0059286263
185	0xbc5f207b	-0.013618584
186	0xbccc2801	-0.02492142
187	0xbca3af6e	-0.019981112
188	0x3c5abcef	0.013350709
189	0x3c49a98f	0.012308492
190	0x3c7ebae7	0.015547491
191	0x3b227837	0.0024790892
192	0x3caf393c	0.021389596
193	0x3cafac22	0.021444384
194	0xbb366189	-0.0027829132
195	0xbb4ab315	-0.0030929495
196	0x3c4a06c9	0.012330719
197	0xbc730ec4	-0.014835063
198	0xbd0f83ab	-0.035037678
199	0xbcc49ebb	-0.02400147
200	0xbb91bb25	-0.004447358
201	0x3c4db21f	0.012554674
202	0xbc59aaa4	-0.013285313
203	0xbd1ac2ae	-0.037783317
204	0x3b7c5ee4	0.0038508708
205	0xbbef8026	-0.0073089777
206	0x3c2efb1e	0.010679988
207	0xbc887e43	-0.016661769
208	0x3c935d59	0.017988848
209	0x3cb61183	0.022225147
210	0x3b8050c6	0.003915879
211	0xbb2e0c12	-0.0026557487
212	0xbccc0f79	-0.024909722
213	0xbc862560	-0.016375244
214	0x3c8cb6b4	0.017176963
215	0x3d0183ae	0.03161972
216	0x3be2d96e	0.0069228923
217	0xbad10a4e	-0.0015948506
218	0x38d3e3ed	0.000101037185
219	0x3c5ee45f	0.013604253
220	0xbbab425b	-0.005226416
221	0x3c67d232	0.014149236
222	0x3c2bd770	0.010488376
223	0x3cc6fd44	0.024290688
224	0xbab018a6	-0.001343508
225	0xbaace770	-0.0013191532
226	0xbb944e50	-0.004525937
227	0x3c1ec2db	0.009690012
228	0x3bd74bbd	0.006570308
229	0x3bb584dc	0.0055395197
230	0xbc9cf98f	-0.019161968
231	0xbb053c77	-0.002033023
232	0xbba2480c	-0.0049524363
233	0x3b564657	0.0032695734
234	0x3d16d2fe	0.03682231
235	0x3c376ed5	0.011195858
236	0xbc30001d	-0.0107422145
237	0xbaef215b	-0.0018244194
238	0xbb7d7524	-0.0038674558
239	0xbc985d24	-0.0185991
240	0xbaa37ec4	-0.0012473692
241	0x3b9983ab	0.0046848855
242	0x3bc459ea	0.005992164
243	0xbc8860d3	-0.016647732
244	0xbaee6e01	-0.0018190743
245	0xbc269d5c	-0.010169353
246	0x3d0f1249	0.034929547
247	0x3c5717d9	0.013128244
248	0x3b457d28	0.0030134413
249	0x3c9a581b	0.01884084
250	0xbc9cb85c	-0.019130878
251	0xbcf51386	-0.029916536
252	0x3c549a1e	0.0129761975
253	0xbc0c9849	-0.0085812295
254	0x3cf4be8e	0.02987602
255	0x3d21b23d	0.039476622

network_body._body_endoder.seq_layers.0.bias f4 [128]
0	0xbbca614e	-0.0061761504
1	0xbaf2e692	-0.001853185
2	0xbb850ec6	-0.004060599
3	0x3b05b105	0.0020399701
4	0xbb52f5d4	-0.0032189982
5	0xb9cb252e	-0.00038746878
6	0xbb9b614b	-0.004741823
7	0x3bbf5ea9	0.005840142
8	0xbbb0b8f4	-0.005393142
9	0x3a3dbeca	0.00072382076
10	0x398e09f0	0.00027091755
11	0xbbcc7658	-0.0062396936
12	0xbb501655	-0.0031751592
13	0xbb80be2a	-0.0039289193
14	0xb98394c1	-0.00025097097
15	0xb9c30aa7	-0.00037201235
16	0x3bb4086c	0.005494168
17	0xbb5a716b	-0.0033331763
18	0x3b2b771c	0.0026163524
19	0x3b172559	0.0023063032
20	0xba2bcb8a	-0.0006553462
21	0xbba97590	-0.0051714852
22	0x3b34ce80	0.0027588904
23	0x3ba5468f	0.0050438116
24	0xbb9a3efb	-0.004707215
25	0xbbc326a9	-0.0059555364
26	0xb8b4646e	-8.601775e-05
27	0x3b42bb8d	0.002971384
28	0xbb943d0e	-0.00452388
29	0x3a930b58	0.0011218591
30	0x3bac931b	0.00526656
31	0xba320406	-0.00067907607
32	0x3a08ca5b	0.00052181416
33	0x3a94eab4	0.0011361451
34	0x3b05a8b1	0.0020394737
35	0x3adf71e6	0.0017047494
36	0xbb18c4fe	-0.0023310776
37	0x3a8bd1b7	0.0010667358
38	0xbbbe3435	-0.0058045634
39	0x3bcceee4	0.006254064
40	0xbbc42a75	-0.0059865066
41	0xbb5705d5	-0.0032809873
42	0x3a673f87	0.0008821417
43	0xbbb9ab0f	-0.0056661437
44	0x3b920306	0.004455927
45	0x3aac3420	0.0013138093
46	0x3a0f891e	0.0005475449
47	0x3bbac587	0.0056998166
48	0x39175a4d	0.00014434122
49	0xb9f86d8b	-0.00047383862
50	0x3bb3aab2	0.005482995
51	0xbbac78ef	-0.00526344
52	0x3b970b33	0.0046094893
53	0x3b04bd4a	0.0020254427
54	0xbb0514d4	-0.0020306604
55	0xbb52a0e6	-0.003213936
56	0xb9d50371	-0.0004062909
57	0x3ab9d7a2	0.0014178643
58	0xbb194ab2	-0.002339047
59	0x3b6fccae	0.0036590504
60	0x3a8169ee	0.0009873488
61	0xbb1885c7	-0.0023273097
62	0xbb98b588	-0.004660312
63	0x3b51ba16	0.0032001785
64	0x3b548217	0.0032426172
65	0x3b8931c4	0.0041868407
66	0xbb919a33	-0.004443431
67	0xbb8ca1a6	-0.004291731
68	0x3b8bf0df	0.0042706574
69	0xbbc658dd	-0.006053074
70	0xbabf56be	-0.0014597995
71	0x3a1c451e	0.0005961227
72	0xbacd6aa0	-0.0015672036
73	0xbaead907	-0.0017917462
74	0x3bb20152	0.0054322863
75	0x3b59bb64	0.0033223266
76	0xb70d3084	-8.415551e-06
77	0xbb9f01da	-0.0048525156
78	0xbb6dec1e	-0.0036304067
79	0xbb852c2a	-0.0040641027
80	0x3bc49708	0.0059994496
81	0x39bc13f9	0.00035873035
82	0x39bf10b1	0.00036442795
83	0x3a039127	0.0005018883
84	0x3ba65e5c	0.0050771665
85	0x3b1b30d1	0.002368022
86	0x3b395966	0.0028282045
87	0xbba86ee3	-0.005140172
88	0x3bbc8a71	0.005753808
89	0xbb6ac906	-0.0035825386
90	0xbb393830	-0.002826225
91	0x3bc1ce6a	0.005914499
92	0x3b60eb21	0.0034319835
93	0xbae572ff	-0.0017505585
94	0x3a1adf7e	0.0005907937
95	0x3bbf1529	0.00583138
96	0x3b18877b	0.0023274112
97	0xbbc1f04f	-0.0059185396
98	0x3b395955	0.0028282006
99	0x3b27446b	0.0025522958
100	0xbbb8b826	-0.0056371866
101	0x3b0e443d	0.0021708154
102	0xbb88f65b	-0.0041797585
103	0x3b717307	0.0036842243
104	0x3b22ff81	0.002487153
105	0xba633946	-0.0008667897
106	0xba080f5c	-0.0005190277
107	0x3b7577b9	0.0037455393
108	0xbb192fae	-0.0023374367
109	0x3adc20ab	0.0016794404
110	0xbbcba246	-0.006214413
111	0xbbbeca22	-0.005822436
112	0xbb86dd13	-0.0041157096
113	0xbaca03f9	-0.0015412561
114	0xbbbe1f41	-0.0058020656
115	0xbbb31388	-0.005464975
116	0x3bc1b945	0.0059119784
117	0x3b70f7a8	0.0036768708
118	0x3b937132	0.004499578
119	0x3b9869da	0.0046512904
120	0xbb197ccd	-0.0023420334
121	0xbba5fa07	-0.005065206
122	0x3b8f0d8f	0.00436563
123	0xb8cd3427	-9.784876e-05
124	0xbabb97ac	-0.001431217
125	0x3b219158	0.0024653282
126	0xbbc31b67	-0.0059541943
127	0xbaa29a21	-0.0012405553

network_body._body_endoder.seq_layers.0.weight f4 [128, 44]
0	0x3dc84f5d	0.09780762
1	0xbcbbd039	-0.022926437
2	0x3e883d37	0.26609203
3	0xbe1dd7ac	-0.15414304
4	0x3dad6884	0.084672004
5	0xbda62af7	-0.08113664
6	0xbe27f436	-0.16401753
7	0x3c96c709	0.018405454
8	0x3e63283d	0.22183318
9	0x3dac1cb1	0.0840391
10	0xbd0a7973	-0.03380723
11	0x3ea4de0f	0.32200667
12	0xbcc1620d	-0.023606325
13	0xbd59e9be	-0.05320143
14	0x3df9fed2	0.12206806
15	0xbdf69a85	-0.12041191
16	0x3de85ba1	0.11345602
17	0xbe85a243	-0.26100358
18	0x3e7c07ea	0.24612394
19	0xbe982de9	-0.29722527
20	0x3ded8bcd	0.115989305
21	0xbddf33de	-0.10898565
22	0x3da17ccc	0.07885131
23	0xbe2cb5cc	-0.16866225
24	0xbec72309	-0.38893917
25	0xbdb35d5d	-0.08758042
26	0xbdc3071e	-0.09522842
27	0xbe471272	-0.1944063
28	0x3e718bc9	0.2358848
29	0xbe15483c	-0.14578336
30	0xbe4c0058	-0.19922006
31	0xbe2a5bed	-0.1663663
32	0x3e729ba7	0.23692189
33	0x3d102a59	0.035196636
34	0xbcf705ea	-0.030154187
35	0xbe4018b9	-0.18759431
36	0x3d16d5af	0.03682488
37	0x3db4e7bd	0.08833263
38	0x3e08e6a7	0.13369237
39	0x3e0c3e27	0.13695584
40	0xbca5372c	-0.02016791
41	0x3d9f1996	0.07768552
42	0xbd46e449	-0.048557553
43	0x3d7115b7	0.0588586
44	0x3d887571	0.06663025
45	0x3cd202d3	0.025636112
46	0xbd92dc8e	-0.07170974
47	0xbbc89bd4	-0.006122092
48	0x3c25d18b	0.01012076
49	0x3ea076a6	0.31340522
50	0xbd179838	-0.0370104
51	0xbec3ceb3	-0.38243636
52	0x3eef7fda	0.4677723
53	0x3e494430	0.19654918
54	0x3d520d36	0.05128213
55	0x3d2c2d4c	0.042035386
56	0x3c8c5f8e	0.017135408
57	0x3dc5a6ff	0.096509926
58	0x3e832e55	0.25621286
59	0xbd3bcba8	-0.04584852
60	0xbde04867	-0.1095131
61	0x3deb08b7	0.114762716
62	0x3e25ef27	0.1620451
63	0xbe3d3178	-0.18475902
64	0xbe1a5244	-0.15070444
65	0xbe0d3994	-0.13791496
66	0xbef5a6df	-0.47978875
67	0x3d6900d5	0.05688556
68	0x3e8c7489	0.2743266
69	0x3e46a5d7	0.193992
70	0xbe9da2e4	-0.30788338
71	0xbd004f5c	-0.031325683
72	0xbdd3b02f	-0.10336339
73	0x3ca33d4c	0.01992669
74	0x3c88e01c	0.016708426
75	0xbe7637c8	-0.24044716
76	0xbdf37de9	-0.1188925
77	0xbe9bfc3f	-0.30465886
78	0xbd33d72b	-0.043906372
79	0x3befc66c	0.007317355
80	0xbd220b8e	-0.0395618
81	0x3d9d2059	0.076721855
82	0x3ca0dd6a	0.019636828
83	0xbc4e9644	-0.012609068
84	0x3e5e385a	0.21701184
85	0x3b69122f	0.0035563817
86	0x3d9822ef	0.07428538
87	0xbc9f310d	-0.019432569
88	0x3e2904d7	0.16505753
89	0xbde48263	-0.11157682
90	0xbeac64f8	-0.33670783
91	0xbe1025fd	-0.14076991
92	0xbd91c91d	-0.071184374
93	0xbd700058	-0.058594078
94	0xbe0cdf74	-0.13757116
95	0x3df02623	0.11726024
96	0xbe509dfd	-0.20372768
97	0x3d879c27	0.066215806
98	0x3e0b0039	0.13574304
99	0x3d97f80c	0.07420358
100	0xbd605fb6	-0.054778777
101	0x3ca50ef6	0.020148735
102	0xbe2831e0	-0.16425276
103	0x3e50b30b	0.203808
104	0xbcda0e65	-0.026618192
105	0xbd27f9cc	-0.04100971
106	0xbe5125ba	-0.20424548
107	0x3e11f79f	0.14254616
108	0xbd8ad414	-0.06778732
109	0xbce54c53	-0.027990496
110	0x3d98ce7a	0.07461257
111	0x3d5e7525	0.054310936
112	0x3d7b7e62	0.061399825
113	0xbe5ae2ec	-0.21375626
114	0xbea1f981	-0.3163567
115	0x3cafd14d	0.021462107
116	0xbd365067	-0.04451027
117	0x3d03272e	0.032019787
118	0xbd662473	-0.056187104
119	0x3e882b78	0.26595664
120	0xbe84bd59	-0.2592571
121	0xbdc2d32e	-0.095129356
122	0x3e7ca0c5	0.24670704
123	0x3e17c9bc	0.1482305
124	0xbd2f4032	-0.04278583
125	0xbb58a38c	-0.0033056466
126	0x3def6182	0.1168852
127	0x3daa90ab	0.083283745
128	0x3e82dfdf	0.25561425
129	0x3e08b712	0.13351086
130	0x3e10dc2e	0.14146492
131	0x3e1c1493	0.15242223
132	0xbca96fe1	-0.02068323
133	0x3cd77904	0.026302822
134	0x3d82e844	0.063919574
135	0x3da02288	0.07819086
136	0x3e703ee6	0.23461494
137	0x3ddb8c71	0.107201464
138	0xbda5e975	-0.08101169
139	0xbd7ea496	-0.06216868
140	0x3e940975	0.28913465
141	0x3dbcdec6	0.09222178
142	0xbe8de433	-0.27713165
143	0x3d3aa487	0.04556706
144	0xbdb55645	-0.08854345
145	0xbe495e1c	-0.19664806
146	0xbd3c5dad	-0.045987774
147	0xbe0c399a	-0.13693848
148	0x3e6091be	0.21930596
149	0x3db6267d	0.0889406
150	0x3e80d1c3	0.25160035
151	0x3d880428	0.06641418
152	0xbdc82569	-0.097727604
153	0x3e664ed5	0.2249101
154	0xbdf1ee19	-0.11812992
155	0xbc1b2736	-0.009469798
156	0x3e4c4e8c	0.19951838
157	0xbc68ecdb	-0.014216627
158	0xbd1c1315	-0.038104136
159	0x3b9dd13e	0.0048162034
160	0x3d309df1	0.043119375
161	0xbe41f96a	-0.189428
162	0x3dad20ae	0.08453499
163	0xbc84fe75	-0.016234616
164	0xbdf840ca	-0.121217325
165	0xbd0d400b	-0.034484904
166	0xbd0045ee	-0.03131669
167	0x3ece0810	0.40240526
168	0xbd07ca50	-0.033151925
169	0xbd9f91dc	-0.07791492
170	0x3d3a8a7c	0.045542225
171	0xbd8361b1	-0.064151175
172	0xbe92542c	-0.28579843
173	0x3e47b733	0.19503479
174	0x3e292302	0.1651726
175	0x3decd1f3	0.11563482
176	0x3d625211	0.055254046
177	0xbd865bd0	-0.065604806
178	0x3d74858a	0.059697665
179	0x3ddd4c2f	0.108055465
180	0x3de479fd	0.1115608
181	0x3d807e41	0.06274081
182	0x3d3689f6	0.044565164
183	0xbe2f37b1	-0.17111088
184	0xbdad89e6	-0.08473568
185	0xbdb11732	-0.08647002
186	0xbe9d85d3	-0.30766162
187	0xbd924481	-0.07141972
188	0x3e752d2e	0.23943016
189	0x3d1be43e	0.038059466
190	0xbd222377	-0.039584603
191	0xbeef95ae	-0.46793884
192	0xbe28b55b	-0.16475432
193	0x3c5a5178	0.013325088
194	0xbdbb07c4	-0.091323406
195	0x3cc37d86	0.023863565
196	0x3d84d3d5	0.06485716
197	0x3cd30683	0.025759941
198	0x3bd586dc	0.0065163206
199	0x3d360778	0.044440717
200	0x3e2bf911	0.1679423
201	0x3d0ab485	0.033863563
202	0xbdda166f	-0.1064881
203	0xbd9ce9d6	-0.07661788
204	0x3e1d8ccf	0.15385745
205	0x3e06abb5	0.13151439
206	0xbda35139	-0.07974476
207	0xbd8aa899	-0.06770439
208	0x3e8c161b	0.27360615
209	0x3e25e605	0.16201027
210	0x3d881a32	0.06645621
211	0xbd65d649	-0.05611256
212	0x3e27f73c	0.16402906
213	0x3dc2e07d	0.09515474
214	0x3d3c3ca8	0.045956284
215	0xbe322d56	-0.17400107
216	0xbdc261de	-0.09491323
217	0xbeaf9dc2	-0.34300047
218	0xbda73962	-0.08165242
219	0x3c30be7e	0.010787604
220	0xbe1ea7ba	-0.1549367
221	0x3dba9424	0.09110287
222	0x3e0199f0	0.12656379
223	0xbd58b9c3	-0.05291153
224	0xbd1c13d7	-0.03810486
225	0xbe82b559	-0.25528982
226	0x3db23db2	0.08703174
227	0x3de7a5ed	0.11310945
228	0x3d883d54	0.066523224
229	0xbd062e73	-0.03275914
230	0xbd97eb9d	-0.074179865
231	0xbe00037e	-0.12501332
232	0xbe1e9f49	-0.1549045
233	0x3d04f501	0.032460216
234	0xbd1f539e	-0.038898103
235	0x3e75be81	0.23998453
236	0xbcdbfec6	-0.026854884
237	0x3d2222f2	0.039584108
238	0x3e524bf4	0.20536786
239	0xbad26204	-0.001605094
240	0xbe8e36b6	-0.27776116
241	0x3dff27db	0.12458774
242	0xbdd180c1	-0.10229636
243	0xbeb30ca0	-0.3497057
244	0x3e799a16	0.24375185
245	0xbde0dea5	-0.10979966
246	0xbda62aa5	-0.081136025
247	0x3e2f039a	0.17091218
248	0x3e3844ff	0.1799507
249	0x3e374ce8	0.17900431
250	0x3df3de2a	0.11907609
251	0xbe03d88d	-0.12875576
252	0x3daedbb4	0.08537999
253	0xbd04135f	-0.032245036
254	0x3ec2f47d	0.38077155
255	0x3deda1ee	0.11603151

network_body._body_endoder.seq_layers.2.bias f4 [128]
0	0x3b143d07	0.0022619383
1	0xbbc060c5	-0.005870911
2	0xbb0ba775	-0.002130953
3	0x3a32fe94	0.0006828096
4	0x3ba0a1ac	0.0049020853
5	0x3b94c452	0.004540005
6	0xbad88142	-0.0016518014
7	0x3ab84967	0.0014059962
8	0x3b34ce3d	0.0027588748
9	0x3bbf7609	0.0058429283
10	0xbb10c53a	-0.0022090212
11	0xb85e26dc	-5.2965115e-05
12	0xbb7fb296	-0.0039016358
13	0x3b4b2ace	0.0031000855
14	0xbbca024e	-0.0061648255
15	0x3ba31ec7	0.004978034
16	0x3b833424	0.0040040184
17	0x3a95e02f	0.001143461
18	0xbbc2a6ad	-0.0059402795
19	0xbbc1e045	-0.0059166276
20	0xbb9aadb5	-0.0047204145
21	0x3b845900	0.00403893
22	0xbaeeddd8	-0.0018224074
23	0x3bc6b918	0.0060645454
24	0x3b0dd7e6	0.0021643578
25	0xbb09f6f2	-0.0021051732
26	0xb9efc46b	-0.00045731975
27	0x3b970b8e	0.0046095317
28	0x3bbde01c	0.005794538
29	0xbb796e90	-0.0038060285
30	0xbb96e60e	-0.0046050614
31	0xbbb539e8	-0.0055305846
32	0x3bc7b6aa	0.0060947733
33	0x3bc6aedc	0.0060633253
34	0x3baf260f	0.005345113
35	0xbb50d7a2	-0.0031866808
36	0xba6cfa7c	-0.00090400106
37	0x3b7383de	0.0037157456
38	0xbbaef38a	-0.0053390907
39	0x3a3c5058	0.0007183603
40	0xbb8450c9	-0.0040379507
41	0x39811d4e	0.0002462663
42	0x3b787171	0.0037909413
43	0x3ba74e9a	0.0051058056
44	0x3bb7f390	0.0056137517
45	0xbb17506a	-0.0023088702
46	0xbbaae3e7	-0.0052151564
47	0x3b6f4f3c	0.0036515733
48	0x3b4e677d	0.003149479
49	0x3a760c75	0.00093860115
50	0xb955425e	-0.00020337987
51	0xbb8ff67a	-0.004393396
52	0x3b505603	0.0031789548
53	0x3b0531ae	0.00203238
54	0x3bc2cbd2	0.0059447074
55	0xbbc802bb	-0.006103841
56	0x392e180b	0.0001660289
57	0x3bc0cdc3	0.0058839037
58	0x3b94cf1f	0.0045412923
59	0x3b8f28f5	0.004368896
60	0xb84fc002	-4.9531467e-05
61	0x39df99cc	0.00042648462
62	0xbbaf6715	-0.0053528645
63	0x3b60190b	0.0034194614
64	0xbb891e95	-0.004184554
65	0xbbb684a0	-0.0055700094
66	0x3afa0bd6	0.0019077014
67	0x3b210556	0.002456983
68	0xbbc56e95	-0.0060251453
69	0x3b7c5ea7	0.0038508566
70	0x3bb794c8	0.005602453
71	0x3b95b6a8	0.0045688935
72	0x3b878094	0.0041352008
73	0xbaabd4e6	-0.0013109713
74	0x3ba2e1ce	0.0049707657
75	0x3b2bd468	0.0026219133
76	0xbaf28cd7	-0.0018505108
77	0x3aa3a28a	0.0012484354
78	0xbb92b190	-0.0044767335
79	0x3bcb415a	0.006202859
80	0xbbca2f78	-0.0061702095
81	0xbb1d0570	-0.002395954
82	0xbb3665a6	-0.0027831583
83	0x3bc108b7	0.0058909315
84	0x3b53fb15	0.0032345701
85	0x3bb2738b	0.0054459027
86	0xbb7254c2	-0.003697679
87	0xbbae3293	-0.0053160875
88	0xbab49b83	-0.0013779256
89	0xbb5783ed	-0.003288503
90	0xbaba9272	-0.0014234318
91	0xbb8613d0	-0.0040917173
92	0xbb206bf6	-0.0024478412
93	0xbb693514	-0.0035584616
94	0xba1de280	-0.0006022826
95	0xbb02b08e	-0.001994166
96	0xbb7b42c7	-0.0038339363
97	0x3a64e499	0.00087315735
98	0x3b60bab3	0.003429097
99	0xbba9d9a0	-0.0051834136
100	0xbbc4ec48	-0.006009612
101	0xbb78a4cd	-0.0037940026
102	0x3bb82ce0	0.005620584
103	0xbaa32154	-0.0012445846
104	0x3bb634c6	0.0055604903
105	0x3b03476e	0.002003159
106	0xbb3e4830	-0.0029034726
107	0x38378189	4.375124e-05
108	0x3b3c42b8	0.002872629
109	0x3b0b8c37	0.0021293291
110	0x3b4eaba7	0.0031535418
111	0x3b7be77d	0.0038437538
112	0xbb42470d	-0.00296444
113	0x3b371a91	0.0027939419
114	0x3af8ac58	0.0018972261
115	0x3af32304	0.0018549864
116	0xb84eb9cd	-4.9287268e-05
117	0x39e883b2	0.0004434861
118	0xbbc50c61	-0.0060134386
119	0xba618bef	-0.00086039206
120	0xbb41e513	-0.0029586002
121	0xbb304288	-0.0026895124
122	0xb9b50de2	-0.00034533354
123	0x3b933426	0.0044923006
124	0xba841e4a	-0.0010079828
125	0x3b90ec40	0.0044226944
126	0xbbc76d63	-0.006086038
127	0xbb34b4f2	-0.0027573672

network_body._body_endoder.seq_layers.2.weight f4 [128, 128]
0	0x3d87964e	0.06620465
1	0xbd064e2e	-0.0327894
2	0x3def9911	0.11699117
3	0x3e172a12	0.14762142
4	0x3bf122f7	0.0073589045
5	0xbda94608	-0.082653105
6	0x3d1b1dfa	0.037870385
7	0xbd0ad1fa	-0.033891656
8	0xbd4e40ef	-0.050354894
9	0x3dc1a470	0.09455192
10	0x3e0bc19c	0.13648075
11	0x3d1f01e9	0.03882018
12	0x3d07a83c	0.033119425
13	0x3b97744d	0.0046220184
14	0x3e10fc3a	0.14158717
15	0x3c4118a1	0.011785657
16	0x3ced192e	0.02894267
17	0xbd2ecc59	-0.04267535
18	0xbd7525be	-0.059850447
19	0xbdcf28bd	-0.10115192
20	0x3dc355de	0.09537862
21	0x3e2cd4db	0.16878073
22	0xbd8880df	-0.06665205
23	0xbd9df0f4	-0.07711974
24	0xbdb35d26	-0.08758001
25	0xbc84a957	-0.016194029
26	0xbe0d1428	-0.1377722
27	0x3d28ddd1	0.041227166
28	0xbb71c839	-0.0036893024
29	0x3d9b39d6	0.07579391
30	0x3da7eb04	0.081991225
31	0xbcda65d1	-0.026659878
32	0x3df62b82	0.12020017
33	0x3d5f054d	0.054448415
34	0x3e440b28	0.19144881
35	0x3df8b1c3	0.1214328
36	0x3d573e95	0.052549917
37	0x3dc15267	0.09439545
38	0x3abfe950	0.0014641676
39	0xbd62a026	-0.05532851
40	0x3d7ad310	0.06123644
41	0xbe115179	-0.14191236
42	0x3e3006e9	0.17190136
43	0x3d1b61c1	0.037935022
44	0xbbd95981	-0.006632984
45	0xba9a8f4f	-0.0011791977
46	0xbde1823a	-0.11011167
47	0xbe614e54	-0.22002536
48	0xbd4d75f4	-0.050161317
49	0x3d934a07	0.07191854
50	0x3db8d78a	0.09025486
51	0x3c3d75e4	0.011563752
52	0x3e0917ce	0.13387987
53	0xbd3df589	-0.04637674
54	0x3d8605cf	0.06544077
55	0x3d742111	0.059601847
56	0xbcc03d9d	-0.02346688
57	0x3cdff6e0	0.027339399
58	0xbd8b5774	-0.0680379
59	0xbcb221f4	-0.021744706
60	0x3c609fd5	0.013709982
61	0x3d615f1e	0.05502235
62	0x3c879f90	0.016555578
63	0xbd88ea27	-0.06685286
64	0x3dfc9bb3	0.12334385
65	0x3daa6854	0.0832068
66	0xbb1ea014	-0.00242043
67	0xbdf54afa	-0.11977191
68	0xbd2370f8	-0.039902657
69	0x3dab4f8c	0.08364782
70	0xbdc27131	-0.09494246
71	0xbd8dc7b5	-0.06922857
72	0x3d29cedf	0.041457053
73	0x3d7de52f	0.061986145
74	0x3b68ff87	0.0035552697
75	0xbde7be87	-0.11315637
76	0xbda72522	-0.081613794
77	0xbd70814b	-0.058717053
78	0x3deb3757	0.114851646
79	0x3df81823	0.12113979
80	0xbda33a82	-0.07970144
81	0x3e36d2b4	0.17853814
82	0x3b555fc0	0.0032558292
83	0x3d761061	0.060074214
84	0xbd08cbcb	-0.033397477
85	0xbcf10fec	-0.029426537
86	0x3d1d6358	0.03842482
87	0xbd87dd33	-0.06633987
88	0xbc63ba02	-0.013899328
89	0xbd9f806c	-0.077881664
90	0xbe1615bb	-0.14656727
91	0xbc15359d	-0.009107021
92	0x3c3ddd00	0.011588335
93	0xbe36204d	-0.1778576
94	0xbc454927	-0.012041367
95	0xbd8c0195	-0.06836239
96	0xbb0f56fc	-0.0021871915
97	0xbdbc70ef	-0.09201228
98	0xbc30e088	-0.01079572
99	0xbd981be7	-0.07427197
100	0xbd835610	-0.064128995
101	0x3d383647	0.044973638
102	0xbd9476d3	-0.072492264
103	0xba84571c	-0.0010096761
104	0x3cc00bda	0.023443151
105	0x3cce1960	0.025158584
106	0xbd561bea	-0.052272715
107	0x3d88125c	0.06644127
108	0xbdd850fd	-0.10562322
109	0xbbdeaa1b	-0.0067951805
110	0x3d58639d	0.052829374
111	0xbd41d59a	-0.047322847
112	0xbe02066b	-0.12697761
113	0x3ab4acf1	0.0013784451
114	0xbd3a1763	-0.04543246
115	0xbdbde3f6	-0.09271996
116	0x3d2f0fc6	0.042739652
117	0xb95c9cf7	-0.00021039309
118	0x3cd3bd27	0.02584703
119	0xbd5cfacd	-0.05395012
120	0x3bb50bad	0.0055250735
121	0xbc0d4249	-0.008621761
122	0x3cf91382	0.03040481
123	0xbdecc379	-0.11560721
124	0xbd3db068	-0.046310812
125	0x3c928df2	0.01788995
126	0xbc7ced89	-0.015437492
127	0xbd753862	-0.059868224
128	0xbcd5a855	-0.026081244
129	0x3b1a53d5	0.0023548503
130	0x3b168276	0.0022965944
131	0xbd66548e	-0.05623298
132	0x3d8b33dc	0.06797001
133	0xbce3702e	-0.027763452
134	0x3e2055f8	0.15657794
135	0xbd85cf18	-0.065336406
136	0xbbfb4cf2	-0.0076690847
137	0x3cc8994f	0.024487166
138	0xbd3fa118	-0.04678449
139	0x3e51ce4d	0.20488854
140	0x3d6d482b	0.057930153
141	0xbd1fbe39	-0.03899977
142	0x3e55ea28	0.20890105
143	0xbb9eb03d	-0.0048427866
144	0xbcaa6309	-0.020799177
145	0x3e19d4bd	0.1502256
146	0x3b49ad79	0.0030773564
147	0xbd3c09c6	-0.04590776
148	0x3e159e99	0.14611281
149	0xbdb38ec1	-0.087674625
150	0x3daed6dc	0.08537075
151	0xbe06568e	-0.13118955
152	0xbe198f7f	-0.14996146
153	0x3a1b2e8f	0.00059197185
154	0x3e1499cd	0.14511795
155	0xbc8353d4	-0.016031183
156	0x3ddae010	0.10687268
157	0x3c254553	0.010087329
158	0xbe0a94d9	-0.13533343
159	0xbe1226e7	-0.14272653
160	0xbb711120	-0.003678389
161	0x3dd979b4	0.10618916
162	0xbcf190aa	-0.029487927
163	0xbd94f4f5	-0.07273284
164	0x3d8a5513	0.06754508
165	0xbd87ef1d	-0.06637404
166	0xbd8231cb	-0.063571535
167	0xbdeb8d15	-0.11501519
168	0xb9baa720	-0.00035601202
169	0xbdb404cb	-0.08789977
170	0x3dff8c1e	0.12477897
171	0xbbc5f3dd	-0.0060410337
172	0xbcd67c18	-0.02618222
173	0xbc07301f	-0.008251219
174	0x3cca42bb	0.024690023
175	0xbdb18434	-0.08667794
176	0x3d5a09d9	0.053232048
177	0xbd826801	-0.063674934
178	0x3c38ea65	0.011286353
179	0x3d59ee76	0.05320593
180	0x3c4b67e5	0.012414907
181	0xbe43bfe2	-0.19116166
182	0xbd2941d3	-0.04132254
183	0x3d00611b	0.031342607
184	0xbcb748b5	-0.022373537
185	0x3c111f3a	0.008857543
186	0xbdfbf5b8	-0.123027265
187	0x3c877347	0.01653446
188	0xbd9558ac	-0.072923034
189	0x3d288a46	0.041147493
190	0x3e045dd9	0.12926425
191	0x3b745db2	0.0037287292
192	0xbe1766fb	-0.14785378
193	0xbce10da0	-0.027472317
194	0xbb8f2a01	-0.004369021
195	0xbdd2f89e	-0.10301326
196	0x3dca1af5	0.09868423
197	0x3d96670b	0.07343873
198	0xbcf0067e	-0.02929997
199	0xbd388221	-0.045045976
200	0xbcb3d265	-0.02195091
201	0x3d497c59	0.049190853
202	0xbe146937	-0.14493261
203	0x3d7922cd	0.060824204
204	0x3d2b9cbc	0.04189752
205	0x3e331af8	0.17490757
206	0xbccdfa72	-0.025143836
207	0xbcc679ee	-0.024228062
208	0x3cd62384	0.026139982
209	0xbe50f1cc	-0.20404738
210	0x3e110eaf	0.14165758
211	0xbda85b79	-0.08220572
212	0xbe349769	-0.17635883
213	0xbe57263a	-0.21010676
214	0x3d0cb0c1	0.034348253
215	0xbe01959b	-0.12654726
216	0x3c2b4029	0.010452309
217	0xbd1e444b	-0.038639348
218	0xbd535cea	-0.05160228
219	0xbda144da	-0.078744605
220	0xbdb6d696	-0.08927648
221	0x3d45d29d	0.04829656
222	0xbcd84931	-0.026402088
223	0xbe45878b	-0.19289987
224	0x3d98ac4f	0.0745474
225	0x3e1896d8	0.14901292
226	0xbcd1339b	-0.025537303
227	0x3db8683f	0.09004258
228	0x3d41cad3	0.04731257
229	0x3d83410c	0.06408891
230	0x3cb981c7	0.02264489
231	0x3d1321d3	0.03592093
232	0x3d077d8e	0.033078723
233	0xbdbeab07	-0.093099646
234	0x3b346e07	0.0027531402
235	0x3d7dc44f	0.061954793
236	0xbb372db0	-0.0027950816
237	0x3cb2e67f	0.021838425
238	0xbdf67e0e	-0.12035762
239	0x3de8d420	0.11368585
240	0xbddf5860	-0.10905528
241	0xbb2b3491	-0.0026123861
242	0x3dc90f15	0.0981733
243	0xbdbee080	-0.09320164
244	0xbd5b4e9d	-0.05354177
245	0xbe15b07b	-0.14618103
246	0xbe242b8c	-0.16032237
247	0xbd654e2e	-0.05598276
248	0xbd4524c8	-0.04813078
249	0xbd7384a9	-0.059452686
250	0xbc5bca9a	-0.013415003
251	0x3d8696da	0.065717414
252	0xbc066e5f	-0.008205025
253	0xbca0ba95	-0.01962022
254	0xbcc6b901	-0.024258139
255	0xbd0f6c31	-0.03501529
