Unity Project/CSC 30014 Project/results/test/Car/Car-1441829.onnx (onnx, 108006 bytes, 7 tensors)

action_model._continuous_distribution.log_sigma f4 [1, 2]
000000 07 90 0a bf 34 a0 5e be
       -0.5412602 -0.217408

action_model._continuous_distribution.mu.bias f4 [2]
000000 a2 e7 97 bb 78 a1 33 3c
       -0.004635767 0.01096379

action_model._continuous_distribution.mu.weight f4 [2, 128]
000000 3a ff e8 ba 52 78 38 3d 9c 20 cb 3c c4 12 ac 3c
       -0.0017776259 0.04503662 0.024795823 0.021005042
000010 23 26 da bb 24 aa 5d 3d 7a a0 e4 3c b1 f5 a1 bc
       -0.0066573783 0.054117337 0.027908552 -0.019770475
000020 8b 96 4c 3b 4f 5f 3a bc ea 50 c3 bc 0e a5 8a bd
       0.003121766 -0.011375262 -0.023842294 -0.06769763
000030 db 2b aa bc a7 29 df bb 8f 14 17 bd 22 c3 40 3d
       -0.020772865 -0.0068103853 -0.03688484 0.047061093
000040 a9 13 72 ba 58 d8 aa bc 76 71 93 bc 57 13 a2 bc
       -0.0009234497 -0.020855114 -0.017998438 -0.019784613
000050 aa dc 84 bc 65 2b e9 bc 6c 2b 56 3b ad 72 09 3d
       -0.016218502 -0.028463075 0.003267969 0.03355663
000060 74 2b 51 3b 28 51 a6 bc 08 51 14 3a 3a 8c a3 3c
       0.003191677 -0.02030237 0.00056578266 0.019964326
000070 e8 1f f2 3c 21 90 88 bc d6 bf 82 3c 17 32 aa bc
       0.02955623 -0.016670289 0.015960615 -0.020775838
000080 87 b8 19 3d a2 d8 e3 bc b0 ce 93 bb 96 35 c9 3b
       0.037529495 -0.02781326 -0.004510723 0.006140421
000090 a2 3e 52 bd 65 7c 65 3b 5f 6c 8e bc db 6b 71 3c
       -0.051329263 0.0035016772 -0.01738566 0.014735187
0000a0 b0 c6 88 3d 90 5a 0f 3d b6 a5 a3 3d 09 07 05 bd
       0.06678522 0.034998477 0.07990591 -0.032477412
0000b0 00 2a c8 bc 77 a3 8f bb bb 1f 0f ba 67 a4 26 3a
       -0.02443409 -0.0043835 -0.00054597453 0.00063568953
0000c0 2b b4 c3 3c 05 75 8a bc 73 12 39 bc 4e b8 8d bb
       0.023889622 -0.016901502 -0.011295903 -0.0043249493
0000d0 5b 9c aa bc aa 6b 3e 3d da 14 42 bd c5 57 4f 3d
       -0.02082651 0.046489395 -0.047383167 0.050620813
0000e0 1a 0b e8 3c 3c bb 25 3d 41 db 9f 3c ac 36 4d 3b
       0.028325606 0.040461764 0.019513728 0.0031313105
0000f0 93 a7 b1 3c 51 d0 7a 3c ec 70 72 bc ec 43 3c ba
       0.02168635 0.015308456 -0.0147974305 -0.0007181752
000100 15 f3 4b bc c4 68 95 3c 42 50 ba 3c a1 5d cb 3a
       -0.012448092 0.018238433 0.022743348 0.0015515574
000110 a0 e7 a8 3d 2a cb 32 bc 70 cc 15 bd d7 76 cf bb
       0.08247304 -0.010912696 -0.03657192 -0.0063313055
000120 ae 6c 83 3c a2 4e 53 3d 24 fc f8 bb d8 00 0e 3d
       0.016043033 0.051588662 -0.007598417 0.034668773
000130 26 36 21 bb 95 3d 2f 3b a4 5f 7f bc 54 b2 ff 3b
       -0.0024598925 0.0026739587 -0.015586767 0.007803241
000140 14 af 8e 3b af ed b6 bc 03 1c ef bc cd 1c 04 bb
       0.004354367 -0.022330133 -0.029188162 -0.0020158768
000150 69 5c 9a 3d 40 06 df 3c 0b f0 07 bb 2e ee c1 3c
       0.07537157 0.02722466 -0.0020742442 0.023673143
000160 41 90 50 3c f7 71 58 3d c2 f7 a2 3b 7d 2d 24 3c
       0.012729705 0.05284306 0.0049733827 0.010020611
000170 f9 a1 46 3b 16 d7 06 3d a5 85 7d bb 05 0c d8 ba
       0.0030308946 0.032919966 -0.0038684395 -0.0016483074
000180 5f b6 d7 3c be 88 e8 bc 34 d8 a0 bb 52 7f 80 bb
       0.026332079 -0.028385516 -0.004908586 -0.0039214278
000190 f0 4b 7b 3b d6 ed 2b 3b 68 2d c9 bc b9 06 0b bc
       0.0038344823 0.002623429 -0.024557784 -0.0084854895
0001a0 b0 07 9f 3d 45 8e 0c bc c8 d3 3b 3c e2 39 8a 3c
       0.07765138 -0.008578842 0.011464067 0.016873304
0001b0 0d 9c 2e bc 6e d3 c4 3c 63 e3 b8 bc e5 b9 a1 bc
       -0.010657323 0.024026599 -0.022569364 -0.019741962
0001c0 cf 8a f4 3c 8d da 2d 3c ac 16 0b 3d a0 47 c1 3a
       0.029851345 0.010611189 0.03395717 0.0014746077
0001d0 a8 eb 60 3c 4d b8 1e bb 27 f5 72 3c 2b 44 cd 38
       0.01372806 -0.0024218739 0.014828957 9.787859e-05
0001e0 18 9b d3 bb 6b 5b 3e 3d 95 0b 1a 3d ff 2e 2d 3b
       -0.0064576976 0.0464739 0.0376087 0.0026425717
0001f0 63 e0 97 3c a4 80 0c 3d 81 09 38 3d 50 6f 0f bd
       0.018539613 0.03430237 0.04493094 -0.035018265
000200 8b d0 90 3c db 89 f8 bc 0b 19 c6 bc 1b 7d 2d bc
       0.017677566 -0.030339172 -0.024181863 -0.0105889095
000210 88 fd d4 3b 8e f5 c9 3a 12 fb e1 3c 89 cc 83 bd
       0.00649995 0.0015408264 0.02758554 -0.06435496
000220 b1 a6 4c bd 8b 55 e7 3c f7 60 de bc e7 1b 1d bc
       -0.049963657 0.028239032 -0.027145846 -0.009589172
000230 c6 94 84 bc 86 81 d1 3b 7a 69 24 bb b1 b9 33 bd
       -0.016184222 0.006393614 -0.0025087283 -0.04387826
000240 f1 91 92 3c 78 bc 5e 3d 99 be f4 bc eb aa af 3b
       0.017891856 0.054378957 -0.02987604 0.005360951
000250 e7 2f 26 3d 5d 68 13 bd 60 55 87 3c a6 64 db bc
       0.040573027 -0.0359882 0.016520202 -0.026781391
000260 28 2b 21 3c 40 55 39 3c 1d f6 a8 bc f0 c8 cd 3c
       0.009836949 0.011311829 -0.020625168 0.025120229
000270 96 4a 61 bd f9 7d 00 3d 42 a2 10 3d d6 43 11 bd
       -0.05500277 0.031370137 0.03531099 -0.035465084
000280 c1 5b 6d bd ae f9 05 3c cf d7 ff bc 66 97 6f bd
       -0.05794883 0.008177204 -0.031230835 -0.058493994
000290 f2 41 5e bd 88 3f e3 ba b0 38 51 3b b4 10 06 bd
       -0.05426211 -0.0017337659 0.0031924658 -0.032730773
0002a0 18 b2 24 3c 5e f4 95 3c 37 aa bf bc f5 52 ff bb
       0.0100522265 0.018305 -0.023396594 -0.0077918717
0002b0 ee 1b 0e bd c4 25 6e 3d d7 8b 02 bd 08 93 17 bd
       -0.034694605 0.058141485 -0.031871643 -0.037005454
0002c0 5c 0f 07 bd c4 46 2d bd 3f c5 7f 3c dc bc cf 3b
       -0.032973632 -0.042303815 0.015610992 0.0063396525
0002d0 76 1a 85 3b 24 ef e6 3b ee b4 11 3c 38 a1 13 bd
       0.0040619923 0.0070475508 0.008893235 -0.036042422
0002e0 dd b2 82 3b 64 98 93 bc c1 b6 17 3d 9a e1 54 bd
       0.0039886073 -0.018017001 0.037039522 -0.051972963
0002f0 2a 4f c7 3c d6 41 18 bc b1 b1 ae 3c cc 19 96 bc
       0.02432974 -0.00929304 0.021324964 -0.018322848
000300 5b 53 3a bd fa 7a 0c bd f4 d5 b5 bc 8f a5 f2 3c
       -0.04548965 -0.034296967 -0.022196747 0.02961996
000310 c0 ae 0d bd 16 69 89 3b 49 f3 ff 3c 94 90 17 bd
       -0.034590483 0.0041934354 0.031243937 -0.037003115
000320 08 d2 92 bd 1c a3 d5 bc 69 2a 59 bd c5 b0 1f bc
       -0.071689665 -0.026078753 -0.05301896 -0.009746735
000330 51 24 62 bc 1d 3a 44 bd a9 83 6d bc 2c e3 35 3d
       -0.013802604 -0.047906984 -0.014496722 0.0444061
000340 2f 32 9a 3c 01 17 4a bd 1a 38 41 3b 88 b2 f9 3c
       0.018822758 -0.049338344 0.0029482902 0.030480638
000350 8f da 2a bc 23 94 9e bc c2 7b eb b9 73 54 81 bd
       -0.010428085 -0.019357746 -0.000449149 -0.063149355
000360 84 75 ec 3c e2 ce 84 bb 47 79 4e 3b 61 a9 8c bd
       0.02886463 -0.0040529827 0.0031505392 -0.06868244
000370 e1 5f 9e bb a0 29 d2 bc 20 09 5a bd 1d b0 ba bc
       -0.004833207 -0.025654614 -0.05323136 -0.022789055
000380 22 f3 9c 3c fd d9 89 bd ad 9b 8b bc 10 99 b8 bb
       0.019158904 -0.06731031 -0.017042005 -0.005633481
000390 27 c7 28 bd 7d d1 39 3d fb 39 9d 3c 88 b8 14 bd
       -0.04120555 0.0453658 0.019192686 -0.036308795
0003a0 fd e9 fb 3c 7c ba 69 bc 56 7e 8e bc 35 b2 f3 bc
       0.030751223 -0.014265653 -0.017394226 -0.029748062
0003b0 a8 9d 25 bd 68 98 86 bd 32 7c 23 3d f2 a7 45 3d
       -0.040433556 -0.06572038 0.039913364 0.04825587
0003c0 62 91 02 bd 0a fb 56 bd 97 df 00 3d a2 74 28 3d
       -0.03187693 -0.052485503 0.031463232 0.041126855
0003d0 66 99 59 bd f9 c9 a2 3c 00 9e 90 bd e0 c8 52 bd
       -0.053124808 0.019871699 -0.07061386 -0.0514611
0003e0 32 19 dc bb 04 db 82 bc 50 da 00 bb 14 4c 09 bd
       -0.0067168707 -0.015973575 -0.0019661374 -0.03351982
0003f0 5f f1 18 bd 36 f7 86 bb 9a 4f a0 bc ce 10 d7 bc
       -0.037339564 -0.0041188253 -0.019569207 -0.02625313

network_body._body_endoder.seq_layers.0.bias f4 [128]
000000 82 4c 0f 3c d6 7f 95 3c 63 b2 85 3c 01 bf ab 3c
       0.008746268 0.018249433 0.016320413 0.020965101
000010 03 7e ef bb 12 84 d2 bc 01 e1 88 3c 8e 37 86 3c
       -0.007308723 -0.025697742 0.016708853 0.016383912
000020 90 7c d8 3c 30 3f bf bb 07 58 59 bb b1 6a c6 3c
       0.026426584 -0.00583639 -0.003316404 0.024220796
000030 1e 4f 48 3c 85 5c ee ba 4e 57 9a bc 54 5a 55 bc
       0.012225894 -0.0018185532 -0.018840458 -0.013022024
000040 71 16 3b 3c 0a 52 d6 3c d5 30 92 3c 41 f1 bb 3b
       0.011418925 0.026162166 0.01784555 0.005735547
000050 22 22 e2 bb 0b 83 a8 b9 a3 54 49 ba bb 7a 95 bb
       -0.0069010416 -0.00032141092 -0.00076801534 -0.0045617498
000060 fe 8a d9 3c 62 94 2f 3c fa 36 73 3c 3b d9 22 bc
       0.026555534 0.01071653 0.01484465 -0.009939487
000070 26 51 c7 bb 7a fd b9 bc 1a 6a 86 3a 01 d2 cd 3b
       -0.0060826717 -0.022703875 0.0010255009 0.006281138
000080 1e 32 e9 bc 76 03 8d bb 8a 19 e5 ba cd 8c eb bc
       -0.02846628 -0.004303391 -0.0017478925 -0.028753662
000090 91 f4 c1 3c 0f fc ec bb 77 1f 0d 3d 4d 75 17 3c
       0.023676189 -0.007232196 0.034453835 0.009244275
0000a0 77 3c 9e 3c ea 47 01 ba b8 e8 94 bb 7c 30 73 3c
       0.019315941 -0.00049316755 -0.004544344 0.014843103
0000b0 bc 35 78 b9 be fa d8 3b 0c da 45 3d d0 a2 a4 bc
       -0.0002367114 0.0066216877 0.04830365 -0.020097166
0000c0 00 15 f5 3c 05 65 71 3b 5a 75 b0 3c 4f 1a 72 3c
       0.02991724 0.0036833894 0.021540333 0.01477678
0000d0 45 0b c4 bb fe 6e 89 bb 2d 00 80 3c 5f 8b 95 bc
       -0.0059827887 -0.0041941395 0.015625084 -0.018254934
0000e0 67 0b 07 3c 84 88 36 3c 4c 41 71 bc d6 fc 9b bc
       0.008242465 0.011140946 -0.014725041 -0.01904146
0000f0 d7 65 6b 3c 4c f4 38 3b 8e f4 26 3d b0 34 bf bc
       0.014367542 0.0028221784 0.04076057 -0.023340553
000100 6d e7 fc 3b 47 5f b0 3b bb a0 74 bc b0 ca 67 3c
       0.007718018 0.0053824517 -0.014930899 0.014147446
000110 51 93 85 3d 0f 13 bf bc 30 2e c5 3b 6a 14 4b 3d
       0.06522239 -0.023324518 0.006017469 0.049580015
000120 02 d1 a0 3c f0 43 2f bb d0 89 9b bb 5c 9f 9b bc
       0.019630913 -0.0026743375 -0.004746653 -0.018996887
000130 7e a1 75 3c ab 0b 5f ba 96 26 4d 3d a4 57 e4 bc
       0.014992116 -0.00085085136 0.050085627 -0.027873822
000140 3a a4 55 3c 90 b1 33 3c 5e 05 90 bb 59 4c 17 bc
       0.013039643 0.010967627 -0.004395171 -0.009234511
000150 96 b9 1a 3c 21 0e 3c 3b 04 41 26 3d ab ab fa bc
       0.009443661 0.0028694945 0.040589347 -0.030599436
000160 0a 0b c1 3c c0 95 02 3c de 8e 00 3b ba 75 5a ba
       0.023564834 0.0079702735 0.0019616405 -0.00083335827
000170 d0 58 86 3c ae 83 cc b9 1c 53 86 3c c4 a2 e9 bb
       0.016399771 -0.0003900802 0.016397052 -0.007129999
000180 1c 65 8f 3d bb f2 20 bc b1 90 f8 bb b3 02 8b 3b
       0.07001707 -0.009823496 -0.007585608 0.004242265
000190 41 01 16 3c 6d 8e 46 bc 77 65 7b 3c b9 19 07 3c
       0.009155572 -0.012118918 0.015344015 0.008245879
0001a0 ca 5f 00 3c bb 65 9d 3b 8b e8 1e bb 6c 31 17 bc
       0.007835338 0.004803387 -0.0024247493 -0.009228092
0001b0 0f f5 76 bc 3f 1f 62 3c d8 83 04 3b 15 07 9c 3a
       -0.015073075 0.013801395 0.0020220187 0.0011903966
0001c0 81 95 82 3b d2 fa 46 3d 35 93 95 bc 02 f2 4f 3c
       0.0039851074 0.048579045 -0.01825867 0.0126919765
0001d0 c1 e1 75 3c 9a c1 20 3b d7 2c d0 ba c4 1b 0f 3c
       0.015007437 0.0024529458 -0.0015882504 0.008734647
0001e0 ac 06 14 bb 70 87 90 bb e9 c0 d6 bc 3c 4a e4 bc
       -0.0022586985 -0.0044106767 -0.026215034 -0.027867429
0001f0 b8 88 25 bc e8 dc a1 3c 8d 8b df ba 5d 20 c7 3b
       -0.010103397 0.019758657 -0.0017055139 0.006076856

network_body._body_endoder.seq_layers.0.weight f4 [128, 75]
000000 40 c9 7a 3e b9 35 30 be 2d 90 a4 3d ca 0e d9 3d
       0.24490833 -0.17207994 0.08035312 0.10598524
000010 e1 c6 0e 3d de 59 96 3c 38 db 86 bd bc 09 e4 bd
       0.034857634 0.018353399 -0.065847814 -0.11134669
000020 dd 2a 4a 3d 4d 0e f3 bc 2b dd 6d bd 36 3c ec bd
       0.049357284 -0.029669905 -0.05807225 -0.11534922
000030 b9 9f a1 3d e9 c3 11 bc bc c7 a1 bc a7 b0 f3 bc
       0.07891793 -0.008896806 -0.019748561 -0.02974732
000040 60 39 82 bb a3 8a 8f bd 83 91 93 bd 33 ea 51 3e
       -0.003974125 -0.07008865 -0.072054885 0.20499496
000050 1b 43 35 3d 2b ed 08 3e e7 e8 8b be d9 4a a4 bd
       0.04425345 0.13371722 -0.27326128 -0.080220886
000060 be 93 45 3e 22 4a 7c bd 0f a1 b1 ba 29 de 2f 3d
       0.1929464 -0.061594136 -0.0013552028 0.042936478
000070 7c 57 4b 3d 39 ce cd bb 61 23 0c 3b 1d f1 4f be
       0.04964398 -0.006280687 0.0021383392 -0.20306821
000080 c1 14 bf bd 3a f4 8f 3b 80 8c f4 3c d5 20 aa bd
       -0.0933013 0.0043931277 0.029852152 -0.083070435
000090 aa e6 0d be 65 77 52 bd 48 1e 50 3d a6 d0 8b 3e
       -0.13857523 -0.051383395 0.05081013 0.27307624
0000a0 71 4b c2 3d b7 b0 10 be dd 7b de 3b ca 7e 5f 3e
       0.094870456 -0.14129911 0.006789668 0.2182571
0000b0 63 2e 91 bd f2 00 39 bd 70 be 4f be df a1 82 bc
       -0.07088926 -0.045166917 -0.2028749 -0.015946327
0000c0 f6 9b 80 bd 76 62 c2 bc 15 76 c8 3e 51 fb 02 3d
       -0.06279747 -0.02372859 0.3915259 0.031977955
0000d0 6b 24 36 3c f3 85 2e bd 7a 33 9c be e7 0c c0 bd
       0.011117081 -0.042608213 -0.30508024 -0.09377461
0000e0 0c f9 87 ba 8f 24 73 3b a1 db 71 bc 2f 93 14 bd
       -0.0010373904 0.0037100648 -0.014761836 -0.036273178
0000f0 e3 3d 99 3d 57 e4 86 bd 6c 0b 20 bd 8f 13 a6 3d
       0.07482507 -0.06586521 -0.039073393 0.08109199
000100 23 bd 56 be 78 55 89 bb 6a 66 08 bd 56 80 1f 3e
       -0.20970587 -0.004191097 -0.033300795 0.155763
000110 35 3a d4 3d 0d 15 4c 3e 10 0a 10 3e 18 72 f8 3d
       0.103626646 0.19929905 0.14066339 0.12131137
000120 d1 0d 0e be cb af 8e 3c 4c a0 f3 bc 50 20 8a bd
       -0.13872458 0.017417809 -0.029739521 -0.06744444
000130 a6 9e 5d 3e 40 e5 9a bd 71 1c 68 bd 55 5e 3e 3d
       0.21642551 -0.07563257 -0.05666775 0.04647668
000140 0f fe 21 3e 26 0e 29 bd af 4c 07 be f5 8c f5 bd
       0.15819572 -0.04127326 -0.13212846 -0.11989776
000150 ee 73 51 3d df f8 9f 3c 54 6b 42 be af 70 43 be
       0.05113595 0.01952785 -0.18986255 -0.19085954
000160 cb b8 7c 3d 9f 2d 17 3c 0b 78 c6 3d a4 23 0b 3d
       0.06169967 0.0092271855 0.09690865 0.033969536
000170 0e d5 10 be 44 11 52 3e 2c 74 f4 bc 6a ff e1 bd
       -0.14143774 0.20514399 -0.029840551 -0.110350445
000180 7d 79 6c bc 8c 71 59 3c 65 72 29 be 60 b8 fa bd
       -0.014433262 0.013271701 -0.16547544 -0.12242198
000190 52 de b8 3d 05 05 a9 bd 6c 32 a4 3d 10 b6 f6 3b
       0.09026779 -0.082529105 0.0801743 0.0075290278
0001a0 f2 b9 b5 3b 83 fc 63 3d d3 c2 5f 3d 2b 5e 35 bd
       0.005545848 0.055660736 0.05462916 -0.04427926
0001b0 e0 3a 04 be 98 cc 6e bd 72 e3 a2 3e 33 1b 39 be
       -0.12913084 -0.058300585 0.31814152 -0.18076782
0001c0 86 0f 91 3d cd 64 e1 3d 93 5d 8f 3d cc 63 ba bd
       0.07083039 0.11005554 0.0700027 -0.09101066
0001d0 8a fe f8 bd b2 94 12 3c a1 ac d7 bc 00 72 87 3d
       -0.121579245 0.008946585 -0.026327433 0.06613541
0001e0 0c 25 18 3d 62 d2 82 be fd 39 18 3e 95 42 a0 3d
       0.037144706 -0.25551134 0.14865871 0.078251995
0001f0 5f 47 ca 3d f4 3b 3e 3d 85 ae 71 3d d5 ab ae bd
       0.09876894 0.046443895 0.059004325 -0.08528868
000200 04 a9 8e 3d 5a 68 80 3d 57 a5 07 3e bf d5 95 bd
       0.06965831 0.062699035 0.13246666 -0.073161595
000210 02 c2 0a 3e 38 28 92 be 8a b6 59 3d ac f3 bc bd
       0.1355057 -0.2854631 0.0531526 -0.09226164
000220 42 85 b3 3d 61 24 89 3c 4c e7 a4 3d 3e 48 a6 bc
       0.08765651 0.01674098 0.08051929 -0.02029812
000230 e4 07 4f 3d 0a a0 3a 3d 65 b4 09 be fd f8 51 be
       0.050544634 0.04556278 -0.13447721 -0.20505138
000240 b3 6e b5 3d 98 97 90 bd fa 2b 97 3d fb 3e 43 3d
       0.08859005 -0.07060164 0.07381435 0.047667485
000250 c1 ef b6 3c ba 57 50 3d de 64 4a 3c 36 db 9a 3c
       0.02233112 0.050864913 0.01235315 0.018903356
000260 ca 3d 9e bd 73 4d 27 3e 28 67 76 3e 5d b9 1d 3d
       -0.07726629 0.16338138 0.24062788 0.038506854
000270 49 c3 f3 3d 79 7b 8e bd 55 04 dc 3d ef 41 4d be
       0.11902482 -0.06957144 0.10743014 -0.20044683
000280 31 8a 84 3d cc 32 72 bc 9f 4f 49 be a7 b7 83 3d
       0.064716704 -0.014782619 -0.1965928 0.06431513
000290 75 a1 7d 3d f7 8c 1c 3d 7e 11 84 bd 31 d3 e7 bd
       0.061921556 0.038220372 -0.06448649 -0.113195784
0002a0 8a 21 b9 3d 34 3d 90 bd 19 a8 41 bd 62 da 89 bd
       0.090396 -0.070429236 -0.04727945 -0.06731106
0002b0 ce 86 5d 3d 46 31 3d 3d 7f 91 d2 3d 3b cb 60 3d
       0.054083638 0.04618957 0.102816574 0.054881316
0002c0 d3 c0 08 3e f2 02 b1 bd 12 c8 60 3e 04 2f 4b b3
       0.13354807 -0.0864314 0.21951321 -4.730738e-08
0002d0 fa 7b 08 be 14 db 09 3d b5 84 a4 3c 37 37 51 bd
       -0.13328543 0.033656195 0.02008281 -0.051078048
0002e0 c4 86 83 3c 6a 33 7f 3d 8a 9b d4 bd 1a c7 53 3e
       0.016055472 0.06230489 -0.10381229 0.2068142
0002f0 7d 78 6e 3d 49 89 04 3e ad 95 85 3d eb d7 90 3e
       0.058220375 0.12942995 0.06522689 0.28289732
000300 ef bf 9d bd f8 49 e5 3d 57 01 80 3d 8c 62 4e 3e
       -0.07702624 0.11195749 0.062502556 0.2015478
000310 1b 95 1b be 32 37 2f 3e 0b 8d 9d bd f2 58 a6 bc
       -0.15193598 0.17110899 -0.076929174 -0.020306084
000320 fd ff 19 bc 32 1d a3 bc 9a 89 b5 3d 71 ce b9 3d
       -0.009399411 -0.019911382 0.08864136 0.09072579
000330 2f 32 a8 3d 12 2d ac bd 4b bb d6 bc cc 58 4f be
       0.08212697 -0.08407034 -0.026212355 -0.20248717
000340 72 20 e3 bd 0a c6 db 3b f4 39 ae 3d cd 81 da bd
       -0.11090173 0.0067069577 0.085071474 -0.10669289
000350 b6 e4 e7 3d 5c d4 15 3e 94 56 2c be a1 a5 32 3e
       0.1132292 0.1463179 -0.16829902 0.17445995
000360 11 10 ac bc 8b 31 ef 3c c6 34 ed bd c3 cb e7 3d
       -0.021003755 0.029198429 -0.11582331 0.11318161
000370 de 23 13 be 23 12 45 bd 8f 13 f3 3d b6 6f d5 bd
       -0.14369151 -0.048113 0.11868965 -0.10421698
000380 23 a3 22 bd d2 eb bb 3c 81 7b 5c 3d d2 b9 9a bd
       -0.03970636 0.022939596 0.05382872 -0.07554974
000390 db a5 d5 3d 58 fe 82 bd b3 48 13 bd 9b 18 57 3d
       0.10432025 -0.063961685 -0.035958003 0.0525137
0003a0 45 f5 92 bc 0a 68 13 3e c1 9f d1 bc a2 67 b1 3d
       -0.01793922 0.14395157 -0.025588872 0.086623445
0003b0 89 8b 4c 3e f9 35 72 bc f3 f6 d2 3d 5b 15 69 be
       0.19975103 -0.014783376 0.10301008 -0.22762053
0003c0 0d 49 53 3d 6d e0 36 be 02 04 c7 bd a6 3a 5c be
       0.05158334 -0.17859049 -0.09717561 -0.21506748
0003d0 0f 76 3b 3e 1e e4 17 bc a3 e9 7c 3c ca 4b 9e bd
       0.18306755 -0.009270696 0.015436563 -0.07729299
0003e0 10 a6 48 bd 3b 34 69 3c a9 77 ee bc 02 2e 1d be
       -0.048986495 0.014233644 -0.029109793 -0.15349582
0003f0 c9 fd e3 bd 59 8b 10 3b 4c 9b 81 3d 61 19 06 bb
       -0.1113239 0.0022055714 0.06328449 -0.0020461904

network_body._body_endoder.seq_layers.2.bias f4 [128]
000000 a6 f1 14 3c db f8 39 bb f1 a1 89 bb 06 89 8d 38
       0.009090817 -0.002837709 -0.004200213 6.7489265e-05
000010 97 36 ac bb 02 5e 2e bc c6 60 2e 3b 17 2e 0a bc
       -0.005255531 -0.01064253 0.0026607974 -0.00843384
000020 97 6f 92 bb d1 02 1f 3b e9 08 54 bb 58 e3 90 bb
       -0.004468869 0.0024263153 -0.0032353944 -0.0044216327
000030 e6 23 37 b9 11 5f 9b 39 9f 29 0d 3a 0a cd 14 3c
       -0.00017465613 0.00029634734 0.0005384925 0.009082088
000040 75 aa 68 bc 11 eb 93 3c b7 f7 2b bc a1 90 32 ba
       -0.014200796 0.018056424 -0.010496072 -0.00068117125
000050 ab e4 bd 3c df bf 20 3a a1 a8 ae 3b 69 b3 68 3b
       0.023180326 0.00061321066 0.0053301607 0.0035507327
000060 c8 66 ac b9 6b fc a2 3b eb 77 53 bc 66 76 b9 3b
       -0.00032882974 0.004973938 -0.012907009 0.005659866
000070 1f 20 e8 3c 98 cb 38 3c fa 6e 57 3c 37 ae d2 3a
       0.028335629 0.011279009 0.0131490175 0.0016073649
000080 5d b0 73 3c 62 69 16 3c eb 27 b0 3b 52 dd 8d 3c
       0.014873591 0.009180399 0.0053758523 0.017317448
000090 18 ba c4 3c c0 22 05 bc 49 7d 02 39 c6 73 19 bc
       0.024014518 -0.008125961 0.00012444438 -0.009365981
0000a0 0a 9a 39 3c fa 16 2d ba 9c d6 3b 3c 65 c6 59 bc
       0.01132823 -0.000660285 0.011464741 -0.01329193
0000b0 e5 92 e4 bb 9f 82 9d 3c 04 a0 04 3c a6 90 f8 3b
       -0.006975519 0.019227324 0.008094791 0.007585603
0000c0 8d a5 08 bc 09 5f 53 bb 27 5c 5b bc 4f 97 22 ba
       -0.008340252 -0.003225269 -0.01338867 -0.00062023563
0000d0 ea e0 64 3b 94 4a e9 3a 19 22 1f bc 70 e1 97 3c
       0.0034924098 0.0017798715 -0.009712719 0.018540114
0000e0 c1 9a 6c bb 21 2a e0 b9 8c 2b 90 bc 6b da c6 3c
       -0.0036102983 -0.00042755998 -0.01759889 0.024274072
0000f0 5e b5 aa ba 13 fc 24 bb 43 f5 ae bc b3 d0 af bb
       -0.0013024022 -0.0025174662 -0.021357184 -0.005365455
000100 b6 45 db b9 16 75 4d 3c 2c fa 17 bc cd 39 02 3c
       -0.00041822874 0.0125401225 -0.009275954 0.007948351
000110 d6 4e e9 3c 4d 00 9e ba 59 3f 36 3c db 31 8b 3c
       0.028479975 -0.0012054533 0.011123502 0.016991546
000120 b7 95 74 3c 9a 1e 72 bb b3 b7 16 3c 9b 44 61 bc
       0.014928273 -0.003694451 0.009199071 -0.013749267
000130 cc a9 6a bc 43 df ad ba 69 e0 15 bc 15 21 8b 3c
       -0.014322709 -0.001326539 -0.009147742 0.016983548
000140 da 04 7c 3b 3f 22 25 bb 95 f1 04 bc 3a 2d 9e bb
       0.003845504 -0.0025197414 -0.008114238 -0.004827169
000150 60 9e b2 3a 86 e7 f5 bb a4 6a 98 bc 63 30 0d 3c
       0.0013627522 -0.0075044064 -0.018605538 0.008617493
000160 91 78 6f 3c 05 13 ad 3b 5a 9d 39 bc 5c 8c a2 3c
       0.014616148 0.0052818083 -0.011329019 0.01984232
000170 47 bc 64 bc af ae ee 3b 57 d0 8a 3c 55 15 dd bb
       -0.013960904 0.0072840075 0.016945047 -0.0067469277
000180 0b 13 85 bc 71 12 1e 3c c1 80 3b bc 04 15 98 bc
       -0.016244432 0.009647951 -0.011444272 -0.018564709
000190 ed 12 a0 3c ad 7b 90 3c 40 2c 5b bb 81 39 1e bc
       0.019540275 0.017637098 -0.0033443123 -0.009657265
0001a0 d0 53 45 3c 29 b9 51 bc 49 b5 02 bc a4 c3 55 bc
       0.012043908 -0.012800493 -0.007977792 -0.013047133
0001b0 1b 7c c2 ba 02 49 10 3d 01 43 17 3c 58 90 d7 3c
       -0.0014838012 0.035225876 0.009232284 0.026313946
0001c0 76 39 83 3c 10 51 ae 3c 20 f1 21 bc 86 b7 41 3c
       0.01601861 0.021278888 -0.009884149 0.011823541
0001d0 d3 42 1f bc 94 4d c0 3b 39 03 75 3c fb 54 ea 3b
       -0.009720522 0.005868623 0.014954382 0.0071512437
0001e0 ce 30 2d bc 90 8e ab 3b 6d 32 20 bc 7d 62 13 bb
       -0.010570718 0.0052355006 -0.009777647 -0.0022489124
0001f0 97 b3 5d bb b5 cd 8d bb 04 8f 29 bc 5b bf 8d 3b
       -0.0033828968 -0.0043275007 -0.010349039 0.00432579

network_body._body_endoder.seq_layers.2.weight f4 [128, 128]
000000 a5 41 49 3d d1 40 18 bd 4b 84 be bd 44 e2 f1 bd
       0.04913487 -0.03717119 -0.09302577 -0.11810735
000010 e4 c8 ff bc 0e 3f 6f bd 50 25 3e 3e 2c 07 d7 bd
       -0.031223722 -0.058409743 0.18568921 -0.10499415
000020 ed dd 16 3e 34 25 fb 3d 9e 80 bf bd 8a cd 9d 3c
       0.14733095 0.12262955 -0.09350704 0.019263048
000030 30 ec 22 be e6 d0 49 3c b1 6d 96 bd c1 87 1e be
       -0.15910411 0.012317872 -0.07345141 -0.15481474
000040 da b9 53 bd 97 75 5b bd 13 92 2a 3d cf 3a 98 bc
       -0.051690914 -0.05357894 0.041643213 -0.01858273
000050 4e 53 2e be a1 77 88 3c 17 a3 05 bd 7b cc ae 3d
       -0.17023966 0.016658606 -0.032626238 0.08535095
000060 40 dc 16 3d 13 ee 1d bc 15 13 21 be 1b c7 eb ba
       0.03683114 -0.009639281 -0.15729935 -0.0017988415
000070 f7 2b 90 3d 12 95 3f bd 9c 15 e6 3d 34 86 52 bc
       0.07039636 -0.046773024 0.112345904 -0.012849379
000080 60 ae 4f bd ff 9d 30 be 1f 01 26 3b 81 f7 67 3d
       -0.050703406 -0.1724777 0.0025330258 0.056632522
000090 41 05 85 bd 82 73 33 bc 7b 2b a7 bd 2e de 89 3c
       -0.06495143 -0.010952832 -0.0816259 0.016829576
0000a0 a4 c8 5e bc 84 51 8e bd 71 5b d1 bd 17 ec 04 be
       -0.013597641 -0.069491416 -0.10222519 -0.12980686
0000b0 d3 8b 07 3e 88 b1 0d bb 9c d2 a5 bd cd df 76 3c
       0.13236932 -0.002162071 -0.08096811 0.015068007
0000c0 30 de c8 3d dd 49 f9 bd d8 ba 37 bc 0b 0e cd 39
       0.09808004 -0.121722914 -0.011213981 0.0003911111
0000d0 05 c8 a2 bd 02 04 0a 3e 45 1e 38 bd 23 ea c9 bd
       -0.07948307 0.13478091 -0.044950742 -0.09859111
0000e0 73 c1 aa bd f0 d4 86 3d 35 5c bf bc f4 83 9e 3d
       -0.08337679 0.06583583 -0.023359397 0.07740012
0000f0 90 fa 17 3d 85 bb 96 3c e1 50 f5 bd 81 db fc 3c
       0.03710419 0.018399963 -0.11978317 0.030866386
000100 17 1a 1f be 83 b3 9a bc 7c 06 ca 3d c7 66 5e bc
       -0.15537296 -0.018884426 0.09864518 -0.013574309
000110 0a 4d 03 bb 18 95 5a be de 8f 37 bd 90 d6 8c be
       -0.0020034933 -0.21345937 -0.044814937 -0.27507448
000120 99 9c e3 bd 47 ed 25 be 23 0c 84 3d 6a 71 93 bd
       -0.11113853 -0.16203795 0.064476274 -0.071993664
000130 d5 b4 1c be 95 e3 42 bd 85 02 f3 bd 15 97 06 3d
       -0.15303357 -0.04758032 -0.11865715 0.032858927
000140 0a b7 e4 3c 1d 89 4b 3d 6a 96 12 3d 2f b0 06 3e
       0.027919311 0.04969131 0.035787977 0.13153146
000150 0f 0e 2c 3d 20 71 31 3e 8c 2c 99 bd 18 e6 96 bd
       0.042005595 0.1732831 -0.074792 -0.07368106
000160 93 1a 13 3e 3a c6 4c 3b 6f e7 a9 3d 77 f1 9a bd
       0.14365606 0.0031246082 0.082960956 -0.07565587
000170 dd 7e b2 bd c4 e1 bd bd 4a 95 b7 3d 3a 56 24 3c
       -0.087156035 -0.09271577 0.089640215 0.010030324
000180 24 a8 6d bd 90 97 c7 3d f0 95 15 be 02 32 86 3e
       -0.05802168 0.09745705 -0.14607978 0.26210028
000190 83 c5 f9 bd 83 4e d7 3c 2f 84 b3 bd 4e e8 8e 3d
       -0.121958755 0.026282554 -0.087654464 0.06977902
0001a0 84 ad 9b bd 59 e4 9d bc e7 3d e1 3d 0b 65 b2 3d
       -0.07601455 -0.019273924 0.10998135 0.08710679
0001b0 da 68 21 3d ad 99 3e be 17 31 48 3d 20 81 9d bd
       0.039406635 -0.1861331 0.04887494 -0.07690644
0001c0 62 81 41 3c 74 b0 af bd 9d 21 98 3d 02 52 44 3d
       0.011810632 -0.08578578 0.07428286 0.04792977
0001d0 0d ed 4f 3c 91 0c dc bd f7 bb 28 be da 02 4d 3d
       0.012690795 -0.10744584 -0.16477953 0.050051548
0001e0 c2 27 0d bd 35 5a 0e bd 7c 8d 69 bd 55 48 63 bd
       -0.034461744 -0.034753997 -0.057019696 -0.055488903
0001f0 11 b6 2f 3d 1d 05 38 bd 5b 26 91 bd 26 04 a8 3d
       0.04289824 -0.04492675 -0.07087394 0.08203916
000200 1c a8 99 3d f8 aa 7f bd fe 22 b4 3d 48 ab 05 be
       0.075027674 -0.062418908 0.08795737 -0.1305362
000210 fd 80 12 3c 1b fb f4 bd b7 2a ab 3d ff 79 81 3d
       0.008941886 -0.11961957 0.083577566 0.06322097
000220 fd 4e bb bd a6 cd 7c 3d 82 72 5b 3d a5 ee 62 bd
       -0.09145925 0.06171956 0.053576 -0.05540337
000230 a3 9b e2 bb b1 55 03 3d 02 47 c0 3d 25 da c1 bd
       -0.006915526 0.032064144 0.09388544 -0.09465436
000240 b9 bf 57 bd 42 f8 52 bc 82 3c b2 3d 53 81 1a 3e
       -0.052673075 -0.012876572 0.08702947 0.15088396
000250 6a ea 79 3d 89 59 aa bd 9b 0e 47 bd 46 50 0d 3d
       0.06101457 -0.08317859 -0.048597913 0.034500383
000260 a0 f0 83 3d 60 9e 2e 3d bc 2f b6 3d d0 80 f4 3d
       0.0644238 0.042631507 0.08895823 0.119386315
000270 de b4 14 3d 86 92 ea 3c d2 03 07 ba 87 0d 73 bd
       0.0363053 0.028634321 -0.00051504106 -0.059339073
000280 c9 4a bf bd 82 b1 01 3d fb 57 64 3d a5 90 82 3b
       -0.09340436 0.031663425 0.055747967 0.003984528
000290 e6 1c f1 bd d7 ce 2a bd 33 25 5e 3d dd 48 b8 bd
       -0.1177309 -0.041701164 0.054234695 -0.089982726
0002a0 e1 25 f1 bc b4 b1 6d bd e7 87 c4 bc 75 c9 b1 bd
       -0.029437007 -0.0580308 -0.023990585 -0.08681003
0002b0 89 3b 43 3e 9b 2b 98 3d 63 43 8e 3c 01 1b 99 bc
       0.1906568 0.07430192 0.017366117 -0.018689634
0002c0 2b 9d 46 bc ca 52 46 3d 24 a1 9f 3c 57 61 77 3c
       -0.012122433 0.048418798 0.019486018 0.015098891
0002d0 19 2b d8 3c 4d d5 d1 bc 4c 89 be bd c3 1c ad 3c
       0.026387738 -0.025614405 -0.09303531 0.021131879
0002e0 84 55 15 bd e8 5a 2b be 60 68 c2 bd d2 fe 6c bd
       -0.036458507 -0.16733897 -0.09492564 -0.057860203
0002f0 db ef 50 3d 6b a6 74 3c 70 2a 06 bd a3 cf c4 bd
       0.051009994 0.014932255 -0.032755315 -0.09609916
000300 e2 27 b7 3d 0c bf 00 3e 34 02 60 bd 15 ec b9 3d
       0.08943154 0.12572879 -0.0546896 0.09078232
000310 e8 9b cc 3c 4d 9d 30 be 15 d5 9a 3d e4 58 27 3e
       0.024976686 -0.17247505 0.075601734 0.16342503
000320 37 07 b3 3b 49 26 8e bc 42 54 98 bd ce d2 26 bd
       0.0054635066 -0.01735224 -0.07437946 -0.040728383
000330 b0 cb 16 3d 21 77 53 bd 98 97 73 3c c5 0e 8a bc
       0.036815345 -0.051627282 0.014867686 -0.016852746
000340 14 3d 86 3c 00 10 f9 bd 47 73 02 be 69 71 1f bd
       0.016386546 -0.12161255 -0.12739287 -0.038926516
000350 aa db 64 3d b6 77 63 3d bc b4 80 3c 6e 83 fa bd
       0.05587355 0.055534087 0.01571118 -0.122320995
000360 42 5c 3f 3e 2b 9b 61 bd a7 84 19 3d d5 01 1b 3d
       0.18687537 -0.05507962 0.037480023 0.037843544
000370 d6 9b 6d bd 81 5f 30 bd ad f1 1f bd 9b 24 39 3e
       -0.058009945 -0.04305983 -0.03904884 0.1808037
000380 1a ad b6 bd 7a 91 30 bc b1 9c 6f be 36 63 33 bd
       -0.08919735 -0.010776872 -0.23399617 -0.043795787
000390 57 87 ca 3d a4 5f 23 be f5 3a 18 3d fa 46 fd bc
       0.09889095 -0.15954453 0.0371656 -0.030917633
0003a0 f4 95 75 bc e9 83 21 bd 95 49 b2 bd 96 f8 38 3e
       -0.014989365 -0.03943244 -0.08705441 0.18063578
0003b0 a2 92 b0 bd 25 b8 4e be 5e 75 9a bb 59 a0 85 bd
       -0.08621718 -0.20187433 -0.0047136983 -0.065247245
0003c0 48 9b a2 bc 6c ff 5c 3d 4b ce a5 bd 1e a9 62 bd
       -0.019849434 0.053954527 -0.08095988 -0.055337064
0003d0 b0 15 01 3c b1 52 0f be 79 c9 bb bd 8a a7 b0 3b
       0.007878706 -0.13996388 -0.09169287 0.005391066
0003e0 16 ea 95 bc 27 42 a3 bd 2c 21 a6 bc a8 fe 7c bc
       -0.018300097 -0.07971602 -0.02027949 -0.015441574
0003f0 45 f9 18 bd 27 ac e4 bd 1f 95 23 bd 16 7c 1c 3d
       -0.037347097 -0.11165648 -0.039937135 0.038204275
