Unity Project/CSC 30014 Project/results/test/Car/Car-38814.onnx (onnx, 108006 bytes, 7 tensors)

action_model._continuous_distribution.log_sigma f4 [1, 2]
0	0xbb88ee92	-0.0041788304
1	0xbaad5b74	-0.0013226108

action_model._continuous_distribution.mu.bias f4 [2]
0	0xba0161b4	-0.00049355184
1	0xb7c187d0	-2.3070636e-05

action_model._continuous_distribution.mu.weight f4 [2, 128]
0	0xbbaf29bb	-0.005345551
1	0xbb9cdfb7	-0.004787411
2	0x3a08bcc1	0.0005216115
3	0xbcd56966	-0.026051234
4	0x3c8063cc	0.015672587
5	0xbd082d0a	-0.033246078
6	0xbc7f6d62	-0.015590044
7	0x3c5e69e6	0.013575053
8	0xbd279fc1	-0.040923838
9	0x3d1aa4ff	0.03775501
10	0xbb3626f2	-0.002779421
11	0xbd144ace	-0.03620415
12	0x3ccee235	0.025254348
13	0x3b02474a	0.0019878917
14	0xbb9e10d2	-0.0048237825
15	0x3c0f03eb	0.008728961
16	0xbb7b36f1	-0.0038332308
17	0xbc8b86fa	-0.017032135
18	0xbca15602	-0.019694332
19	0xbc354ce9	-0.0110657
20	0xbd065f40	-0.03280568
21	0xbc158ecc	-0.009128284
22	0x3c9b0594	0.018923558
23	0xbca8c547	-0.020601882
24	0xbd16ca37	-0.03681394
25	0x3c62a00f	0.013832106
26	0x3caa97da	0.020824362
27	0xbc9013fe	-0.017587658
28	0xbc423130	-0.0118525475
29	0xbc1b8128	-0.0094912425
30	0x3d3acf44	0.04560782
31	0xbc4e93ec	-0.0126085095
32	0x3b11cd24	0.0022247517
33	0x3d127686	0.035757564
34	0x3bf73bb1	0.0075449576
35	0xbbf5725e	-0.0074904403
36	0xbd01581f	-0.03157818
37	0x3c29a5bc	0.010354456
38	0x3b960ed8	0.004579406
39	0x3b3fca02	0.0029264693
40	0xbc90551b	-0.017618706
41	0x3c1f1986	0.009710675
42	0xbc94a3ca	-0.018144507
43	0xbc7d9f29	-0.015479841
44	0xbb83bfad	-0.0040206523
45	0x3c2982d4	0.010346133
46	0xbb7d7cb6	-0.003867907
47	0xbba77976	-0.005110915
48	0xbcc9693e	-0.024586316
49	0x3c139a07	0.009008891
50	0xbb94fb2f	-0.004546545
51	0x3ad53ef2	0.001626937
52	0xbc7af98a	-0.015318284
53	0xbc28948f	-0.010289325
54	0x3c1e1849	0.009649345
55	0x3d2fac34	0.042888835
56	0xbbeb74f2	-0.007185572
57	0x3cc595dd	0.024119312
58	0xbc848138	-0.016174898
59	0xbabe3823	-0.001451258
60	0x3cd6fa79	0.026242482
61	0x3baee1c8	0.005336974
62	0xbd1eb848	-0.038749963
63	0x3c76090b	0.015016804
64	0x3c256911	0.010095851
65	0x3c621353	0.013798553
66	0x3ba2c963	0.004967855
67	0xbc77ae9d	-0.015117315
68	0x3b84a918	0.004048478
69	0x3cd11f32	0.02552757
70	0x3d0ee89e	0.03488981
71	0x3d120e9f	0.035658475
72	0xbc6e37ca	-0.014539668
73	0xbd0de2a6	-0.034639977
74	0x3c23b958	0.00999292
75	0xbc5b5395	-0.013386627
76	0x3c3984dd	0.011323181
77	0xbd012625	-0.031530518
78	0xbd019238	-0.031633586
79	0x3a2b296c	0.00065293047
80	0xbc53238d	-0.012886894
81	0x3c35eb25	0.011103426
82	0xbbfdd997	-0.007746886
83	0xbd1076c7	-0.035269525
84	0xbb6b0340	-0.0035860091
85	0x3ca23a03	0.019803053
86	0x3be1b30e	0.0068878
87	0xbbec7247	-0.0072157714
88	0xbc67d417	-0.014149687
89	0xba5352de	-0.00080613594
90	0xbc1c85b3	-0.009553361
91	0xbce6d5df	-0.028178154
92	0x3ca7a5d3	0.020464813
93	0xbc471fdd	-0.012153593
94	0xbc39d6f4	-0.011342753
95	0xbd36b17e	-0.044602863
96	0xbbe1e467	-0.0068936828
97	0xbcd50f5b	-0.026008299
98	0x3d3d7d1e	0.0462619
99	0xbc1b9bb2	-0.00949757
100	0x3c4c62cd	0.012474728
101	0xbc6009d9	-0.013674223
102	0xbd1143cf	-0.035465058
103	0x3caa6fa1	0.020805182
104	0xbd3d341f	-0.046192285
105	0xba6b1e45	-0.0008969049
106	0x3cfba49c	0.03071814
107	0x3d18a847	0.037269857
108	0xbccdcc8f	-0.025121955
109	0xbc060094	-0.008178849
110	0xbbda22ba	-0.0066569718
111	0x3b4ee171	0.003156748
112	0xbc41c310	-0.011826292
113	0x3c4b3c74	0.01240455
114	0x3b863d6b	0.004096677
115	0x3c40e7a7	0.01177398
116	0x3a2ece1f	0.00066682877
117	0xbd027587	-0.031850364
118	0x3ab00426	0.0013428971
119	0x3c588b6f	0.013216837
120	0xbc8b0ea7	-0.01697476
121	0xbc881c41	-0.016615035
122	0x3c9b6fd2	0.018974219
123	0x3cc8d1a9	0.024514036
124	0x3d19cc37	0.03754827
125	0x3cd3e051	0.025863798
126	0xbc8d4092	-0.017242704
127	0x3b4d7f68	0.0031356458
128	0xb8bf46db	-9.1207876e-05
129	0x3beca035	0.0072212466
130	0x3cacf23c	0.0211116
131	0xbd03df02	-0.0321951
132	0xbc1f59b0	-0.009725973
133	0x3c094934	0.008379269
134	0xb9ddd5f0	-0.000423118
135	0xba7dab6f	-0.00096767297
136	0xbc2bc4b1	-0.010483907
137	0x3baa7181	0.005201519
138	0xbbd2d0c0	-0.0064335763
139	0xbc726a76	-0.01479589
140	0x3c8115e6	0.015757512
141	0x3ce75ee6	0.028243493
142	0xbb4df30e	-0.003142539
143	0x3a9e7edb	0.0012092249
144	0x3bfb9ae8	0.0076783784
145	0x3bc4c086	0.006004396
146	0x3bf87c9b	0.0075832135
147	0x3d1b24f3	0.037877034
148	0x3b7971cf	0.003806222
149	0xbc631b73	-0.013861525
150	0xbc6a8c9c	-0.01431575
151	0xbc63da08	-0.013906963
152	0x39fca285	0.00048186272
153	0xbba6a7ba	-0.0050859125
154	0x3cacadee	0.02107903
155	0xbc4d41d9	-0.012527906
156	0x3b95f0aa	0.0045758085
157	0xbc0cba95	-0.0085894065
158	0xbb9cd403	-0.004786016
159	0xbd14d798	-0.03633842
160	0xbca92ff5	-0.02065275
161	0xbc1a33c2	-0.009411754
162	0x3c5cc92f	0.0134757
163	0xbc6566e4	-0.014001582
164	0xbc93bbe3	-0.018033927
165	0x3ca56395	0.020189086
166	0x3cd58ec4	0.026069053
167	0x3bfe6e8a	0.007764642
168	0xbce1070e	-0.027469184
169	0x3b1df43b	0.0024101872
170	0xb999c238	-0.00029327138
171	0xbcf86e77	-0.030326111
172	0x3c62fa07	0.0138535565
173	0x3bf5ca70	0.007500939
174	0xbbd64ba2	-0.006539778
175	0xbc9c8652	-0.019107018
176	0xbc33c1b2	-0.0109714735
177	0xbd2db3c0	-0.04240775
178	0xbb9c1f0e	-0.004764444
179	0x3c0f5e0b	0.008750449
180	0x3c181a85	0.0092836665
181	0x3c367467	0.011136151
182	0xbc11a05d	-0.008888331
183	0xbcd590a3	-0.026069945
184	0xba1e82d9	-0.00060467195
185	0xbc4755e7	-0.012166477
186	0x3c0825b0	0.008309767
187	0x3bf4f613	0.0074756234
188	0xbd1c68f8	-0.038186044
189	0xbb101825	-0.0021987048
190	0xbc42a1f9	-0.011879438
191	0x3b86a9cb	0.0041095964
192	0x3d285b8f	0.041102942
193	0x3bdee016	0.0068016155
194	0x3bb35272	0.0054724747
195	0xbc46ef4f	-0.012142017
196	0xbc83bc88	-0.01608111
197	0xbb8272d7	-0.003980975
198	0x3cf43bfe	0.029813763
199	0xbb541593	-0.0032361492
200	0x3d260942	0.040536173
201	0xbc94e8fa	-0.018177498
202	0x3c01f009	0.007930764
203	0x3c012ebd	0.007884678
204	0x3bd9d62e	0.0066478467
205	0x3c1071f7	0.008816234
206	0xbc43f3a6	-0.011959946
207	0xbc74f414	-0.014950771
208	0xba633bac	-0.00086682546
209	0xbd105436	-0.03523656
210	0xbd40269b	-0.046911817
211	0x3ce63ff7	0.028106673
212	0x3c265427	0.010151899
213	0x3cacdc66	0.021101188
214	0xbcd044b7	-0.02542339
215	0x3a74a55e	0.0009332503
216	0xbd14f5aa	-0.036367096
217	0xbb87d000	-0.0041446686
218	0xbd05a6d2	-0.032629795
219	0xbcc038c0	-0.02346456
220	0x3bb5b071	0.005544715
221	0xbbab6537	-0.0052305716
222	0xbb9cf760	-0.0047902316
223	0x3d06eb29	0.03293911
224	0xbd1e99d0	-0.038720906
225	0x3ce52e0b	0.027976057
226	0xbbb879bd	-0.0056297467
227	0xbcf1e03b	-0.029525867
228	0x3c4321f0	0.011909947
229	0x3cdded2c	0.027090631
230	0x3c110155	0.008850415
231	0xba32c246	-0.000681911
232	0x3c5cf49c	0.013486054
233	0x3c0311bc	0.007999834
234	0x3be82a10	0.0070850924
235	0xbbfdaff1	-0.007741921
236	0x3c5f6798	0.0136355385
237	0x3c8ec96a	0.017430026
238	0xbc1b0701	-0.009462119
239	0x3d1a4c93	0.037670683
240	0x3c11fe41	0.0089107165
241	0xbbc87ca3	-0.0061183735
242	0xbbbe109f	-0.005800321
243	0x3c6f43fb	0.01460361
244	0xbb8da4a6	-0.004322606
245	0xbbb72f7b	-0.005590377
246	0x3d225ea5	0.03964104
247	0xbcb3c3e0	-0.021943986
248	0x3bb50716	0.0055245264
249	0x3bd82026	0.0065956293
250	0xbc0c2535	-0.008553793
251	0x3b5ee672	0.0034011868
252	0x3a868d6e	0.0010265538
253	0xbc183942	-0.009290995
254	0x3bc8f8c6	0.0061331717
255	0x399eff0d	0.00030326136

network_body._body_endoder.seq_layers.0.bias f4 [128]
0	0xba49cf48	-0.0007698429
1	0xba81a73b	-0.0009891758
2	0xb9f58b0d	-0.00046833642
3	0x38e7fdbb	0.00011062199
4	0x39d78eb9	0.00041114332
5	0xb8f73ce8	-0.000117892225
6	0xb9d769ac	-0.00041086727
7	0xba35e29f	-0.0006938371
8	0xb907ef03	-0.00012963642
9	0xbab4ced3	-0.0013794549
10	0x399d9572	0.0003005672
11	0x387fe354	6.1008453e-05
12	0xb97fd00e	-0.00024396201
13	0x3848867f	4.7808975e-05
14	0xb97ee9b5	-0.0002431039
15	0xb9c501a2	-0.00037575985
16	0xb93185ef	-0.0001692993
17	0xba886555	-0.0010406176
18	0xb9cdd68e	-0.00039260503
19	0x3a812f38	0.0009855991
20	0x39977a86	0.0002889225
21	0xb91e66ad	-0.00015106304
22	0xba51cd8b	-0.00080033456
23	0xba11ddb4	-0.00055643474
24	0xba950b8f	-0.0011371243
25	0xbb1a58c6	-0.0023551448
26	0xb9d9243e	-0.00041416468
27	0xb990843d	-0.00027564346
28	0xb98f85f8	-0.000273749
29	0xba712a97	-0.0009199767
30	0xb9b77dd2	-0.00034998223
31	0xb93321ba	-0.00017083334
32	0xba4fa469	-0.00079209224
33	0x39430ad1	0.00018600679
34	0xb995f52b	-0.0002860216
35	0xba8250cc	-0.0009942292
36	0xba1c98e7	-0.0005973712
37	0xb98c0d5b	-0.00026712831
38	0xbaf8db32	-0.0018986224
39	0x39908cb2	0.00027570646
40	0xba317a11	-0.00067702035
41	0xbb7173a1	-0.0036842602
42	0xba1846db	-0.0005808898
43	0xba1bf0cc	-0.00059486623
44	0xb92be494	-0.00016392983
45	0xb9208bcc	-0.00015310867
46	0x39254b0c	0.00015763583
47	0xb9fcb986	-0.0004820341
48	0xba20aae5	-0.0006128981
49	0xba3f15c2	-0.0007289314
50	0x390ee0ee	0.00013625968
51	0xb9534348	-0.00020147592
52	0x38be4166	9.0720874e-05
53	0xb9cecbce	-0.00039443228
54	0xba88243a	-0.0010386773
55	0xb991e6ca	-0.00027828506
56	0xba79345d	-0.0009506399
57	0xba293267	-0.0006454349
58	0xbad21499	-0.0016027867
59	0xba31dd9d	-0.0006785037
60	0xb6b2077e	-5.3056856e-06
61	0xb92b3ac3	-0.00016329721
62	0xba21fc6b	-0.0006179276
63	0x3a020752	0.0004960197
64	0xb77f8070	-1.5229089e-05
65	0x382d536e	4.1324114e-05
66	0xb935c863	-0.00017336155
67	0xba1f846c	-0.0006085101
68	0xb70cafef	-8.385613e-06
69	0x3a363ead	0.00069520884
70	0x3940b02e	0.00018376179
71	0xb754edbd	-1.2691537e-05
72	0x39ae1304	0.00033202034
73	0xb9e66c0a	-0.00043949514
74	0xb8ee7cbc	-0.00011371958
75	0xb9bf256c	-0.0003645824
76	0x39afcfce	0.00033533428
77	0xb9bf5df6	-0.00036500365
78	0xb9c3fd7c	-0.0003738216
79	0xba4a5144	-0.0007717798
80	0xb97bfc1b	-0.00024031142
81	0xb8ca4e51	-9.646698e-05
82	0xb9f98d82	-0.00047598412
83	0x3923fbf4	0.00015638751
84	0xb8c9f619	-9.630266e-05
85	0x39561d92	0.00020419646
86	0xba398646	-0.0007077198
87	0xba0835de	-0.0005196015
88	0xb99521aa	-0.00028444576
89	0xb9f53f9a	-0.00046777428
90	0x38f3883b	0.00011612518
91	0xb928308d	-0.00016039815
92	0xba44e195	-0.0007510421
93	0x38301e20	4.1989726e-05
94	0xba58bde3	-0.00082680414
95	0xbacde6df	-0.0015709064
96	0xb9992192	-0.00029207446
97	0xb7650ef8	-1.3652949e-05
98	0xba0364ea	-0.0005012291
99	0x39bdb087	0.00036180412
100	0xb9acf4dd	-0.00032988834
101	0xb8efe615	-0.00011439264
102	0xb8ecc565	-0.000112901245
103	0xba87e14d	-0.0010366827
104	0x399d7653	0.00030033532
105	0xb9e95c59	-0.00044510028
106	0xbaadb594	-0.0013252967
107	0x3a256caf	0.00063104456
108	0x38df6333	0.00010651946
109	0xb9bb2297	-0.0003569319
110	0xb9f7677f	-0.00047188622
111	0xb9e4d6ac	-0.00043647492
112	0xb9916111	-0.00027728875
113	0xb919fb24	-0.00014684774
114	0x39dd1c5a	0.00042173528
115	0xba5e9f25	-0.00084923423
116	0xb9cb33b7	-0.00038757708
117	0xba0b460b	-0.00053128664
118	0xba7a8ab6	-0.00095574127
119	0x3909c373	0.00013138149
120	0x384487a1	4.6856356e-05
121	0x39ff7de5	0.0004873119
122	0x38ae12a8	8.3004416e-05
123	0xba2edf30	-0.0006670831
124	0xb7755579	-1.4623039e-05
125	0x3787eb07	1.6202697e-05
126	0xbad617f7	-0.0016334046
127	0xb983cd72	-0.00025139336

network_body._body_endoder.seq_layers.0.weight f4 [128, 75]
0	0x3e219c4c	0.15782279
1	0x3e64e761	0.22353889
2	0x3e0aab58	0.13541925
3	0xbe2f92f5	-0.17145903
4	0xbc9cd7bc	-0.019145839
5	0x3c7ed091	0.015552656
6	0x3e175cbd	0.1478147
7	0xbd40b53a	-0.04704783
8	0xbb801298	-0.0039084665
9	0xbcdb8012	-0.026794467
10	0x3e490454	0.19630557
11	0xbd94ffb3	-0.07275333
12	0x3d84f4b9	0.0649199
13	0x3d6570df	0.056015845
14	0x3b8a3c6c	0.0042186286
15	0x3c5d9ab1	0.013525651
16	0xbde18890	-0.11012375
17	0x3d2cb2a5	0.042162556
18	0xbe196d8f	-0.149832
19	0x3e28497d	0.16434284
20	0xbe4fee79	-0.20305814
21	0x3df3b2ac	0.11899313
22	0xbd9c2451	-0.07624114
23	0xbd849d65	-0.06475333
24	0xbebb53c9	-0.3658736
25	0xbdf6eaf8	-0.120565355
26	0xbe073316	-0.13203081
27	0x3d5c9df3	0.05386157
28	0xbdec52a6	-0.115392014
29	0xbdbd96a1	-0.09257246
30	0xbe2c71e9	-0.16840328
31	0xbd90e750	-0.07075369
32	0x3e0c5b49	0.13706698
33	0xbd5c0c01	-0.053722385
34	0xbd4d1eb2	-0.0500781
35	0xbdfaef03	-0.12252619
36	0xbe7b3bb9	-0.24534501
37	0x3cd6bfd2	0.026214514
38	0x3d85ee69	0.06539614
39	0x3e519b01	0.20469286
40	0x3dcdab93	0.10042491
41	0xbdfe89ea	-0.12428649
42	0x3e460fb8	0.19341934
43	0x3e1fbac4	0.15598589
44	0x3eaa0eed	0.33214512
45	0x3dc8c072	0.09802331
46	0x3d7c30f3	0.06157012
47	0xbca1e254	-0.019761242
48	0xbd0d598e	-0.034509234
49	0xbcbe62da	-0.023240495
50	0xbe32894e	-0.1743519
51	0xbcf06314	-0.02934412
52	0x3d9bac52	0.07601227
53	0xbcb03838	-0.021511182
54	0x3d6cdc64	0.05782737
55	0xbbd69893	-0.00654895
56	0x3e2327cc	0.1593315
57	0xbc889e07	-0.016676916
58	0xbe0d4031	-0.13794018
59	0x3c422db6	0.011851719
60	0x3d03b645	0.032156248
61	0x3e097f28	0.13427413
62	0x3d5d0b10	0.05396563
63	0xbcdd87ed	-0.027042354
64	0xbd0d895c	-0.034554824
65	0xbe1f63a0	-0.15565348
66	0xbca592e4	-0.020211644
67	0xbd8e2aa5	-0.069417275
68	0xbe7bc553	-0.24586992
69	0x3e0bb342	0.136426
70	0x3e13f45a	0.14448681
71	0xbdeed5c6	-0.11661868
72	0x3d72f7e8	0.059318453
73	0x3e95e377	0.29275104
74	0x3d2483e8	0.040164858
75	0xbba8f37e	-0.0051559797
76	0x3dce2bc5	0.10066942
77	0xbaec6d37	-0.001803792
78	0x3bccb357	0.006246965
79	0x3c88db6e	0.016706195
80	0x3e3e4f08	0.18584836
81	0xbd446c11	-0.047954623
82	0x3c30b74c	0.010785889
83	0xbe148427	-0.14503537
84	0x3c712d0c	0.014720213
85	0xbd3b7342	-0.045764215
86	0x3d603aee	0.0547437
87	0xbdf69927	-0.1204093
88	0x3e1f7c09	0.1557466
89	0xbdee5bf8	-0.116386354
90	0x3e5a46ba	0.21316043
91	0xbde56821	-0.11201502
92	0xbe14b39e	-0.14521644
93	0x3e031d83	0.12804227
94	0xbd6d0fc9	-0.057876382
95	0x3cff0d86	0.031134378
96	0x3da9a077	0.08282559
97	0x3e8bb236	0.27284402
98	0xbe097463	-0.13423304
99	0x3e2f5578	0.17122447
100	0x3e316d9c	0.17326969
101	0xbe363489	-0.17793478
102	0x3db1de8b	0.08685025
103	0xbe1ddc3c	-0.15416044
104	0xbd9bf09e	-0.076142535
105	0x3d15d3eb	0.036579054
106	0xbe876e8c	-0.26451528
107	0x3d9afde0	0.07567954
108	0x3e0ccbd2	0.13749626
109	0x3cd42cf5	0.025900343
110	0xbd8f9ce5	-0.07012347
111	0xbc856812	-0.016284976
112	0xbdb6cf83	-0.089262985
113	0xbd9dfe18	-0.0771448
114	0x3d79aa2f	0.060953315
115	0x3d0694f1	0.032856885
116	0x3d1a5eee	0.03768819
117	0xbdc17e86	-0.094479606
118	0x3d091b2d	0.033473182
119	0x3e16fdef	0.14745305
120	0x3d84f349	0.064917155
121	0x3e0cfc35	0.13768084
122	0x3daebab2	0.08531703
123	0x3e293081	0.16522409
124	0xbe455b34	-0.19273072
125	0x3c8cd3d8	0.017190859
126	0xbe09e72b	-0.1346709
127	0xbc1bbc8b	-0.009505401
128	0xbd528f0e	-0.05140596
129	0x3dccaccb	0.09993895
130	0x3baa38c5	0.0051947557
131	0xbe0aedd4	-0.13567287
132	0xbc1e3cd0	-0.0096580535
133	0xbc5494ed	-0.01297496
134	0x3d9a173a	0.07523961
135	0xbd02f097	-0.031967726
136	0xbd70e892	-0.058815546
137	0xbd8e767c	-0.06956193
138	0x3c5c6936	0.013452819
139	0xbe949d56	-0.29026288
140	0xbd4fd501	-0.050740246
141	0xbdd4dbd7	-0.103934936
142	0x3c1e43a4	0.0096596815
143	0x3d80acd2	0.06282963
144	0x3d7ff814	0.062492445
145	0xbd400cb0	-0.0468871
146	0x3dbf3f20	0.09338212
147	0xbdb1c7ba	-0.08680673
148	0xbd38f752	-0.045157738
149	0xbe664ead	-0.2249095
150	0xbd59b902	-0.053154953
151	0xbcf8d8bb	-0.030376783
152	0x3df61135	0.12015001
153	0x3b0c9d18	0.002145594
154	0xbdb918f0	-0.090379596
155	0x3ceb5c04	0.0287304
156	0xbdc03466	-0.09384994
157	0xbe0e5d92	-0.13902882
158	0xbd8a7beb	-0.06761917
159	0xbd69968f	-0.05702835
160	0xbdafd53f	-0.08585595
161	0xbdb24791	-0.087050565
162	0x3ddaf7fd	0.10691831
163	0x3d8ba531	0.06818617
164	0xbd673955	-0.05645116
165	0xbd194a75	-0.037424523
166	0x3dc73a54	0.09727922
167	0xbc805fbf	-0.015670655
168	0xbe243d1f	-0.16038941
169	0x3e114b74	0.1418894
170	0x3d6b7517	0.057484712
171	0xbd851c4e	-0.06499539
172	0xbe0cb413	-0.13740568
173	0x3def29f1	0.116779216
174	0xbba38fad	-0.0049914927
175	0x3dc7822b	0.097416244
176	0x3d826a7f	0.06367969
177	0x3c8f57dc	0.01749795
178	0x3dc2d07f	0.09512424
179	0xbe6db6c7	-0.23214255
180	0x3e20697d	0.1566524
181	0x3d7c262a	0.061559834
182	0xbd991455	-0.07474581
183	0x3a9497ba	0.0011336722
184	0xbe04f3b0	-0.12983584
185	0xbe2735b9	-0.16329087
186	0x3de9304c	0.11386165
187	0xbd014b46	-0.031565927
188	0xbdf2c6a7	-0.11854296
189	0xbd8652ce	-0.065587625
190	0xbdc5751c	-0.096414775
191	0x3d33a59a	0.0438591
192	0xbdcaf924	-0.09910801
193	0xbdc9e778	-0.09858602
194	0x3e0d07ef	0.13772558
195	0x3d89ea1a	0.067341045
196	0x3e040d77	0.12895761
197	0xbd45f266	-0.048326872
198	0xbd638fce	-0.055557065
199	0xbd298db3	-0.0413949
200	0x3c98d0c0	0.018654227
201	0xba3fc00f	-0.0007314691
202	0x3d923129	0.07138283
203	0x3d2dbd1a	0.04241667
204	0xbe4b79e8	-0.19870722
205	0xbda5209c	-0.0806286
206	0x3d2ba72f	0.041907486
207	0x3db65370	0.08902633
208	0xbe038fb6	-0.1284779
209	0x3d87aadb	0.06624385
210	0x3d1d7fda	0.038452007
211	0x3e684a8a	0.22684684
212	0x3bffea58	0.0078099184
213	0x3c877bed	0.016538585
214	0xbe54d732	-0.20785215
215	0xbd12290e	-0.035683684
216	0xbdf274df	-0.11838698
217	0x3e4e9a60	0.20176077
218	0xbc78a2f2	-0.015175568
219	0x3e2d00b0	0.16894794
220	0x3c422650	0.011849955
221	0xbda171da	-0.078830436
222	0xbdeed74c	-0.11662158
223	0xbda01b71	-0.07817734
224	0xbd3f1c7b	-0.04665802
225	0xbd5c3410	-0.05376059
226	0xbd97ccbe	-0.07412098
227	0x3e23c858	0.15994394
228	0x3daf083e	0.08546494
229	0xbde533bb	-0.111915074
230	0xbc408cd7	-0.011752329
231	0xbdf62f14	-0.12020698
232	0x3dc4ddf5	0.096126474
233	0x3dd83e70	0.10558784
234	0xbe05f94d	-0.13083382
235	0x3e00af11	0.12566783
236	0xbd328672	-0.04358525
237	0x3d9b2b0f	0.07576572
238	0xbd4c6120	-0.049897313
239	0x3c47db4c	0.012198281
240	0x3b24ba3f	0.0025135425
241	0xbd9bbbf4	-0.076042086
242	0xbd622c90	-0.05521828
243	0xbdf36ec5	-0.11886362
244	0x3c886abc	0.016652457
245	0xbe1488e1	-0.1450534
246	0xbe181241	-0.14850713
247	0x3e337afe	0.17527387
248	0x3db08b5f	0.08620333
249	0x3d13b5d2	0.03606207
250	0x3cafd53d	0.021463985
251	0xbe33b23d	-0.17548461
252	0xbd9d448e	-0.076790914
253	0xbbb65f95	-0.0055655935
254	0xbc0a31c9	-0.008434721
255	0xbd6798d6	-0.05654224

network_body._body_endoder.seq_layers.2.bias f4 [128]
0	0xba843215	-0.0010085726
1	0xb9cff76c	-0.0003966646
2	0xba177454	-0.0005777527
3	0xb96beadf	-0.00022498843
4	0xb9dcf66e	-0.00042145274
5	0x39d0c86d	0.0003982218
6	0xba23632a	-0.0006232733
7	0x3a71c888	0.0009223302
8	0xb93bdcc0	-0.00017915946
9	0xb8cc818a	-9.7516066e-05
10	0xb8838016	-6.270425e-05
11	0xb980b03e	-0.00024545373
12	0xb99676e1	-0.000286988
13	0x3a46698d	0.0007568829
14	0x3a45f5e3	0.00075515936
15	0x38b9a020	8.851313e-05
16	0xb9e89c29	-0.00044366837
17	0xb9b95b8d	-0.0003535416
18	0x396e91b0	0.00022751722
19	0xb986c5ac	-0.0002570575
20	0xba4fd8d7	-0.0007928735
21	0xb9b0d5b4	-0.00033728557
22	0xb98e2d4e	-0.00027118105
23	0xb97cf840	-0.00024125073
24	0x39df2ef0	0.00042568846
25	0xba62270b	-0.00086270337
26	0xb93a28b0	-0.000177535
27	0xb9a8c5e0	-0.00032190885
28	0xba59e8f1	-0.0008312604
29	0xb9881055	-0.0002595211
30	0xba685fee	-0.00088643923
31	0xb9332bf6	-0.00017087147
32	0xba016e43	-0.000493739
33	0x38cd586b	9.791631e-05
34	0xba78cb44	-0.0009490738
35	0xb9add48f	-0.000331555
36	0xb99738a5	-0.00028843168
37	0xb891caae	-6.951891e-05
38	0xb996a49f	-0.00028732882
39	0xb94d0461	-0.00019551955
40	0xb95e1e39	-0.00021182829
41	0xb9a7f960	-0.0003203852
42	0x392f95c7	0.00016745097
43	0xb93afcf6	-0.00017832578
44	0xb9b93354	-0.00035324192
45	0xb92b6d7a	-0.00016348614
46	0x3a0ec275	0.00054458465
47	0x3814debe	3.5493395e-05
48	0xb9f0a870	-0.00045901863
49	0xb9ad40cf	-0.00033045418
50	0xba10f89d	-0.00055302103
51	0xba10295c	-0.0005499327
52	0x387e4609	6.0623544e-05
53	0xb9b3d432	-0.00034299638
54	0xb9f77b3f	-0.00047203337
55	0xb99a64e7	-0.00029448347
56	0xba038408	-0.00050169276
57	0xb9e6fa42	-0.00044055475
58	0x38ebb402	0.00011239202
59	0xba27dcbb	-0.0006403436
60	0xb950e6ca	-0.00019922401
61	0xba7214d9	-0.0009234674
62	0xba46dfee	-0.0007586469
63	0xba04067b	-0.0005036366
64	0xb954dabb	-0.00020299379
65	0xb9bcbacd	-0.00035997332
66	0xb9b5d323	-0.0003468032
67	0xb980656d	-0.0002448963
68	0xbaa851f3	-0.0012841806
69	0x39ca0153	0.0003852943
70	0xb987bc45	-0.00025889478
71	0xba1a6ff6	-0.0005891317
72	0x3a13f824	0.0005644581
73	0xb9de0e67	-0.0004235387
74	0xb9171517	-0.00014408339
75	0xb8c297b8	-9.278901e-05
76	0xb9f9af13	-0.0004762342
77	0xba477abd	-0.0007609537
78	0xb958ad33	-0.00020663887
79	0xb9a6f413	-0.00031843837
80	0xba099bc3	-0.00052493456
81	0xb9ab1061	-0.00032627865
82	0xb97c3aa7	-0.00024054442
83	0xb97c645f	-0.00024069984
84	0xb9e33661	-0.0004333733
85	0xb8aecd7f	-8.335243e-05
86	0xb9e60c16	-0.00043878023
87	0x3823d7bc	3.9063147e-05
88	0xba71caec	-0.0009223658
89	0x3a1b7783	0.00059305894
90	0xb9a6e1c0	-0.00031830184
91	0xb985d8fb	-0.000255294
92	0xb7ae7261	-2.0795678e-05
93	0xb85f8d66	-5.329903e-05
94	0xb9260d3f	-0.00015835928
95	0xb88fe500	-6.861426e-05
96	0xb80337dd	-3.128486e-05
97	0xbadf82db	-0.0017052548
98	0xba752166	-0.0009350985
99	0xb9523c50	-0.00020049629
100	0xba1127cf	-0.0005537243
101	0xb90e8196	-0.0001359045
102	0xba304a33	-0.0006724924
103	0xba2f71cf	-0.0006692679
104	0x399d97c7	0.00030058456
105	0xba28f419	-0.0006445065
106	0x37bfb532	2.285335e-05
107	0xbaafb722	-0.0013406018
108	0xb8834c2c	-6.260755e-05
109	0xba1cbb9a	-0.00059788825
110	0xb9e2e779	-0.0004327854
111	0xba41c522	-0.0007391741
112	0xba89e7ae	-0.0010521316
113	0xba154b70	-0.000569514
114	0xb9f58397	-0.00046828084
115	0xb92eab42	-0.00016657732
116	0x3a6068f5	0.00085605617
117	0xb9ccae1d	-0.00039039637
118	0xb8d01821	-9.922707e-05
119	0xb9098f0a	-0.00013118624
120	0xba3bedcf	-0.000716892
121	0xba7eb68d	-0.0009716533
122	0xba29618b	-0.00064613734
123	0xb981dad8	-0.0002476785
124	0xb966cd08	-0.0002201089
125	0x38827b62	6.221865e-05
126	0x39715b11	0.00023017476
127	0xba82be4c	-0.0009974926

network_body._body_endoder.seq_layers.2.weight f4 [128, 128]
0	0x3d3cc314	0.04608448
1	0xbcbfec6d	-0.023428166
2	0x3e0034d0	0.12520146
3	0xbdaedcfd	-0.08538244
4	0x3d8b0dbc	0.06789729
5	0xbdf6998e	-0.12041007
6	0x3d59600a	0.053070106
7	0xbd02c66a	-0.031927504
8	0xbdf0d43d	-0.11759231
9	0x3d4fef01	0.05076504
10	0xbd4f0cde	-0.05054938
11	0xbcd026f3	-0.025409197
12	0x3caf7489	0.021417873
13	0x3e261946	0.16220579
14	0x3cb0ee2b	0.021597942
15	0x3cc9053e	0.024538632
16	0xbb096d84	-0.0020969817
17	0xbdbecfae	-0.093169555
18	0x3d4d85c8	0.050176412
19	0x3d3593df	0.044330474
20	0x3dc5c12a	0.09655984
21	0xbc25c36f	-0.010117396
22	0xbae59736	-0.0017516378
23	0xbaa68dd4	-0.0012707063
24	0x3e350036	0.17675862
25	0xbdbc3414	-0.091896206
26	0x3d66bb24	0.056330815
27	0xbdc41adb	-0.09575435
28	0x3e604618	0.21901739
29	0xbd07b20f	-0.033128794
30	0x3d2347aa	0.039863266
31	0xbde96aee	-0.11397348
32	0x3d20234c	0.03909616
33	0x3d85cb35	0.06532899
34	0x3dd7cd8e	0.10537253
35	0x3d33dd6c	0.043912336
36	0xbd0d4b52	-0.03449566
37	0xbd63ab9a	-0.055583574
38	0xbe21d78b	-0.1580488
39	0xbdf6c67f	-0.12049579
40	0x3c98cd7b	0.018652668
41	0x3c7aa30b	0.015297662
42	0xbd970b04	-0.07375148
43	0xbcb59219	-0.022164391
44	0xbe070d38	-0.13188636
45	0x3dac8ad8	0.0842492
46	0xbd00a8e5	-0.03141107
47	0x3d83fbd5	0.064445175
48	0xbe2574dd	-0.16157861
49	0x3d30630e	0.043063216
50	0xbe3fe01b	-0.18737833
51	0x3d04e2af	0.032442745
52	0x3ba55015	0.005044947
53	0x3d93cb69	0.07216532
54	0x3e40a7ac	0.18813962
55	0xbda5ca2e	-0.08095203
56	0x3df70c2e	0.1206287
57	0xbd4649a0	-0.048410058
58	0xbc309a1c	-0.01077893
59	0x3d427a93	0.047480177
60	0xbc8bfb9a	-0.017087746
61	0x3e436a4b	0.19083516
62	0xbd9c309e	-0.076264605
63	0xbda3b990	-0.079943776
64	0x3e2aa788	0.1666547
65	0x3dddf3c7	0.108375125
66	0xbd39b97e	-0.045342915
67	0x3c384c2f	0.011248632
68	0x3e131951	0.14365126
69	0x3cf0f0d3	0.029411709
70	0x3cbe76e4	0.02325005
71	0x3cea8749	0.028628962
72	0x3d3652b7	0.044512477
73	0xbbe88611	-0.00709606
74	0xbdf7c090	-0.12097275
75	0xbdf00f90	-0.11721718
76	0xbdcc9d3a	-0.09990926
77	0x3c0b00a8	0.008484043
78	0x3d873185	0.06601242
79	0x3dba450c	0.09095201
80	0xbdc5639f	-0.09638142
81	0x3ceab0d4	0.028648771
82	0x3d0922cb	0.033480447
83	0xbcb38225	-0.021912644
84	0xbbde8776	-0.0067910505
85	0xbe3a65b2	-0.18202856
86	0xbdcefda8	-0.10106975
87	0x3da4200e	0.080139264
88	0x3db54b89	0.08852298
89	0x3e3a1a50	0.181741
90	0xbe0f7db3	-0.14012794
91	0x3dc839a7	0.09776621
92	0xbd87da1e	-0.066333994
93	0xbe2e2f19	-0.17010154
94	0xbd29b70b	-0.04143433
95	0xbd2dfce6	-0.04247751
96	0x3d3ea834	0.04654713
97	0x3e0fac5f	0.14030598
98	0xbe0c9416	-0.13728365
99	0xbaa59fd4	-0.0012636133
100	0xbd6b9485	-0.057514686
101	0x3ce73ad5	0.028226295
102	0xbe82e2b5	-0.2556359
103	0x3c34481b	0.011003519
104	0x3c0551c9	0.008137175
105	0x3c4e061e	0.012574701
106	0x3d25e828	0.040504605
107	0xbcf421ff	-0.029801367
108	0x3d6a7570	0.057240903
109	0x3e1160d7	0.14197098
110	0x3dcc9457	0.09989231
111	0x3c9d54da	0.0192055
112	0x3dceb146	0.10092406
113	0xbde73507	-0.11289411
114	0xbccf61e4	-0.025315233
115	0xbd37111f	-0.044694062
116	0x3e387785	0.18014343
117	0x3d162696	0.036657892
118	0x3e2bc435	0.16774066
119	0x3d9a7467	0.07541733
120	0xbd00c873	-0.031441163
121	0x3d95d506	0.073160216
122	0xbcb43ad9	-0.022000717
123	0x3dc8ac8e	0.09798537
124	0xbd3f24a1	-0.04666579
125	0xbd3ac345	-0.04559638
126	0x3d3d9266	0.046282195
127	0xbd6e46a0	-0.058172822
128	0x3e08b9c9	0.13352121
129	0x3d368cca	0.04456786
130	0x3d48420a	0.048891105
131	0xbdaf6fd8	-0.085662544
132	0xbdd3a82e	-0.10334812
133	0xbd846e4b	-0.06466349
134	0xbb3cbc12	-0.0028798622
135	0xbce7ee67	-0.028311921
136	0x3de17a6d	0.11009679
137	0x3c470789	0.012147793
138	0xbdefb7a5	-0.11704949
139	0xbd89d619	-0.06730289
140	0x3dd8d852	0.10588135
141	0xbe18ec0b	-0.14933793
142	0x3d0ca1d7	0.03433403
143	0x3ce5f781	0.02807212
144	0x3dfc8f9e	0.1233208
145	0xbda3d1c0	-0.07998991
146	0x3de70620	0.11280465
147	0xbd819985	-0.0632811
148	0x3db62d28	0.088953316
149	0x3d407758	0.046988815
150	0x3e25bfd6	0.16186461
151	0xbd9f6335	-0.07782594
152	0x3e12a7e6	0.1432186
153	0xbe37c739	-0.17947091
154	0xbb0feeac	-0.0021962328
155	0x3d99d4d3	0.07511296
156	0x3db870cf	0.090058915
157	0x3e164af2	0.14677027
158	0x3dc351b5	0.09537069
159	0x3dadbd0d	0.08483324
160	0x3dc385ed	0.09547029
161	0xbd38cd51	-0.04511768
162	0x3d3c91b3	0.046037387
163	0xbd11ea7f	-0.035624024
164	0xbd093932	-0.03350181
165	0x3dfa08bf	0.122086994
166	0x3da88af0	0.08229625
167	0xbcb966c5	-0.022632012
168	0xbcbe78bd	-0.023250932
169	0xbda09827	-0.07841521
170	0x3db32e0e	0.087490186
171	0xbcb54ec6	-0.022132289
172	0x3d6b794e	0.057488732
173	0xbdc00308	-0.09375578
174	0xbcaca090	-0.021072656
175	0x3dc50532	0.096201316
176	0xbd2b06a6	-0.041754387
177	0x3caa9dce	0.0208272
178	0x3c5e26d1	0.013559059
179	0xbe3150ea	-0.17316023
180	0x3c02ef90	0.007991686
181	0x3dac8a3c	0.084248036
182	0xbcca72be	-0.024712916
183	0x3e453f16	0.19262347
184	0x3e5beb27	0.21476422
185	0xbc0acc13	-0.008471507
186	0x3e07be19	0.1325611
187	0x3d586b7e	0.052836888
188	0x3db51ec2	0.08843757
189	0x3c6815ee	0.014165385
190	0x3e64e8b9	0.22354402
191	0x3c6a2d24	0.014292989
192	0xbe3696bc	-0.17830938
193	0xbd501ea7	-0.050810482
194	0x3d820654	0.06348863
195	0x3ce669be	0.028126594
196	0x3e4af774	0.19820958
197	0x3d887b7a	0.06664176
198	0x3d8f97a8	0.07011348
199	0x3bc3553e	0.0059610894
200	0xbd3b15ef	-0.045675214
201	0x3d365b53	0.044520687
202	0x3deaf622	0.11472727
203	0xbe56d74c	-0.20980567
204	0x3d46378e	0.048392825
205	0x3d8b65a7	0.06806498
206	0xbdcb8934	-0.09938279
207	0x3dd5ceef	0.1043986
208	0xbd4e1b43	-0.050318968
209	0x3e0250fc	0.12726206
210	0x3c3f9bba	0.011694843
211	0xbdef95d1	-0.11698497
212	0x3dc031b5	0.09384481
213	0x3d819334	0.06326905
214	0x3c353235	0.011059334
215	0xbd7dbab7	-0.061945643
216	0xbce54b9f	-0.02799016
217	0x3e2f8b67	0.17143022
218	0xbe0b1d13	-0.1358531
219	0x3d95c6b8	0.07313293
220	0xbdfee24e	-0.12445508
221	0xbd561137	-0.05226251
222	0xbd370e39	-0.0446913
223	0x3df0f16c	0.117647976
224	0x3c358c1b	0.011080767
225	0x3cd45c1a	0.025922824
226	0x3e08c3ae	0.13355896
227	0xbc6c396f	-0.01441799
228	0x3d52e8ce	0.05149155
229	0xbdd393e0	-0.10330939
230	0xbca3e75b	-0.02000778
231	0xbd227218	-0.03965959
232	0x3b97b55a	0.004629773
233	0x3d979cc5	0.07402948
234	0x3d577479	0.05260131
235	0x3d1da866	0.038490675
236	0x3d3c13e3	0.045917403
237	0xbc76db81	-0.015066982
238	0xbd645c2e	-0.055751972
239	0xbe2bd83a	-0.16781703
240	0x3d89da70	0.06731117
241	0xbd9e45b7	-0.07728141
242	0xbc9f1214	-0.0194178
243	0xbd8d0d0c	-0.06887254
244	0x3d163af0	0.0366773
245	0xbc2769b0	-0.010218069
246	0x3d7a8efd	0.06117152
247	0x3dca77ef	0.09886157
248	0xbd009ac5	-0.0313976
249	0xbe30739f	-0.17231606
250	0xbd4c48a8	-0.049873978
251	0x3d87ec85	0.066369094
252	0xbdbdd8dd	-0.09269879
253	0xbdd0faeb	-0.10204109
254	0x3d463605	0.04839136
255	0x3d3d0a97	0.046152677
