Unity Project/CSC 30014 Project/results/test/Car/Car-38814.pt (torch, 651359 bytes, 36 tensors)

network_body._body_endoder.seq_layers.0.weight f4 [128, 75]
00000000: 4c9c 213e 61e7 643e 58ab 0a3e f592 2fbe
00000010: bcd7 9cbc 91d0 7e3c bd5c 173e 3ab5 40bd
00000020: 9812 80bb 1280 dbbc 5404 493e b3ff 94bd
00000030: b9f4 843d df70 653d 6c3c 8a3b b19a 5d3c
00000040: 9088 e1bd a5b2 2c3d 8f6d 19be 7d49 283e
00000050: 79ee 4fbe acb2 f33d 5124 9cbd 659d 84bd
00000060: c953 bbbe f8ea f6bd 1633 07be f39d 5c3d
00000070: a652 ecbd a196 bdbd e971 2cbe 50e7 90bd
00000080: 495b 0c3e 010c 5cbd b21e 4dbd 03ef fabd
00000090: b93b 7bbe d2bf d63c 69ee 853d 019b 513e
000000a0: 93ab cd3d ea89 febd b80f 463e c4ba 1f3e
000000b0: ed0e aa3e 72c0 c83d f330 7c3d 54e2 a1bc
000000c0: 8e59 0dbd da62 bebc 4e89 32be 1463 f0bc
000000d0: 52ac 9b3d 3838 b0bc 64dc 6c3d 9398 d6bb
000000e0: cc27 233e 079e 88bc 3140 0dbe b62d 423c
000000f0: 45b6 033d 287f 093e 100b 5d3d ed87 ddbc
00000100: 5c89 0dbd a063 1fbe e492 a5bc a52a 8ebd
00000110: 53c5 7bbe 42b3 0b3e 5af4 133e c6d5 eebd
00000120: e8f7 723d 77e3 953e e883 243d 7ef3 a8bb
00000130: c52b ce3d 376d ecba 57b3 cc3b 6edb 883c
00000140: 084f 3e3e 116c 44bd 4cb7 303c 2784 14be
00000150: 0c2d 713c 4273 3bbd ee3a 603d 2799 f6bd
00000160: 097c 1f3e f85b eebd ba46 5a3e 2168 e5bd
00000170: 9eb3 14be 831d 033e c90f 6dbd 860d ff3c
00000180: 77a0 a93d 36b2 8b3e 6374 09be 7855 2f3e
00000190: 9c6d 313e 8934 36be 8bde b13d 3cdc 1dbe
000001a0: 9ef0 9bbd ebd3 153d 8c6e 87be e0fd 9a3d
000001b0: d2cb 0c3e f52c d43c e59c 8fbd 1268 85bc
000001c0: 83cf b6bd 18fe 9dbd 2faa 793d f194 063d
000001d0: ee5e 1a3d 867e c1bd 2d1b 093d effd 163e
000001e0: 49f3 843d 35fc 0c3e b2ba ae3d 8130 293e
000001f0: 345b 45be d8d3 8c3c 2be7 09be 8bbc 1bbc
00000200: 0e8f 52bd cbac cc3d c538 aa3b d4ed 0abe
00000210: d03c 1ebc ed94 54bc 3a17 9a3d 97f0 02bd
00000220: 92e8 70bd 7c76 8ebd 3669 5c3c 569d 94be
00000230: 01d5 4fbd d7db d4bd a443 1e3c d2ac 803d
00000240: 14f8 7f3d b00c 40bd 203f bf3d bac7 b1bd
00000250: 52f7 38bd ad4e 66be 02b9 59bd bbd8 f8bc
00000260: 3511 f63d 189d 0c3b f018 b9bd 045c eb3c
00000270: 6634 c0bd 925d 0ebe eb7b 8abd 8f96 69bd
00000280: 3fd5 afbd 9147 b2bd fdf7 da3d 31a5 8b3d
00000290: 5539 67bd 754a 19bd 543a c73d bf5f 80bc
000002a0: 1f3d 24be 744b 113e 1775 6b3d 4e1c 85bd
000002b0: 13b4 0cbe f129 ef3d ad8f a3bb 2b82 c73d
000002c0: 7f6a 823d dc57 8f3c 7fd0 c23d c7b6 6dbe
000002d0: 7d69 203e 2a26 7c3d 5514 99bd ba97 943a
000002e0: b0f3 04be b935 27be 4c30 e93d 464b 01bd
000002f0: a7c6 f2bd ce52 86bd 1c75 c5bd 9aa5 333d
00000300: 24f9 cabd 78e7 c9bd ef07 0d3e 1aea 893d
00000310: 770d 043e 66f2 45bd ce8f 63bd b38d 29bd
00000320: c0d0 983c 0fc0 3fba 2931 923d 1abd 2d3d
00000330: e879 4bbe 9c20 a5bd 2fa7 2b3d 7053 b63d
00000340: b68f 03be dbaa 873d da7f 1d3d 8a4a 683e
00000350: 58ea ff3b ed7b 873c 32d7 54be 0e29 12bd
00000360: df74 f2bd 609a 4e3e f2a2 78bc b000 2d3e
00000370: 5026 423c da71 a1bd 4cd7 eebd 711b a0bd
00000380: 7b1c 3fbd 1034 5cbd becc 97bd 58c8 233e
00000390: 3e08 af3d bb33 e5bd d78c 40bc 142f f6bd
000003a0: f5dd c43d 703e d83d 4df9 05be 11af 003e
000003b0: 7286 32bd 0f2b 9b3d 2061 4cbd 4cdb 473c
000003c0: 3fba 243b f4bb 9bbd 902c 62bd c56e f3bd
000003d0: bc6a 883c e188 14be 4112 18be fe7a 333e
000003e0: 5f8b b03d d2b5 133d 3dd5 af3c 3db2 33be
000003f0: 8e44 9dbd 955f b6bb c931 0abc d698 67bd
0.15782279 0.22353889 0.13541925 -0.17145903 -0.019145839 0.015552656 0.1478147 -0.04704783
-0.0039084665 -0.026794467 0.19630557 -0.07275333 0.0649199 0.056015845 0.0042186286 0.013525651
-0.11012375 0.042162556 -0.149832 0.16434284 -0.20305814 0.11899313 -0.07624114 -0.06475333
-0.3658736 -0.120565355 -0.13203081 0.05386157 -0.115392014 -0.09257246 -0.16840328 -0.07075369
0.13706698 -0.053722385 -0.0500781 -0.12252619 -0.24534501 0.026214514 0.06539614 0.20469286
0.10042491 -0.12428649 0.19341934 0.15598589 0.33214512 0.09802331 0.06157012 -0.019761242
-0.034509234 -0.023240495 -0.1743519 -0.02934412 0.07601227 -0.021511182 0.05782737 -0.00654895
0.1593315 -0.016676916 -0.13794018 0.011851719 0.032156248 0.13427413 0.05396563 -0.027042354
-0.034554824 -0.15565348 -0.020211644 -0.069417275 -0.24586992 0.136426 0.14448681 -0.11661868
0.059318453 0.29275104 0.040164858 -0.0051559797 0.10066942 -0.001803792 0.006246965 0.016706195
0.18584836 -0.047954623 0.010785889 -0.14503537 0.014720213 -0.045764215 0.0547437 -0.1204093
0.1557466 -0.116386354 0.21316043 -0.11201502 -0.14521644 0.12804227 -0.057876382 0.031134378
0.08282559 0.27284402 -0.13423304 0.17122447 0.17326969 -0.17793478 0.08685025 -0.15416044
-0.076142535 0.036579054 -0.26451528 0.07567954 0.13749626 0.025900343 -0.07012347 -0.016284976
-0.089262985 -0.0771448 0.060953315 0.032856885 0.03768819 -0.094479606 0.033473182 0.14745305
0.064917155 0.13768084 0.08531703 0.16522409 -0.19273072 0.017190859 -0.1346709 -0.009505401
-0.05140596 0.09993895 0.0051947557 -0.13567287 -0.0096580535 -0.01297496 0.07523961 -0.031967726
-0.058815546 -0.06956193 0.013452819 -0.29026288 -0.050740246 -0.103934936 0.0096596815 0.06282963
0.062492445 -0.0468871 0.09338212 -0.08680673 -0.045157738 -0.2249095 -0.053154953 -0.030376783
0.12015001 0.002145594 -0.090379596 0.0287304 -0.09384994 -0.13902882 -0.06761917 -0.05702835
-0.08585595 -0.087050565 0.10691831 0.06818617 -0.05645116 -0.037424523 0.09727922 -0.015670655
-0.16038941 0.1418894 0.057484712 -0.06499539 -0.13740568 0.116779216 -0.0049914927 0.097416244
0.06367969 0.01749795 0.09512424 -0.23214255 0.1566524 0.061559834 -0.07474581 0.0011336722
-0.12983584 -0.16329087 0.11386165 -0.031565927 -0.11854296 -0.065587625 -0.096414775 0.0438591
-0.09910801 -0.09858602 0.13772558 0.067341045 0.12895761 -0.048326872 -0.055557065 -0.0413949
0.018654227 -0.0007314691 0.07138283 0.04241667 -0.19870722 -0.0806286 0.041907486 0.08902633
-0.1284779 0.06624385 0.038452007 0.22684684 0.0078099184 0.016538585 -0.20785215 -0.035683684
-0.11838698 0.20176077 -0.015175568 0.16894794 0.011849955 -0.078830436 -0.11662158 -0.07817734
-0.04665802 -0.05376059 -0.07412098 0.15994394 0.08546494 -0.111915074 -0.011752329 -0.12020698
0.096126474 0.10558784 -0.13083382 0.12566783 -0.04358525 0.07576572 -0.049897313 0.012198281
0.0025135425 -0.076042086 -0.05521828 -0.11886362 0.016652457 -0.1450534 -0.14850713 0.17527387
0.08620333 0.03606207 0.021463985 -0.17548461 -0.076790914 -0.0055655935 -0.008434721 -0.05654224

network_body._body_endoder.seq_layers.0.bias f4 [128]
00000000: 48cf 49ba 3ba7 81ba 0d8b f5b9 bbfd e738
00000010: b98e d739 e83c f7b8 ac69 d7b9 9fe2 35ba
00000020: 03ef 07b9 d3ce b4ba 7295 9d39 54e3 7f38
00000030: 0ed0 7fb9 7f86 4838 b5e9 7eb9 a201 c5b9
00000040: ef85 31b9 5565 88ba 8ed6 cdb9 382f 813a
00000050: 867a 9739 ad66 1eb9 8bcd 51ba b4dd 11ba
00000060: 8f0b 95ba c658 1abb 3e24 d9b9 3d84 90b9
00000070: f885 8fb9 972a 71ba d27d b7b9 ba21 33b9
00000080: 69a4 4fba d10a 4339 2bf5 95b9 cc50 82ba
00000090: e798 1cba 5b0d 8cb9 32db f8ba b28c 9039
000000a0: 117a 31ba a173 71bb db46 18ba ccf0 1bba
000000b0: 94e4 2bb9 cc8b 20b9 0c4b 2539 86b9 fcb9
000000c0: e5aa 20ba c215 3fba eee0 0e39 4843 53b9
000000d0: 6641 be38 cecb ceb9 3a24 88ba cae6 91b9
000000e0: 5d34 79ba 6732 29ba 9914 d2ba 9ddd 31ba
000000f0: 7e07 b2b6 c33a 2bb9 6bfc 21ba 5207 023a
00000100: 7080 7fb7 6e53 2d38 63c8 35b9 6c84 1fba
00000110: efaf 0cb7 ad3e 363a 2eb0 4039 bded 54b7
00000120: 0413 ae39 0a6c e6b9 bc7c eeb8 6c25 bfb9
00000130: cecf af39 f65d bfb9 7cfd c3b9 4451 4aba
00000140: 1bfc 7bb9 514e cab8 828d f9b9 f4fb 2339
00000150: 19f6 c9b8 921d 5639 4686 39ba de35 08ba
00000160: aa21 95b9 9a3f f5b9 3b88 f338 8d30 28b9
00000170: 95e1 44ba 201e 3038 e3bd 58ba dfe6 cdba
00000180: 9221 99b9 f80e 65b7 ea64 03ba 87b0 bd39
00000190: ddf4 acb9 15e6 efb8 65c5 ecb8 4de1 87ba
000001a0: 5376 9d39 595c e9b9 94b5 adba af6c 253a
000001b0: 3363 df38 9722 bbb9 7f67 f7b9 acd6 e4b9
000001c0: 1161 91b9 24fb 19b9 5a1c dd39 259f 5eba
000001d0: b733 cbb9 0b46 0bba b68a 7aba 73c3 0939
000001e0: a187 4438 e57d ff39 a812 ae38 30df 2eba
000001f0: 7955 75b7 07eb 8737 f717 d6ba 72cd 83b9
-0.0007698429 -0.0009891758 -0.00046833642 0.00011062199 0.00041114332 -0.000117892225 -0.00041086727 -0.0006938371
-0.00012963642 -0.0013794549 0.0003005672 6.1008453e-05 -0.00024396201 4.7808975e-05 -0.0002431039 -0.00037575985
-0.0001692993 -0.0010406176 -0.00039260503 0.0009855991 0.0002889225 -0.00015106304 -0.00080033456 -0.00055643474
-0.0011371243 -0.0023551448 -0.00041416468 -0.00027564346 -0.000273749 -0.0009199767 -0.00034998223 -0.00017083334
-0.00079209224 0.00018600679 -0.0002860216 -0.0009942292 -0.0005973712 -0.00026712831 -0.0018986224 0.00027570646
-0.00067702035 -0.0036842602 -0.0005808898 -0.00059486623 -0.00016392983 -0.00015310867 0.00015763583 -0.0004820341
-0.0006128981 -0.0007289314 0.00013625968 -0.00020147592 9.0720874e-05 -0.00039443228 -0.0010386773 -0.00027828506
-0.0009506399 -0.0006454349 -0.0016027867 -0.0006785037 -5.3056856e-06 -0.00016329721 -0.0006179276 0.0004960197
-1.5229089e-05 4.1324114e-05 -0.00017336155 -0.0006085101 -8.385613e-06 0.00069520884 0.00018376179 -1.2691537e-05
0.00033202034 -0.00043949514 -0.00011371958 -0.0003645824 0.00033533428 -0.00036500365 -0.0003738216 -0.0007717798
-0.00024031142 -9.646698e-05 -0.00047598412 0.00015638751 -9.630266e-05 0.00020419646 -0.0007077198 -0.0005196015
-0.00028444576 -0.00046777428 0.00011612518 -0.00016039815 -0.0007510421 4.1989726e-05 -0.00082680414 -0.0015709064
-0.00029207446 -1.3652949e-05 -0.0005012291 0.00036180412 -0.00032988834 -0.00011439264 -0.000112901245 -0.0010366827
0.00030033532 -0.00044510028 -0.0013252967 0.00063104456 0.00010651946 -0.0003569319 -0.00047188622 -0.00043647492
-0.00027728875 -0.00014684774 0.00042173528 -0.00084923423 -0.00038757708 -0.00053128664 -0.00095574127 0.00013138149
4.6856356e-05 0.0004873119 8.3004416e-05 -0.0006670831 -1.4623039e-05 1.6202697e-05 -0.0016334046 -0.00025139336

network_body._body_endoder.seq_layers.2.weight f4 [128, 128]
00000000: 14c3 3c3d 6dec bfbc d034 003e fddc aebd
00000010: bc0d 8b3d 8e99 f6bd 0a60 593d 6ac6 02bd
00000020: 3dd4 f0bd 01ef 4f3d de0c 4fbd f326 d0bc
00000030: 8974 af3c 4619 263e 2bee b03c 3e05 c93c
00000040: 846d 09bb aecf bebd c885 4d3d df93 353d
00000050: 2ac1 c53d 6fc3 25bc 3697 e5ba d48d a6ba
00000060: 3600 353e 1434 bcbd 24bb 663d db1a c4bd
00000070: 1846 603e 0fb2 07bd aa47 233d ee6a e9bd
00000080: 4c23 203d 35cb 853d 8ecd d73d 6cdd 333d
00000090: 524b 0dbd 9aab 63bd 8bd7 21be 7fc6 f6bd
000000a0: 7bcd 983c 0ba3 7a3c 040b 97bd 1992 b5bc
000000b0: 380d 07be d88a ac3d e5a8 00bd d5fb 833d
000000c0: dd74 25be 0e63 303d 1be0 3fbe afe2 043d
000000d0: 1550 a53b 69cb 933d aca7 403e 2eca a5bd
000000e0: 2e0c f73d a049 46bd 1c9a 30bc 937a 423d
000000f0: 9afb 8bbc 4b6a 433e 9e30 9cbd 90b9 a3bd
00000100: 88a7 2a3e c7f3 dd3d 7eb9 39bd 2f4c 383c
00000110: 5119 133e d3f0 f03c e476 be3c 4987 ea3c
00000120: b752 363d 1186 e8bb 90c0 f7bd 900f f0bd
00000130: 3a9d ccbd a800 0b3c 8531 873d 0c45 ba3d
00000140: 9f63 c5bd d4b0 ea3c cb22 093d 2582 b3bc
00000150: 7687 debb b265 3abe a8fd cebd 0e20 a43d
00000160: 894b b53d 501a 3a3e b37d 0fbe a739 c83d
00000170: 1eda 87bd 192f 2ebe 0bb7 29bd e6fc 2dbd
00000180: 34a8 3e3d 5fac 0f3e 1694 0cbe d49f a5ba
00000190: 8594 6bbd d53a e73c b5e2 82be 1b48 343c
000001a0: c951 053c 1e06 4e3c 28e8 253d ff21 f4bc
000001b0: 7075 6a3d d760 113e 5794 cc3d da54 9d3c
000001c0: 46b1 ce3d 0735 e7bd e461 cfbc 1f11 37bd
000001d0: 8577 383e 9626 163d 35c4 2b3e 6774 9a3d
000001e0: 73c8 00bd 06d5 953d d93a b4bc 8eac c83d
000001f0: a124 3fbd 45c3 3abd 6692 3d3d a046 6ebd
00000200: c9b9 083e ca8c 363d 0a42 483d d86f afbd
00000210: 2ea8 d3bd 4b6e 84bd 12bc 3cbb 67ee e7bc
00000220: 6d7a e13d 8907 473c a5b7 efbd 19d6 89bd
00000230: 52d8 d83d 0bec 18be d7a1 0c3d 81f7 e53c
00000240: 9e8f fc3d c0d1 a3bd 2006 e73d 8599 81bd
00000250: 282d b63d 5877 403d d6bf 253e 3563 9fbd
00000260: e6a7 123e 39c7 37be acee 0fbb d3d4 993d
00000270: cf70 b83d f24a 163e b551 c33d 0dbd ad3d
00000280: ed85 c33d 51cd 38bd b391 3c3d 7fea 11bd
00000290: 3239 09bd bf08 fa3d f08a a83d c566 b9bc
000002a0: bd78 bebc 2798 a0bd 0e2e b33d c64e b5bc
000002b0: 4e79 6b3d 0803 c0bd 90a0 acbc 3205 c53d
000002c0: a606 2bbd ce9d aa3c d126 5e3c ea50 31be
000002d0: 90ef 023c 3c8a ac3d be72 cabc 163f 453e
000002e0: 27eb 5b3e 13cc 0abc 19be 073e 7e6b 583d
000002f0: c21e b53d ee15 683c b9e8 643e 242d 6a3c
00000300: bc96 36be a71e 50bd 5406 823d be69 e63c
00000310: 74f7 4a3e 7a7b 883d a897 8f3d 3e55 c33b
00000320: ef15 3bbd 535b 363d 22f6 ea3d 4cd7 56be
00000330: 8e37 463d a765 8b3d 3489 cbbd efce d53d
00000340: 431b 4ebd fc50 023e ba9b 3f3c d195 efbd
00000350: b531 c03d 3493 813d 3532 353c b7ba 7dbd
00000360: 9f4b e5bc 678b 2f3e 131d 0bbe b8c6 953d
00000370: 4ee2 febd 3711 56bd 390e 37bd 6cf1 f03d
00000380: 1b8c 353c 1a5c d43c aec3 083e 6f39 6cbc
00000390: cee8 523d e093 d3bd 5be7 a3bc 1872 22bd
000003a0: 5ab5 973b c59c 973d 7974 573d 66a8 1d3d
000003b0: e313 3c3d 81db 76bc 2e5c 64bd 3ad8 2bbe
000003c0: 70da 893d b745 9ebd 1412 9fbc 0c0d 8dbd
000003d0: f03a 163d b069 27bc fd8e 7a3d ef77 ca3d
000003e0: c59a 00bd 9f73 30be a848 4cbd 85ec 873d
000003f0: ddd8 bdbd ebfa d0bd 0536 463d 970a 3d3d
0.04608448 -0.023428166 0.12520146 -0.08538244 0.06789729 -0.12041007 0.053070106 -0.031927504
-0.11759231 0.05076504 -0.05054938 -0.025409197 0.021417873 0.16220579 0.021597942 0.024538632
-0.0020969817 -0.093169555 0.050176412 0.044330474 0.09655984 -0.010117396 -0.0017516378 -0.0012707063
0.17675862 -0.091896206 0.056330815 -0.09575435 0.21901739 -0.033128794 0.039863266 -0.11397348
0.03909616 0.06532899 0.10537253 0.043912336 -0.03449566 -0.055583574 -0.1580488 -0.12049579
0.018652668 0.015297662 -0.07375148 -0.022164391 -0.13188636 0.0842492 -0.03141107 0.064445175
-0.16157861 0.043063216 -0.18737833 0.032442745 0.005044947 0.07216532 0.18813962 -0.08095203
0.1206287 -0.048410058 -0.01077893 0.047480177 -0.017087746 0.19083516 -0.076264605 -0.079943776
0.1666547 0.108375125 -0.045342915 0.011248632 0.14365126 0.029411709 0.02325005 0.028628962
0.044512477 -0.00709606 -0.12097275 -0.11721718 -0.09990926 0.008484043 0.06601242 0.09095201
-0.09638142 0.028648771 0.033480447 -0.021912644 -0.0067910505 -0.18202856 -0.10106975 0.080139264
0.08852298 0.181741 -0.14012794 0.09776621 -0.066333994 -0.17010154 -0.04143433 -0.04247751
0.04654713 0.14030598 -0.13728365 -0.0012636133 -0.057514686 0.028226295 -0.2556359 0.011003519
0.008137175 0.012574701 0.040504605 -0.029801367 0.057240903 0.14197098 0.09989231 0.0192055
0.10092406 -0.11289411 -0.025315233 -0.044694062 0.18014343 0.036657892 0.16774066 0.07541733
-0.031441163 0.073160216 -0.022000717 0.09798537 -0.04666579 -0.04559638 0.046282195 -0.058172822
0.13352121 0.04456786 0.048891105 -0.085662544 -0.10334812 -0.06466349 -0.0028798622 -0.028311921
0.11009679 0.012147793 -0.11704949 -0.06730289 0.10588135 -0.14933793 0.03433403 0.02807212
0.1233208 -0.07998991 0.11280465 -0.0632811 0.088953316 0.046988815 0.16186461 -0.07782594
0.1432186 -0.17947091 -0.0021962328 0.07511296 0.090058915 0.14677027 0.09537069 0.08483324
0.09547029 -0.04511768 0.046037387 -0.035624024 -0.03350181 0.122086994 0.08229625 -0.022632012
-0.023250932 -0.07841521 0.087490186 -0.022132289 0.057488732 -0.09375578 -0.021072656 0.096201316
-0.041754387 0.0208272 0.013559059 -0.17316023 0.007991686 0.084248036 -0.024712916 0.19262347
0.21476422 -0.008471507 0.1325611 0.052836888 0.08843757 0.014165385 0.22354402 0.014292989
-0.17830938 -0.050810482 0.06348863 0.028126594 0.19820958 0.06664176 0.07011348 0.0059610894
-0.045675214 0.044520687 0.11472727 -0.20980567 0.048392825 0.06806498 -0.09938279 0.1043986
-0.050318968 0.12726206 0.011694843 -0.11698497 0.09384481 0.06326905 0.011059334 -0.061945643
-0.02799016 0.17143022 -0.1358531 0.07313293 -0.12445508 -0.05226251 -0.0446913 0.117647976
0.011080767 0.025922824 0.13355896 -0.01441799 0.05149155 -0.10330939 -0.02000778 -0.03965959
0.004629773 0.07402948 0.05260131 0.038490675 0.045917403 -0.015066982 -0.055751972 -0.16781703
0.06731117 -0.07728141 -0.0194178 -0.06887254 0.0366773 -0.010218069 0.06117152 0.09886157
-0.0313976 -0.17231606 -0.049873978 0.066369094 -0.09269879 -0.10204109 0.04839136 0.046152677

network_body._body_endoder.seq_layers.2.bias f4 [128]
00000000: 1532 84ba 6cf7 cfb9 5474 17ba dfea 6bb9
00000010: 6ef6 dcb9 6dc8 d039 2a63 23ba 88c8 713a
00000020: c0dc 3bb9 8a81 ccb8 1680 83b8 3eb0 80b9
00000030: e176 96b9 8d69 463a e3f5 453a 20a0 b938
00000040: 299c e8b9 8d5b b9b9 b091 6e39 acc5 86b9
00000050: d7d8 4fba b4d5 b0b9 4e2d 8eb9 40f8 7cb9
00000060: f02e df39 0b27 62ba b028 3ab9 e0c5 a8b9
00000070: f1e8 59ba 5510 88b9 ee5f 68ba f62b 33b9
00000080: 436e 01ba 6b58 cd38 44cb 78ba 8fd4 adb9
00000090: a538 97b9 aeca 91b8 9fa4 96b9 6104 4db9
000000a0: 391e 5eb9 60f9 a7b9 c795 2f39 f6fc 3ab9
000000b0: 5433 b9b9 7a6d 2bb9 75c2 0e3a bede 1438
000000c0: 70a8 f0b9 cf40 adb9 9df8 10ba 5c29 10ba
000000d0: 0946 7e38 32d4 b3b9 3f7b f7b9 e764 9ab9
000000e0: 0884 03ba 42fa e6b9 02b4 eb38 bbdc 27ba
000000f0: cae6 50b9 d914 72ba eedf 46ba 7b06 04ba
00000100: bbda 54b9 cdba bcb9 23d3 b5b9 6d65 80b9
00000110: f351 a8ba 5301 ca39 45bc 87b9 f66f 1aba
00000120: 24f8 133a 670e deb9 1715 17b9 b897 c2b8
00000130: 13af f9b9 bd7a 47ba 33ad 58b9 13f4 a6b9
00000140: c39b 09ba 6110 abb9 a73a 7cb9 5f64 7cb9
00000150: 6136 e3b9 7fcd aeb8 160c e6b9 bcd7 2338
00000160: ecca 71ba 8377 1b3a c0e1 a6b9 fbd8 85b9
00000170: 6172 aeb7 668d 5fb8 3f0d 26b9 00e5 8fb8
00000180: dd37 03b8 db82 dfba 6621 75ba 503c 52b9
00000190: cf27 11ba 9681 0eb9 334a 30ba cf71 2fba
000001a0: c797 9d39 19f4 28ba 32b5 bf37 22b7 afba
000001b0: 2c4c 83b8 9abb 1cba 79e7 e2b9 22c5 41ba
000001c0: aee7 89ba 704b 15ba 9783 f5b9 42ab 2eb9
000001d0: f568 603a 1dae ccb9 2118 d0b8 0a8f 09b9
000001e0: cfed 3bba 8db6 7eba 8b61 29ba d8da 81b9
000001f0: 08cd 66b9 627b 8238 115b 7139 4cbe 82ba
-0.0010085726 -0.0003966646 -0.0005777527 -0.00022498843 -0.00042145274 0.0003982218 -0.0006232733 0.0009223302
-0.00017915946 -9.7516066e-05 -6.270425e-05 -0.00024545373 -0.000286988 0.0007568829 0.00075515936 8.851313e-05
-0.00044366837 -0.0003535416 0.00022751722 -0.0002570575 -0.0007928735 -0.00033728557 -0.00027118105 -0.00024125073
0.00042568846 -0.00086270337 -0.000177535 -0.00032190885 -0.0008312604 -0.0002595211 -0.00088643923 -0.00017087147
-0.000493739 9.791631e-05 -0.0009490738 -0.000331555 -0.00028843168 -6.951891e-05 -0.00028732882 -0.00019551955
-0.00021182829 -0.0003203852 0.00016745097 -0.00017832578 -0.00035324192 -0.00016348614 0.00054458465 3.5493395e-05
-0.00045901863 -0.00033045418 -0.00055302103 -0.0005499327 6.0623544e-05 -0.00034299638 -0.00047203337 -0.00029448347
-0.00050169276 -0.00044055475 0.00011239202 -0.0006403436 -0.00019922401 -0.0009234674 -0.0007586469 -0.0005036366
-0.00020299379 -0.00035997332 -0.0003468032 -0.0002448963 -0.0012841806 0.0003852943 -0.00025889478 -0.0005891317
0.0005644581 -0.0004235387 -0.00014408339 -9.278901e-05 -0.0004762342 -0.0007609537 -0.00020663887 -0.00031843837
-0.00052493456 -0.00032627865 -0.00024054442 -0.00024069984 -0.0004333733 -8.335243e-05 -0.00043878023 3.9063147e-05
-0.0009223658 0.00059305894 -0.00031830184 -0.000255294 -2.0795678e-05 -5.329903e-05 -0.00015835928 -6.861426e-05
-3.128486e-05 -0.0017052548 -0.0009350985 -0.00020049629 -0.0005537243 -0.0001359045 -0.0006724924 -0.0006692679
0.00030058456 -0.0006445065 2.285335e-05 -0.0013406018 -6.260755e-05 -0.00059788825 -0.0004327854 -0.0007391741
-0.0010521316 -0.000569514 -0.00046828084 -0.00016657732 0.00085605617 -0.00039039637 -9.922707e-05 -0.00013118624
-0.000716892 -0.0009716533 -0.00064613734 -0.0002476785 -0.0002201089 6.221865e-05 0.00023017476 -0.0009974926

action_model._continuous_distribution.log_sigma f4 [1, 2]
00000000: 92ee 88bb 745b adba
-0.0041788304 -0.0013226108

action_model._continuous_distribution.mu.weight f4 [2, 128]
00000000: bb29 afbb b7df 9cbb c1bc 083a 6669 d5bc
00000010: cc63 803c 0a2d 08bd 626d 7fbc e669 5e3c
00000020: c19f 27bd ffa4 1a3d f226 36bb ce4a 14bd
00000030: 35e2 ce3c 4a47 023b d210 9ebb eb03 0f3c
00000040: f136 7bbb fa86 8bbc 0256 a1bc e94c 35bc
00000050: 405f 06bd cc8e 15bc 9405 9b3c 47c5 a8bc
00000060: 37ca 16bd 0fa0 623c da97 aa3c fe13 90bc
00000070: 3031 42bc 2881 1bbc 44cf 3a3d ec93 4ebc
00000080: 24cd 113b 8676 123d b13b f73b 5e72 f5bb
00000090: 1f58 01bd bca5 293c d80e 963b 02ca 3f3b
000000a0: 1b55 90bc 8619 1f3c caa3 94bc 299f 7dbc
000000b0: adbf 83bb d482 293c b67c 7dbb 7679 a7bb
000000c0: 3e69 c9bc 079a 133c 2ffb 94bb f23e d53a
000000d0: 8af9 7abc 8f94 28bc 4918 1e3c 34ac 2f3d
000000e0: f274 ebbb dd95 c53c 3881 84bc 2338 beba
000000f0: 79fa d63c c8e1 ae3b 48b8 1ebd 0b09 763c
00000100: 1169 253c 5313 623c 63c9 a23b 9dae 77bc
00000110: 18a9 843b 321f d13c 9ee8 0e3d 9f0e 123d
00000120: ca37 6ebc a6e2 0dbd 58b9 233c 9553 5bbc
00000130: dd84 393c 2526 01bd 3892 01bd 6c29 2b3a
00000140: 8d23 53bc 25eb 353c 97d9 fdbb c776 10bd
00000150: 4003 6bbb 033a a23c 0eb3 e13b 4772 ecbb
00000160: 17d4 67bc de52 53ba b385 1cbc dfd5 e6bc
00000170: d3a5 a73c dd1f 47bc f4d6 39bc 7eb1 36bd
00000180: 67e4 e1bb 5b0f d5bc 1e7d 3d3d b29b 1bbc
00000190: cd62 4c3c d909 60bc cf43 11bd a16f aa3c
000001a0: 1f34 3dbd 451e 6bba 9ca4 fb3c 47a8 183d
000001b0: 8fcc cdbc 9400 06bc ba22 dabb 71e1 4e3b
000001c0: 10c3 41bc 743c 4b3c 6b3d 863b a7e7 403c
000001d0: 1fce 2e3a 8775 02bd 2604 b03a 6f8b 583c
000001e0: a70e 8bbc 411c 88bc d26f 9b3c a9d1 c83c
000001f0: 37cc 193d 51e0 d33c 9240 8dbc 687f 4d3b
00000200: db46 bfb8 35a0 ec3b 3cf2 ac3c 02df 03bd
00000210: b059 1fbc 3449 093c f0d5 ddb9 6fab 7dba
00000220: b1c4 2bbc 8171 aa3b c0d0 d2bb 766a 72bc
00000230: e615 813c e65e e73c 0ef3 4dbb db7e 9e3a
00000240: e89a fb3b 86c0 c43b 9b7c f83b f324 1b3d
00000250: cf71 793b 731b 63bc 9c8c 6abc 08da 63bc
00000260: 85a2 fc39 baa7 a6bb eead ac3c d941 4dbc
00000270: aaf0 953b 95ba 0cbc 03d4 9cbb 98d7 14bd
00000280: f52f a9bc c233 1abc 2fc9 5c3c e466 65bc
00000290: e3bb 93bc 9563 a53c c48e d53c 8a6e fe3b
000002a0: 0e07 e1bc 3bf4 1d3b 38c2 99b9 776e f8bc
000002b0: 07fa 623c 70ca f53b a24b d6bb 5286 9cbc
000002c0: b2c1 33bc c0b3 2dbd 0e1f 9cbb 0b5e 0f3c
000002d0: 851a 183c 6774 363c 5da0 11bc a390 d5bc
000002e0: d982 1eba e755 47bc b025 083c 13f6 f43b
000002f0: f868 1cbd 2518 10bb f9a1 42bc cba9 863b
00000300: 8f5b 283d 16e0 de3b 7252 b33b 4fef 46bc
00000310: 88bc 83bc d772 82bb fe3b f43c 9315 54bb
00000320: 4209 263d fae8 94bc 09f0 013c bd2e 013c
00000330: 2ed6 d93b f771 103c a6f3 43bc 14f4 74bc
00000340: ac3b 63ba 3654 10bd 9b26 40bd f73f e63c
00000350: 2754 263c 66dc ac3c b744 d0bc 5ea5 743a
00000360: aaf5 14bd 00d0 87bb d2a6 05bd c038 c0bc
00000370: 71b0 b53b 3765 abbb 60f7 9cbb 29eb 063d
00000380: d099 1ebd 0b2e e53c bd79 b8bb 3be0 f1bc
00000390: f021 433c 2ced dd3c 5501 113c 46c2 32ba
000003a0: 9cf4 5c3c bc11 033c 102a e83b f1af fdbb
000003b0: 9867 5f3c 6ac9 8e3c 0107 1bbc 934c 1a3d
000003c0: 41fe 113c a37c c8bb 9f10 bebb fb43 6f3c
000003d0: a6a4 8dbb 7b2f b7bb a55e 223d e0c3 b3bc
000003e0: 1607 b53b 2620 d83b 3525 0cbc 72e6 5e3b
000003f0: 6e8d 863a 4239 18bc c6f8 c83b 0dff 9e39
-0.005345551 -0.004787411 0.0005216115 -0.026051234 0.015672587 -0.033246078 -0.015590044 0.013575053
-0.040923838 0.03775501 -0.002779421 -0.03620415 0.025254348 0.0019878917 -0.0048237825 0.008728961
-0.0038332308 -0.017032135 -0.019694332 -0.0110657 -0.03280568 -0.009128284 0.018923558 -0.020601882
-0.03681394 0.013832106 0.020824362 -0.017587658 -0.0118525475 -0.0094912425 0.04560782 -0.0126085095
0.0022247517 0.035757564 0.0075449576 -0.0074904403 -0.03157818 0.010354456 0.004579406 0.0029264693
-0.017618706 0.009710675 -0.018144507 -0.015479841 -0.0040206523 0.010346133 -0.003867907 -0.005110915
-0.024586316 0.009008891 -0.004546545 0.001626937 -0.015318284 -0.010289325 0.009649345 0.042888835
-0.007185572 0.024119312 -0.016174898 -0.001451258 0.026242482 0.005336974 -0.038749963 0.015016804
0.010095851 0.013798553 0.004967855 -0.015117315 0.004048478 0.02552757 0.03488981 0.035658475
-0.014539668 -0.034639977 0.00999292 -0.013386627 0.011323181 -0.031530518 -0.031633586 0.00065293047
-0.012886894 0.011103426 -0.007746886 -0.035269525 -0.0035860091 0.019803053 0.0068878 -0.0072157714
-0.014149687 -0.00080613594 -0.009553361 -0.028178154 0.020464813 -0.012153593 -0.011342753 -0.044602863
-0.0068936828 -0.026008299 0.0462619 -0.00949757 0.012474728 -0.013674223 -0.035465058 0.020805182
-0.046192285 -0.0008969049 0.03071814 0.037269857 -0.025121955 -0.008178849 -0.0066569718 0.003156748
-0.011826292 0.01240455 0.004096677 0.01177398 0.00066682877 -0.031850364 0.0013428971 0.013216837
-0.01697476 -0.016615035 0.018974219 0.024514036 0.03754827 0.025863798 -0.017242704 0.0031356458
-9.1207876e-05 0.0072212466 0.0211116 -0.0321951 -0.009725973 0.008379269 -0.000423118 -0.00096767297
-0.010483907 0.005201519 -0.0064335763 -0.01479589 0.015757512 0.028243493 -0.003142539 0.0012092249
0.0076783784 0.006004396 0.0075832135 0.037877034 0.003806222 -0.013861525 -0.01431575 -0.013906963
0.00048186272 -0.0050859125 0.02107903 -0.012527906 0.0045758085 -0.0085894065 -0.004786016 -0.03633842
-0.02065275 -0.009411754 0.0134757 -0.014001582 -0.018033927 0.020189086 0.026069053 0.007764642
-0.027469184 0.0024101872 -0.00029327138 -0.030326111 0.0138535565 0.007500939 -0.006539778 -0.019107018
-0.0109714735 -0.04240775 -0.004764444 0.008750449 0.0092836665 0.011136151 -0.008888331 -0.026069945
-0.00060467195 -0.012166477 0.008309767 0.0074756234 -0.038186044 -0.0021987048 -0.011879438 0.0041095964
0.041102942 0.0068016155 0.0054724747 -0.012142017 -0.01608111 -0.003980975 0.029813763 -0.0032361492
0.040536173 -0.018177498 0.007930764 0.007884678 0.0066478467 0.008816234 -0.011959946 -0.014950771
-0.00086682546 -0.03523656 -0.046911817 0.028106673 0.010151899 0.021101188 -0.02542339 0.0009332503
-0.036367096 -0.0041446686 -0.032629795 -0.02346456 0.005544715 -0.0052305716 -0.0047902316 0.03293911
-0.038720906 0.027976057 -0.0056297467 -0.029525867 0.011909947 0.027090631 0.008850415 -0.000681911
0.013486054 0.007999834 0.0070850924 -0.007741921 0.0136355385 0.017430026 -0.009462119 0.037670683
0.0089107165 -0.0061183735 -0.005800321 0.01460361 -0.004322606 -0.005590377 0.03964104 -0.021943986
0.0055245264 0.0065956293 -0.008553793 0.0034011868 0.0010265538 -0.009290995 0.0061331717 0.00030326136

action_model._continuous_distribution.mu.bias f4 [2]
00000000: b461 01ba d087 c1b7
-0.00049355184 -2.3070636e-05

exp_avg f4 [128, 75]
00000000: 0000 0000 2a5f a236 0000 0000 0d8d e835
00000010: 0000 0000 b774 e735 0000 0000 1676 7b35
00000020: 0000 0000 4aa6 7a35 0000 0000 752a 4035
00000030: 0000 0000 2512 4035 0000 0000 b883 3135
00000040: 0000 0000 5f60 3135 0000 0000 caf7 3f35
00000050: 0000 0000 3c39 4035 0000 0000 5a45 7a35
00000060: 0000 0000 4c3b 7b35 0000 0000 bd1a 1436
00000070: 0000 0000 2a5c e835 0000 0000 47eb 0836
00000080: 0000 0000 47eb 0836 7f9d f531 22c5 0137
00000090: b282 27b6 ac93 b5b2 716d 01b2 f3bd 3531
000000a0: 8f7b 6937 ce7c cf32 8258 79b6 ca82 9b36
000000b0: 00de 0335 d3ca 82b4 ad4d 56b5 0000 0000
000000c0: 8f7b e937 34ed 1139 0000 0000 0000 0000
000000d0: 0000 0000 8f7b 6937 0000 0000 8f7b e937
000000e0: 34ed 9139 0000 0000 0000 0000 0000 0000
000000f0: 8f7b 6937 0000 0000 8f7b e937 d1e3 da39
00000100: 0000 0000 0000 0000 0000 0000 8f7b 6937
00000110: 0000 0000 8f7b e937 34ed 113a 0000 0000
00000120: 0000 0000 0000 0000 8f7b 6937 0000 0000
00000130: 1c28 a6b3 0000 0000 bef9 f6b2 0000 0000
00000140: 6248 ecb2 0000 0000 15ff 83b2 0000 0000
00000150: f958 81b2 0000 0000 bfce 48b2 0000 0000
00000160: 9513 47b2 0000 0000 49d6 38b2 0000 0000
00000170: 056c 38b2 0000 0000 7259 47b2 0000 0000
00000180: 7782 48b2 0000 0000 0966 81b2 0000 0000
00000190: fdb7 83b2 0000 0000 168b 1bb3 0000 0000
000001a0: ee5f f6b2 0000 0000 e949 0fb3 0000 0000
000001b0: e949 0fb3 9a97 f930 e17b 06b4 242f 8431
000001c0: 8a30 3a2f 63ee 8930 3e1b 99ae c6fa 72b4
000001d0: 8d17 e42f 75c8 8633 5113 69b3 9f2e 95b1
000001e0: 8a79 9b31 c149 3132 0000 0000 c6fa f2b4
000001f0: bedc 17b6 0000 0000 0000 0000 0000 0000
00000200: c6fa 72b4 0000 0000 c6fa f2b4 bedc 97b6
00000210: 0000 0000 0000 0000 0000 0000 c6fa 72b4
00000220: 0000 0000 c6fa f2b4 1dcb e3b6 0000 0000
00000230: 0000 0000 0000 0000 c6fa 72b4 0000 0000
00000240: c6fa f2b4 bedc 17b7 0000 0000 0000 0000
00000250: 0000 0000 c6fa 72b4 0000 0000 bea3 d336
00000260: 0000 0000 1534 1736 0000 0000 3dd8 1636
00000270: 0000 0000 2d9e a335 0000 0000 8b3a a335
00000280: 0000 0000 3a1b 7a35 0000 0000 fa1f 7a35
00000290: 0000 0000 2f19 6735 0000 0000 7eec 6635
000002a0: 0000 0000 1dee 7935 0000 0000 603a 7a35
000002b0: 0000 0000 e7ea a235 0000 0000 b476 a335
000002c0: 0000 0000 4d77 4036 0000 0000 d214 1736
000002d0: 0000 0000 5000 3236 0000 0000 5000 3236
000002e0: 50ed c532 12c9 2737 51ee 85b6 aef9 07b3
000002f0: afb8 c8b1 d06a 8031 9afa 9737 e8b6 4133
00000300: c6bd beb6 49a9 e836 9c14 5035 94ef c0b4
00000310: 92f1 a4b5 0000 0000 9afa 1738 3af9 3d39
00000320: 0000 0000 0000 0000 0000 0000 9afa 9737
00000330: 0000 0000 9afa 1738 3af9 bd39 0000 0000
00000340: 0000 0000 0000 0000 9afa 9737 0000 0000
00000350: 9afa 1738 f67a 0e3a 0000 0000 0000 0000
00000360: 0000 0000 9afa 9737 0000 0000 9afa 1738
00000370: 3af9 3d3a 0000 0000 0000 0000 0000 0000
00000380: 9afa 9737 0000 0000 9533 2334 0000 0000
00000390: 91bf 7233 0000 0000 eca8 6833 0000 0000
000003a0: 04cc 0133 0000 0000 729e fe32 0000 0000
000003b0: 2687 c532 0000 0000 4ce1 c332 0000 0000
000003c0: 00d5 b532 0000 0000 a573 b532 0000 0000
000003d0: 9927 c432 0000 0000 193b c532 0000 0000
000003e0: 3cc3 fe32 0000 0000 ee89 0133 0000 0000
000003f0: e528 9933 0000 0000 4930 7233 0000 0000
0.0 4.839055e-06 0.0 1.7326398e-06 0.0 1.724481e-06 0.0 9.3676624e-07
0.0 9.337424e-07 0.0 7.1587357e-07 0.0 7.155198e-07 0.0 6.6129314e-07
0.0 6.6077877e-07 0.0 7.1513625e-07 0.0 7.160886e-07 0.0 9.323318e-07
0.0 9.3591075e-07 0.0 2.2069282e-06 0.0 1.731217e-06 0.0 2.0402529e-06
0.0 2.0402529e-06 7.1483437e-09 7.734898e-06 -2.4961014e-06 -2.1138327e-08 -7.533672e-09 2.644694e-09
1.39166505e-05 2.4154726e-08 -3.715541e-06 4.634586e-06 4.9124355e-07 -2.436196e-07 -7.9834246e-07 0.0
2.7833301e-05 0.00013916643 0.0 0.0 0.0 1.39166505e-05 0.0 2.7833301e-05
0.00027833285 0.0 0.0 0.0 1.39166505e-05 0.0 2.7833301e-05 0.00041749937
0.0 0.0 0.0 1.39166505e-05 0.0 2.7833301e-05 0.0005566657 0.0
0.0 0.0 1.39166505e-05 0.0 -7.737273e-08 0.0 -2.8751739e-08 0.0
-2.7506932e-08 0.0 -1.5366405e-08 0.0 -1.5058037e-08 0.0 -1.1688541e-08 0.0
-1.1587777e-08 0.0 -1.0758932e-08 0.0 -1.073477e-08 0.0 -1.1603662e-08 0.0
-1.16711965e-08 0.0 -1.5063977e-08 0.0 -1.5334075e-08 0.0 -3.6215248e-08 0.0
-2.8681793e-08 0.0 -3.3362003e-08 0.0 -3.3362003e-08 1.8160222e-09 -1.252479e-07 3.847065e-09
1.6933846e-10 1.0035816e-09 -6.962474e-11 -2.2629237e-07 4.1489692e-10 6.276324e-08 -5.4267108e-08 -4.341771e-09
4.524911e-09 1.0319526e-08 0.0 -4.5258474e-07 -2.2629242e-06 0.0 0.0 0.0
-2.2629237e-07 0.0 -4.5258474e-07 -4.5258485e-06 0.0 0.0 0.0 -2.2629237e-07
0.0 -4.5258474e-07 -6.7887727e-06 0.0 0.0 0.0 -2.2629237e-07 0.0
-4.5258474e-07 -9.051697e-06 0.0 0.0 0.0 -2.2629237e-07 0.0 6.307352e-06
0.0 2.253107e-06 0.0 2.247761e-06 0.0 1.2190482e-06 0.0 1.2161485e-06
0.0 9.317188e-07 0.0 9.317879e-07 0.0 8.6090853e-07 0.0 8.602582e-07
0.0 9.310623e-07 0.0 9.3217204e-07 0.0 1.2138306e-06 0.0 1.2178994e-06
0.0 2.8679672e-06 0.0 2.2512872e-06 0.0 2.6524249e-06 0.0 2.6524249e-06
2.3041736e-08 1.0000791e-05 -3.9914526e-06 -3.165922e-08 -5.841762e-09 3.7374335e-09 1.8117298e-05 4.5102666e-08
-5.684534e-06 6.933846e-06 7.751603e-07 -3.5937103e-07 -1.2289258e-06 0.0 3.6234596e-05 0.00018117289
0.0 0.0 0.0 1.8117298e-05 0.0 3.6234596e-05 0.00036234577 0.0
0.0 0.0 1.8117298e-05 0.0 3.6234596e-05 0.0005435193 0.0 0.0
0.0 1.8117298e-05 0.0 3.6234596e-05 0.00072469155 0.0 0.0 0.0
1.8117298e-05 0.0 1.5199323e-07 0.0 5.6519244e-08 0.0 5.4170343e-08 0.0
3.0220704e-08 0.0 2.9641544e-08 0.0 2.2995277e-08 0.0 2.2803441e-08 0.0
2.1168034e-08 0.0 2.1123762e-08 0.0 2.283541e-08 0.0 2.2960693e-08 0.0
2.9658274e-08 0.0 3.01606e-08 0.0 7.1320564e-08 0.0 5.638893e-08 0.0

exp_avg_sq f4 [128, 75]
00000000: 0000 0000 e0eb f62f 0000 0000 0c00 7f2e
00000010: 0000 0000 7304 7a2e 0000 0000 c18b 942d
00000020: 0000 0000 6441 932d 0000 0000 1b9c 2d2d
00000030: 0000 0000 73e5 2c2d 0000 0000 0dee 132d
00000040: 0000 0000 e1c2 132d 0000 0000 920c 2d2d
00000050: 0000 0000 8276 2d2d 0000 0000 0063 932d
00000060: 0000 0000 6e69 942d 0000 0000 53d5 d12e
00000070: 0000 0000 58c4 7e2e 0000 0000 35ca b22e
00000080: 0000 0000 35ca b22e 1ea6 2829 c146 ae30
00000090: 7edb 932d 4edd 1327 21bd 1d28 2aa5 f023
000000a0: 0a00 8031 fba5 162a 1821 ee2d 8c9c a62d
000000b0: 5c53 522b 734a 1c2a 71a8 932a 0000 0000
000000c0: 0a00 8032 1300 c834 0000 0000 0000 0000
000000d0: 0000 0000 0a00 8031 0000 0000 0a00 8032
000000e0: 1300 c835 0000 0000 0000 0000 0000 0000
000000f0: 0a00 8031 0000 0000 0a00 8032 0c00 6136
00000100: 0000 0000 0000 0000 0000 0000 0a00 8031
00000110: 0000 0000 0a00 8032 1300 c836 0000 0000
00000120: 0000 0000 0000 0000 0a00 8031 0000 0000
00000130: a726 7829 0000 0000 bcda ff27 0000 0000
00000140: c595 fb27 0000 0000 d72a 1527 0000 0000
00000150: f110 1427 0000 0000 d267 ae26 0000 0000
00000160: 61ca ad26 0000 0000 31a2 9426 0000 0000
00000170: ec7c 9426 0000 0000 21ed ad26 0000 0000
00000180: 9f48 ae26 0000 0000 782d 1427 0000 0000
00000190: d10f 1527 0000 0000 4db0 5228 0000 0000
000001a0: 3bac ff27 0000 0000 c48e 3328 0000 0000
000001b0: c48e 3328 7cfb 9922 b6ef 2e2a 4fa6 f026
000001c0: 471a 4f20 3798 9321 a337 961d d79f 002b
000001d0: 8bd7 ae23 3c25 7327 92ff 1127 eb51 cd24
000001e0: d480 c923 1dda 2f24 0000 0000 d79f 002c
000001f0: c6f9 482e 0000 0000 0000 0000 0000 0000
00000200: d79f 002b 0000 0000 d79f 002c c6f9 482f
00000210: 0000 0000 0000 0000 0000 0000 d79f 002b
00000220: 0000 0000 d79f 002c f518 e22f 0000 0000
00000230: 0000 0000 0000 0000 d79f 002b 0000 0000
00000240: d79f 002c c6f9 4830 0000 0000 0000 0000
00000250: 0000 0000 d79f 002b 0000 0000 dd7c 9530
00000260: 0000 0000 9761 1a2f 0000 0000 9e59 172f
00000270: 0000 0000 d7db 332e 0000 0000 f649 322e
00000280: 0000 0000 5f34 d22d 0000 0000 2256 d12d
00000290: 0000 0000 f41b b32d 0000 0000 e0e7 b22d
000002a0: 0000 0000 b485 d12d 0000 0000 c606 d22d
000002b0: 0000 0000 1f73 322e 0000 0000 56b2 332e
000002c0: 0000 0000 240f 7e2f 0000 0000 a63d 1a2f
000002d0: 0000 0000 4378 582f 0000 0000 4378 582f
000002e0: b1dd cd29 610e 5331 5520 332e 1caa ab27
000002f0: ee87 c128 e621 9424 bffa 1a32 57a7 b82a
00000300: a1d1 8e2e 4092 462e bb08 fe2b 2632 c12a
00000310: f50e 392b 0000 0000 bffa 1a33 ce27 7235
00000320: 0000 0000 0000 0000 0000 0000 bffa 1a32
00000330: 0000 0000 bffa 1a33 ce27 7236 0000 0000
00000340: 0000 0000 0000 0000 bffa 1a32 0000 0000
00000350: bffa 1a33 6336 0837 0000 0000 0000 0000
00000360: 0000 0000 bffa 1a32 0000 0000 bffa 1a33
00000370: ce27 7237 0000 0000 0000 0000 0000 0000
00000380: bffa 1a32 0000 0000 1790 102a 0000 0000
00000390: a320 9528 0000 0000 0a9f 9228 0000 0000
000003a0: 68e1 ad27 0000 0000 0a97 ac27 0000 0000
000003b0: 374b 4b27 0000 0000 4592 4a27 0000 0000
000003c0: 5940 2d27 0000 0000 af14 2d27 0000 0000
000003d0: c1bb 4a27 0000 0000 b126 4b27 0000 0000
000003e0: 97b7 ac27 0000 0000 b7c0 ad27 0000 0000
000003f0: 6e97 f528 0000 0000 6004 9528 0000 0000
0.0 4.4914739e-10 0.0 5.798033e-11 0.0 5.684737e-11 0.0 1.6887715e-11
0.0 1.6741004e-11 0.0 9.868574e-12 0.0 9.828016e-12 0.0 8.4088405e-12
0.0 8.399254e-12 0.0 9.836703e-12 0.0 9.8602255e-12 0.0 1.675593e-11
0.0 1.6872472e-11 0.0 9.5421136e-11 0.0 5.7927302e-11 0.0 8.130422e-11
0.0 8.130422e-11 3.7447577e-14 1.2680276e-09 1.680944e-11 2.0520318e-15 8.7562615e-15 2.6090802e-17
3.7252947e-09 1.3380262e-13 2.7072164e-11 1.8941536e-11 7.472267e-13 1.3881413e-13 2.6229325e-13 0.0
1.4901179e-08 3.7252957e-07 0.0 0.0 0.0 3.7252947e-09 0.0 1.4901179e-08
1.4901183e-06 0.0 0.0 0.0 3.7252947e-09 0.0 1.4901179e-08 3.352764e-06
0.0 0.0 0.0 3.7252947e-09 0.0 1.4901179e-08 5.960473e-06 0.0
0.0 0.0 3.7252947e-09 0.0 5.5100588e-14 0.0 7.101387e-15 0.0
6.9828875e-15 0.0 2.0701127e-15 0.0 2.054831e-15 0.0 1.2101816e-15 0.0
1.2059141e-15 0.0 1.0313525e-15 0.0 1.0303423e-15 0.0 1.206856e-15 0.0
1.2093359e-15 0.0 2.0563775e-15 0.0 2.0686478e-15 0.0 1.1695571e-14 0.0
7.096345e-15 0.0 9.9674534e-15 0.0 9.9674534e-15 4.1737003e-18 1.5537471e-13 1.6698423e-15
1.7542276e-19 1.0001398e-18 3.9762196e-21 4.569656e-13 1.8956404e-17 3.374321e-15 2.0261337e-15 8.904335e-17
2.1847025e-17 3.8131825e-17 0.0 1.8278623e-12 4.569658e-11 0.0 0.0 0.0
4.569656e-13 0.0 1.8278623e-12 1.8278631e-10 0.0 0.0 0.0 4.569656e-13
0.0 1.8278623e-12 4.1126894e-10 0.0 0.0 0.0 4.569656e-13 0.0
1.8278623e-12 7.3114526e-10 0.0 0.0 0.0 4.569656e-13 0.0 1.0876665e-09
0.0 1.4040889e-10 0.0 1.3765208e-10 0.0 4.0895145e-11 0.0 4.0538205e-11
0.0 2.3897493e-11 0.0 2.37988e-11 0.0 2.0362358e-11 0.0 2.033923e-11
0.0 2.3819925e-11 0.0 2.3877244e-11 0.0 4.0574762e-11 0.0 4.0858282e-11
0.0 2.3106544e-10 0.0 1.402812e-10 0.0 1.9687811e-10 0.0 1.9687811e-10
9.142286e-14 3.0712715e-09 4.0728605e-11 4.7646467e-15 2.1486254e-14 6.4242195e-17 9.020993e-09 3.280108e-13
6.49465e-11 4.5149884e-11 1.8050209e-12 3.4318484e-13 6.574596e-13 0.0 3.608397e-08 9.020995e-07
0.0 0.0 0.0 9.020993e-09 0.0 3.608397e-08 3.608398e-06 0.0
0.0 0.0 9.020993e-09 0.0 3.608397e-08 8.118895e-06 0.0 0.0
0.0 9.020993e-09 0.0 3.608397e-08 1.4433592e-05 0.0 0.0 0.0
9.020993e-09 0.0 1.283976e-13 0.0 1.6556477e-14 0.0 1.6278228e-14 0.0
4.826153e-15 0.0 4.7903347e-15 0.0 2.8212683e-15 0.0 2.8112424e-15 0.0
2.4043456e-15 0.0 2.4019786e-15 0.0 2.8134913e-15 0.0 2.8192884e-15 0.0
4.793864e-15 0.0 4.8226088e-15 0.0 2.7266136e-14 0.0 1.654422e-14 0.0

exp_avg f4 [128]
00000000: d957 6937 dbcb 72b4 eff6 9737 6112 ef34
00000010: ba27 4838 e9b1 83b6 59f9 0fb2 362c 24b7
00000020: 15fc 10b2 075e 0eb3 20f2 8837 4176 68b5
00000030: e252 5037 359c a831 4a5b 4d33 c159 1837
00000040: b4ea 88b1 0eb0 2fb2 4967 a3b4 77d3 b434
00000050: e7f0 17b4 efba 3138 5110 54b5 ac20 30b7
00000060: c9d3 3a36 5e59 1b36 f5aa e635 06d9 f534
00000070: 1860 0b38 bbe1 7935 b287 e5b5 febc b7b2
00000080: f901 ca37 13c1 1e38 aa5e 2538 8a1d afb7
00000090: ccb3 4cb6 89ad d7b6 c78a 52b6 5389 1737
000000a0: 3b79 6f35 da2c 5eb5 20a3 a135 1f39 3538
000000b0: 3b95 c6b5 4667 85b5 d59b 51b6 2861 d836
000000c0: 7221 b7b8 e656 d0b1 25e2 13b7 482e 9c36
000000d0: 12e5 d938 4ccd 83b5 3455 0cb4 6969 59b8
000000e0: c59a 7635 6e70 3e38 797a c1b7 02ff aeb7
000000f0: 709d 4e2d a275 ee34 a655 9638 5a98 9236
00000100: fbfc 7238 d6be 04b7 514c 6e34 bd73 d437
00000110: bd5c 9bb0 caf8 6534 3650 29b6 c5ff f2b2
00000120: e55b 9438 ab04 81b6 71c3 3434 8024 1734
00000130: 2eba dfb5 773e a038 fc9a 3331 5516 b6b6
00000140: d75d c3b6 9085 8138 bbc5 0635 b364 d3b8
00000150: f9d2 38b7 b346 0139 d0c6 8738 af31 0636
00000160: a6bf 9438 c5f6 5037 0691 bc36 5f10 f0b0
00000170: e216 97b3 4770 9d37 618c be37 9a28 d1b2
00000180: 2f9f 1135 201e b7b5 47d8 d937 d4e6 c235
00000190: af39 3933 165f f631 b7a4 1431 69c9 a635
000001a0: be86 a333 880d 83b8 9dba c234 3c6c 8337
000001b0: 6219 bdb7 27bd aab6 b150 ab32 b7e9 f134
000001c0: 6253 a2b4 74fd 6daf f643 5238 dee0 5eb6
000001d0: e7ff 2d35 d9a7 6db8 fe44 d8b6 6cda 00b8
000001e0: 220d d4b5 4055 3cb7 3a94 9131 b247 8d33
000001f0: 8274 98b8 41d6 19b6 eb46 9635 7244 d9b6
1.3908336e-05 -2.2612168e-07 1.811559e-05 4.4530591e-07 4.7720714e-05 -3.9248157e-06 -8.380391e-09 -9.785455e-06
-8.43922e-09 -3.314747e-08 1.6325212e-05 -8.6598817e-07 1.2417064e-05 4.907202e-09 4.781331e-08 9.0808035e-06
-3.9848036e-09 -1.0226371e-08 -3.0436266e-07 3.3681474e-07 -1.415061e-07 4.2374184e-05 -7.89999e-07 -1.04980245e-05
2.7839435e-06 2.3148818e-06 1.718609e-06 4.5792711e-07 3.3229677e-05 9.308821e-07 -1.7101322e-06 -2.1389948e-08
2.4081195e-05 3.784995e-05 3.942723e-05 -2.087538e-05 -3.0503024e-06 -6.4277015e-06 -3.1373218e-06 9.032275e-06
8.921085e-07 -8.276671e-07 1.204291e-06 4.320696e-05 -1.4795581e-06 -9.939329e-07 -3.1234133e-06 6.448612e-06
-8.73235e-05 -6.063476e-09 -8.814536e-06 4.65455e-06 0.00010390034 -9.82001e-07 -1.3069513e-07 -5.1835003e-05
9.186736e-07 4.540424e-05 -2.3064424e-05 -2.0861164e-05 1.1744702e-11 4.4416544e-07 7.168511e-05 4.368875e-06
5.7932903e-05 -7.912246e-06 2.2193241e-07 2.5326264e-05 -1.1304092e-09 2.1417796e-07 -2.5229651e-06 -2.8288818e-08
7.0743066e-05 -3.845043e-06 1.6834908e-07 1.407625e-07 -1.666898e-06 7.6410295e-05 2.6136027e-09 -5.4266225e-06
-5.8223773e-06 6.176077e-05 5.0206626e-07 -0.00010080021 -1.10163755e-05 0.00012328736 6.474333e-05 1.9996476e-06
7.092887e-05 1.2455222e-05 5.6197196e-06 -1.7466951e-09 -7.035648e-08 1.8768142e-05 2.2715134e-05 -2.4349266e-08
5.424835e-07 -1.364333e-06 2.5969128e-05 1.4521306e-06 4.3126132e-08 7.1703523e-09 2.1630464e-09 1.2426582e-06
7.6147884e-08 -6.249087e-05 3.6271095e-07 1.5666817e-05 -2.2542376e-05 -5.088415e-06 1.9943714e-08 4.5059798e-07
-3.023552e-07 -2.1645069e-10 5.0131195e-05 -3.3211468e-06 6.481991e-07 -5.6661524e-05 -6.4453334e-06 -3.0721e-05
-1.5799053e-06 -1.1225522e-05 4.236907e-09 6.5788655e-08 -7.269626e-05 -2.2923489e-06 1.1196511e-06 -6.475072e-06

exp_avg_sq f4 [128]
00000000: 9000 8031 32a2 002b d9fa 1a32 7beb 952b
00000010: 6dbb 0332 52cd 8931 d86a d82a 3205 9d2f
00000020: 02ed 4c25 4fe9 f927 22c3 8430 54f8 852e
00000030: e80a ad31 53e7 b024 0f4a d027 5599 832f
00000040: 70b7 5f24 5d25 c925 82ad 782a f70e 232e
00000050: 43c8 372b 421e 2733 a4be a12b 69c2 9631
00000060: d17c 5130 cc4e 172f 4374 1b2d 108e cc2b
00000070: ff9d 3231 4a35 372c cba5 082d 72d4 0d27
00000080: 7561 d231 97bc 9132 1103 1432 e0f1 ca30
00000090: 1a2d 392e ced3 d930 8f5d a530 c45b 7a2f
000000a0: 68a0 4a2c 3563 212f 6196 0b2e 81e7 0432
000000b0: 4d04 852d e2ea a82c 8cfb 922e ec49 c132
000000c0: 7c02 c532 5d87 1226 74e4 3a31 556b 582e
000000d0: 19f7 fa32 d7f4 4f2e 19d4 bd29 0f10 1b32
000000e0: 1b6f d92d 2bb7 b132 2ed1 5531 4000 3531
000000f0: cfd7 901d 4213 8b2b 75de 7632 561b 5b2e
00000100: fdb8 2b32 d49c 352f 57af 6a2a 634d 0b32
00000110: 19f7 6922 e077 1a2a 1afb d82d ad61 a427
00000120: e8bf 6232 04ba 1c2e 8952 ee2b 4874 342e
00000130: 7015 f52f 7726 bd32 1a71 1f26 7c7c 1d32
00000140: 1639 2a2f b093 0a32 0b82 3d2b 9f67 4633
00000150: 90f8 7632 11ec 3333 0525 3132 aba6 422d
00000160: 3914 6e32 1f7d 8031 9146 ae2e 96fc 4323
00000170: 20ea a428 7564 3332 906f 0f31 d1c5 bb27
00000180: cf14 d52c f75b 672d 55e9 0331 88d4 bf2c
00000190: 7407 8527 ff2d 4325 803f 8523 f79b 922d
000001a0: 8a12 372a 77f0 3d32 43c2 752b b39c 3630
000001b0: 1be9 e230 a380 a02e 5e19 0229 d35b 842b
000001c0: 31a2 a12a 3207 9427 7119 e931 365f 172e
000001d0: 8aff 4d2c eccc 1b32 d7a0 802f 488b 9832
000001e0: a8f0 742d 9596 b830 d5b1 3729 ef62 2728
000001f0: f4cc cc32 73d9 f42e b2a4 442c 811c 472f
3.7253542e-09 4.5699826e-13 9.021016e-09 1.0652446e-12 7.667819e-09 4.010567e-09 3.8443445e-13 2.8561825e-10
1.7774481e-16 6.9364337e-15 9.659724e-10 6.092252e-11 5.0362026e-09 7.671971e-17 5.781189e-15 2.393771e-10
4.8510794e-17 3.489326e-16 2.2087022e-13 3.70752e-11 6.529258e-13 3.8910237e-08 1.1492651e-12 4.3876764e-09
7.621113e-10 1.3761364e-10 8.836545e-12 1.4534502e-12 2.599222e-09 2.6035446e-12 7.767518e-12 1.9682848e-15
6.122884e-09 1.6965982e-08 8.615431e-09 1.4766179e-09 4.2104188e-11 1.5849027e-09 1.2031921e-09 2.2769969e-10
2.879497e-12 1.467811e-10 3.1738504e-11 7.736049e-09 1.512226e-11 4.8009244e-12 6.683995e-11 2.2501773e-08
2.2934948e-08 5.0837377e-16 2.7196423e-09 4.9208044e-11 2.9216197e-08 4.7283812e-11 8.430079e-14 9.025839e-09
2.4719385e-11 2.0688807e-08 3.1114484e-09 2.6339109e-09 3.8339623e-21 9.881889e-13 1.43696655e-08 4.9819114e-11
9.9955715e-09 1.651757e-10 2.0844208e-13 8.108461e-09 3.17082e-18 1.3719538e-13 2.4667868e-11 4.5625044e-15
1.3198566e-08 3.563551e-11 1.6933825e-12 4.103054e-11 4.4580473e-10 2.2019988e-08 5.531749e-16 9.166907e-09
1.5481691e-10 8.0662375e-09 6.732676e-13 4.619471e-08 1.4375601e-08 4.1891386e-08 1.0311173e-08 1.1064631e-11
1.3858021e-08 3.739515e-09 7.925139e-11 1.0624458e-17 1.8309193e-14 1.0442013e-08 2.0872655e-09 5.21174e-15
6.0561343e-12 1.315125e-11 1.9195643e-09 5.452142e-12 3.6922996e-15 1.6929138e-16 1.4446782e-17 1.666754e-11
1.6260097e-13 1.1055923e-08 8.731108e-13 6.64339e-10 1.6509917e-09 7.298808e-11 2.88878e-14 9.40465e-13
2.8711888e-13 4.1086053e-15 6.784085e-09 3.441799e-11 2.9274105e-12 9.068781e-09 2.3397348e-10 1.7758467e-08
1.3923231e-11 1.343056e-09 4.0788407e-14 9.291815e-15 2.3841928e-08 1.1134462e-10 2.79447e-12 1.8109071e-10
