Unity Project/CSC 30014 Project/results/test/Car/Car-1491552.pt (torch, 651359 bytes, 36 tensors)

network_body._body_endoder.seq_layers.0.weight f4 [128, 75]
000000 5f eb 7a 3e a9 fb 2e be 78 97 a4 3d b3 63 d9 3d
       0.2450385 -0.17088188 0.08036703 0.10614719
000010 c2 85 0e 3d 5e 07 9b 3c 33 d9 86 bd d5 db e1 bd
       0.03479553 0.018924411 -0.06584396 -0.11028258
000020 dd 2a 4a 3d d3 e5 ef bc 65 df 6d bd a7 4c eb bd
       0.049357284 -0.029284393 -0.058074374 -0.1148923
000030 b9 9f a1 3d f5 5e 0c bc 56 bb a1 bc 6b 92 f0 bc
       0.07891793 -0.008567561 -0.019742649 -0.029366693
000040 60 39 82 bb cd 6e 8e bd 95 85 93 bd 70 3a 52 3e
       -0.003974125 -0.06954727 -0.07203213 0.20530105
000050 1b 43 35 3d 56 8d 09 3e 39 b3 8b be a1 ee a3 bd
       0.04425345 0.13432822 -0.27285174 -0.08004499
000060 be 93 45 3e 6f 36 79 bd 0f 89 b1 ba 34 1e 31 3d
       0.1929464 -0.060842928 -0.0013544875 0.043241695
000070 7c 57 4b 3d 27 a8 b5 bb 61 23 0c 3b e8 f3 4f be
       0.04964398 -0.005543727 0.0021383392 -0.20307887
000080 c1 14 bf bd 36 9b 8f 3b bd 07 f9 3c 6a 23 a9 bd
       -0.0933013 0.0043825163 0.030399198 -0.08258708
000090 d8 2e 0e be 40 cc 51 bd 5d 7e 50 3d 59 5b 8c 3e
       -0.13885057 -0.05122018 0.05090176 0.27413443
0000a0 4e 53 c3 3d 70 a8 10 be 39 cc 96 3b 99 25 5f 3e
       0.095373735 -0.14126754 0.004601982 0.21791686
0000b0 ce 8e 8f bd 3c 8a 2e bd fb 54 49 be f8 7a 79 bc
       -0.0700966 -0.0426123 -0.19661324 -0.015227072
0000c0 17 2d 7f bd 36 49 c2 bc 15 76 c8 3e 9b b6 fe 3c
       -0.06229886 -0.02371655 0.3915259 0.031092932
0000d0 6b 24 36 3c 2e 6f 2c bd c6 a6 9c be 78 07 bf bd
       0.011117081 -0.042098217 -0.30595988 -0.093275964
0000e0 a0 66 6b ba 8f 24 73 3b 91 d3 6d bc 2f 93 14 bd
       -0.0008979831 0.0037100648 -0.014515773 -0.036273178
0000f0 91 53 9a 3d 58 79 86 bd 89 00 1e bd a4 6b a6 3d
       0.0753547 -0.06566113 -0.03857473 0.081259996
000100 23 bd 56 be 77 58 6d bb 6a 66 08 bd 32 09 20 3e
       -0.20970587 -0.003621606 -0.033300795 0.15628508
000110 d1 8a d5 3d c7 97 4c 3e 34 38 10 3e 18 72 f8 3d
       0.10426868 0.19979773 0.1408394 0.12131137
000120 7f 20 0e be cb af 8e 3c c1 b6 ee bc 6e c9 88 bd
       -0.13879584 0.017417809 -0.029139878 -0.06679045
000130 8b 52 58 3e fc 7f 9a bd 37 a7 72 bd 0b ef 3d 3d
       0.21125238 -0.07543942 -0.0592415 0.046370547
000140 a6 8d 1c 3e 1d 87 29 bd 21 7c 0a be f5 8c f5 bd
       0.1528841 -0.04138862 -0.13523914 -0.11989776
000150 21 56 3d 3d bb 42 a6 3c 04 65 46 be af 70 43 be
       0.046224717 0.020295491 -0.19374472 -0.19085954
000160 9b a6 69 3d 8e 35 04 3c 25 f0 bd 3d a4 23 0b 3d
       0.057043653 0.008069409 0.092743196 0.033969536
000170 f5 60 15 be 23 67 51 3e ad 9f 0c bd 6a ff e1 bd
       -0.14587767 0.204495 -0.034331966 -0.110350445
000180 fa 37 98 bc 95 7a 7f 3c bb 5c 2e be 60 b8 fa bd
       -0.01858138 0.015593191 -0.17027561 -0.12242198
000190 35 8d b1 3d 8c f2 a7 bd 36 05 9a 3d 10 b6 f6 3b
       0.08669511 -0.08200559 0.07520525 0.0075290278
0001a0 ed f5 0d 3b 83 fc 63 3d 9f 7f 4d 3d 2b 5e 35 bd
       0.0021661476 0.055660736 0.050170537 -0.04427926
0001b0 b0 cb 08 be d2 0d 6a bd c5 93 a0 3e 53 b6 3b be
       -0.1335895 -0.057142086 0.3136274 -0.1833127
0001c0 03 47 99 3d 08 25 dd 3d 00 e3 90 3d 7a b6 c3 bd
       0.074842475 0.10798079 0.07074547 -0.09556289
0001d0 13 d2 fd bd b2 36 d7 3b 9d 70 e8 bc e1 27 85 3d
       -0.12393584 0.0065677995 -0.02837401 0.06501747
0001e0 fd 6c 1c 3d 2b 4f 81 be c7 db 1c 3e 0a ff 96 3d
       0.038189877 -0.25255713 0.15318213 0.073728636
0001f0 1b 92 bf 3d f4 3b 3e 3d df 31 80 3d d5 ab ae bd
       0.09354039 0.046443895 0.06259512 -0.08528868
000200 28 5f 85 3d 9c f5 87 3d 92 03 03 3e 51 2f a0 bd
       0.0651229 0.06638643 0.1279433 -0.07821525
000210 02 c2 0a 3e 29 8f 90 be 8a b6 59 3d 02 42 c6 bd
       0.1355057 -0.28234223 0.0531526 -0.09680559
000220 11 31 b9 3d 61 2c 48 3c 18 cf 9a 3d 3e 48 a6 bc
       0.09042562 0.012217612 0.07559031 -0.02029812
000230 74 6b 5b 3d 0a a0 3a 3d e5 5b 0e be b9 04 4f be
       0.053569272 0.04556278 -0.13902242 -0.20216645
000240 28 2b ac 3d 04 8d 9a bd fa 2b 97 3d fc 4e 2e 3d
       0.08406669 -0.07546428 0.07381435 0.042555794
000250 c1 ef b6 3c 12 01 3e 3d ca 48 f4 3b 50 5a 9c 3c
       0.02233112 0.04638774 0.007454966 0.019086033
000260 cf f2 a2 bd 0d 49 25 3e 93 90 79 3e 2b a5 1a 3d
       -0.07956468 0.16141148 0.24371557 0.037755173
000270 3a 4d e3 3d 32 d9 8f bd 55 04 dc 3d 41 cc 4d be
       0.11098714 -0.070238486 0.10743014 -0.20097448
000280 74 a6 79 3d 45 43 8a bc 9f 4f 49 be 1c 5e 81 3d
       0.060949758 -0.01687778 -0.1965928 0.06316778
000290 23 64 80 3d 22 bb 15 3d 7e 11 84 bd f1 60 ea bd
       0.062690996 0.036555417 -0.06448649 -0.11444271
0002a0 90 80 b5 3d dd 31 95 bd 19 a8 41 bd 47 8e 8d bd
       0.08862412 -0.07284901 -0.04727945 -0.06911903
0002b0 00 5a 5a 3d 7f 9c 38 3d 7f 91 d2 3d c3 43 57 3d
       0.053308487 0.04507112 0.102816574 0.052554857
0002c0 7b 1c 08 3e fe 06 b4 bd 12 c8 60 3e ce a4 c4 ba
       0.13292114 -0.08790396 0.21951321 -0.0015002729
0002d0 fa 7b 08 be a1 17 04 3d b5 84 a4 3c ab fa 56 bd
       -0.13328543 0.032249097 0.02008281 -0.05248515
0002e0 71 bf 64 3c 42 5d 7a 3d 0d 96 d8 bd 1b 59 52 3e
       0.013961659 0.061124094 -0.10575495 0.20541804
0002f0 10 ba 67 3d a5 a2 04 3e 9e 47 83 3d c9 96 8f 3e
       0.056573927 0.12952669 0.06410144 0.28044727
000300 88 21 ab bd fa 5f e2 3d 91 b5 7d 3d bd a8 51 3e
       -0.08356005 0.11053462 0.061940733 0.20474525
000310 ea ef 14 be 75 60 2d 3e c6 f4 9f bd b1 da b2 bc
       -0.14544645 0.16931327 -0.07810359 -0.021832796
000320 fd ff 19 bc 8d 29 b2 bc 9a 89 b5 3d 41 51 b8 3d
       -0.009399411 -0.021748329 0.08864136 0.08999873
000330 7d 5c a4 3d cd 94 ae bd ce f0 e0 bc cc 58 4f be
       0.08025453 -0.08524475 -0.027458575 -0.20248717
000340 7c c6 e6 bd 0a c6 db 3b fb 52 ad 3d f7 16 de bd
       -0.11268327 0.0067069577 0.08463093 -0.10844224
000350 fb 7c e5 3d 4c c6 14 3e 94 56 2c be 02 3c 31 3e
       0.11205479 0.14528769 -0.16829902 0.17308047
000360 11 10 ac bc 5b 43 eb 3c e6 91 ef bd 08 64 e5 3d
       -0.021003755 0.028718641 -0.1169775 0.1120072
000370 fc 1a 14 be 23 12 45 bd 71 40 ef 3d b6 6f d5 bd
       -0.14463419 -0.048113 0.11682213 -0.10421698
000380 98 ca 24 bd f9 e6 95 3c e9 2c 5a 3d 27 c1 9d bd
       -0.04023227 0.018298613 0.053265486 -0.077028565
000390 91 a8 d7 3d c6 dc 77 bd 96 72 14 bd 2d bd 52 3d
       0.10530198 -0.06051328 -0.03624209 0.051449943
0003a0 d0 c4 94 bc 0a 68 13 3e 02 cc d5 bc 1a d2 b1 3d
       -0.018160254 0.14395157 -0.026098255 0.08682652
0003b0 d9 73 4c 3e f9 35 72 bc f6 56 d3 3d a3 16 69 be
       0.19966067 -0.014783376 0.10319321 -0.22762541
0003c0 dc ea 52 3d 6d e0 36 be 0b 98 c6 bd 85 7a 5c be
       0.05149351 -0.17859049 -0.09696969 -0.21531112
0003d0 11 30 3b 3e 1e e4 17 bc 34 be 80 3c ff 1a 9f bd
       0.18280055 -0.009270696 0.015715696 -0.07768821
0003e0 85 d5 47 bd 3b 34 69 3c 53 3c eb bc dd 34 1d be
       -0.048787612 0.014233644 -0.028715288 -0.15352197
0003f0 55 52 e4 bd 59 8b 10 3b c6 48 82 3d 61 19 06 bb
       -0.11148516 0.0022055714 0.06361537 -0.0020461904

network_body._body_endoder.seq_layers.0.bias f4 [128]
000000 38 77 17 3c fb e6 60 3c d6 27 78 3c 6b dd ab 3c
       0.009244733 0.013726945 0.015146216 0.020979604
000010 66 0e ed bb 46 2d e2 bc 0b 50 89 3c 40 c3 6d 3c
       -0.0072343824 -0.027609479 0.0167618 0.014511883
000020 9f 8f d9 3c 6c 69 cc bb 81 28 46 bb 3d 18 9b 3c
       0.026557742 -0.006238153 -0.0030236545 0.018932456
000030 4e 8a 48 3c 82 0c 13 bb e4 73 a1 bc 3b 8c 60 bc
       0.012240006 -0.0022437875 -0.019708581 -0.013705309
000040 7b a2 40 3c 10 96 df 3c 87 e8 96 3c 3c df 3d 3b
       0.011757488 0.027293235 0.018421425 0.002897217
000050 6a 24 01 bc 10 27 10 ba 80 cc 45 ba 85 04 94 bb
       -0.007882217 -0.0005498985 -0.00075454265 -0.0045171403
000060 79 5f d7 3c fa fe 35 3c bd 7f 7c 3c 32 9a 37 bc
       0.026290642 0.011108154 0.015411315 -0.011206197
000070 ae c1 04 bc 42 01 ab bc 2a 83 27 3a 47 75 c3 3b
       -0.008102817 -0.020874623 0.00063900894 0.0059649083
000080 32 6d d8 bc 59 b3 85 bb d1 ad 3c ba dd 2f ee bc
       -0.026419256 -0.004080218 -0.00071975315 -0.029075557
000090 04 70 c1 3c e5 1b fc bb 05 ef 10 3d 0a fa 20 3c
       0.023612984 -0.007693755 0.035384197 0.009825239
0000a0 4d 01 a0 3c 6f 68 fc b8 dc b8 8c bb 52 35 6a 3c
       0.01953187 -0.00012035749 -0.004294498 0.014294939
0000b0 c4 ae 0c ba 95 0e d8 3b 4a 90 38 3d 03 a7 aa bc
       -0.0005366618 0.006593535 0.04505948 -0.02083159
0000c0 c1 61 e7 3c e8 e3 3f 3b df 45 ba 3c ca f7 80 3c
       0.028244855 0.002928013 0.022738395 0.015743155
0000d0 5e 03 d2 bb 58 3f 69 bb 9b 07 82 3c 2c 8f 96 bc
       -0.006409093 -0.0035590734 0.015872767 -0.018378817
0000e0 f3 68 d1 3b 1d e0 2e 3c e4 4e 5f bc b1 e5 93 bc
       0.0063906847 0.01067355 -0.013629649 -0.018053861
0000f0 f8 fd 62 3c 2f 12 2b 3b c8 05 1c 3d dd 54 bf bc
       0.013854496 0.0026103368 0.03809145 -0.023355896
000100 d4 9c 04 3c e5 4f b0 3b 92 bd 7c bc ae 6b 6a 3c
       0.008094031 0.005380618 -0.015426056 0.014307899
000110 85 7f 86 3d a0 81 c1 bc fe cd c6 3b 19 62 48 3d
       0.06567291 -0.02362138 0.0060670367 0.04892168
000120 87 9e ac 3c 09 62 54 bb cf 27 6b bb 17 9b 8f bc
       0.021071685 -0.0032407066 -0.0035881882 -0.017530007
000130 31 83 7f 3c c7 f9 d8 ba 4b 12 4d 3d 3d ad ea bc
       0.015595243 -0.0016553932 0.050066274 -0.02864706
000140 56 c8 51 3c 9b 73 35 3c ab 88 9b bb 82 dc 10 bc
       0.0128041115 0.011074926 -0.0047465167 -0.008841636
000150 75 46 29 3c df 7c d3 3a fd f2 1d 3d 59 36 d5 bc
       0.01033174 0.0016135237 0.03856181 -0.026026892
000160 23 67 c5 3c ea a8 07 3c 0f e8 cf 3a 25 20 63 ba
       0.024097031 0.008280018 0.0015862006 -0.00086641527
000170 a7 3b 8f 3c f3 eb cc 39 23 e2 86 3c b4 ad b3 bb
       0.0174845 0.00039085708 0.016465252 -0.0054833535
000180 32 9b 83 3d df 53 3e bc 47 02 f5 bb 74 2c 87 3b
       0.064260855 -0.011616676 -0.007477078 0.0041251723
000190 78 e4 41 3c 39 36 43 bc e9 d6 6c 3c e3 a0 0f 3c
       0.011834256 -0.011914783 0.014455535 0.008766386
0001a0 60 bd 00 3c bd 2b b4 3b a2 59 60 bb 9b 10 07 bc
       0.0078576505 0.005498378 -0.0034233113 -0.008243705
0001b0 d5 14 ab bc 9b b6 63 3c 67 e0 da 3a 32 35 b4 3a
       -0.020883957 0.013898517 0.0016698957 0.0013748764
0001c0 93 28 87 3b 88 69 49 3d 39 11 94 bc ea 87 58 3c
       0.00412471 0.049172908 -0.018074619 0.013215998
0001d0 86 16 7b 3c f8 f0 15 3b d4 41 af ba e6 61 14 3c
       0.015325194 0.0022879224 -0.0013371059 0.009056544
0001e0 2f ff ee ba a0 81 71 bb a9 46 da bc cc a6 e0 bc
       -0.001823401 -0.0036850944 -0.026645022 -0.027423285
0001f0 71 5f 15 bc 15 88 9c 3c 27 57 38 bb f8 be f9 3a
       -0.009116993 0.019107858 -0.0028128119 0.0019054106

network_body._body_endoder.seq_layers.2.weight f4 [128, 128]
000000 78 6f 4a 3d a1 f1 1a bd f2 b9 bf bd 93 d2 f1 bd
       0.04942271 -0.03782809 -0.09361638 -0.11807742
000010 02 a4 00 bd e3 09 74 bd fb 1f 3e 3e b7 98 da bd
       -0.03140641 -0.05957974 0.18566887 -0.10673659
000020 86 e2 16 3e c0 4f fc 3d 8c 72 c0 bd 3f ba 8e 3c
       0.1473485 0.123198986 -0.09396848 0.017422793
000030 a5 49 22 be 36 48 4f 3c bb 8f 97 bd 42 78 1e be
       -0.15848406 0.012651494 -0.07400461 -0.15475562
000040 2d cd 53 bd 17 13 5f bd 16 cd 2b 3d bc 06 9f bc
       -0.051709343 -0.054461565 0.041943632 -0.01941239
000050 6b 5b 2e be 79 7b 88 3c e2 6e 05 bd de e3 ae 3d
       -0.1702706 0.016660439 -0.03257645 0.08539556
000060 05 ea 17 3d 35 cd 1f bc 53 d6 20 be b5 61 56 bb
       0.037088413 -0.009753515 -0.15706758 -0.0032712047
000070 02 0f 91 3d 68 55 40 bd 56 62 e4 3d 65 e6 51 bc
       0.07082941 -0.04695645 0.111515686 -0.012811278
000080 0d 28 50 bd 49 6c 30 be d3 6d 26 3b 3d e5 67 3d
       -0.050819445 -0.17228808 0.002539505 0.056615103
000090 01 f6 84 bd 07 73 30 bc 1f 2d ac bd f7 cc 8b 3c
       -0.06492234 -0.010769612 -0.08407044 0.017065508
0000a0 b9 46 5c bc 05 27 8e bd 61 7c d2 bd 13 c2 03 be
       -0.013444596 -0.06941036 -0.1027763 -0.12867002
0000b0 e1 b6 07 3e 55 d9 08 bb 96 2c a7 bd 1f d0 78 3c
       0.13253357 -0.0020881493 -0.08162801 0.015186339
0000c0 c3 40 c8 3d 08 ef f8 bd 22 63 34 bc 1b 1a 2e 3a
       0.09777977 -0.121549666 -0.011009963 0.0006641463
0000d0 d7 2c a4 bd 3c 17 0a 3e 32 f2 37 bd 2b 03 ca bd
       -0.08016365 0.13485426 -0.04490871 -0.098638855
0000e0 dd 6f a4 bd e0 ba 88 3d 2e 7f c8 bc 09 37 9d 3d
       -0.08029149 0.066762686 -0.024474707 0.07676513
0000f0 43 c0 1b 3d 93 99 97 3c a5 80 fd bd ba c6 fc 3c
       0.038025152 0.018505847 -0.123780526 0.030856479
000100 35 52 1f be 27 10 9a bc 8d 42 ca 3d 68 7f 58 bc
       -0.15558703 -0.01880653 0.09875975 -0.01321397
000110 6a b7 5c bb 6d 1d 5b be a3 e7 33 bd 96 83 8d be
       -0.003367866 -0.21397944 -0.043922078 -0.27639455
000120 a6 2a e9 bd df 3f 27 be ce 15 84 3d 6c ae 92 bd
       -0.11385088 -0.16332959 0.064494714 -0.071621746
000130 29 72 1c be 43 56 45 bd 5d 7a f4 bd cb 21 04 3d
       -0.15277924 -0.04817797 -0.119374014 0.03225879
000140 ed 3e e6 3c 21 ff 44 3d 13 15 0a 3d c6 ad 06 3e
       0.028106177 0.048094872 0.033711504 0.13152227
000150 ba 07 2c 3d a1 a1 30 3e ed 71 9a bd 87 46 9c bd
       0.041999556 0.17249157 -0.07541261 -0.076306395
000160 cb 1d 12 3e f6 c9 4f 3b 95 5a aa 3d 05 11 9b bd
       0.14269178 0.0031706071 0.083180584 -0.075716056
000170 1f af b2 bd 20 99 c0 bd 78 90 b8 3d 67 7f 0e 3c
       -0.08724808 -0.09404206 0.0901193 0.008697367
000180 ba 75 74 bd f2 2d c8 3d 82 7a 15 be 32 35 86 3e
       -0.059682585 0.097743884 -0.14597514 0.2621246
000190 86 37 fd bd c5 23 d8 3c b3 26 b4 bd 72 9d 8d 3d
       -0.12364106 0.026384244 -0.08796444 0.06914796
0001a0 f2 f5 9a bd f3 3c a4 bc ce 86 e1 3d 09 bb ad 3d
       -0.075664416 -0.020048594 0.1101204 0.0848294
0001b0 94 4c 15 3d 69 40 3e be 16 f1 47 3d 89 e7 9d bd
       0.036449984 -0.18579258 0.0488139 -0.077101775
0001c0 35 f3 46 3c 16 45 b4 bd 88 87 98 3d f9 65 44 3d
       0.012142946 -0.088022396 0.074477255 0.04794881
0001d0 fa 54 54 3c 18 27 dc bd fb a2 28 be 7d af 4d 3d
       0.012959713 -0.10749644 -0.16468422 0.050216187
0001e0 51 d4 0c bd d9 d4 0d bd 38 84 68 bd 25 a0 6a bd
       -0.03438217 -0.034626815 -0.05676672 -0.057281632
0001f0 3a de 2f 3d b6 6e 35 bd 20 32 91 bd 0f 09 a9 3d
       0.04293654 -0.044295035 -0.07089639 0.08253681
000200 75 6a 92 3d 1d 6f 67 bd 79 06 bb 3d cf d0 09 be
       0.07149211 -0.05650245 0.09132094 -0.1345856
000210 49 25 f2 3b 04 95 ee bd c1 db a3 3d d7 24 88 3d
       0.0073896986 -0.11649516 0.08000899 0.06647652
000220 da 1f c5 bd fa d0 7d 3d 35 2a 57 3d 78 65 5b bd
       -0.09625216 0.061966874 0.052530486 -0.053563565
000230 80 30 ca bb 40 56 ef 3c 87 6d bf 3d 7f 43 c4 bd
       -0.0061703324 0.029215932 0.093470626 -0.09583186
000240 41 d2 4c bd b8 14 bb bb 52 22 ab 3d 01 4f 18 3e
       -0.0500052 -0.005709257 0.083561555 0.14873888
000250 dd b3 71 3d 3a 55 b1 bd c4 9d 59 bd a3 15 09 3d
       0.05900942 -0.08658834 -0.053128973 0.0334679
000260 57 1b 78 3d d5 e0 1e 3d 55 e5 af 3d 02 5d fc 3d
       0.06057295 0.038788635 0.085886635 0.12322427
000270 ec 42 09 3d 0a 34 fe 3c ac 0d 26 3b e4 6c 80 bd
       0.033511087 0.031030674 0.002533774 -0.06270769
000280 69 45 c0 bd 0c db fd 3c c7 79 56 3d 42 0e 3c 3b
       -0.09388239 0.030988239 0.05236223 0.0028695022
000290 aa e1 fa bd cb aa 34 bd 36 9a 6b 3d d3 65 be bd
       -0.12250073 -0.044108193 0.057520114 -0.09296765
0002a0 f0 f6 03 bd 4d a7 7a bd df fd b3 bc 90 3a b3 bd
       -0.03221792 -0.061194707 -0.021971641 -0.08751404
0002b0 d5 3f 40 3e f3 d3 95 3d 9d 17 8c 3c c0 02 a5 bc
       0.1877435 0.07315817 0.017101103 -0.020142913
0002c0 2f dd 22 bc 66 bf 3a 3d 3c f1 8f 3c 1c 4c 45 3c
       -0.00994043 0.045592688 0.017571084 0.012042072
0002d0 22 53 c0 3c af 30 e5 bc 69 c7 b5 bd d9 b5 94 3c
       0.02347714 -0.027977316 -0.08875925 0.018153118
0002e0 bd 80 29 bd 32 9c 25 be b9 b4 bb bd d8 1d 62 bd
       -0.04138254 -0.16172865 -0.091653295 -0.055204242
0002f0 85 d2 3e 3d 34 4c 43 3c 2d 6d e6 bc 69 50 c2 bd
       0.046587486 0.011920024 -0.028128231 -0.09487993
000300 88 fb ad 3d 98 a6 fa 3d 5e 42 6c bd 19 1f b3 3d
       0.084952414 0.122388065 -0.05768048 0.08746166
000310 32 dc ea 3c 32 df 32 be 84 fb 9d 3d f1 23 29 3e
       0.02866945 -0.17467955 0.077139884 0.16517617
000320 64 86 9a 3b 0c 05 59 bc 6d 34 9e bd 92 54 32 bd
       0.0047157276 -0.013245832 -0.07724843 -0.043537684
000330 a8 06 07 3d 4c 60 4e bd f0 92 86 3c 73 18 4e bc
       0.032965332 -0.050384805 0.016427487 -0.012579071
000340 f7 81 92 3c 59 e9 03 be bd f5 fb bd c8 27 2c bd
       0.017884238 -0.12881984 -0.1230273 -0.042030126
000350 5c 53 6a 3d 3b 9b 53 3d 10 b3 97 3c b2 30 f8 bd
       0.057208404 0.05166171 0.018518 -0.12118663
000360 29 fe 3c 3e 08 ac 6a bd f3 87 0b 3d 88 d7 14 3d
       0.1845633 -0.057292968 0.0340652 0.03633836
000370 18 01 7b bd 58 45 1b bd a7 6a 2e bd be 45 3e 3e
       -0.06128034 -0.03790793 -0.04258218 0.18581292
000380 63 d6 b5 bd 9e aa 53 bc df 4a 72 be 8b 8b 43 bd
       -0.08878782 -0.012919096 -0.23661374 -0.0477405
000390 92 eb cf 3d 94 d7 26 be d0 cf 16 3d 3a cb df bc
       0.10152353 -0.16293174 0.03681928 -0.027318586
0003a0 ea 1a 98 bc 73 e6 14 bd a1 23 b8 bd 34 84 38 3e
       -0.018567521 -0.036352586 -0.08991171 0.18019181
0003b0 44 4e a7 bd c2 d0 4b be 08 bf 0c bc 26 e7 80 bd
       -0.08169225 -0.19903854 -0.008590467 -0.06294088
0003c0 48 1c bb bc 97 78 6d 3d c0 2f ab bd fc 66 63 bd
       -0.022840634 0.05797633 -0.08358717 -0.055518135
0003d0 73 c7 95 3b 1f bd 0f be e1 1b bf bd b5 a8 f9 3a
       0.0045708953 -0.14036988 -0.09331489 0.0019047471
0003e0 09 72 af bc 27 8c a9 bd d2 99 8f bc bd ac 7a bc
       -0.02141668 -0.08278685 -0.017529402 -0.015299973
0003f0 b4 12 25 bd 60 8a e0 bd 33 d6 2d bd 00 0f 2e 3d
       -0.04030104 -0.10963893 -0.042440604 0.042494774

network_body._body_endoder.seq_layers.2.bias f4 [128]
000000 00 2b 19 3c 96 7a d5 bb a0 1b 50 bb e8 42 52 ba
       0.009348631 -0.0065148575 -0.0031754747 -0.0008020834
000010 c2 22 aa bb 89 60 2d bc 22 8e 28 3b 2d 62 f5 bb
       -0.0051921317 -0.010582098 0.0025719483 -0.00748851
000020 a0 88 9b bb f1 37 9b 3b f6 35 29 bb 84 5f 99 bb
       -0.0047465116 0.0047368933 -0.0025819517 -0.004680576
000030 19 83 5f b9 12 2d 0d 3a 39 a9 81 3a e2 c1 03 3c
       -0.00021315775 0.0005385439 0.0009892351 0.008041831
000040 0c f0 5e bc 21 e5 95 3c 34 57 30 bc 5d f9 d2 b9
       -0.013607036 0.018297734 -0.010762978 -0.0004024011
000050 6d ea c0 3c 19 ba ab 3a cd b6 b3 3b 29 e5 a0 3b
       0.023549283 0.0013101726 0.005484438 0.0049101305
000060 6c 40 0a ba dd 12 ad 3b c7 1c 57 bc dd 21 b9 3b
       -0.0005273882 0.0052817897 -0.01312942 0.005649789
000070 f6 9b da 3c a0 e9 38 3c 24 72 41 3c c0 fb f1 3a
       0.026685696 0.011286169 0.011806998 0.0018461868
000080 67 8d 29 3c 56 50 1c 3c 4a 19 c1 3b 92 2b 87 3c
       0.010348654 0.009540638 0.0058929073 0.016500268
000090 52 b6 c1 3c df 0d 02 bc 92 32 b4 39 bc eb 16 bc
       0.023646507 -0.007937877 0.00034369953 -0.009211477
0000a0 b1 8e 3c 3c b0 87 5f ba fd 0b 47 3c 62 28 5a bc
       0.01150863 -0.0008526994 0.012148854 -0.013315292
0000b0 d3 fd e6 bb 2d 79 9c 3c fe a8 06 3c 48 f3 ad 3b
       -0.007049301 0.01910075 0.008219002 0.0053085424
0000c0 35 eb 08 bc 71 21 f4 ba d2 20 65 bc ef ce d8 b9
       -0.008356859 -0.0018625689 -0.013984876 -0.00041352908
0000d0 99 9d 7b 3b 11 45 9a 3a f3 3f 1a bc 93 c2 8a 3c
       0.0038393496 0.0011769851 -0.009414661 0.016938483
0000e0 ad b4 a0 bb c3 73 a9 ba bb 6b 90 bc 52 cb be 3c
       -0.0049043507 -0.0012928176 -0.017629495 0.02329031
0000f0 55 b8 d6 ba e5 9c 2a bb e0 08 ac bc a9 5e c2 bb
       -0.001638184 -0.0026033458 -0.021000326 -0.0059316945
000100 2f a5 ee ba 6c 4d 5e 3c 89 81 06 bc 3e 32 06 3c
       -0.0018207188 0.0135682635 -0.0082095945 0.00819069
000110 92 a3 f0 3c d0 18 86 ba e7 a9 39 3c f0 00 85 3c
       0.029374871 -0.0010230783 0.011332012 0.016235799
000120 1e bd 60 3c 09 00 43 bb d8 3d 27 3c 98 a2 5c bc
       0.013716964 -0.002975466 0.010207616 -0.0134665
000130 f5 fa 6f bc 9b be 68 ba 28 34 0e bc 5d 61 88 3c
       -0.014647235 -0.00088785 -0.008679427 0.016647989
000140 dd 8b 65 3b e1 12 b6 ba a7 50 ff bb 20 87 a3 bb
       0.0035025992 -0.0013891124 -0.007791597 -0.0049904734
000150 5c ac bf 3a e6 fe f3 bb fb 86 98 bc a4 2e fe 3b
       0.0014623511 -0.0074461577 -0.018619051 0.007757025
000160 e3 9a 6a 3c ca af c1 3b f5 15 3f bc a5 5a 99 3c
       0.014319154 0.0059108483 -0.01166295 0.01871998
000170 ff 91 72 bc 45 d7 02 3c c1 99 83 3c cf 00 c9 bb
       -0.014805316 0.007985895 0.016064527 -0.0061341296
000180 b5 12 84 bc 3b 64 3b 3c 37 1f 3f bc 8f cc 97 bc
       -0.016122201 0.011437471 -0.011665157 -0.018530158
000190 09 ed 9e 3c 6e 87 95 3c 89 48 67 bb f4 07 2e bc
       0.019400137 0.018253054 -0.0035291037 -0.010622013
0001a0 70 93 3e 3c ad 0c 54 bc 22 01 0b bc 4a e6 5d bc
       0.0116318315 -0.012942475 -0.008484157 -0.013543675
0001b0 3f 85 aa ba dc ab 0a 3d 22 08 1d 3c c5 5e db 3c
       -0.0013009681 0.033855304 0.009584459 0.026778588
0001c0 d6 fb 80 3c 97 fe a6 3c 7f 75 18 bc 4d e2 45 3c
       0.015745085 0.02038507 -0.009305357 0.01207788
0001d0 ed a9 30 bc 2b 73 c0 3b 13 03 55 3c dd b4 bd 3b
       -0.010782701 0.005873104 0.013001221 0.005789383
0001e0 cc 04 28 bc 33 8c a7 3b 4e dc 1b bc 4a 6a 60 bb
       -0.01025505 0.0051131486 -0.009512974 -0.003424304
0001f0 7f 11 54 bb 6c 07 93 bb 80 4f 2d bc 14 ff 9b 3b
       -0.0032359061 -0.0044869687 -0.010578036 0.0047606323

action_model._continuous_distribution.log_sigma f4 [1, 2]
000000 be a8 0f bf 79 c3 61 be
       -0.56116855 -0.22047223

action_model._continuous_distribution.mu.weight f4 [2, 128]
000000 3c 59 00 bb b2 fc 3b 3d a9 17 ce 3c 5d 15 9f 3c
       -0.0019584438 0.045895286 0.025157766 0.019419366
000010 7e 2d ce bb 55 3d 5e 3d db 3a e1 3c 23 de 91 bc
       -0.006292044 0.05425771 0.027493885 -0.017806118
000020 d1 38 5e 3b c5 f9 70 bc ad 2e c1 bc 0e ed 8b bd
       0.0033908377 -0.014707987 -0.023581827 -0.06832324
000030 fb 49 a8 bc 2d 6f d5 bb 52 b1 16 bd e3 53 3e 3d
       -0.02054309 -0.0065134973 -0.0367902 0.04646672
000040 9a 86 fc ba 56 f0 a9 bc 86 a2 8c bc a3 cd a0 bc
       -0.0019266189 -0.020744484 -0.017167341 -0.019629305
000050 71 2b 87 bc 49 97 e8 bc 55 70 30 3b 05 47 0f 3d
       -0.016500207 -0.02839245 0.0026922424 0.03497984
000060 14 66 54 3b 39 39 a8 bc 00 20 14 3a c1 cb 9f 3c
       0.0032409476 -0.020535098 0.00056505203 0.019506337
000070 4b 2d f5 3c a3 ee 8e bc ee d4 62 3c cb b1 a3 bc
       0.029928824 -0.017447775 0.013844712 -0.01998224
000080 0a a2 1a 3d 31 70 ed bc 3e e2 88 bb e8 37 d8 3b
       0.03775219 -0.028984161 -0.004177361 0.0065984614
000090 87 e2 53 bd 27 3b 7e 3b ba 93 92 bc 1d 3d 6a 3c
       -0.051729705 0.0038792582 -0.017892707 0.014296797
0000a0 f1 ee 94 3d 45 e7 0d 3d 60 2d a4 3d 84 ab 04 bd
       0.07272137 0.034644384 0.08016467 -0.032390133
0000b0 6b 02 d0 bc f1 ea 9d bb c4 f9 31 ba 05 b1 57 ba
       -0.025391778 -0.004819267 -0.0006789232 -0.0008227977
0000c0 62 34 c2 3c 5f e8 76 bc 78 65 2c bc c5 d3 69 bb
       0.023706619 -0.01507005 -0.010522239 -0.0035679203
0000d0 b5 7c ae bc 23 6b 3c 3d a2 98 43 bd a4 a3 4e 3d
       -0.0212997 0.04600061 -0.047752984 0.05044903
0000e0 d7 35 e6 3c c6 20 25 3d 71 37 a0 3c 71 be 3e 3b
       0.028101845 0.04031446 0.019557687 0.002910521
0000f0 8c 8c aa 3c 07 90 76 3c 0d e3 74 bc df 92 e3 3a
       0.020818971 0.015048987 -0.014946711 0.0017362497
000100 e4 17 4b bc 27 c2 99 3c a7 b8 bb 3c c1 17 ba 3a
       -0.012395833 0.018769337 0.022915198 0.0014197753
000110 a4 5f a9 3d 3f 3c 3d bc 9a 38 14 bd a5 95 b7 bb
       0.08270195 -0.011550008 -0.036186792 -0.005602556
000120 7a 37 7f 3c c0 10 54 3d e1 bf dd bb 6d 77 0f 3d
       0.0155771915 0.051773787 -0.0067672585 0.035026003
000130 d1 0f 38 bb ba f8 36 3b 05 23 82 bc 2e 41 f5 3b
       -0.00280856 0.0027919249 -0.01588584 0.0074845767
000140 64 8c 5b 3b c5 51 b0 bc 64 f6 f0 bc 94 0e 14 ba
       0.0033500427 -0.021523366 -0.029414363 -0.0005647924
000150 a0 13 9a 3d 4d af dc 3c 18 e6 0e bb 92 10 b9 3c
       0.075232744 0.026939059 -0.0021804627 0.02259091
000160 d7 85 4a 3c ec 86 5b 3d b1 13 84 3b e3 34 21 3c
       0.0123610115 0.05359547 0.0040306677 0.009839269
000170 01 5a ed 3a 8c 39 09 3d 1b 03 0e bb 4b 95 01 bb
       0.0018108488 0.033502147 -0.0021669331 -0.0019772823
000180 91 b7 d7 3c 2c 50 e2 bc 32 1f 9d bb 0a d4 6d bb
       0.026332648 -0.02762612 -0.0047949785 -0.0036289715
000190 eb 5e 8e 3b fd ca 14 3b 6e 56 c9 bc b6 1e 09 bc
       0.004344811 0.0022703998 -0.024577346 -0.008369138
0001a0 de e6 9c 3d 63 4c 0e bc 33 cb 39 3c 56 72 8b 3c
       0.07661222 -0.008685204 0.01133995 0.017022293
0001b0 04 fd 2a bc 7a e5 c4 3c 8b dd bb bc 43 8d a1 bc
       -0.0104363 0.024035204 -0.022932788 -0.01972068
0001c0 58 18 f6 3c 19 16 33 3c 8f 8e 05 3d 2f 5a a0 3a
       0.030040905 0.010930561 0.032606658 0.0012233908
0001d0 1e 45 63 3c 28 f3 37 bb f9 b7 65 3c 26 2d 4c b9
       0.013871459 -0.0028068516 0.014020913 -0.00019471775
0001e0 69 ce f8 bb 42 08 3b 3d b7 80 1c 3d 37 00 62 3b
       -0.0075929654 0.045662172 0.03820869 0.0034484991
0001f0 a4 9c 95 3c 0a b3 0a 3d 9c 23 36 3d b1 3f 10 bd
       0.018263169 0.03386215 0.044467553 -0.03521699
000200 83 17 92 3c 5b f3 02 bd 30 60 cf bc cd c2 37 bc
       0.017833477 -0.031970363 -0.02531442 -0.011215878
000210 d3 97 da 3b fc 73 c2 3a c6 71 e3 3c 9c 41 87 bd
       0.006670931 0.0014835591 0.027764212 -0.06604311
000220 a7 5f 55 bd 26 9d f1 3c 38 1c e8 bc 39 da 27 bc
       -0.052093174 0.02949388 -0.028333768 -0.010244899
000230 14 c2 8b bc d6 8e cc 3b 81 ec 08 bb eb 0b 38 bd
       -0.017060317 0.0062426133 -0.002089292 -0.04493324
000240 12 70 a3 3c 49 4d 5f 3d 87 5e f2 bc c1 e4 bd 3b
       0.0199509 0.054517064 -0.02958609 0.005795092
000250 2f 4d 27 3d b4 46 18 bd 72 49 8a 3c c1 50 e3 bc
       0.040845092 -0.037176803 0.016880725 -0.027748467
000260 eb 4d 23 3c a9 4d 3c 3c c4 56 a5 bc 1c 78 cf 3c
       0.009967308 0.011493125 -0.020182975 0.025325827
000270 ae 0f 66 bd 41 20 03 3d 38 2e 18 3d e3 4b 1a bd
       -0.056167297 0.03201318 0.037153453 -0.037670027
000280 70 0d 72 bd c1 1d 16 3c b9 b6 03 bd 87 61 77 bd
       -0.059094846 0.009162367 -0.03215668 -0.060395744
000290 21 5b 6a bd ce aa 15 bb 07 50 64 3b 17 02 06 bd
       -0.057215814 -0.0022837403 0.003483774 -0.032716837
0002a0 4e 3c 98 3c 02 a8 99 3c 6c d8 bc bc 8e 27 08 bc
       0.018583443 0.01875687 -0.023052417 -0.008310212
0002b0 9e 31 0d bd e1 c7 6e 3d dd 64 01 bd 71 46 1a bd
       -0.034471147 0.058296088 -0.03159033 -0.037664834
0002c0 b9 d1 08 bd 7f 05 35 bd 9b 86 78 3c 14 d4 e1 3b
       -0.033403132 -0.044194695 0.015168811 0.0068917368
0002d0 ac bf 8c 3b 6e 2b d9 3b 10 c2 1d 3c 9d 64 1a bd
       0.00429531 0.0066274917 0.009628788 -0.03769361
0002e0 49 4e 71 3b 4e 8f 9a bc a6 ad 18 3d be 02 5c bd
       0.0036820343 -0.018867161 0.03727498 -0.053713553
0002f0 3d d4 d3 3c 13 4d 18 bc 00 6a b1 3c e1 a4 a3 bc
       0.025858039 -0.00929572 0.02165699 -0.019976081
000300 8e 03 40 bd 5e f2 10 bd 0a 86 ca bc 95 06 f4 3c
       -0.04687839 -0.03538739 -0.024722118 0.029788295
000310 2a c8 0c bd b4 d7 9c 3b cf 02 ff 3c b0 6a 1e bd
       -0.03437058 0.004786456 0.031129269 -0.038675964
000320 9c f5 96 bd 15 00 e1 bc 82 30 61 bd 8e 1e 37 bc
       -0.07371065 -0.02746586 -0.0549779 -0.011176718
000330 0e e6 5d bc 7e df 4a bd 5d 44 6e bc 7f db 36 3d
       -0.013543619 -0.049529545 -0.014542666 0.04464292
000340 85 05 9d 3c e8 25 52 bd c3 1c 30 3b 02 e9 01 3d
       0.019167671 -0.05130568 0.0026872612 0.031716354
000350 22 03 28 bc 7c 97 a0 bc 71 16 43 38 d7 1c 83 bd
       -0.010254653 -0.019603483 4.6512523e-05 -0.06401985
000360 f8 48 ee 3c e5 0f 9e bb 21 4f 4e 3b ff 5a 8f bd
       0.029087529 -0.004823672 0.003148027 -0.06999778
000370 67 49 aa bb b7 be d5 bc 74 81 62 bd bd 51 bc bc
       -0.0051967385 -0.026091916 -0.055299237 -0.022988195
000380 2c 67 9f 3c f4 db 8d bd 08 7f 8d bc f0 4a dc bb
       0.019458376 -0.06926718 -0.017272487 -0.0067228004
000390 28 ca 2e bd a9 3d 3b 3d 06 e4 9a 3c e3 23 1c bd
       -0.04267326 0.0457131 0.018907558 -0.03812016
0003a0 f4 a2 fc 3c fc 22 67 bc 4d 17 91 bc 3a 87 f6 bc
       0.03083942 -0.014107462 -0.017711306 -0.030093778
0003b0 09 c0 2a bd fc c1 89 bd 43 af 24 3d 0b 26 47 3d
       -0.041687045 -0.06726453 0.040206205 0.048620265
0003c0 5c 03 08 bd 77 59 5f bd 28 a2 0c 3d 37 f9 29 3d
       -0.03320633 -0.05452868 0.03433433 0.041497435
0003d0 fb 74 5c bd 24 79 a5 3c 26 dc 93 bd b8 38 58 bd
       -0.0538225 0.020199366 -0.07219724 -0.052788466
0003e0 77 1c 0d bc 23 a1 86 bc c5 3f 06 bb 97 5b 11 bd
       -0.008612744 -0.016434258 -0.0020484787 -0.035487738
0003f0 ae 2e 18 bd 26 61 7f bb 80 68 9d bc a3 26 d5 bc
       -0.037153892 -0.0038967817 -0.019214869 -0.0260194

action_model._continuous_distribution.mu.bias f4 [2]
000000 a5 8d a0 bb 62 d8 38 3c
       -0.004899698 0.011282058

exp_avg f4 [128, 75]
000000 e4 3d 4a ab b9 af f4 b7 20 13 5b ad 09 85 96 b7
       -7.1850707e-13 -2.9168894e-05 -1.2452955e-11 -1.7943343e-05
000010 a6 3d fa 29 67 d5 07 36 8e eb 75 ad 3e 24 6e b7
       1.11129245e-13 2.0240784e-06 -1.3978941e-11 -1.4194344e-05
000020 00 00 00 00 1c 99 d4 35 84 82 22 2d bd f2 d2 b6
       0.0 1.5839792e-06 9.237614e-12 -6.286746e-06
000030 00 00 00 00 32 e3 d2 35 00 9a 11 32 08 c0 81 b6
       0.0 1.5712342e-06 8.475126e-09 -3.866855e-06
000040 00 00 00 00 8e 6e 24 b5 c0 62 ba b1 7a 96 d3 b5
       0.0 -6.125564e-07 -5.424539e-09 -1.576452e-06
000050 00 00 00 00 9f 88 29 b6 22 4c f1 32 50 d7 25 37
       0.0 -2.5262486e-06 2.8090714e-08 9.884898e-06
000060 00 00 00 00 ae 13 c8 b6 f7 ae ec 2e d1 47 53 37
       0.0 -5.9627555e-06 1.07631175e-10 1.2593301e-05
000070 00 00 00 00 60 89 ad b7 04 00 00 80 b5 02 ad b7
       0.0 -2.0687177e-05 -6e-45 -2.0624468e-05
000080 04 00 00 80 d8 02 ad b7 71 e1 8d 39 7c 13 1a b8
       -6e-45 -2.0624531e-05 0.00027061583 -3.6734607e-05
000090 ce 28 5f 3b 48 45 9e 35 98 f8 20 38 d7 31 68 35
       0.003405142 1.1792081e-06 3.8378494e-05 8.649926e-07
0000a0 af ab 8a b8 99 ab 81 3a 56 46 aa 36 1e 40 49 3a
       -6.612331e-05 0.0009893059 5.074583e-06 0.0007677096
0000b0 26 6a 98 b7 a0 92 5d b7 44 dc 2e b8 61 e2 e6 b7
       -1.8169241e-05 -1.3206765e-05 -4.168997e-05 -2.7523552e-05
0000c0 9f 4f 04 b9 0f 37 18 3b 00 00 00 00 70 f0 f2 b5
       -0.00012618162 0.0023226177 0.0 -1.8100382e-06
0000d0 00 00 00 00 0c 9b 82 b8 4d f8 4f b8 9f 4f 04 b9
       0.0 -6.227763e-05 -4.9583894e-05 -0.00012618162
0000e0 12 53 e1 3a 00 00 00 00 41 07 5f 37 00 00 00 00
       0.0017190895 0.0 1.3293525e-05 0.0
0000f0 b5 66 87 b8 66 e0 bb 39 9f 4f 04 b9 00 5c 3f 3a
       -6.456432e-05 0.0003583461 -0.00012618162 0.0007299781
000100 00 00 00 00 16 3f 4e 38 00 00 00 00 31 b2 a1 b8
       0.0 4.917298e-05 0.0 -7.710269e-05
000110 35 95 b2 3a 9f 4f 04 b9 ca 4b 60 ba 00 00 00 00
       0.001362479 -0.00012618162 -0.00085562153 0.0
000120 08 2f bb 38 00 00 00 00 89 88 dd b8 97 1b 62 ac
       8.925615e-05 0.0 -0.00010563533 -3.2131847e-12
000130 bf 57 19 36 59 05 a8 ad b4 b1 ec b5 f4 09 9c aa
       2.2849852e-06 -1.9101764e-11 -1.7635089e-06 -2.7718073e-13
000140 11 40 0f 35 10 77 8b ad 8e 5b 11 b5 00 00 00 00
       5.336488e-07 -1.5855345e-11 -5.414994e-07 0.0
000150 82 12 67 34 b4 b0 f5 ad 84 b9 6b b4 00 00 00 00
       2.1520285e-07 -2.7931747e-11 -2.195357e-07 0.0
000160 45 08 06 34 7e e0 33 32 0c ea ee b3 00 00 00 00
       1.2482731e-07 1.0470215e-08 -1.11253115e-07 0.0
000170 53 cc aa 33 77 5b 1b 31 e7 f4 6c b3 00 00 00 00
       7.953408e-08 2.260746e-09 -5.517077e-08 0.0
000180 c3 dd 04 33 8e 60 f5 30 56 50 49 33 00 00 00 00
       3.0935336e-08 1.7853539e-09 4.6872024e-08 0.0
000190 b9 b7 f8 b3 3b 6b 01 b1 84 dc 7f 35 00 00 00 00
       -1.1581819e-07 -1.8832924e-09 9.5315795e-07 0.0
0001a0 5a 31 fb b4 04 00 00 00 23 94 d7 b4 04 00 00 00
       -4.67883e-07 6e-45 -4.0154654e-07 6e-45
0001b0 66 93 d7 b4 5e 5e 9d 37 d4 bd 07 34 dd b4 54 b8
       -4.0154117e-07 1.8759802e-05 1.2641914e-07 -5.071318e-05
0001c0 99 8f 22 33 e7 71 b7 35 0b 22 d7 ae e1 34 1e 34
       3.7849166e-08 1.3667712e-06 -9.783115e-11 1.4734134e-07
0001d0 d1 1d c6 37 c7 04 80 b4 cb ca 1e b8 fa 86 90 35
       2.3617324e-05 -2.3845334e-07 -3.7859e-05 1.0768119e-06
0001e0 9d a3 5c 35 e0 66 80 b5 0f 79 8c 35 f8 37 8b 33
       8.2194475e-07 -9.566684e-07 1.0466046e-06 6.4828725e-08
0001f0 8c df de b5 00 00 00 00 10 2c 58 33 00 00 00 00
       -1.660535e-06 0.0 5.0331494e-08 0.0
000200 c0 0a 1d 30 ed 53 99 35 f8 37 8b 33 e4 40 1e b6
       5.7131544e-10 1.1423814e-06 6.4828725e-08 -2.3581606e-06
000210 00 00 00 00 bc 0e 72 33 00 00 00 00 5d 24 b2 b2
       0.0 5.6358417e-08 0.0 -2.0738463e-08
000220 9c 59 98 35 f8 37 8b 33 66 58 56 b6 00 00 00 00
       1.1350962e-06 6.4828725e-08 -3.193994e-06 0.0
000230 a7 68 bb 33 00 00 00 00 ef af 04 b3 7c e9 01 36
       8.726902e-08 0.0 -3.0893656e-08 1.9358404e-06
000240 f8 37 8b 33 e3 a9 a0 b6 00 00 00 00 df 2a f4 34
       6.4828725e-08 -4.788149e-06 0.0 4.5479734e-07
000250 00 00 00 00 4e 5f f8 b3 1d 0f 83 30 54 8b c6 b6
       0.0 -1.1565736e-07 9.5358e-10 -5.9170798e-06
000260 17 b0 51 31 ce 7e a3 b6 fe 85 a6 ae cb ab 85 b5
       3.0513598e-09 -4.8725406e-06 -7.572608e-11 -9.95927e-07
000270 63 f3 92 31 cc ce 3b b6 00 00 00 00 4c 56 f8 b4
       4.276829e-09 -2.7985543e-06 0.0 -4.625639e-07
000280 ca 4d c4 b0 ad 80 c6 b5 00 00 00 00 84 d3 e6 b4
       -1.4282986e-09 -1.4789599e-06 0.0 -4.2994736e-07
000290 c1 b7 a4 b6 27 7b 86 b6 00 00 00 00 a3 ec 19 b5
       -4.9089726e-06 -4.007848e-06 0.0 -5.7341293e-07
0002a0 62 61 d6 35 1c 11 dc 35 00 00 00 00 55 fd 3e b5
       1.5972585e-06 1.6396257e-06 0.0 -7.114916e-07
0002b0 fe 91 99 b5 40 36 54 b6 00 00 00 00 f1 af 7f b5
       -1.1441878e-06 -3.162204e-06 0.0 -9.525093e-07
0002c0 29 99 a9 34 f2 32 53 b3 00 00 00 00 82 ee 45 b6
       3.1590142e-07 -4.91736e-08 0.0 -2.9494117e-06
0002d0 04 00 00 80 1b f0 89 b6 04 00 00 80 2e f0 89 b6
       -6e-45 -4.11087e-06 -6e-45 -4.1108788e-06
0002e0 16 5f 32 39 00 d7 2b b7 11 e1 8d 39 27 15 94 34
       0.00017010825 -1.0242453e-05 0.00027061303 2.7582539e-07
0002f0 4b 4a d7 36 5d 1a 4a b2 39 de 9d b7 09 a6 28 39
       6.416148e-06 -1.1763942e-08 -1.8819339e-05 0.00016083581
000300 13 28 cf 35 d6 59 ae b8 36 eb 82 b5 a0 e3 d7 b6
       1.5434365e-06 -8.3137e-05 -9.75421e-07 -6.4339984e-06
000310 1a 71 8c b6 76 a2 82 38 7f 9e 16 b8 e7 02 6a 36
       -4.185492e-06 6.229144e-05 -3.5910398e-05 3.4870407e-06
000320 00 00 00 00 82 05 84 36 00 00 00 00 b7 43 b9 b7
       0.0 3.9345477e-06 0.0 -2.208525e-05
000330 5e 8e b5 38 7f 9e 16 b8 36 41 7b b9 00 00 00 00
       8.6572705e-05 -3.5910398e-05 -0.00023961518 0.0
000340 8e a3 85 36 00 00 00 00 b8 fe b2 b7 85 6b ad 38
       3.982749e-06 0.0 -2.1337866e-05 8.26931e-05
000350 7f 9e 16 b8 cd 3a 03 ba 00 00 00 00 14 bd ca 36
       -3.5910398e-05 -0.00050060154 0.0 6.0420807e-06
000360 00 00 00 00 ca 2b bd b7 ec c7 08 39 7f 9e 16 b8
       0.0 -2.2550947e-05 0.00013044447 -3.5910398e-05
000370 22 d7 55 ba 00 00 00 00 9b 5e 20 37 00 00 00 00
       -0.00081573625 0.0 9.55877e-06 0.0
000380 5a fa b6 b7 5a 9b 9d 2f 4b 1b bf 38 6f 6c 81 31
       -2.181267e-05 2.8668518e-10 9.1126734e-05 3.7667216e-09
000390 33 0a 90 38 8a 5d 78 ae 21 67 a2 37 bd bf 9c 31
       6.868355e-05 -5.647175e-11 1.9359928e-05 4.5619957e-09
0003a0 04 f0 2a 38 00 00 00 00 fc b1 8a 37 25 71 44 b1
       4.075469e-05 0.0 1.6533762e-05 -2.858607e-09
0003b0 e1 15 d8 37 00 00 00 00 55 c1 d0 36 46 ae 2d b5
       2.5759395e-05 0.0 6.22139e-06 -6.4701123e-07
0003c0 25 98 97 37 00 00 00 00 4b 72 a8 36 5e a0 6b 34
       1.807145e-05 0.0 5.0200956e-06 2.1944422e-07
0003d0 d7 be 8b 37 00 00 00 00 a6 07 17 37 c1 84 53 35
       1.6658958e-05 0.0 9.002082e-06 7.879681e-07
0003e0 83 be bc b6 00 00 00 00 8d 9c 9d 37 2a 84 82 b3
       -5.625015e-06 0.0 1.8788758e-05 -6.077637e-08
0003f0 48 54 d3 37 00 00 00 00 7d 67 78 38 04 00 00 80
       2.5192407e-05 0.0 5.922419e-05 -6e-45

exp_avg_sq f4 [128, 75]
000000 e9 c4 de 25 c2 f6 3a 33 c9 f3 e3 28 cf 68 bb 32
       3.8644293e-16 4.3530925e-08 2.5307788e-14 2.1817327e-08
000010 33 85 1c 22 cc fc a7 32 b1 16 a4 2b e9 05 a3 31
       2.1212457e-18 1.9556317e-08 1.1659199e-12 4.7445963e-09
000020 00 00 00 00 b6 b5 3b 32 3a cf 72 2b 53 d3 42 31
       0.0 1.0926149e-08 8.6263256e-13 2.835084e-09
000030 00 00 00 00 61 df ec 31 88 e1 58 2c 5c 6c 40 31
       0.0 6.8938992e-09 3.0820641e-12 2.8001272e-09
000040 00 00 00 00 8d c7 8d 31 4a 0c fd 2d 34 c6 96 31
       0.0 4.1263264e-09 2.8768227e-11 4.3881077e-09
000050 00 00 00 00 e9 52 65 31 db c3 d5 2f 33 3b eb 32
       0.0 3.3371015e-09 3.8883638e-10 2.7384521e-08
000060 00 00 00 00 5a b4 8d 31 2a 59 89 2f 4d 34 b2 33
       0.0 4.1241437e-09 2.498351e-10 8.2982844e-08
000070 00 00 00 00 cb c2 2c 32 37 4a 53 2c fb 4d 01 33
       0.0 1.00560085e-08 3.00261e-12 3.0106076e-08
000080 37 4a 53 2c fc 4d 01 33 13 6b e7 36 d3 2f c5 34
       3.00261e-12 3.010608e-08 6.8968016e-06 3.6728906e-07
000090 68 3c a6 3a 0b 2d 6b 2d 38 68 30 33 fb 4f b5 2e
       0.0012682797 1.3368205e-11 4.107298e-08 8.2451344e-11
0000a0 84 ff 91 35 36 08 18 38 af a6 3b 30 5a 0b 5d 39
       1.0877707e-06 3.624727e-05 6.8267075e-10 0.00021080431
0000b0 62 bb 05 31 65 c8 12 34 fc 40 7f 31 b3 bf a2 31
       1.9460562e-09 1.3670213e-07 3.7144323e-09 4.736614e-09
0000c0 b0 03 99 36 2a 1f ed 3a 00 00 00 00 bd d8 85 31
       4.5601846e-06 0.0018090953 0.0 3.8954497e-09
0000d0 00 00 00 00 92 d6 97 35 65 ab 32 36 b0 03 99 36
       0.0 1.1312825e-06 2.6623832e-06 4.5601846e-06
0000e0 54 be 32 3b 00 00 00 00 ac b9 8e 33 00 00 00 00
       0.002727409 0.0 6.646164e-08 0.0
0000f0 0f e8 8b 35 0e 8c 47 38 b0 03 99 36 74 a7 59 3b
       1.0423845e-06 4.7575733e-05 4.5601846e-06 0.0033211382
000100 00 00 00 00 0f 53 86 34 00 00 00 00 5f 10 5b 35
       0.0 2.5019878e-07 0.0 8.160768e-07
000110 4c 25 40 39 b0 03 99 36 ea d5 6e 3b 00 00 00 00
       0.00018324441 4.5601846e-06 0.003644342 0.0
000120 71 d3 0a 35 00 00 00 00 78 e5 08 35 32 19 d6 22
       5.1716694e-07 0.0 5.099787e-07 5.8031493e-18
000130 6e b6 36 2f 7b 57 08 23 0c 59 77 2e 88 94 b8 21
       1.6617616e-10 7.3910995e-18 5.6240387e-11 1.2507641e-18
000140 e9 c4 9e 2d a1 85 b3 22 37 9a 38 2d 00 00 00 00
       1.8049966e-11 4.8659532e-18 1.0493432e-11 0.0
000150 76 19 d6 2c 65 3d 0b 23 7e dc b8 2c 00 00 00 00
       6.0850726e-12 7.548206e-18 5.254074e-12 0.0
000160 74 db 86 2c 37 ab c2 25 68 de 90 2c 00 00 00 00
       3.8328733e-12 3.3769655e-16 4.117418e-12 0.0
000170 1a 22 73 2c 16 1c 0b 26 81 1f 9e 2c 00 00 00 00
       3.4551307e-12 4.8263376e-16 4.4941277e-12 0.0
000180 9b 2f 98 2c 9e e9 be 26 13 c5 f8 2c 00 00 00 00
       4.325385e-12 1.324722e-15 7.0704636e-12 0.0
000190 5e 0e 12 2d 9a 53 c2 25 3c 11 44 2e 00 00 00 00
       8.302329e-12 3.3710286e-16 4.4580548e-11 0.0
0001a0 d8 ac 1b 2e 1d a0 fb 22 bf 09 40 2e 1d a0 fb 22
       3.5396436e-11 6.8203213e-18 4.3664402e-11 6.8203213e-18
0001b0 be 09 40 2e 32 09 11 31 7b 15 14 30 52 dd 7a 33
       4.36644e-11 2.1105504e-09 5.387261e-10 5.840895e-08
0001c0 9f 65 a9 29 eb 91 c5 2c 52 7f 96 27 eb 07 df 30
       7.522736e-14 5.615277e-12 4.1771404e-15 1.6227636e-09
0001d0 f1 14 b3 30 a9 ab bd 2c 9d e7 2a 33 11 06 84 2c
       1.3029916e-09 5.390761e-12 3.979186e-08 3.752339e-12
0001e0 15 1e 89 2e 96 05 61 2c 47 3d 9a 2d 72 d0 df 31
       6.2353823e-11 3.1977524e-12 1.7534986e-11 6.5138517e-09
0001f0 86 bd 72 34 00 00 00 00 41 46 35 29 00 00 00 00
       2.2606955e-07 0.0 4.025101e-14 0.0
000200 47 d1 df 30 77 fc a7 2d 72 d0 df 31 75 48 45 35
       1.6284866e-09 1.9097819e-11 6.5138517e-09 7.349366e-07
000210 00 00 00 00 ae de 65 29 00 00 00 00 a8 d3 df 30
       0.0 5.104136e-14 0.0 1.6285542e-09
000220 31 12 c0 2d 72 d0 df 31 3e a7 d2 35 00 00 00 00
       2.1835951e-11 6.5138517e-09 1.5694893e-06 0.0
000230 b2 03 3c 2a 00 00 00 00 49 c8 df 30 d8 33 d5 2e
       1.6699036e-13 0.0 1.628231e-09 9.695328e-11
000240 72 d0 df 31 68 04 37 36 00 00 00 00 c5 92 06 2d
       6.5138517e-09 2.727169e-06 0.0 7.6496075e-12
000250 00 00 00 00 eb 2a df 30 ec 42 6d 2b d4 62 0f 30
       0.0 1.6237584e-09 8.4292187e-13 5.216354e-10
000260 41 9f 5f 2b 98 dc bb 2f 07 d9 ef 28 ad 4e 74 2f
       7.9446524e-13 3.4171843e-10 2.6628451e-14 2.2219622e-10
000270 6f ba 91 2a fd 6d ba 2e 00 00 00 00 c6 07 b8 2e
       2.5886538e-13 8.4778386e-11 0.0 8.368732e-11
000280 ba a8 7a 2b eb 88 9e 2e 00 00 00 00 f8 a8 4a 2e
       8.9051997e-13 7.20933e-11 0.0 4.6079557e-11
000290 3a fd 11 2f b1 7b 84 2f 00 00 00 00 d7 47 2a 2e
       1.3277637e-10 2.4098548e-10 0.0 3.871733e-11
0002a0 60 9b 78 2f 64 f1 b4 2f 00 00 00 00 13 db 2d 2e
       2.2610669e-10 3.2913328e-10 0.0 3.9530223e-11
0002b0 04 41 7f 2f dc 4f f2 2f 00 00 00 00 7d a3 5f 2e
       2.3215213e-10 4.4076287e-10 0.0 5.0849536e-11
0002c0 ee 5f 3d 2f 7e 53 8f 30 00 00 00 00 d9 28 07 2f
       1.7223531e-10 1.0428349e-09 0.0 1.229269e-10
0002d0 96 00 fe 2a af cd e5 2f 96 00 fe 2a b3 cd e5 2f
       4.511987e-13 4.1801004e-10 4.511987e-13 4.1801015e-10
0002e0 05 56 f6 34 5f 0d 99 31 69 4b 82 37 63 4d c6 2b
       4.5883658e-07 4.454406e-09 1.5532323e-05 1.4090225e-12
0002f0 45 ec 4a 30 ae 86 61 2b 87 64 5c 32 79 00 d7 34
       7.382293e-10 8.0122963e-13 1.2828543e-08 4.0047215e-07
000300 68 59 48 2d 9a d0 1d 36 5a 92 5b 2e e9 b7 05 31
       1.1388536e-11 2.3516245e-06 4.992482e-11 1.9458588e-09
000310 c9 17 5e 2e 25 5d 81 35 73 f6 6c 33 e3 67 aa 37
       5.049808e-11 9.638358e-07 5.5172176e-08 2.0313955e-05
000320 00 00 00 00 47 bd 0f 31 00 00 00 00 1b bf 52 32
       0.0 2.091683e-09 0.0 1.2267061e-08
000330 c8 bb 81 35 73 f6 6c 33 c0 ab e3 37 00 00 00 00
       9.6659e-07 5.5172176e-08 2.7140486e-05 0.0
000340 0d bb 25 31 00 00 00 00 99 d6 54 32 43 8d 84 35
       2.4116986e-09 0.0 1.2388818e-08 9.875879e-07
000350 73 f6 6c 33 41 bc 14 38 00 00 00 00 bd 68 55 31
       5.5172176e-08 3.5461275e-05 0.0 3.1055116e-09
000360 00 00 00 00 e3 c2 3b 32 ed 66 cd 35 73 f6 6c 33
       0.0 1.0929145e-08 1.5303646e-06 5.5172176e-08
000370 24 58 29 38 00 00 00 00 5c b8 b5 31 00 00 00 00
       4.0374827e-05 0.0 5.2887525e-09 0.0
000380 ae ca 0b 32 4b 62 03 2a 62 9a 7d 34 d3 f8 1f 2a
       8.136949e-09 1.166924e-13 2.3618625e-07 1.4208365e-13
000390 c3 04 16 34 13 de ef 27 0e bc e3 33 39 4b 45 2c
       1.3971571e-07 6.65766e-15 1.0604718e-07 2.803714e-12
0003a0 23 32 f9 32 00 00 00 00 86 8b 71 33 6f a0 1c 2c
       2.9010215e-08 0.0 5.623908e-08 2.2257992e-12
0003b0 64 15 9d 32 00 00 00 00 88 dc 0c 33 28 43 8d 2f
       1.8286933e-08 0.0 3.2796862e-08 2.5695468e-10
0003c0 9f 0d a4 32 00 00 00 00 5d b8 a8 32 9d 94 4f 30
       1.9098307e-08 0.0 1.9641613e-08 7.5517353e-10
0003d0 1d b0 f7 32 00 00 00 00 e2 0a 90 32 86 17 09 31
       2.8834672e-08 0.0 1.6768755e-08 1.9949495e-09
0003e0 31 22 0f 34 00 00 00 00 12 2e b7 32 25 73 a0 30
       1.3330352e-07 0.0 2.1324954e-08 1.1674258e-09
0003f0 c3 d2 01 35 00 00 00 00 6d 95 64 33 90 50 a7 2d
       4.8362944e-07 0.0 5.322129e-08 1.9021479e-11

exp_avg f4 [128]
000000 87 47 84 b8 b8 2f 0a 33 95 a2 96 b7 41 a4 a6 39
       -6.3075735e-05 3.217403e-08 -1.7957102e-05 0.00031784366
000010 14 13 96 39 aa a2 54 b4 30 d2 7d b9 11 02 f6 b6
       0.00028624444 -1.9803215e-07 -0.00024206261 -7.331612e-06
000020 1e 85 f1 38 69 7d c6 b7 81 1e ab b8 37 93 7d 37
       0.000115165705 -2.3661838e-05 -8.159597e-05 1.5114251e-05
000030 c3 7e af 37 71 87 99 39 09 c6 07 38 98 f9 70 36
       2.0920654e-05 0.00029283346 3.2370943e-05 3.590807e-06
000040 9b 9d e1 b7 80 b9 a6 b6 1b 9d a7 38 26 d7 59 b7
       -2.6895481e-05 -4.9687806e-06 7.992444e-05 -1.2984301e-05
000050 9d 0e 62 37 cd b7 26 39 f8 7b 17 3a 80 3d 89 38
       1.3474052e-05 0.00015899465 0.00057786657 6.544124e-05
000060 19 2c 81 b9 4d b2 c1 38 2c d6 71 38 d4 cf 4f 31
       -0.00024637653 9.236168e-05 5.765834e-05 3.0240601e-09
000070 1c 1b 2b 38 8c 32 0e b8 2f 9f d0 32 f5 7c 68 39
       4.0794825e-05 -3.3902514e-05 2.4286775e-08 0.00022171794
000080 7e c4 b5 b7 58 33 0a b9 91 7e 02 b9 6a a2 01 37
       -2.166838e-05 -0.00013179833 -0.00012444916 7.726814e-06
000090 02 48 4f 39 08 a6 65 38 d6 ea b8 b8 3a 2d 25 b8
       0.00019767883 5.4752483e-05 -8.817545e-05 -3.9381186e-05
0000a0 c4 6b cc b9 a2 16 3a b9 88 91 86 af 93 95 a8 38
       -0.00038990204 -0.00017746774 -2.4477864e-10 8.0387246e-05
0000b0 04 ce 96 b9 d5 d7 0b b9 dd b6 8d b8 59 ec 29 b7
       -0.00028763723 -0.00013336477 -6.757465e-05 -1.0128214e-05
0000c0 7c e8 e3 b5 0a 28 8d b8 f9 a4 59 39 eb 87 cc 38
       -1.698048e-06 -6.730862e-05 0.0002075619 9.752795e-05
0000d0 1c ef 4b 38 2c fa bf b8 13 4c 62 37 89 7f 73 b8
       4.862166e-05 -9.154188e-05 1.3488362e-05 -5.805449e-05
0000e0 aa a4 9a 38 de a5 44 b9 50 7a b7 b6 8e 29 49 34
       7.373963e-05 -0.00018753807 -5.468064e-06 1.8734701e-07
0000f0 3f 2c 6e b9 52 48 d9 b8 12 df 68 b9 4c 5e 20 b8
       -0.00022713932 -0.00010360837 -0.00022208344 -3.8234793e-05
000100 a6 dd 6e 38 71 c2 53 b9 71 44 9a 38 6c b6 de b8
       5.6950048e-05 -0.00020194963 7.3560404e-05 -0.000106197636
000110 6c e3 8b b8 fa f6 95 38 f2 2c b9 38 81 42 9d b7
       -6.670397e-05 7.1508766e-05 8.829859e-05 -1.8746827e-05
000120 d0 bc 9d 37 25 6c c9 35 d5 d1 12 b9 db da 0f 39
       1.8803781e-05 1.5007141e-06 -0.00014001814 0.00013719073
000130 b8 0c a2 39 b2 21 0a b8 d1 94 98 b8 b1 7a 44 38
       0.00030908524 -3.2933145e-05 -7.275644e-05 4.6844307e-05
000140 ba 59 91 b7 0f 10 3c 38 5f 57 4f b5 46 cd bd 37
       -1.732713e-05 4.483765e-05 -7.724065e-07 2.2626144e-05
000150 3b 38 0c b8 ec a3 93 b8 88 a1 f7 b7 37 f0 6e b6
       -3.343097e-05 -7.040039e-05 -2.9519913e-05 -3.5604587e-06
000160 14 72 3c 39 14 67 52 b9 8a ea 2c 38 36 37 2b b8
       0.00017971575 -0.0002006556 4.1226427e-05 -4.0820996e-05
000170 68 df 01 b7 b3 eb 46 37 08 90 e6 38 ce 8b 6c b7
       -7.741015e-06 1.1856598e-05 0.000109940825 -1.4099247e-05
000180 0c 71 a1 b7 e9 ee 66 b8 b5 8a d0 b8 79 f8 ee 38
       -1.9245337e-05 -5.5058776e-05 -9.944049e-05 0.00011395006
000190 93 b9 93 35 4f ab 9a 39 5e f2 c7 b7 5b 70 52 b6
       1.1006363e-06 0.00029500804 -2.383551e-05 -3.1357838e-06
0001a0 dd 92 8a 38 1d d7 ce 34 5d d5 80 38 0e 2e dc b8
       6.607708e-05 3.8527006e-07 6.1432576e-05 -0.00010498996
0001b0 f7 94 0c b5 ea 71 f7 b7 45 0a 8a 39 21 88 3c 35
       -5.2370837e-07 -2.949774e-05 0.00026329063 7.023355e-07
0001c0 a8 e6 e8 b9 2c 77 c0 b7 6f 51 8a b8 66 72 c8 b8
       -0.0004442234 -2.2943677e-05 -6.595521e-05 -9.5580515e-05
0001d0 a1 ce 32 37 69 a3 83 b7 dd d6 0a 38 12 76 1c b9
       1.0657736e-05 -1.569251e-05 3.310187e-05 -0.00014921304
0001e0 6b fd 51 38 2e 16 4f 39 38 84 3b b6 6e 5a 71 38
       5.0065497e-05 0.00019749321 -2.7942133e-06 5.7543097e-05
0001f0 e8 ed a5 38 7b 36 cc b9 5f 27 2c b9 03 38 83 b6
       7.9121266e-05 -0.00038950503 -0.00016417865 -3.910625e-06
