Unity Project/CSC 30014 Project/results/test/Car/Car-120019.onnx (onnx, 108006 bytes, 7 tensors)

action_model._continuous_distribution.log_sigma f4 [1, 2]
00000000: 509b 013c e04d 80bc
0.007910565 -0.015662134

action_model._continuous_distribution.mu.bias f4 [2]
00000000: c024 e7b9 ca30 df3a
-0.00044087134 0.001702809

action_model._continuous_distribution.mu.weight f4 [2, 128]
00000000: abd0 853b 71ad f73c e9c2 6e3b 6834 183a
00000010: 2ca4 81bb acfc ea3c 5698 f63c f75f 56bc
00000020: a90b c73b 109a d4bc aad9 d3bc 8702 22bd
00000030: 2826 8cbc cf8f f9bb 921d 5bbb fd05 a03c
00000040: 4339 193c 9b89 37bc ca29 85ba 0d70 66bc
00000050: 91f9 09bb 9b0d c7bb e05a 053c 1478 af3c
00000060: 79dc d13b 63a2 94bc c99a 983b 6949 913c
00000070: 2137 ba3c e24c e139 d628 72ba a69f a8bc
00000080: 5d87 b43c 1998 aa3a fc77 68bc 421d e93b
00000090: 0aa3 a9bc 7163 31bc 152b 8ebc 19f1 8c3c
000000a0: 4846 e33c af10 fe3c b522 803c ad08 50bc
000000b0: a23a 9dbc 52fa 6f3a 4fec 16bb df1e 9bbb
000000c0: 461d 543c 1c02 08bc a56b 69bc 427e cfbb
000000d0: bfab 67bb 32ea 653c 3b38 06bd 90d3 b43c
000000e0: 7e26 bf3c 0d40 863c e161 7bba 9cad 153c
000000f0: 7eb2 9f3c 5dc9 af3b 5dc6 c4bc 7521 eabb
00000100: 8b1e ecbb 89c3 cc3b 6153 a23b bc0d 493b
00000110: 02e8 a73b cba6 e439 7d3a b4bc d0e1 c836
00000120: d18e 623c 5cfb ba3b 1a49 3ebc a266 1539
00000130: eea7 66b8 af21 a3bb 6993 3ebc 390b 2fbc
00000140: a756 813b 9c86 3fbc b996 86bc 0a23 85ba
00000150: 4c39 f5ba 6dc5 3d3c 07f1 dc3b f901 413c
00000160: 5494 393c 2409 8d3c 9840 313c b061 603c
00000170: a341 d03b 18a7 db3c 3d9b 5e3b fe40 aabb
00000180: 4494 85bc e570 1ebc d432 57bc ee52 7abb
00000190: 7358 73bb 15da 333c f968 9ebb 2bf1 0bbc
000001a0: 785e 0b3d 0c9b 7ebb 6f16 383c cf88 6c3c
000001b0: 089b b53b 80e1 a13c 5d06 76bc cd33 46bc
000001c0: 76b1 6f3c 1021 693c 8424 003d 9391 303b
000001d0: 5911 c33b ae8e 0cbc ce4e 123c 1493 bbbb
000001e0: 7598 3cbc b0a4 be3a 26fc f53c ab84 123b
000001f0: 981b 6f3c b2d1 ee3c bbe4 223d c3a2 02bd
00000200: db6d 6f3c 8dba a4bb e10a 48bb 2d82 3b3b
00000210: fa1a 5ebb 462f 963c 80da c33c 87b4 d0bc
00000220: 8ba3 9fbc e9a4 053c a844 26bc e036 9cbc
00000230: 86af 54bb 9cb5 7eba 35f2 11bc a960 f6bc
00000240: d605 b73c 69a7 343d cf04 e5bc f61c 07bb
00000250: 80c5 d13c 9e1d 05bd 73a0 7e3c baad 54bc
00000260: 8b4a 253c 0593 e53b 0ec0 e4bc d1bf d93c
00000270: a55c c9bc 5d7c 9b3c 9982 683b 89af febb
00000280: f654 d8bc fa61 9b3b b387 a1bc 6a37 d7bc
00000290: 7c37 febb bb50 343c d302 0bbb 14d4 0abd
000002a0: 35d6 55bb cf1a 873c 652a fbbc 9093 383b
000002b0: eeea d6bc 0cbe 433d cc97 06bd 295b 78bc
000002c0: 642d 05bd 4f1a 87bb 129a c53c 37d8 3f3a
000002d0: 74e1 a73b 8a6f 233c c7cf a63b 4ae2 92bc
000002e0: b122 4c3c e608 563b 9677 273d 2a63 a7bc
000002f0: c72f 923c a6e0 fabb 68c3 523c d67f 78bb
00000300: ca1e b8bc 7faa bbbc e30f a43b fad8 d63c
00000310: 3719 fabc 6676 323b 2518 d63c aa0f 41bc
00000320: 6f1a 05bd 44e4 5a3b ad11 07bc a1b5 b93b
00000330: 97aa aebc 8411 bfbc d588 91bc d148 023d
00000340: 80d0 b43c 76f8 a0bc d562 23bb af1e f03c
00000350: 38fa babc fd69 7dbc 18fc b83b 4d06 34bd
00000360: 0b42 6b3c cd24 233c d405 a6bb 48bd 1cbd
00000370: bd2a 19bc 984e c4bb 9a16 2cbc 0083 c1bc
00000380: 2510 123d 540e 08bd da79 cebc c16a 3f3c
00000390: 71b3 aabc aaf8 ea3c 49d7 473c fbc0 aabc
000003a0: d62a b63b eca0 b2bc 7215 4dbc 576c 6ebc
000003b0: 6a78 efbc 1f98 14bd 9501 0f3d 53ba 0c3d
000003c0: 8215 bdbc 7e82 ddbc 152e 273d 466d f03c
000003d0: c9c9 08bd 2ba9 973c 000a eebc 39e8 ddbc
000003e0: 5f9c 013c 5f98 a439 f1a3 1abc bb5a 2fbc
000003f0: ffdd 22bd d7b6 10bb cd74 bcbc 4adc f1bc
0.004083713 0.03023407 0.0036432093 0.0005806149 -0.0039563384 0.028684936 0.030101936 -0.013084403
0.006074388 -0.025952369 -0.025860626 -0.03955319 -0.017108038 -0.0076160203 -0.0033434373 0.019534105
0.009352031 -0.011202241 -0.0010159549 -0.014064801 -0.0021053294 -0.00607462 0.008139342 0.021419562
0.006404456 -0.018143838 0.0046571237 0.0177352 0.022731366 0.00042972626 -0.00092376524 -0.020583939
0.022037202 0.0013015299 -0.014188763 0.0071140835 -0.020707626 -0.010826931 -0.017354527 0.017204808
0.027743474 0.031013815 0.01564155 -0.012697381 -0.019192997 0.0009154427 -0.0023029034 -0.0047339047
0.012946432 -0.008301284 -0.014246856 -0.00633219 -0.0035350171 0.014032887 -0.03276847 0.022073537
0.023333784 0.016387964 -0.0009589475 0.00913563 0.019494291 0.0053645805 -0.024020368 -0.0071451017
-0.0072057894 0.0062488955 0.004953787 0.0030678352 0.005124093 0.0004361182 -0.022000546 5.9867525e-06
0.013827995 0.005706234 -0.011614108 0.00014247981 -5.499267e-05 -0.0049783806 -0.011631825 -0.010683828
0.0039470973 -0.011689808 -0.016429292 -0.0010157537 -0.0018709092 0.0115827145 0.0067426 0.0117802555
0.011326868 0.017216273 0.010818623 0.0136951655 0.0063554808 0.026813075 0.003396704 -0.005195736
-0.01630605 -0.009670471 -0.013134677 -0.0038196403 -0.0037131577 0.010977288 -0.004834291 -0.008541386
0.03402564 -0.003884974 0.011235817 0.014436915 0.005542163 0.019760847 -0.015016166 -0.012097311
0.014629712 0.014229074 0.031284824 0.0026942238 0.0059529957 -0.008578939 0.008929921 -0.00572432
-0.011510958 0.001454493 0.03002746 0.0022356908 0.014593981 0.029152725 0.039768916 -0.031893503
0.014613594 -0.0050271214 -0.0030524062 0.0028611526 -0.003389059 0.018333089 0.0239079 -0.025476707
-0.019487163 0.008156993 -0.010148205 -0.019069135 -0.0032453253 -0.0009716393 -0.008907844 -0.030075388
0.02234165 0.044104967 -0.027956394 -0.0020616627 0.02560687 -0.03249895 0.015541184 -0.012980873
0.010088573 0.0070060515 -0.02792361 0.026580723 -0.02458031 0.0189802 0.0035478233 -0.0077723903
-0.0264077 0.0047419043 -0.019718027 -0.02627154 -0.007758079 0.011005576 -0.00212114 -0.03389366
-0.0032628898 0.016492276 -0.030659864 0.0028164126 -0.02623507 0.047788665 -0.03285961 -0.015158453
-0.03251399 -0.0041230093 0.024121318 0.00073182903 0.0051233117 0.009975323 0.005090687 -0.017930169
0.012459443 0.0032659112 0.04088553 -0.020433027 0.017845048 -0.0076561747 0.012863971 -0.0037917993
-0.022475619 -0.022908447 0.0050067767 0.02622651 -0.030529601 0.0027231215 0.02613456 -0.01178352
-0.032495912 0.0033400217 -0.00824396 0.005667404 -0.021321578 -0.023323782 -0.017765442 0.031807724
0.022072077 -0.019649725 -0.0024930735 0.029311506 -0.022824392 -0.015467164 0.0056452863 -0.04395132
0.014359008 0.009957504 -0.0050666127 -0.03826645 -0.0093485685 -0.0059908144 -0.0105034355 -0.023622036
0.035659928 -0.03321679 -0.025204588 0.011683167 -0.020837517 0.028683025 0.012197324 -0.020843973
0.0055593057 -0.02180525 -0.01251732 -0.014552197 -0.029232223 -0.036277886 0.034913618 0.03435738
-0.023081545 -0.027039763 0.04081543 0.02934898 -0.033395562 0.018513283 -0.029057503 -0.027088271
0.007910817 0.00031394043 -0.009438501 -0.010702784 -0.039762493 -0.0022081637 -0.023004914 -0.029523987

network_body._body_endoder.seq_layers.0.bias f4 [128]
00000000: 6191 af3a ee47 bf3b 6dcc 893c b732 db3b
00000010: c599 6fba 19b0 02bc 0dee b43b 4e6c eb3b
00000020: 6b79 b83b 0994 aabb 09dd 0e3a 7ae6 71bb
00000030: efbd f93a 156c 2b3a dcba ea3b 984c 17bb
00000040: 239e e63b 5230 5d3c e8cd 383b f08c 983a
00000050: 58e5 73bb bab1 3abb 28ee e73a 7e43 3d39
00000060: 6e6b 99bb d808 d13a a08e ec3b fdab 26bc
00000070: cf78 90bb 03e4 50bb 8541 2dbb 37ed 333a
00000080: 78e6 cfbb b56c 143b 50ad 97ba 4280 3dbb
00000090: 0dda a13a 6498 89bb f286 393c cef4 5b3b
000000a0: 02d8 40ba ea74 0bbb 4eb4 143b 875d bb3c
000000b0: 51e1 3bb9 2d35 c93a 4b22 ea3c b0b0 29bb
000000c0: b1c8 ac3c d19d 5abb 6892 523c f6c4 173b
000000d0: 060f de38 d60f 3bba 30e2 f93b be07 87bb
000000e0: bb56 81bc 9c1e 2e3b 5e6f 313b 3a3c 0b3b
000000f0: 89dc 303b 80f2 543a a301 d939 5283 19bc
00000100: 8e93 e239 8357 93ba db69 42bb 7205 8c3b
00000110: a5bc d33c ba8b ebbb 6eb8 8c3b 5dbf 853c
00000120: 471d 983c 397c 0b3b 9ced 88ba 89b7 39bb
00000130: dbc8 0c3b a487 27bc 2129 fd3c d8a3 02bb
00000140: c289 713c 6562 ba3a 52ec 94bb 1255 92ba
00000150: 5e40 9d3c 3ce9 36ba 476c b33c a243 2fbc
00000160: 6736 513b cd22 243a dfa7 8f3a c446 be3b
00000170: 23f4 5a3b 1677 a13b b936 bd3b c084 fcbb
00000180: 4790 ca3c 50b1 f1b8 fe32 82bb c697 eb3a
00000190: fca4 633c 801a 0abb e053 113c cfed 893a
000001a0: 71c6 363a d1f2 cebb b668 7aba a8c2 bcba
000001b0: f8be 4abc b8d8 dab9 1cd9 7fb9 1736 d9ba
000001c0: 1b50 0f3a dfea c43c a92c 8dbb af11 893c
000001d0: 811d 8a3b 8449 aa3a 61f4 593a c21a ebb9
000001e0: 7ecb 22bb 6795 1c3a 9f49 39bc 7d81 32bc
000001f0: 794c d1b9 8316 c0ba f122 56b8 1dbe cb3a
0.0013394767 0.005837432 0.01682111 0.0066893953 -0.000914004 -0.007976555 0.005521542 0.007184542
0.0056297085 -0.0052056354 0.0005449807 -0.0036911056 0.0019053797 0.0006539238 0.0071633887 -0.0023086425
0.0070378943 0.01350029 0.0028198902 0.0011638682 -0.0037215557 -0.002848728 0.0017694877 0.00018049587
-0.004681996 0.001594807 0.0072191507 -0.010172841 -0.0044089328 -0.0031874187 -0.0026436758 0.0006863656
-0.0063446127 0.0022647802 -0.0011572037 -0.002891556 0.0012348309 -0.0041990746 0.011323677 0.0033562663
-0.00073564064 -0.0021279403 0.0022690478 0.022871746 -0.00017917647 0.0015350931 0.028580805 -0.0025892667
0.02109179 -0.0033358226 0.012852289 0.002315817 0.00010588583 -0.00071358436 0.0076258406 -0.004120796
-0.015788427 0.0026568538 0.0027074437 0.0021245615 0.0026986918 0.00081232935 0.00041390685 -0.009369688
0.00043216016 -0.001124129 -0.0029665146 0.00427311 0.025846789 -0.0071882876 0.0042944467 0.0163266
0.018568648 0.002128376 -0.001044679 -0.0028338155 0.0021482024 -0.01022521 0.0309034 -0.0019934084
0.014742317 0.0014219998 -0.004544773 -0.0011164269 0.019195732 -0.00069775037 0.021902217 -0.010697277
0.0031923295 0.0006261289 0.0010960064 0.0058067758 0.0033409677 0.004927526 0.0057743457 -0.0077062547
0.024727 -0.000115248025 -0.003973364 0.0017974309 0.013894316 -0.0021072924 0.008870095 0.0010523143
0.0006972319 -0.006315567 -0.00095523463 -0.0014401274 -0.012374632 -0.00041741668 -0.00024399575 -0.0016571906
0.0005466954 0.024037777 -0.0043083024 0.016732065 0.004214943 0.001299188 0.00083143084 -0.0004484263
-0.002484053 0.00059731904 -0.011309057 -0.01089513 -0.00039920563 -0.0014655147 -5.1054118e-05 0.0015544329

network_body._body_endoder.seq_layers.0.weight f4 [128, 75]
00000000: 8562 733e ba9a 59be 8957 b03d 2e3a ee3d
00000010: 8e18 173d 00e4 8bbc e03c 58bd 1bb8 c8bd
00000020: dd2a 4a3d d4a4 49bd ea60 7fbd c457 dabd
00000030: b99f a13d 38b2 79bc 5740 b6bb d69f fdbc
00000040: 6039 82bb a5a6 9bbd 836e 7ebd cb02 513e
00000050: 1b43 353d b271 023e af33 8bbe c3e2 a8bd
00000060: be93 453e 9da4 82bd ea89 513b c6b2 ce3c
00000070: 7c57 4b3d 7fb0 813b a3d2 453c 9b0b 55be
00000080: 80bb aabd abfc 1aba af7f 8a3c 1cff b7bd
00000090: 7ace 0abe 3e63 7abd 6903 e83c 5f74 4a3e
000000a0: df6c b13d 2a7b 42be 38e2 563a 4ea1 4e3e
000000b0: 94cc 47bd 396a cfbd c655 39be 86e8 04bc
000000c0: 8ac7 8fbd d492 b7bc 1576 c83e fdbb 7b3d
000000d0: 6b24 363c 680a 4ebd 7716 8dbe 8438 cfbd
000000e0: a044 36bb 8f24 733b 7400 5a3b 2f93 14bd
000000f0: 4afb 873d 4240 41bd 9162 3ebd 283c 9f3d
00000100: 23bd 56be 0a37 7b3c 6a66 08bd 96f3 153e
00000110: 6d6e f93d 237f 443e 6287 0b3e 1872 f83d
00000120: b6d6 04be cbaf 8e3c 2400 27bd b0c7 8dbd
00000130: 05c1 403e a067 99bd f525 70bd fffb 453d
00000140: a370 073e 5bf5 24bd 5ea8 06be f58c f5bd
00000150: ed8e 153d df9c 8f3c dfb7 47be af70 43be
00000160: 6df7 4d3d f42c 9f3a 5ae7 b43d a423 0b3d
00000170: 7d03 1ebe cf69 573e 9575 1bbd 6aff e1bd
00000180: 8744 e2bc f7ff 693b 5770 2fbe 60b8 fabd
00000190: 91e5 a43d 46df 94bd 70c6 6a3d 10b6 f63b
000001a0: b48c 2b3b 234d 793d f0d3 2c3d 8b0d 20bd
000001b0: 9df6 10be d281 9abd 5d7e 9c3e 49e1 36be
000001c0: 8778 983d 6c80 bc3d 0850 923d 2017 d5bd
000001d0: 7bfc 19be daae a43c 4267 0ebd b49f 3e3d
000001e0: 7d5b a53d cd22 32be 0637 0e3e e6d4 863d
000001f0: e78d cb3d f43b 3e3d d714 673d d5ab aebd
00000200: ca74 6a3d d2e2 683d 13dd f53d 8033 9ebd
00000210: 02c2 0a3e eb36 93be 8ab6 593d cb67 d6bd
00000220: 7b98 af3d 20b8 8d3b dad7 973d 3e48 a6bc
00000230: fab0 703d 0aa0 3a3d c773 16be 4082 48be
00000240: 0401 9c3d 497f a0bd fa2b 973d 75d3 843d
00000250: c1ef b63c f68a 1b3d cafc 963c 2a1f afbb
00000260: 0cb9 8ebd 6764 553e 3ab6 563e af67 853b
00000270: 11b5 033e eb3b 33bd 5504 dc3d cf34 71be
00000280: 3dda 823d 6f1a 523c 9f4f 49be 559d 193d
00000290: fca2 cabb 4584 983d 7e11 84bd 0c0d 13be
000002a0: 9129 e63c fc54 c3bd 19a8 41bd 4db9 acbd
000002b0: e66f 773c 1825 523d 7f91 d23d 040c 5e3d
000002c0: 4f30 013d bc5c febd 12c8 603e f9dd d83c
000002d0: 0097 13be 6dd2 183d 2b59 173c ee3f 42bd
000002e0: 3953 10bd 62df 823d 1388 efbd 7b60 e33d
000002f0: 64f7 89bb 99c5 a83c 450e 823d 49de 3a3e
00000300: fd36 17bd e16b c33d 5e48 1f3d 8859 d63d
00000310: 136b 07be 44f4 9e3d 6988 9cbd deb6 08bd
00000320: fdff 19bc a34e bbbd 9a89 b53d 53c1 bf3d
00000330: 7167 523c 7028 abbd d74e 07bd cc58 4fbe
00000340: 8105 27be 0ac6 db3b eac3 bd3d 049f 11be
00000350: 58e9 e83d 886a 133e 9456 2cbe b53a 0c3e
00000360: 1110 acbc 5f26 183d a0cf 10be 65d0 e83d
00000370: 5394 12be 2312 45bd 728b d63d b66f d5bd
00000380: 18db e8bc 369c 333d d9a1 a23d b999 47bd
00000390: 5cf8 263d 2de7 adbd 852d 87bb 7093 eb3c
000003a0: 8bb9 98bd 0a68 133e 5074 643a 7fb5 a53d
000003b0: 9027 213e f935 72bc 554b f63d df45 bbbd
000003c0: 8e38 203d 6de0 36be 69be b4bd e92f f5bd
000003d0: 30e6 363e 1ee4 17bc 37dc 813c 3020 88bb
000003e0: df11 ddbc 3b34 693c 9368 4dbd c152 03be
000003f0: fe34 cebd 598b 103b 99b6 9a3c 8200 643c
0.23768051 -0.2125043 0.08610446 0.11632191 0.03688865 -0.017076492 -0.05279243 -0.0980074
0.049357284 -0.049229458 -0.062348284 -0.10661271 0.07891793 -0.015240245 -0.005561869 -0.030960005
-0.003974125 -0.07600144 -0.06211711 0.20411222 0.04425345 0.12738684 -0.2718787 -0.08246376
0.1929464 -0.06379054 0.0031973072 0.02523173 0.04964398 0.0039578076 0.0120741455 -0.20805208
-0.08336544 -0.0005912284 0.016906587 -0.08984205 -0.13555327 -0.0611298 0.028321939 0.19770955
0.08663344 -0.18992296 0.00081971614 0.2017872 -0.048779085 -0.10127682 -0.18099126 -0.0081120785
-0.07020481 -0.02240888 0.3915259 0.061458576 0.011117081 -0.050302893 -0.27556202 -0.101182014
-0.00278119 0.0037100648 0.003326443 -0.036273178 0.066397265 -0.04718042 -0.04648072 0.07775146
-0.20970587 0.015332947 -0.033300795 0.14643702 0.12179265 0.19189124 0.13625863 0.12131137
-0.1297253 0.017417809 -0.04077162 -0.06922853 0.18823631 -0.07490468 -0.05862995 0.048336025
0.13226561 -0.04027305 -0.13150164 -0.11989776 0.036513258 0.017530857 -0.19503735 -0.19085954
0.05028479 0.0012144134 0.08833189 0.033969536 -0.15431018 0.21036457 -0.03795393 -0.110350445
-0.027620567 0.0035705545 -0.17132698 -0.12242198 0.08051599 -0.072691485 0.05731815 0.0075290278
0.0026176395 0.06086458 0.042194307 -0.039075416 -0.14156576 -0.075442925 0.30565158 -0.17859377
0.07444864 0.09204182 0.07144171 -0.10404801 -0.1503772 0.020102907 -0.034766443 0.046539024
0.08074091 -0.17396088 0.13888177 0.06583576 0.09939175 0.046443895 0.05641636 -0.08528868
0.057240285 0.056856938 0.12005057 -0.077246666 0.1355057 -0.28752837 0.0531526 -0.10469016
0.08574005 0.004324928 0.07414217 -0.02029812 0.058762528 0.04556278 -0.14692603 -0.19580936
0.07617381 -0.07836778 0.07381435 0.06485645 0.02233112 0.03797432 0.018431086 -0.005344291
-0.06968889 0.20839082 0.20967951 0.004071198 0.1286204 -0.043758314 0.10743014 -0.23555301
0.06389282 0.012823685 -0.1965928 0.03750356 -0.00618398 0.074471034 -0.06448649 -0.14360446
0.028095992 -0.09537694 -0.04727945 -0.08433781 0.015102362 0.051304907 0.102816574 0.054210678
0.03154021 -0.124200314 0.21951321 0.026473032 -0.1441307 0.037310053 0.009237568 -0.04742425
-0.035235617 0.06390263 -0.11695876 0.111023866 -0.0042103995 0.020602034 0.06350378 0.18248858
-0.036917675 0.09542061 0.038887374 0.104662955 -0.1322444 0.07761434 -0.07643206 -0.03337752
-0.009399411 -0.09145858 0.08864136 0.093630455 0.012842045 -0.08357322 -0.033034172 -0.20248717
-0.16310693 0.0067069577 0.09265883 -0.14220816 0.11372632 0.14396107 -0.16829902 0.1369427
-0.021003755 0.03714597 -0.14141703 0.11367873 -0.14314394 -0.048113 0.10475816 -0.10421698
-0.028424785 0.043850146 0.07941026 -0.048730586 0.040764198 -0.08491359 -0.0041252994 0.028756827
-0.074572645 0.14395157 0.00087148417 0.08091258 0.15737748 -0.014783376 0.12026087 -0.09144186
0.039116435 -0.17859049 -0.0882538 -0.11972029 0.17861247 -0.009270696 0.015852077 -0.0041542277
-0.02698606 0.014233644 -0.050148558 -0.12824537 -0.10068701 0.0022055714 0.018885897 0.013916137

network_body._body_endoder.seq_layers.2.bias f4 [128]
00000000: d6ab 8e3a 7111 33bb 95d5 80bb 6916 f2ba
00000010: fed8 80bb 9bad bcb9 db82 893a dd50 32bb
00000020: 68cc f6bb 880b c23b 10d0 deb8 9710 bdba
00000030: 8a23 35bb 1891 1bbb 526d 24bb 997e 723b
00000040: 4a98 e0bb 735f c43b d8fb 1abb ad52 d0ba
00000050: bfd8 bc3b e72e e8ba d09e a33a f8ef f03a
00000060: f3ac 733a 2a2d 5839 9cc7 0cbb 44d2 ea3a
00000070: 787f 863c 1540 483b 8b86 ebba 1145 17bb
00000080: 76da 393c 931c 57ba 671e d23a b451 903c
00000090: ea0b b3bb 1dac c63a ae0b a3ba 02bc 0ebb
000000a0: bb4d 65ba 7c13 433a 51a6 233c abe9 1f3a
000000b0: efd8 05ba ddab 163c 836c 063c 5a83 083b
000000c0: 7971 e7ba 4358 94bb caea b4bb 5244 fcba
000000d0: 4460 9cba 4fc2 59b8 c2e3 08bb 0f84 c43b
000000e0: 10ef b839 406e 9bba 376f adbb 2d4d 4f3c
000000f0: 40bd 8c3a 794a b3b6 9655 efbb 0f0d 59bb
00000100: ce05 0e3b d291 1d3c fedf 88bb 4cf6 be3a
00000110: 932b ca3c 7c90 faba 5f4f 6f3a 2253 9aba
00000120: de28 263c f585 f8ba 4f82 40ba 2a9a bdbb
00000130: 0481 13bb 6f30 e339 67d5 23bb 9847 b93b
00000140: fb3c bc3a 28ab 4cbb c5d4 5cba 5774 5ebb
00000150: 9a0d 4fb9 1587 ccba 4229 b9bb 44e4 503a
00000160: 74ab 0d39 863d a0ba 9187 01bb c048 2a3c
00000170: ecb6 25bb 94fe 1aba 956e b43b 3503 393b
00000180: ab30 883a bda7 293c 7244 22bb 3123 32bc
00000190: 8ac9 2b3c bbc3 3b3b 13b8 dfba 9117 d8bb
000001a0: 84d6 38bb 594a 17bb fb82 8bba 8744 dc3b
000001b0: 7ded f33b 3de5 bb3c 2a96 a23a 4d25 6f3c
000001c0: eda9 633c 458f 693c 9522 1bbb 60f8 b13a
000001d0: e321 333b 6df4 8b3a 4727 4c3c f15e 173b
000001e0: 5728 4a3b 61db ba3a 96cb 03bb ca24 2cbb
000001f0: de0c d43a 9bea dbb8 52ed 88ba d23b ae3a
0.0010884951 -0.0027323628 -0.003931711 -0.0018469814 -0.0039321175 -0.000359875 0.0010491268 -0.0027208843
-0.0075316913 0.005921785 -0.000106245396 -0.00144245 -0.002763959 -0.0023737606 -0.0025089574 0.0037001728
-0.006854092 0.0059928237 -0.0023648646 -0.001589378 0.005763143 -0.0017714173 0.0012483243 0.0018382063
0.0009295486 0.0002061619 -0.002148128 0.0017915447 0.016418204 0.0030555774 -0.0017969174 -0.0023081938
0.011343589 -0.0008205857 0.0016030789 0.017617084 -0.0054640668 0.0015157495 -0.0012439394 -0.0021779542
-0.00087472395 0.0007441563 0.009988383 0.0006100188 -0.0005105873 0.009196249 0.008204582 0.0020830245
-0.0017657719 -0.004527123 -0.005521153 -0.0019246435 -0.0011930545 -5.1917796e-05 -0.0020887707 0.005997188
0.0003527333 -0.0011858419 -0.005292799 0.0126526775 0.0010737553 -5.3432855e-06 -0.007303904 -0.0033119356
0.002167094 0.009617286 -0.0041770926 0.0014569252 0.024678981 -0.0019116546 0.00091289537 -0.0011774043
0.010141579 -0.0018960821 -0.0007343636 -0.0057862 -0.002250732 0.000433329 -0.0024999024 0.0056542866
0.0014361435 -0.0031229947 -0.0008424039 -0.0033943856 -0.00019746125 -0.0015604222 -0.0056506703 0.00079685845
0.00013510679 -0.0012225367 -0.0019764642 0.0103933215 -0.0025286032 -0.0005912569 0.0055063465 0.0028230671
0.0010390481 0.010354933 -0.0024760035 -0.010872648 0.010485062 0.00286506 -0.0017068408 -0.006594606
-0.0028204033 -0.0023085086 -0.0010643894 0.0067220363 0.0074440823 0.022936458 0.0012404372 0.014596296
0.013895494 0.0142553495 -0.0023671736 0.001357805 0.002733343 0.0010677703 0.012460536 0.002309736
0.0030846798 0.0014256054 -0.002011036 -0.0026267045 0.0016178151 -0.000104864324 -0.0010446704 0.0013292974

network_body._body_endoder.seq_layers.2.weight f4 [128, 128]
00000000: 1d66 333d 2b1b 1fbc c9a7 9cbd 0031 c4bd
00000010: adc7 06bd 1510 57bd 1aa2 2b3e 879d 9cbd
00000020: ac01 073e 2417 ef3d 0e5e bdbd 992e 853d
00000030: 7616 2fbe 1090 ea3b e386 82bd 9aea 20be
00000040: 1dc4 f6bc 5a3b aebc 7c99 003d 5a87 cc3c
00000050: 6d68 2ebe 2b7e 603c 9c79 22bd 0ab6 ad3d
00000060: aa50 153c 5467 52bc 7cec 25be 434d 143c
00000070: 0ff2 863d 4901 52bd fad4 e83d 7229 8abc
00000080: 3be7 0cbd dc9e 32be 1a8b 83ba 74e3 4f3d
00000090: 4cd3 72bd c52b 74bc d29b cdbc ab31 473c
000000a0: e573 afbc 9ebc 9ebd 70ce c9bd a13e 02be
000000b0: ccdf 023e 24bd 2abb cc44 2cbd ed49 363c
000000c0: bd5a f13d 6164 ffbd dd64 27bc 633b 35bb
000000d0: 30d1 b2bd f0b3 063e c8c9 cabc 8562 d1bd
000000e0: 5363 11be a60d c23d 8abc ae3b 59e7 b13d
000000f0: 69f0 8f3c a642 733c 2f65 a5bd d31f ee3c
00000100: f363 21be 4708 c7bc a402 c03d 6c13 a5bc
00000110: c370 2a3d 832a 5fbe 6b89 84bd bb92 68be
00000120: 5e5c b2bd 7094 18be 9f79 783d 5b28 9ebd
00000130: 0cae 27be f630 ebbc 046f eabd a13c 4c3d
00000140: 591c 253d 0304 0e3d 0139 923d 3fc7 033e
00000150: 154b 5c3d f308 333e ab48 11bd 0974 24bd
00000160: eb7c 073e efad 963a c2ba a23d 7e3b 9ebd
00000170: fcde b6bd 4fc8 84bd 1d25 a33d d5c4 843d
00000180: 5027 cc3b d4e5 bc3d 82bd 19be da37 863e
00000190: 6aff 9ebd f835 ac3c 5ae0 88bd ef0c 9b3d
000001a0: 2081 a6bd 1059 9fbc cff7 d93d a3e7 d43d
000001b0: dd55 733d 7155 3dbe 247f 373d a702 8cbd
000001c0: d6f6 ad3b 8e32 30bd 82f9 8f3d e865 3c3d
000001d0: 02af ec3b c11b bcbd 2e47 2abe 183e 363d
000001e0: 2e5a 20bd e439 1dbd 53c7 ddbc c0b3 4cbd
000001f0: 83f4 233d cc50 01bd 8110 a2bd d461 be3d
00000200: 7e4c a13d 5934 8bbd ba06 ca3d 4f9e 94bd
00000210: 3131 a33c 5c63 d8bd 0a05 903d 0ca0 913d
00000220: 9568 b2bd 018a 833d 15a4 463d 0b6b 02bd
00000230: 59b1 c4bb e852 083d f085 ac3d 04d5 bbbd
00000240: 6864 92bd b810 01bd df82 aa3d 6cdd 013e
00000250: f260 963d 3107 a5bd f0ba 29bd a940 073d
00000260: ab72 6f3d 3fe7 343d dd20 bc3d 7571 063e
00000270: 2610 1c3d d713 e13c b3cf 133c 489a 64bd
00000280: 1e96 e6bd 1dc4 b03c 7bfc 873d d9f0 a7b9
00000290: 321b 99bd b393 14bd c9b8 e73c 75ec b7bd
000002a0: f060 38bd 71d5 6dbd 3988 73bc 37ce b1bd
000002b0: 115c 423e 60af 2c3d 1255 983c c5a6 75bc
000002c0: 672b 5bbc 6e8c 463d afab 703c 8833 a33c
000002d0: faf7 cc3c 4d1e b1bc 6473 b8bd cfa9 db3c
000002e0: d5f7 24bd a586 20be 187f a8bd e82e 3ebd
000002f0: 25bb 483d e973 9b3c 8f93 7fbc 1c87 cbbd
00000300: 8e60 df3d 242d 013e 69b4 55bd 679d b93d
00000310: 14db cc3c 9908 2dbe f273 983d cd84 1a3e
00000320: 4170 d7bc eefc 93bc fa24 89bd da8d 14bd
00000330: 5e8f 373d efbe 72bd 8230 fdbb 7304 ddbc
00000340: 5ee8 0b3c 95c5 f5bd e2cb eebd 9cd3 04bd
00000350: cd80 483d 82af 813d 5901 b33c f7e8 d8bd
00000360: a203 3a3e 59b8 52bd 1a49 313d 5154 363d
00000370: 0174 54bd dac6 4bbd 97ef 1dbd aea6 433e
00000380: 074c c1bd 26f4 3cbc 3ff9 71be 25b2 f1bc
00000390: 6a19 b03d 5f59 1ebe e6d1 8f3c cae4 f1bc
000003a0: 68f4 55bc cf49 02bd 5704 abbd 06d7 353e
000003b0: 2a31 87bd c4e3 47be 089d 463a e35f 78bd
000003c0: e3c4 c3bc 2b5d 573d 5969 9dbd 646f 9dbd
000003d0: 5594 3c3c 618e 3abe ed89 94bd e0d4 063c
000003e0: fb5c 80bc 0962 7dbd 6e3a 54bc 6f11 2cbd
000003f0: c6e6 f4bc d80f d9bd 99b0 2fbd 18ab 433d
0.043798555 -0.009711067 -0.0764919 -0.095796585 -0.03290527 -0.05250557 0.16761056 -0.076472335
0.13184232 0.116743356 -0.09246455 0.065030284 -0.17098412 0.007158287 -0.06373384 -0.15714493
-0.030122811 -0.021268535 0.031396374 0.024966884 -0.17032023 0.013701956 -0.039666757 0.08481987
0.00911347 -0.012842018 -0.16203493 0.009051624 0.06589138 -0.051270757 0.11368747 -0.016865466
-0.034400206 -0.17443413 -0.0010035962 0.050754026 -0.05928354 -0.014903014 -0.025098715 0.012157838
-0.021417568 -0.077508196 -0.09853828 -0.12719204 0.12780684 -0.0026052678 -0.042057797 0.011126024
0.11784885 -0.12470318 -0.010216919 -0.0027653805 -0.087313056 0.13154578 -0.02475442 -0.10223869
-0.14198045 0.094752595 0.005332534 0.08686704 0.017570691 0.014847433 -0.0807594 0.02906791
-0.15760784 -0.02429594 0.09375504 -0.020150863 0.041611444 -0.2179356 -0.06471523 -0.22712223
-0.08709024 -0.14900374 0.060662862 -0.07722541 -0.16374987 -0.02870987 -0.11446956 0.049862508
0.040310238 0.034671795 0.07139779 0.12868975 0.05378254 0.17483883 -0.035469692 -0.040149722
0.13231246 0.0011495928 0.079457775 -0.07726191 -0.0892925 -0.06483518 0.07966063 0.06482855
0.0062302724 0.09223524 -0.15013698 0.26214486 -0.0776356 0.021021828 -0.06683417 0.07570826
-0.081300974 -0.019451648 0.10642969 0.10395744 0.059408057 -0.18489625 0.044798985 -0.068364434
0.005308966 -0.043016963 0.07030012 0.045995623 0.007223011 -0.09184981 -0.16628715 0.04449281
-0.039148502 -0.038385287 -0.027072584 -0.04997611 0.040028106 -0.031571195 -0.07913304 0.09296003
0.07875918 -0.06797094 0.09864564 -0.072567575 0.019920917 -0.10565826 0.07032211 0.07110605
-0.08711354 0.064228065 0.048496325 -0.031840365 -0.006002587 0.03328219 0.08423984 -0.09171489
-0.07148057 -0.031510085 0.08325743 0.12682122 0.073427096 -0.08058012 -0.041438043 0.03302065
0.058458965 0.044165846 0.09185956 0.13129218 0.038101338 0.02747528 0.009021687 -0.055811197
-0.11259101 0.02157789 0.06639954 -0.00032032168 -0.0747589 -0.03627367 0.028286355 -0.089806475
-0.04501432 -0.05806488 -0.014864021 -0.086819105 0.18980433 0.042159438 0.018595252 -0.014993374
-0.013377047 0.048473768 0.01468937 0.019922033 0.025020588 -0.021620894 -0.09006384 0.02681437
-0.040275414 -0.15676363 -0.08227366 -0.046431452 0.0490066 0.018976169 -0.015599146 -0.099378794
0.10907088 0.12614876 -0.052174006 0.09063225 0.025006808 -0.16897811 0.0744399 0.15089722
-0.026298644 -0.018064942 -0.06696506 -0.036268093 0.04481446 -0.05926412 -0.00772673 -0.02697966
0.008539287 -0.120005764 -0.11659981 -0.03242837 0.04895096 0.063323036 0.021851229 -0.105913095
0.18165448 -0.05144534 0.043282606 0.044514004 -0.051868442 -0.049750187 -0.03855857 0.19106552
-0.09438329 -0.011532819 -0.23630236 -0.029503891 0.08598597 -0.1546378 0.017556142 -0.02952804
-0.013058759 -0.03180867 -0.08350437 0.17757806 -0.06601174 -0.1952048 0.00075765 -0.06063832
-0.023897594 0.052579086 -0.07686109 -0.07687262 0.0115099745 -0.18218376 -0.0725287 0.008229464
-0.015669337 -0.06186107 -0.012953384 -0.042008813 -0.029895198 -0.10598725 -0.042893026 0.04777059
