Unity Project/CSC 30014 Project/results/test/Car/Car-32224.onnx (onnx, 108006 bytes, 7 tensors)

action_model._continuous_distribution.log_sigma f4 [1, 2]
-0.06950105 0.00540736
00000000: 9156 8ebd 3930 b13b

action_model._continuous_distribution.mu.bias f4 [2]
-0.009672198 -0.012155735
00000000: 2478 1ebc d928 47bc

action_model._continuous_distribution.mu.weight f4 [2, 128]
0.016695583 0.004832832 -0.0011168164 0.020921158 0.006416157 0.008194497 0.0018855724 0.015010824
-0.0040384177 0.017371584 0.018517349 0.0016535682 -0.0028537929 0.012525511 0.0058867326 0.012992461
0.017423432 0.02948964 0.00236529 0.017226396 0.0033001953 0.018981267 -6.3683685e-05 0.004077807
0.010257944 0.024675457 -0.0062845047 0.028063145 0.002585909 0.009923977 0.025310444 -0.008664992
-0.011162173 0.012899103 0.011082786 0.012814107 -0.0020644357 -0.0050190566 0.008628125 0.0038594506
0.00424532 0.008031731 -0.0024095115 0.0038036127 0.0064108735 -0.018601969 0.009541593 -0.007265174
0.016960844 0.010194372 -0.01175003 -0.022340579 -0.007914358 0.007310076 0.0054429704 0.008530533
0.0060482817 0.008681925 0.021528006 0.0106999725 0.00507677 0.010780757 0.013880766 0.029448047
0.0027580424 0.023979925 0.019761605 0.02520811 0.0073724915 0.022592895 0.013385436 0.0004255312
0.03380575 0.012461231 0.014380969 0.0065866294 0.019703332 -0.008171658 0.017401451 0.0002639605
0.0071182256 0.016882846 -0.01617279 0.028772598 0.024609659 0.010392043 0.007731524 0.0059104925
0.0040703164 0.008744971 0.0025960524 0.0032797698 -0.011975182 0.014769931 0.011690267 0.0047988906
0.033705078 0.005010078 0.015447412 0.0068006255 0.014697228 0.015710907 -0.0012317355 -0.008384821
0.0047110496 -0.0010329882 0.0036588912 0.033715423 0.00192375 -0.017672112 -0.008275615 0.00431945
0.0140560735 0.02505346 0.021982426 0.013939621 0.027096478 0.0045521245 0.018150121 0.025135374
0.029512098 -0.017408643 0.0020970325 -0.00489533 0.04295638 0.0037042806 0.008599523 0.007897283
0.012837852 0.0017510699 0.0030385724 0.01067515 -7.262664e-05 0.005106148 -0.01119869 0.008694931
0.0077056824 -0.0054743593 0.008883732 0.0020554033 0.006825714 0.0066046314 -0.0026017607 0.012071261
0.008301024 -0.0064232107 -0.00040512925 0.00679126 0.01691082 0.0047999965 -5.6991954e-05 0.00040009728
0.020303233 0.008348247 -0.003985891 -0.0075989137 -0.0013014639 -0.019029232 0.0003486333 0.013498938
0.011893603 0.0029152015 0.011925811 0.01774472 -0.009431625 0.005113741 0.020603864 0.0012547435
-0.003318736 0.0021863698 0.003869948 0.003938545 -0.007231237 0.009172362 0.024444994 -0.014170188
0.015308327 -0.00448231 0.01679759 -0.008375859 0.0012214691 -0.000103218365 0.022764694 0.016113352
0.009464654 -0.00054566603 0.010318224 -0.012401429 0.003075419 -0.00021110018 0.010914347 0.0010568973
0.010129678 0.007850891 -0.0009993003 -0.0037288337 0.0026439463 -0.020687032 -0.0056869406 -0.009254224
0.0065359664 0.00872629 0.018772032 -0.0019165965 0.011597366 -0.016730582 -0.01575027 0.00046520104
-0.000775526 0.00396659 0.01521153 -0.0038942161 0.0044789496 0.0020530147 -0.010881291 0.012893338
-0.0018737061 -0.021643626 0.0005602059 0.005123702 0.0102075515 0.01387101 0.0077270265 0.00029944815
-0.0014983567 0.001838691 0.017282387 -0.0024418372 0.007467083 0.00949767 0.009512651 -0.0005839074
0.00024199174 0.009162576 0.008407284 -0.00692692 0.014627928 -0.045614712 -0.0058207624 -0.00028906926
0.018025419 0.0054899664 0.0048548444 0.00684645 0.007880384 7.275797e-05 0.017144576 0.00014137385
0.019016966 0.007793878 0.015446069 -0.005550631 0.03959476 0.0026364864 0.017769372 -0.009480148
00000000: 2dc5 883c bc5c 9e3b 2462 92ba d962 ab3c
00000010: a03e d23b 3642 063c 5025 f73a f6ef 753c
00000020: b454 84bb da4e 8e3c b2b1 973c 8bbc d83a
00000030: b306 3bbb cd37 4d3c 7ee5 c03b 55de 543c
00000040: 96bb 8e3c 4294 f13c fb02 1b3b 5f1e 8d3c
00000050: 1748 583b 9a7e 9b3c eb8d 85b8 209f 853b
00000060: f010 283c 2f24 ca3c 3fee cdbb aee4 e53c
00000070: 5b78 293b 2d98 223c d957 cf3c 9cf7 0dbc
00000080: 8ce1 36bc c256 533c 9394 353c 43f2 513c
00000090: 7c4b 07bb e676 a4bb fb5c 0d3c d6ee 7c3b
000000a0: 531c 8b3b 8597 033c e5e8 1dbb 0846 793b
000000b0: 4e12 d23b 2863 98bc 5754 1c3c b210 eebb
000000c0: 78f1 8a3c 4c06 273c 3383 40bc 9703 b7bc
000000d0: 39ab 01bc 5d89 ef3b f25a b23b a6c3 0b3c
000000e0: aa30 c63b a23e 0e3c 805b b03c f04e 2f3c
000000f0: 095b a63b c6a1 303c 276c 633c 083d f13c
00000100: 46c0 343b 8c71 c43c 17e3 a13c 3d81 ce3c
00000110: f194 f13b bc14 b93c 964e 5b3c d519 df39
00000120: e677 0a3d 312a 4c3c 289e 6b3c a7d4 d73b
00000130: e268 a13c 6be2 05bc 7d8d 8e3c 2e64 8a39
00000140: 0140 e93b e54d 8a3c cd7c 84bc 83b4 eb3c
00000150: 329a c93c 6343 2a3c b958 fd3b ceac c13b
00000160: 4a60 853b 1147 0f3c 8822 2a3b 68f1 563b
00000170: 8e33 44bc 95fd 713c 8988 3f3c 0340 9d3b
00000180: 560e 0a3d 952b a43b 2417 7d3c c8d7 de3b
00000190: a4cc 703c 29b4 803c 2f72 a1ba 7d60 09bc
000001a0: 265f 9a3b 5565 87ba 02ca 6f3b 2f19 0a3d
000001b0: 5726 fc3a 1bc5 90bc 7296 07bc 2c8a 8d3b
000001c0: 724b 663c ea3c cd3c 7d14 b43c 0263 643c
000001d0: 6ff9 dd3c fd29 953b 90af 943c b3e8 cd3c
000001e0: 5bc3 f13c 929c 8ebc 5e6e 093b 0169 a0bb
000001f0: 07f3 2f3d 84c3 723b 04e5 0c3c 9b63 013c
00000200: db55 523c 2884 e53a c922 473b d3e6 2e3c
00000210: 214f 98b8 7951 a73b b67a 37bc 2f75 0e3c
00000220: f37f fc3b 4162 b3bb 138d 113c f2b3 063b
00000230: 3daa df3b aa6b d83b 4d82 2abb 8ac6 453c
00000240: 0501 083c cc79 d2bb 8767 d4b9 3889 de3b
00000250: 8f88 8a3c 4a49 9d3b a50a 6fb8 26c4 d139
00000260: f752 a63c 16c7 083c 149c 82bb 4f00 f9bb
00000270: e295 aaba 31e3 9bbc c5c8 b639 a62a 5d3c
00000280: 63dd 423c f70c 3f3b 7a64 433c 605d 913c
00000290: 1a87 1abc 2b91 a73b 6fc9 a83c 3576 a43a
000002a0: 277f 59bb 3349 0f3b f49e 7d3b e90e 813b
000002b0: 03f4 ecbb ad47 163c de40 c83c 142a 68bc
000002c0: c7cf 7a3c 57e0 92bb 199b 893c e63a 09bc
000002d0: b419 a03a f076 d8b8 067d ba3c 2600 843c
000002e0: a311 1b3c 070b 0fba c50d 293c 5d2f 4bbc
000002f0: f88c 493b c65a 5db9 17d2 323c 9787 8a3a
00000300: f3f6 253c 06a1 003c f4fa 82ba 735f 74bb
00000310: 0f46 2d3b da77 a9bc 8459 babb 079f 17bc
00000320: a92b d63b b7f8 0e3c cec7 993c 4f36 fbba
00000330: e102 3e3c 930e 89bc b606 81bc 3ae6 f339
00000340: ab4c 4bba 2bfa 813b c839 793c 1b36 7fbb
00000350: 27c4 923b df8b 063b 7147 32bc 943e 533c
00000360: 2597 f5ba f94d b1bc c8da 123a bae4 a73b
00000370: 933d 273c 3c43 633c ff32 fd3b 40ff 9c39
00000380: 8264 c4ba 3b00 f13a cb93 8d3c 3b07 20bb
00000390: 6fae f43b 1e9c 1b3c f3da 1b3c 5d11 19ba
000003a0: 2abf 7d39 a11e 163c b4be 093c 37fb e2bb
000003b0: faa9 6f3c 7ed6 3abd 18bc bebb 388e 97b9
000003c0: 0baa 933c 2de5 b33b 6315 9f3b 2f58 e03b
000003d0: ba1c 013c a395 9838 c872 8c3c c13d 1439
000003e0: 78c9 9b3c ca63 ff3b 8211 7d3c 11e2 b5bb
000003f0: 1d2e 223d e7c8 2c3b 1391 913c 9f52 1bbc

network_body._body_endoder.seq_layers.0.bias f4 [128]
0.0037808018 -0.009921333 -0.008622418 -0.016460437 -0.01740829 0.00041896693 -0.04699573 -0.022076169
-0.0171323 -0.0066925036 -0.013094814 -0.014569539 -0.0019475962 0.005251578 -0.031065233 0.0015695897
-0.03551014 -0.008740782 -0.021682858 0.007272033 0.00819673 -0.012583592 -0.0010705058 -0.019051088
-0.004783102 -0.04658554 0.0051923385 -0.020689746 0.023934659 -0.0061618034 -0.021972848 -0.009048444
-0.015471529 -0.019582253 -0.014001751 -0.02529862 -0.014467847 -0.009359468 -0.022919277 -0.014471774
-0.018975854 -0.027460458 -0.010135709 -0.032278884 -0.0028686712 -0.076361395 -0.014778193 -0.025969457
-0.00560246 -0.015835078 -0.022085035 -0.01041545 -0.07472859 -0.010030114 -0.014926651 -0.03259405
-0.024841912 -0.019080646 -0.052808985 0.0077258693 -0.030794503 -0.021392973 -0.003929032 -0.0060890983
-0.016802005 0.019547623 -0.0043618795 -0.0057766293 -0.013811792 0.014247791 -0.00678558 -0.036644585
-0.02886586 -0.0031854755 -0.024901511 -0.017874721 -0.032730695 -0.014999069 0.020339381 -0.00024462512
-0.0258227 -0.019119697 -0.0025854087 -0.006994778 -0.024535246 -0.00081482116 -0.040287245 0.00241908
-0.008493117 -0.026017865 -0.018322382 0.00014617332 -0.009516999 -0.00048516356 -0.042175807 -0.039016277
-0.027430365 -0.0098775895 -0.011960996 -0.009359292 -0.009025363 -0.008633157 -0.017020516 -0.023284772
-0.022125479 -0.022846006 -0.029751861 -0.016313922 -0.011972521 -0.037859958 -0.012343974 0.015285371
-0.016702568 0.00400399 -0.019678714 0.003612772 0.00963946 -0.00092004857 -0.04191725 -0.015524447
-0.009453286 0.009110911 -0.03588578 0.0015066243 -0.0012293205 0.0037981535 -0.026138116 -0.028471453
00000000: 54c7 773b 168d 22bc 0b45 0dbc 0ad8 86bc
00000010: d59b 8ebc caa8 db39 987e 40bd 15d9 b4bc
00000020: 0a59 8cbc ca4c dbbb a18b 56bc 13b5 6ebc
00000030: 7c46 ffba 6e15 ac3b 847c febc b1ba cd3a
00000040: 1573 11bd 7f35 0fbc 40a0 b1bc 3c4a ee3b
00000050: 944b 063c 692b 4ebc 3750 8cba 0711 9cbc
00000060: 91bb 9cbb 7bd0 3ebd 7e24 aa3b 8b7d a9bc
00000070: 9e12 c43c f4e8 c9bb 6700 b4bc ed3f 14bc
00000080: 4c7c 7dbc f66a a0bc 9a67 65bc 0d3f cfbc
00000090: 8c0a 6dbc 7458 19bc 35c1 bbbc 051b 6dbc
000000a0: 4073 9bbc c1f4 e0bc 3f10 26bc dd36 04bd
000000b0: 5100 3cbb 5d63 9cbd 3c20 72bc e6bd d4bc
000000c0: d794 b7bb 91b8 81bc adeb b4bc 90a5 2abc
000000d0: 4e0b 99bd 5955 24bc e98e 74bc 5781 05bd
000000e0: 4481 cbbc 044f 9cbc 3c4e 58bd 4a29 fd3b
000000f0: c144 fcbc 5140 afbc 1cbf 80bb 0f87 c7bb
00000100: 5ca4 89bc 5622 a03c 19ee 8ebb e149 bdbb
00000110: db4a 62bc 916f 693c 9259 debb a218 16bd
00000120: 1978 ecbc 69c3 50bb 41fe cbbc 026e 92bc
00000130: 9f10 06bd a8be 75bc c69e a63c 0741 80b9
00000140: 208a d3bc e9a0 9cbc f66f 29bb 7334 e5bb
00000150: 24fe c8bc b999 55ba 3d04 25bd 6d89 1e3b
00000160: b726 0bbc 6b23 d5bc d218 96bc 1a46 1939
00000170: 30ed 1bbc 8d5d feb9 8ac0 2cbd 88cf 1fbd
00000180: a5b5 e0bc 9dd5 21bc 0ef8 43bc b757 19bc
00000190: 1edf 13bc 1672 0dbc 9c6e 8bbc b5bf bebc
000001a0: 7e40 b5bc 8c27 bbbc 2dba f3bc c6a4 85bc
000001b0: 6528 44bc 0b13 1bbd 613e 4abc 7e6f 7a3c
000001c0: d3d3 88bc e733 833b 4135 a1bc 42c4 6c3b
000001d0: d3ee 1d3c 6a2f 71ba 6cb1 2bbd 405a 7ebc
000001e0: f5e1 1abc ee45 153c f8fc 12bd ec79 c53a
000001f0: 2721 a1ba 71ea 783b 9a1f d6bc f73c e9bc

network_body._body_endoder.seq_layers.0.weight f4 [128, 75]
0.0143684335 0.07185515 -0.05773994 -0.07055066 0.26678255 0.0334394 0.12317577 -0.069706306
0.02445189 0.07481367 0.15436032 0.09502971 0.11309887 0.08908184 0.06658837 0.19531962
0.25172588 -0.013059933 -0.08603913 0.012455564 -0.012414532 0.061101202 -0.13923517 0.18101317
-0.051982976 -0.034409218 0.07505341 -0.04280815 -0.08359346 0.14357434 0.14166455 -0.19838299
0.12044823 0.19087762 0.20599447 -0.073017985 0.053859707 -0.007821205 0.061834417 -0.011667513
0.123388186 0.043946683 0.17772526 0.14027902 -0.02036924 0.12513718 -0.16054654 -0.101478025
-0.024890447 0.0015784161 0.05175404 -0.06628981 0.2533971 0.056872554 -0.083557285 -0.025119318
0.009887718 -0.01997595 0.12516253 0.084023796 0.03345188 -0.17939448 -0.37007362 -0.19490649
-0.09632869 -0.0845048 0.0088948 -0.03440789 -0.09868753 -0.024613516 0.026132662 0.143842
0.2507261 -0.12011684 0.056290917 -0.075923644 -0.10303491 -0.17262788 -0.29737365 0.071691215
-0.048133537 0.06052493 -0.048239414 -0.080415174 0.29358527 -0.20522931 -0.14330724 0.05553448
-0.11367792 0.013138145 -0.0022182015 -0.013948366 -0.11049295 0.1351329 0.12740207 -0.08499857
0.10477798 -0.22716244 0.09316396 0.0062491964 0.09719069 0.2405961 0.015145303 -0.016644977
-0.29117927 -0.16350278 -0.021018004 -0.10859926 0.063013114 -0.022874987 -0.17427908 -0.2440409
-0.042115834 0.12018681 0.15613577 -0.117645435 -0.23002441 0.17438477 -0.060929425 -0.039113045
0.027577454 -0.22313456 0.011834982 -0.039699048 0.006844088 -0.09696761 0.04847571 -0.004957488
-0.28438014 0.22008878 -0.027002482 -0.086827606 -0.19691092 -0.15600438 0.13135608 0.05054322
-0.10269004 0.17087556 -0.15795793 0.11739223 -0.033373814 -0.15836518 -0.07695886 0.02814707
-0.07877273 -0.030381214 0.007250435 -0.057374608 -0.023366911 -0.017158767 -0.09225552 0.11324347
0.08162458 0.15056051 0.038056284 0.12590642 0.024163207 -0.050593503 -0.109415226 0.057987474
0.11353645 -0.16030854 -0.047519885 0.03411161 -0.09885657 0.17832835 -0.090426 -0.040404484
-0.009909901 0.044672463 -0.2029427 0.020341516 -0.096427985 0.042713188 -0.09886527 0.11264386
-0.041939344 -0.27558103 0.33338127 -0.027861323 0.048975613 -0.2736238 -0.20587121 -0.029110968
-0.11456996 0.027976435 0.05158129 -0.20000817 0.0603079 0.12205319 -0.038727406 -0.012653147
0.0018335985 0.20379657 -0.2114874 0.012815864 -0.031491302 0.17501718 0.06460699 0.10368709
0.12609316 -0.003969297 -0.062029805 -0.03836047 -0.1896812 -0.16051361 -0.027851924 -0.011539086
0.09892426 -0.029079422 -0.1007746 0.29072973 0.08106428 -0.113146536 0.11841547 -0.15614821
-0.22361314 -0.09725768 -0.0562827 -0.12932014 0.07330429 0.021104192 0.27022216 0.08891633
0.055058356 -0.07061637 0.023509791 -0.09561191 -0.077302106 0.051471073 0.17322955 0.089256674
-0.11031692 -0.11999651 -0.129695 0.17933647 0.03235633 -0.12951906 0.10422717 -0.010270765
0.093452945 -0.008576574 0.03167273 -0.08585585 0.22726369 0.16130506 -0.13730884 -0.008177326
0.07209281 0.09126214 -0.014105975 -0.0046458617 -0.10682529 0.19657798 -0.04989578 -0.12011898
00000000: 9469 6b3c cb28 933d b780 6cbd dd7c 90bd
00000010: b997 883e c1f7 083d 9443 fc3d 2ec2 8ebd
00000020: 544f c83c e937 993d a210 1e3e f09e c23d
00000030: 61a0 e73d 8a70 b63d 7c5f 883d de01 483e
00000040: 37e2 803e 54f9 55bc 4935 b0bd 6c12 4c3c
00000050: 5266 4bbc 4145 7a3d aa93 0ebe 845b 393e
00000060: 1aec 54bd aef0 0cbd 9ab5 993d 9957 2fbd
00000070: 0c33 abbd 2705 133e 8310 113e e924 4bbe
00000080: 90ad f63d 6c75 433e 37f0 523e 748a 95bd
00000090: ff9b 5c3d 8324 00bc 1646 7d3d 1929 3fbc
000000a0: f2b2 fc3d 7001 343d 9cfd 353e 4ea5 0f3e
000000b0: 64dd a6bc f623 003e 5066 24be b6d3 cfbd
000000c0: 0de7 cbbc dbe2 ce3a 0bfc 533d f4c2 87bd
000000d0: 44bd 813e 32f3 683d 1520 abbd 07c7 cdbc
000000e0: 1800 223c 9aa4 a3bc 9b2a 003e ab14 ac3d
000000f0: d704 093d 30b3 37be 4a7a bdbe 9195 47be
00000100: fa47 c5bd da10 adbd 7fbb 113c 4aef 0cbd
00000110: b01c cabd 49a2 c9bc 2a14 d63c 514b 133e
00000120: 2c5f 803e d1ff f5bd 4e91 663d db7d 9bbd
00000130: f803 d3bd 5dc5 30be 5c41 98be d8d2 923d
00000140: ac27 45bd fde8 773d b196 45bd b6b0 a4bd
00000150: cf50 963e a227 52be 22bf 12be 1f78 633d
00000160: f8cf e8bd 6041 573c 3f5f 11bb b087 64bc
00000170: 214a e2bd 4760 0a3e b075 023e bb13 aebd
00000180: d695 d63d 459d 68be bfcc be3d 0fc6 cc3b
00000190: ea0b c73d d35e 763e 0124 783c 0c5b 88bc
000001a0: 7315 95be 466d 27be f32d acbc 4a69 debd
000001b0: 050d 813d 5364 bbbc 3776 32be dce5 79be
000001c0: a781 2cbd 8124 f63d 0ee2 1f3e 17f0 f0bd
000001d0: 858b 6bbe ec91 323e 2291 79bd 0035 20bd
000001e0: 1dea e13c 637d 64be 83e7 413c 789b 22bd
000001f0: 5f44 e03b f496 c6bd 778e 463d 6c72 a2bb
00000200: 469a 91be f45e 613e 4f34 ddbc acd2 b1bd
00000210: 04a3 49be 9dbf 1fbe 3582 063e 6806 4f3d
00000220: 284f d2bd 01fa 2e3e b9bf 21be 566b f03d
00000230: fbb2 08bd 7b2a 22be 9b9c 9dbd af94 e63c
00000240: 9953 a1bd 06e2 f8bc 0f95 ed3b a301 6bbd
00000250: f76b bfbc 8b90 8cbc 76f0 bcbd 31ec e73d
00000260: ca2a a73d 892c 1a3e e8e0 1b3d 9ded 003e
00000270: ebf1 c53c 223b 4fbd 1715 e0bd 4684 6d3d
00000280: cc85 e83d ec27 24be 36a4 42bd 9eb8 0b3d
00000290: 5075 cabd b59b 363e 4431 b9bd 2c7f 25bd
000002a0: 235d 22bc 79fa 363d 36d0 4fbe 40a3 a63c
000002b0: 097c c5bd 06f4 2e3d e079 cabd d3b1 e63d
000002c0: 97c8 2bbd f518 8dbe f3b0 aa3e 6e3d e4bc
000002d0: a79a 483d 6b18 8cbe e7cf 52be 207a eebc
000002e0: a8a3 eabd d62e e53c e746 533d f1ce 4cbe
000002f0: 6b05 773d 06f7 f93d a1a0 1ebd 254f 4fbc
00000300: 5b55 f03a 0cb0 503e 2790 58be a1f9 513c
00000310: 06fd 00bd b437 333e ab50 843d e659 d43d
00000320: 911e 013e e010 82bb f712 7ebd de1f 1dbd
00000330: ca3b 42be ae5d 24be b829 e4bc 6f0e 3dbc
00000340: cd98 ca3d f837 eebc ea62 cebd 87da 943e
00000350: 0705 a63d 5fb9 e7bd cf83 f23d 51e5 1fbe
00000360: d8fa 64be 092f c7bd b088 66bd 806c 04be
00000370: 8f20 963d b3e2 ac3c 8f5a 8a3e c419 b63d
00000380: df84 613d 519f 90bd 9b97 c03c 2dd0 c3bd
00000390: 9150 9ebd 55d3 523d 1663 313e 34cc b63d
000003a0: d6ed e1bd bbc0 f5bd c4ce 04be fba3 373e
000003b0: 1288 043d a5a0 04be 0e75 d53d b646 28bc
000003c0: 4264 bf3d c284 0cbc 44bb 013d 31d5 afbd
000003d0: d0b7 683e 272d 253e b09a 0cbe 31fa 05bc
000003e0: 65a5 933d a5e7 ba3d bf1c 67bc 503c 98bb
000003f0: 38c7 dabd bd4b 493e 845f 4cbd f100 f6bd

network_body._body_endoder.seq_layers.2.bias f4 [128]
-0.012619469 -0.036177974 -0.026555719 -0.015902312 -0.03595073 -0.016376527 -0.033229165 0.0056855157
-0.022580111 -0.009517955 -0.02264239 -0.03350838 -0.01293579 -0.017018167 -0.0359435 -0.023219505
-0.03066901 -0.0145921 -0.020719295 0.015978426 -0.010003511 -0.023812382 -0.041402195 -0.042375244
-0.013690464 0.004462944 -0.023449255 -0.012878185 -0.031533707 -0.011707279 -0.028290126 0.0031815327
-0.019874437 -0.026694885 -0.019544795 -0.03030703 -0.019485706 -0.011969014 -0.016922742 -0.03316333
-0.028723633 -0.03729939 -0.0031218946 -0.033490915 -0.023204895 -0.022049004 -0.0141839925 -0.01804634
0.0053088823 -0.022296745 -0.01709674 -0.014289673 -0.012575706 -0.034961734 -0.015171299 -0.014709932
-0.016688269 -0.026981266 -0.017931424 -0.024579175 -0.030840464 -0.025225889 -0.0021010174 0.008231715
-0.027404727 -0.02410852 0.00018922369 -0.008467297 -0.033723734 -0.008959338 -0.015713373 0.0037784143
-0.007275786 -0.03513836 -0.002238134 -0.030180506 -0.007429762 -0.034249663 -0.009062549 -0.02596378
-0.031811014 -0.01717254 -0.022748893 -0.014335588 -0.021752944 -0.024460316 -0.02637463 -0.03063622
-0.043187298 -0.026444912 -0.033214826 -0.026939146 -0.006602789 -0.01778308 -0.019507714 -0.036787633
-0.010495422 -0.030066483 -0.024674837 -0.03179075 -0.035250343 -0.031521507 -0.02741485 -0.03010587
-0.027554665 -0.019819947 -0.040439453 -0.014454398 -0.01598357 -0.028695833 -0.012958785 -0.040703867
-0.010931942 -0.013060059 -0.0019811536 -0.027381616 -0.015490221 -0.034657508 -0.024279477 -0.028147
-0.010934624 -0.025898552 -0.013146989 -0.014473724 -0.015297064 -0.03898067 0.0053444183 -0.029847171
00000000: e4c1 4ebc 5b2f 14bd 618b d9bc 9145 82bc
00000010: 1341 13bd 1128 86bc 4e1b 08bd 904d ba3b
00000020: edf9 b8bc 32f1 1bbc 897c b9bc 1540 09bd
00000030: a3f0 53bc af69 8bbc 7e39 13bd d536 bebc
00000040: 933d fbbc b413 6fbc 83bb a9bc 30e5 823c
00000050: c4e5 23bc 2f12 c3bc 5995 29bd aa91 2dbd
00000060: f84d 60bc e33d 923b a718 c0bc 06ff 52bc
00000070: 7d29 01bd e3cf 3fbc b2c0 e7bc 4381 503b
00000080: b7cf a2bc 3baf dabc 681c a0bc 7346 f8bc
00000090: 7da0 9fbc af19 44bc 90a1 8abc 46d6 07bd
000000a0: d34d ebbc 3fc7 18bd b398 4cbb c52d 09bd
000000b0: 3118 bebc 1da0 b4bc fa63 68bc ebd5 93bc
000000c0: 22f6 ad3b aaa7 b6bc 760e 8cbc 3c1f 6abc
000000d0: 550a 4ebc 0934 0fbd 0a91 78bc ed01 71bc
000000e0: d6b5 88bc d107 ddbc ece4 92bc 445a c9bc
000000f0: 24a5 fcbc 86a6 cebc 39b1 09bb 51de 063c
00000100: e17f e0bc 3b7f c5bc 596a 4639 6bba 0abc
00000110: e621 0abd 30ca 12bc 55b9 80bc 469f 773b
00000120: b769 eebb 3eed 0fbd a8ad 12bb 1c3d f7bc
00000130: 5c75 f3bb 6049 0cbd 167b 14bc feb1 d4bc
00000140: 444c 02bd 6dad 8cbc e35b babc d0df 6abc
00000150: 3b33 b2bc 0061 c8bc 9c0f d8bc cff8 fabc
00000160: 2ae5 30bd 00a3 d8bc 450c 08bd 7caf dcbc
00000170: 355c d8bb d2ad 91bc a4ce 9fbc a1ae 16bd
00000180: fef4 2bbc fc4d f6bc e222 cabc 0437 02bd
00000190: aa62 10bd b21c 01bd 1c95 e0bc 96a0 f6bc
000001a0: 52ba e1bc 715d a2bc d7a3 25bd 24d2 6cbc
000001b0: faef 82bc 8613 ebbc 1551 54bc 19b9 26bd
000001c0: e31b 33bc dcf9 55bc 3ed6 01bb 694f e0bc
000001d0: b2ca 7dbc 08f5 0dbd c1e5 c6bc 8a94 e6bc
000001e0: 2327 33bc 3329 d4bc 7866 57bc 3323 6dbc
000001f0: 89a0 7abc 32aa 1fbd 3b20 af3b 0e82 f4bc

network_body._body_endoder.seq_layers.2.weight f4 [128, 128]
0.013787755 0.16205285 -0.03831366 -0.16003938 0.17350471 0.07504392 0.056281716 0.0793824
0.03872464 0.0024396752 0.05719965 0.08815222 0.09271619 -0.031229913 0.12154647 -0.105104744
-0.18003869 0.0788121 -0.014027124 0.013803159 -0.03954592 -0.059823785 -0.013200827 -0.11381238
0.03014284 -0.08090632 0.037155986 -0.036708135 0.015828582 0.00034324746 0.0417851 -0.11291632
-0.15281877 0.1691975 -0.11490339 0.17891559 0.11843817 0.039134663 0.011865089 0.068096906
0.10724582 0.09756764 0.009589707 0.017042309 -0.07110403 0.0005631505 0.010836166 0.19717024
0.052003782 0.015099414 -0.11414414 0.09876044 0.020158721 0.011515422 0.08324751 -0.1996419
-0.12418325 -0.015477717 0.09247569 0.010987119 0.006601539 -0.06228424 -0.120525435 0.105728485
-0.069192395 0.02482933 -0.08526429 -0.025926063 -0.055341654 0.0077182446 -0.10831524 0.025718827
-0.08140563 0.13796616 0.014212514 -0.08529039 0.15038207 0.05454401 -0.06191051 -0.13404651
-0.022500716 -0.11654717 0.054426022 0.007993198 -0.059755582 0.21562232 -0.112819545 0.17107809
0.09279591 -0.044923127 0.078262106 -0.2878209 -0.049555276 0.11635998 -0.17596956 0.04979456
0.10989268 0.10460032 -0.03609648 0.096534155 0.12165905 -0.07676299 0.03348558 0.07267535
0.0938149 0.07707041 0.018013032 0.04107684 -0.046808276 0.21334004 -0.010018531 -0.0027361198
-0.055358026 -0.052179012 0.101839975 0.07120793 -0.12225651 -0.018466799 0.07266503 0.03821639
-0.13616166 0.06290436 0.12677048 -0.11452075 -0.22027534 0.034500554 0.13309748 0.046100043
-0.08966659 0.047112934 -0.0061162044 -0.061575226 0.14872749 0.018342258 0.008856163 0.0070950408
-0.06270369 0.0027502005 0.07782695 0.03877092 0.057506178 0.06703201 -0.104586415 -0.0326279
-0.070927665 0.105019756 -0.17782617 0.05668559 0.059291918 0.0020657633 -0.11675979 -0.090451606
-0.02869384 0.039495368 -0.06777125 0.0043971757 -0.07558374 -0.13917178 0.039268762 0.03226948
0.03791238 -0.16363578 0.061213795 0.03142803 0.12890705 -0.12846835 -0.12659672 -0.076878555
0.09334366 -0.112676546 -0.083923146 0.021611959 -0.12237662 -0.028252749 -0.008581588 0.1872687
0.08326127 0.12846193 0.006099548 -0.1022341 -0.05408317 -0.12366818 0.14292231 -0.00705957
0.04455708 -0.16538365 -0.15841837 0.04112004 0.030487506 0.0109418975 -0.11002325 0.117350794
0.056386627 0.00024038709 -0.08788791 0.0991696 -0.103592865 0.050810646 -0.0339394 -0.07570486
0.13139512 0.119564295 0.002454513 0.03677026 -0.04691184 -0.11294058 -0.007939061 -0.036375694
0.10963443 -0.0021467574 0.070151344 0.07174899 -0.12917809 -0.040517602 -0.09008912 -0.003381881
0.09289274 -0.12303019 -0.047890984 -0.09286432 0.0057798307 -0.18371838 -0.09723426 -0.0873576
0.05504025 0.07517642 -0.05473811 0.1070882 0.19868453 -0.012178226 0.07168204 0.04860111
0.08559049 -0.02452028 -0.088781595 -0.08558865 0.057864014 -0.059707284 0.03168816 -0.037262578
0.00964915 0.07879519 0.045621317 -0.16045356 -0.059112553 -0.093265995 -0.016571295 -0.09057224
0.20077378 -0.0579498 -0.030104235 0.05346781 0.109198816 -0.117011026 0.045654796 -0.090196095
00000000: 09e6 613c 2ff1 253e c9ee 1cbd 5de1 23be
00000010: 38ab 313e a0b0 993d a887 663d 3d93 a23d
00000020: ba9d 1e3d f5e2 1f3b 2e4a 6a3d 2789 b43d
00000030: fce1 bd3d e0d5 ffbc 5bed f83d 2841 d7bd
00000040: 105c 38be 3d68 a13d 06d2 65bc a526 623c
00000050: e7fa 21bd c909 75bd 4848 58bc 7716 e9bd
00000060: 1eee f63c 36b2 a5bd e030 183d 455b 16bd
00000070: f1aa 813c e5f5 b339 da26 2b3d ac40 e7bd
00000080: 867c 1cbe 1c42 2d3e 7852 ebbd a635 373e
00000090: b68f f23d ab4b 203d ca65 423c 6476 8b3d
000000a0: b2a3 db3d 8bd1 c73d 251e 1d3c 509c 8b3c
000000b0: fd9e 91bd 64a0 133a 2d8a 313c ffe6 493e
000000c0: eb01 553d 8863 773c 67c4 e9bd ea42 ca3d
000000d0: e723 a53c 2eab 3c3c ac7d aa3d ed6e 4cbe
000000e0: ca53 febd 4096 7dbc e563 bd3d 5103 343c
000000f0: b951 d83b c21d 7fbd 0ad6 f6bd 2d88 d83d
00000100: beb4 8dbd e166 cb3c 0b9f aebd e562 d4bc
00000110: eead 62bd 54e9 fc3b 61d4 ddbd 4ab0 d23c
00000120: ffb7 a6bd 0047 0d3e 9bdb 683c baac aebd
00000130: c2fd 193e 8a69 5f3d e095 7dbd 7d43 09be
00000140: 6c53 b8bc 48b0 eebd d2ed 5e3d e7f5 023c
00000150: 45c2 74bd 19cc 5c3e ef0d e7bd 182f 2f3e
00000160: c80b be3d 5001 38bd e247 a03d 435d 93be
00000170: 79fa 4abd 244e ee3d 5d31 34be 61f5 4b3d
00000180: 6a0f e13d b138 d63d e7d9 13bd b3b3 c53d
00000190: 6128 f93d ea35 9dbd 2d28 093d d0d6 943d
000001a0: 0722 c03d 17d7 9d3d 1190 933c 3040 283d
000001b0: 09ba 3fbd d075 5a3e c424 24bc 7950 33bb
000001c0: 19bf 62bd a9b9 55bd 7a91 d03d 77d5 913d
000001d0: 9f61 fabd af47 97bc 67d1 943d ca88 1c3d
000001e0: f66d 0bbe 00d4 803d 1fd0 013e db89 eabd
000001f0: dc8f 61be 7450 0d3d b54a 083e 66d3 3c3d
00000200: 1ea3 b7bd 7ef9 403d 716a c8bb 4e36 7cbd
00000210: 054c 183e 8142 963c 7119 113c 847d e83b
00000220: cb6a 80bd b53c 343b bc63 9f3d 42ce 1e3d
00000230: 998b 6b3d 1448 893d 6731 d6bd d5a4 05bd
00000240: 8642 91bd 9914 d73d 1018 36be 262f 683d
00000250: 15dc 723d c261 073b c21f efbd b13e b9bd
00000260: 580f ebbc e5c5 213d a7cb 8abd 2f16 903b
00000270: a6cb 9abd 0c83 0ebe 48d8 203d 012d 043d
00000280: 034a 1b3d 2390 27be 51bb 7a3d aeba 003d
00000290: 3600 043e 358d 03be 92a2 01be 8172 9dbd
000002a0: f62a bf3d f6c2 e6bd e6df abbd 900b b13c
000002b0: 98a0 fabd 4f72 e7bc ca99 0cbc 5ec3 3f3e
000002c0: e284 aa3d 868b 033e b8de c73b 1d60 d1bd
000002d0: 5086 5dbd be45 fdbd 3a5a 123e f753 e7bb
000002e0: 7c81 363d 555a 29be 6d38 22be 7d6d 283d
000002f0: efc0 f93c a545 333c df53 e1bd 9d55 f03d
00000300: aaf5 663d 6b10 7c39 94fe b3bd 6e19 cb3d
00000310: 7f28 d4bd d31e 503d 0a04 0bbd 260b 9bbd
00000320: 718c 063e 20de f43d e5db 203b 6a9c 163d
00000330: a126 40bd 644d e7bd d612 02bc aefe 14bd
00000340: 0488 e03d 9db0 0cbb 82ab 8f3d 22f1 923d
00000350: 4347 04be c9f5 25bd a580 b8bd 8ca2 5dbb
00000360: 8d3e be3d 41f7 fbbd 5629 44bd a62f bebd
00000370: bc64 bd3b ac20 3cbe c122 c7bd 8be8 b2bd
00000380: e371 613d 18f6 993d 1235 60bd 0f51 db3d
00000390: f573 4b3e 2f87 47bc 09ce 923d f511 473d
000003a0: 114a af3d c1de c8bc 20d3 b5bd 1a49 afbd
000003b0: d102 6d3d a08f 74bd 72cb 013d a5a0 18bd
000003c0: 7817 1e3c 5f5f a13d 6bdd 3a3d f04d 24be
000003d0: 0120 72bd 3e02 bfbd 86c0 87bc f07d b9bd
000003e0: a497 4d3e c55c 6dbd 289d f6bc 1001 5b3d
000003f0: a1a3 df3d 7aa3 efbd 8600 3b3d bbb8 b8bd
