Unity Project/CSC 30014 Project/results/test/Car/Car-20198.pt (torch, 651359 bytes, 36 tensors)

network_body._body_endoder.seq_layers.0.weight f4 [128, 75]
00000000: 4be5 95bd 34a2 b1bd db5e 3cbd efbf ab3d
00000010: 4520 063e 1f81 143e 3b53 173d 618c ef3d
00000020: 531e 043e bdec 5d3e 6128 05bd 3537 363e
00000030: a5d0 643b d2f4 673e 15d5 59bd e936 023d
00000040: 737a c6bc a2c5 3ebd d5c1 543e 9af8 cf3d
00000050: c5e7 9dbe c972 d5bd 1642 abbd a6a3 4d3c
00000060: 0c66 053e c45f c4b9 56c1 c83d 00fd 1ebe
00000070: 5ef3 9d3d 4041 d7bc f201 7637 0c27 0b3d
00000080: 9e3d 2dbd 4eea 0ebd 3e25 bf3c da90 18bd
00000090: f90e c13d 07db 803d f585 213d de84 ebbd
000000a0: 75de bd3c 5554 ed3b 4d3c 57be 8a62 8c3d
000000b0: 17a7 7d3e 2ff3 853c 38b7 653d 0347 e7bd
000000c0: b15c 603e 9ce9 ac3d da3a f0bd 7375 7ebd
000000d0: 14b5 483e 7f12 21bd bfba d0bc 828b e6bc
000000e0: 324f d2bc ddd6 e93c 59b9 52bd 3fb7 ad3d
000000f0: accf 87bd c070 91bd c162 723d facc 343d
00000100: 73d5 ec3d 6612 6abe 3a2e 533e 7222 263e
00000110: fc8c b53d be29 963d 0689 16be 6f1c 073b
00000120: 0da4 30be ad8f 7dbb 9663 013d 8769 f83d
00000130: 751d 393e 0e5a fb3c b032 b93d 6f5e 1c3d
00000140: f76d e13c 7f8a 043e 88bd 263e 84f8 f43d
00000150: 307b 48bd f302 623d 0bf2 fc3d 8408 0abe
00000160: 92d8 11bd 18d2 7b3e 6ba6 90bd 5db9 d13d
00000170: 228f 023b 1e69 833c b0a4 06be bc1a 4a3e
00000180: 4739 293d bf0c 253c 21b7 08bd 4096 36bd
00000190: c845 c1bd e51c ed3d 3b8d 21be c936 23be
000001a0: cc15 fe3d b36b 36be e464 26bd e5f0 98bd
000001b0: 362b 39be 85bc be3b b6d6 ce3d dab4 c93d
000001c0: 21bb 82bd e407 b6bc 9eb2 243d 57bc ccbd
000001d0: 7e22 5f3d be06 0ebe 286c 6dbe bfa8 57bd
000001e0: 430e 0b3e f46e d43d 322c e13d b242 593d
000001f0: 43f1 ddbc 2d03 20bd 8e37 fc3b 4647 92bd
00000200: 247c 37be 24a8 873d 8633 0abe 0749 013e
00000210: 9947 bf3e 7c1b 673b 8356 dc3d 6ec8 3b3e
00000220: 599f 74bc 188a 96be b7df 80bc cbf3 303d
00000230: 4abe f13d 69d7 5e3e 5f0f 96bd ddac ee3d
00000240: 7a05 d1bd ddbe 373e acbe d63d 09f4 493e
00000250: 3cc0 253d 73e1 84be 5cf8 0d3e 5f97 333e
00000260: 421e 85bc d794 9cbc 58a2 acbe 2337 743c
00000270: f186 d4bd 7167 a53d a8fe 023c 6e0f 153e
00000280: 7c99 b4bd 09b4 11bd 66a1 c83b 5206 bebd
00000290: 8009 5cbe b07d a03d 934b 14bd 5aca 413d
000002a0: 1537 493d b791 3b3d 8537 603e 47c0 4cbe
000002b0: 1f5c 053d 7819 b1bc aa29 77bc 97cf 42bd
000002c0: 9821 043c 132a ddbb b3de 71bd e068 ed3b
000002d0: 43ab 39be 7b0d 233e ffb8 863d 4851 3abe
000002e0: ad1a f7bd 37fd 443e 9fe5 a63d 8c7d 643d
000002f0: a296 c0bd aa50 dc3b dcff 26bd 8188 af3d
00000300: f4ec f7bc dc7d 313e b580 2c3c 1690 393e
00000310: bdfe 323e dc00 f93d 3b05 743d cf80 aa3d
00000320: 0e2e 573e c4de 193e 46c3 56be 03a8 2f3e
00000330: 79b6 06bc 1cc7 02be e8bc 853e bb48 58bc
00000340: 4464 293e e241 3f3e 5907 37bd 7651 26bd
00000350: 2f4a b0bd 29e2 6dbc f8ab ddbd 695d c73d
00000360: ec70 923b 9e4b a13d 7211 c8bd 07c1 13bd
00000370: c22e 6fbd 8fe6 f2bc 806d 56bd 8cc8 27bc
00000380: 4501 08be d0b0 9bbd 3966 763d 8bd7 303d
00000390: d8c8 7b3e 8c2e 283e dbef 253d a4c5 08bc
000003a0: 2791 f7bd f1e8 073d f8af 0d3e 0066 da3d
000003b0: 9bff f1bd 4d64 57bd 377c 2ebc da37 6d3d
000003c0: 7ec2 f6bd 39b0 c43d 292a 2cbc b8ed 7ebe
000003d0: fce2 84be bbc9 b3bc 4e8a beba 06ce 3abe
000003e0: 74a9 d83d 5ffd d6bd ab2d 1abe d6fb 293e
000003f0: 69ac b93d d166 34be 8fdf d23d 3352 e53d
-0.07319125 -0.08673516 -0.0459889 0.08386218 0.13098247 0.14502381 0.03694461 0.11696697
0.12902193 0.2167234 -0.03250921 0.17794497 0.00349144 0.22651985 -0.053181726 0.031790648
-0.02422831 -0.046575196 0.20777066 0.10154839 -0.3084089 -0.10422284 -0.08362214 0.012551224
0.13027209 -0.00037455384 0.09802501 -0.155262 0.07712434 -0.02627623 1.46631955e-05 0.033972785
-0.04229509 -0.03489142 0.023333188 -0.037247516 0.09426684 0.06291776 0.039434392 -0.11499952
0.023177365 0.007242719 -0.21019097 0.06854732 0.24770771 0.01635131 0.056082934 -0.11292841
0.21910359 0.08442995 -0.11729975 -0.062123727 0.19600326 -0.03932428 -0.025479672 -0.028142694
-0.025672529 0.028544838 -0.051446293 0.08482217 -0.06631407 -0.071015835 0.05917621 0.044140793
0.1156415 -0.22858581 0.20623103 0.16224077 0.08864781 0.073321804 -0.14700708 0.0020616313
-0.1725008 -0.0038690374 0.031589113 0.12129503 0.18077643 0.03068259 0.09042871 0.038175996
0.027518256 0.12943457 0.16283238 0.11961463 -0.048945606 0.055178594 0.123508535 -0.13479811
-0.03560693 0.24591863 -0.07062992 0.10240433 0.001992174 0.016041335 -0.13148761 0.19736761
0.04131439 0.01007384 -0.03337777 -0.044576883 -0.09437138 0.11577777 -0.15776531 -0.15938868
0.12406501 -0.17814521 -0.04062356 -0.07467822 -0.1808289 0.005820813 0.100995466 0.09848948
-0.06383348 -0.02222056 0.040209405 -0.099968605 0.054476254 -0.1386976 -0.2318579 -0.052651163
0.13579659 0.10372725 0.10994758 0.05304212 -0.027092582 -0.03906553 0.0076970523 -0.071425006
-0.1791845 0.06623867 -0.13496217 0.12625514 0.37359312 0.0035264185 0.10758688 0.18338177
-0.01493057 -0.29402232 -0.015731676 0.04320125 0.11803873 0.2176186 -0.073271506 0.11654065
-0.10206123 0.17943902 0.104855865 0.19721998 0.040466532 -0.25953254 0.13864273 0.17538212
-0.01624978 -0.019113941 -0.33717608 0.014905724 -0.103773005 0.080763705 0.007995285 0.14556667
-0.08818337 -0.035572086 0.006122756 -0.09278549 -0.21487999 0.07836473 -0.036204886 0.047312118
0.049124796 0.04579326 0.21896179 -0.19995223 0.032558557 -0.02161859 -0.015085617 -0.047561254
0.00806465 -0.0067494004 -0.059050273 0.007245168 -0.18131737 0.15923111 0.06578254 -0.18195069
-0.12065635 0.19237219 0.081492655 0.055783793 -0.09403731 0.006723483 -0.04077135 0.08570958
-0.030264355 0.17333168 0.010528733 0.1812137 0.17479987 0.12158367 0.0595753 0.083253495
0.21013662 0.15026385 -0.20972928 0.17153935 -0.008222216 -0.12771267 0.26120687 -0.013200934
0.16542155 0.18677476 -0.04468474 -0.04060503 -0.086078994 -0.014519253 -0.10823816 0.097346134
0.0044690277 0.07875751 -0.097689524 -0.036072757 -0.0583942 -0.029650955 -0.05235052 -0.010240685
-0.13281734 -0.07602084 0.06015608 0.043174308 0.24588335 0.16424006 0.040511947 -0.008347902
-0.120882325 0.033181135 0.13836658 0.10663986 -0.11816331 -0.05258589 -0.010649732 0.057914592
-0.12048815 0.09603924 -0.010508099 -0.2489537 -0.25954425 -0.021946779 -0.0014537068 -0.18242654
0.105791956 -0.104975455 -0.15056483 0.16599974 0.09066088 -0.17617346 0.10296547 0.11197319

network_body._body_endoder.seq_layers.0.bias f4 [128]
00000000: 7dff 93b9 1233 cd37 3838 063a 4dd3 38ba
00000010: c3a5 4937 2d89 9e39 c01f b1b9 0158 abb7
00000020: 34b8 3bb8 0af7 ae37 6c5f 3f38 1b59 26b9
00000030: 29f2 0cba 8d27 01ba 47a5 e637 b5d6 cbb9
00000040: 7ad9 b4b9 4abb 9fb9 55ab 6cb9 b03b 05b6
00000050: 1bfd 74b9 5216 1bba e4ad a237 3199 e2ba
00000060: efe9 33b9 14e7 3739 7bf0 29b9 a67f 5cb8
00000070: 0a15 6dba 27e4 64b9 ffc3 f5b9 6387 bf38
00000080: aeaf d1b9 ee76 bab9 8949 5eb9 ac93 15ba
00000090: c98a b9b9 a9e6 33b9 7446 0fba e636 3eba
000000a0: 4593 da38 6b83 1fba e46a 8fb9 a26c 09b9
000000b0: 1ff6 70b9 0f82 553a 7a88 9bb8 2398 5eb9
000000c0: ad33 b139 a75f 9139 dae1 65b9 5914 9a39
000000d0: ac4f 1dba e609 16b6 0d1d abb8 57ce f5b9
000000e0: 604e 4dba a899 89b9 7c9c 43ba c872 89b8
000000f0: f4e9 7939 1d8b 14ba 8ec2 deba bbb9 8ab9
00000100: 5f67 eeb7 35d9 073a 6e99 96ba 7b73 15ba
00000110: 57c2 273b 79c0 5639 70c1 e938 af5b 4339
00000120: 44f8 8536 43c3 08ba 6456 13b9 1ae7 65b8
00000130: 7be6 81b9 12ee aeb9 557f dbb9 54e4 2c3a
00000140: d0e1 e3b9 c7dc 71b9 b9be 19ba 9c65 ac38
00000150: 6b85 fc38 8630 7fb9 0c7c 12ba e139 e239
00000160: d3d2 9e39 5d34 43ba dfa9 a3b8 535f fd38
00000170: d6c6 e7b9 6704 1f38 bf1c 33b8 5390 82b9
00000180: 5d9a d9b9 4206 3dba d4da f7b8 ff40 37b8
00000190: dccb fe39 2a6d ca38 66e5 8739 ce19 03ba
000001a0: 0b1f 08b8 6a11 0e39 b94d 0bb9 1a27 2b3a
000001b0: eacb a9b9 8b0d 98b9 ba20 f239 6e43 d5b9
000001c0: 6ba7 0d37 7588 8ab8 d2bd 2038 e42c e2b7
000001d0: 91ad c2b9 ac4d c5b9 96df 55b9 0063 39ba
000001e0: 378f 01b9 dc20 8eba 885c c6b9 93ee 9b39
000001f0: 5672 83b7 f766 ee38 dd9f 7e3a f514 9339
-0.00028228379 2.4461686e-05 0.00051200716 -0.0007050529 1.2019128e-05 0.00030238312 -0.00033783726 -2.0425769e-05
-4.4755827e-05 2.0857453e-05 4.5626817e-05 -0.00015864188 -0.0005376661 -0.0004926853 2.74951e-05 -0.00038879146
-0.00034494308 -0.00030466384 -0.0002257054 -1.9853287e-06 -0.00023363942 -0.0005916107 1.9392879e-05 -0.0017288086
-0.00017157917 0.00017538323 -0.00016206682 -5.257097e-05 -0.00090439676 -0.00021828768 -0.0004687607 9.1328075e-05
-0.00039994478 -0.00035565294 -0.00021198964 -0.0005705904 -0.00035389353 -0.00017156698 -0.00054655154 -0.00072561053
0.00010422481 -0.00060849515 -0.00027354725 -0.00013105807 -0.00022979871 0.00081446854 -7.416397e-05 -0.00021228245
0.00033798572 0.00027727822 -0.00021923278 0.0002938833 -0.0006000947 -2.2357503e-06 -8.1593265e-05 -0.00046883777
-0.0007831808 -0.0002624516 -0.00074619777 -6.554049e-05 0.00023833645 -0.00056664814 -0.0016995238 -0.0002645979
-2.8419947e-05 0.00051822077 -0.0011489817 -0.0005701107 0.0025598013 0.00020480332 0.00011146336 0.00018630804
3.992611e-06 -0.00052170845 -0.00014051195 -5.4813085e-05 -0.0002477652 -0.00033365242 -0.00041865805 0.0006595303
-0.00043465057 -0.00023065797 -0.00058649067 8.220525e-05 0.000120411474 -0.00024336771 -0.00055879424 0.00043149202
0.00030293185 -0.00074464624 -7.8040866e-05 0.000120817356 -0.00044207898 3.7912654e-05 -4.2703698e-05 -0.00024903062
-0.00041504475 -0.00072107103 -0.00011818638 -4.3691132e-05 0.00048598542 9.652444e-05 0.00025920122 -0.00050010986
-3.2453838e-05 0.00013548663 -0.00013285027 0.0006528959 -0.0003238612 -0.0002900179 0.0004618222 -0.00040676765
8.443235e-06 -6.60577e-05 3.8323757e-05 -2.6962203e-05 -0.0003713188 -0.00037632638 -0.00020396555 -0.0007071942
-0.0001235575 -0.0010843533 -0.00037834444 0.00029741655 -1.5669659e-05 0.00011367903 0.00097131525 0.0002805364

network_body._body_endoder.seq_layers.2.weight f4 [128, 128]
00000000: c55b 5bbc 232b 7c3c e8b1 3e3d f9eb 6abd
00000010: e84f 0fbd ec5f c3bd 4770 893d e78c 0fbe
00000020: e324 823c 4964 51be 8fc0 ecbc e55b 8a3d
00000030: d9d9 a3bd 61c8 e93d 077c 77bd 0e02 24bd
00000040: 707c 3a3d 0806 8dbd bff9 5bbd 3a82 9b3d
00000050: e32a fb3d fdeb 07bd c302 05be 342a 203d
00000060: f704 b3bc 8a26 16be d513 dc3d 516b 263d
00000070: f78f eb3c 62b2 0c3e 49e4 db3d f65b 8b3d
00000080: e655 043c 6304 e0bd 151d b2bc 18fd 68bc
00000090: 66c0 b1bb 1601 cfbd 8da0 e93d c0d7 9c3d
000000a0: c161 0bbd e775 f5bd fedd 8d3d cb77 653c
000000b0: b30c 2dbe 4cc1 543d 0fae 16bd b38d ee3c
000000c0: 67a5 38bc c80a fa3b 1187 c1bd 9831 f23d
000000d0: 51a6 bf3c 0ccb 83bd aad1 09bd ddbe 36ba
000000e0: 6f08 11be a6af 4b3c 7576 743d ac6c 083c
000000f0: bd8a f73b cc15 bb3c 68f3 33be 4fc5 233d
00000100: 1a6b 013c ccc4 b0bd 17bc 613b 5165 013d
00000110: 3f7f bbbd 7673 ea3c e31b c2bd 821f f13c
00000120: ba5d eb3c 2815 ebbd c9af acbd 5cf1 c93d
00000130: 8141 13bc 237d a9bb 9d7c 933c 6319 1d3e
00000140: 4f3b c33d 5235 293e 1781 2cbd 3b39 84bd
00000150: 4097 cebd 2b44 013d 2ee2 2bbd 40e1 153e
00000160: 7603 953d cb4b ca3d 0cf2 b43d dab6 50bc
00000170: 62ec da3c 40bd 9e3d dc58 46be f4f6 31be
00000180: 000e f4bd 3042 e23d b8c0 4a3d 5acc 163e
00000190: 78b5 14be e791 81bd 560a 73be dbde f0bb
000001a0: 91c4 91bc 2583 263d af0a 3cbe dff4 22be
000001b0: 0766 d1bd 95f7 0e3e ece3 8f3c 6e7d 20be
000001c0: 0be5 49bd e7f7 9d3d 8af1 b73d e9b9 d9bd
000001d0: 0333 cdbd 04de e23d 2cef 85bd fe39 3bbd
000001e0: 4362 373d cbeb 853d 6edb 873d a3b0 8dbc
000001f0: a4c9 6a3d ef5d 1d3c 6a0f 15be 31ea 98bd
00000200: f981 cd3d dc96 eabc e711 87bd 902b 20be
00000210: d333 903d 59d2 f5bd 9f15 2bbd 6ca1 b1bd
00000220: c26e 953d 3c33 da3d 2393 073d 6942 f83b
00000230: 5a95 1cbd a0cd 603e 750a 31bd eb66 29be
00000240: e998 e93b acf1 9a3d 9991 143e eabb 683d
00000250: 1655 04bd c8a4 fcb9 9640 e13d a878 b1bd
00000260: 76a7 5abd 6279 5bbd c3b7 b9bd 9800 d7bc
00000270: cb4e 8dbd 070a 97bd bded 87bb 1be3 243e
00000280: f32e f33a 8aa4 0fbd 6164 063e 9290 9cbd
00000290: 5167 873d a69c 3fbe 278a 95bb 472e 123e
000002a0: bc10 efbd dbe8 30be eb97 0b3e a776 703b
000002b0: 378a b23d fc48 14bd a937 753e d0ae e5bb
000002c0: 7938 d2bd b7d8 bebc 8fd9 fc3b 105a dd3d
000002d0: f05b 3ebc ffda 453c deb0 81bc f171 de3d
000002e0: 9304 e73d 1b91 9dbd 127d 843d a2e8 e93d
000002f0: 7d9a 3abd 0215 ba3c f02b 2f3e 8c22 be3d
00000300: 6d65 d43c b7f1 e23d 2bac 773b 9a10 5cbe
00000310: 073c 27bd 4ba5 d4bd a146 24bd bb45 56bd
00000320: d388 953d 3f7f 033e 281e 2b3e 06ad 593d
00000330: b8c6 613d aa9a e1bc e450 edbd 5e80 eb3c
00000340: d3df 81bd 8bd9 623d 04aa 50bc 9bbe 1dbe
00000350: 380b 03bd bb0b 7e3d 4051 05bb b04c 183a
00000360: cac5 c6bd b5a9 db3d 1ad9 0b3e fbf8 b43d
00000370: fe8e d43d 5498 e2bd 65f4 7f3c 5f05 353d
00000380: bf7e 06be 2401 b03d a460 3dbd 316b 3eba
00000390: ea88 b9bc b434 2c3e 2218 123e a936 d13a
000003a0: d365 84bc 158d 303c 5665 ba3d d705 37bd
000003b0: c70a 113d 262c f83d 28dc 25be c8b8 b73b
000003c0: 43ce a6bd 8145 e03d 814e fbbd 8b0c 933d
000003d0: a83c 6b3d 3257 cfbb 8316 97bc 4b74 363e
000003e0: e1fc 183a 16f2 d53d 10f0 a4bd b1b4 06bc
000003f0: 4af5 7f3d 5dd9 8c3c b359 90bd f084 053b
-0.013388579 0.015391144 0.046556383 -0.057353947 -0.034988314 -0.0953978 0.06710868 -0.14018594
0.01588673 -0.20448412 -0.028900413 0.06755809 -0.080005355 0.11415172 -0.060421016 -0.040041022
0.04552883 -0.06885916 -0.053704973 0.07593198 0.12264039 -0.03318404 -0.12989335 0.039102748
-0.021852953 -0.14663139 0.1074597 0.04062969 0.028755171 0.13739923 0.10736901 0.068046495
0.00807712 -0.10938337 -0.021742383 -0.0142204985 -0.005424547 -0.10107629 0.11407576 0.076583385
-0.034028772 -0.11985379 0.06927107 0.014005612 -0.16899376 0.051942155 -0.03678709 0.029120302
-0.011269904 0.0076306798 -0.0944959 0.118258655 0.023394736 -0.064352125 -0.033647217 -0.000697119
-0.14163373 0.012432015 0.059683282 0.008326691 0.0075543807 0.022837542 -0.17573321 0.03998309
0.00789907 -0.08631286 0.0034444386 0.031590763 -0.0915513 0.02861951 -0.09477975 0.02943397
0.028731216 -0.114786446 -0.08431966 0.09860489 -0.008987785 -0.005172388 0.018003756 0.15341716
0.095327966 0.16524246 -0.042115297 -0.06456228 -0.100874424 0.03155915 -0.04196375 0.14636707
0.07276051 0.098777376 0.08835229 -0.012738908 0.026724044 0.0775094 -0.19369835 -0.17379361
-0.11916733 0.110477805 0.049500197 0.14726391 -0.1452235 -0.06326657 -0.23734412 -0.007350785
-0.017793925 0.040652413 -0.1836345 -0.15913723 -0.10224538 0.13961633 0.017564736 -0.15672848
-0.049290698 0.07713299 0.08981617 -0.10631163 -0.10019495 0.11077502 -0.06539759 -0.045709603
0.044771444 0.065391146 0.0663365 -0.017296141 0.057321206 0.009604915 -0.14556661 -0.074665435
0.10034556 -0.028636388 -0.065952115 -0.15641618 0.07041135 -0.12003011 -0.041768666 -0.08673367
0.07296516 0.106543034 0.033099305 0.007576276 -0.03822837 0.2195344 -0.043222863 -0.16543166
0.007128824 0.075656265 0.14508666 0.056819834 -0.032307707 -0.00048187957 0.10998647 -0.086655915
-0.05338236 -0.053582557 -0.09068253 -0.0262454 -0.06899794 -0.073749594 -0.0041482137 0.16102259
0.0018553421 -0.035069026 0.13124229 -0.07644762 0.06611503 -0.187121 -0.004563588 0.14275466
-0.11673114 -0.17276327 0.13632171 0.0036691816 0.08717769 -0.036202416 0.23947014 -0.0070093647
-0.102646776 -0.023296697 0.0077163647 0.10808194 -0.011618599 0.0120761385 -0.015831407 0.10861576
0.11280169 -0.07693692 0.06469168 0.11421324 -0.045557488 0.022715095 0.17106605 0.09283933
0.02592727 0.1108126 0.003779183 -0.21490708 -0.04082873 -0.1038309 -0.04010642 -0.052312594
0.07301488 0.1284151 0.16710722 0.053143524 0.055121154 -0.02753957 -0.11587694 0.028747734
-0.06341519 0.055383246 -0.012735847 -0.15404741 -0.03199312 0.062022906 -0.0020342618 0.0005809767
-0.09705694 0.107257284 0.13657036 0.08836552 0.10378836 -0.110642105 0.015622233 0.044194575
-0.13134287 0.085939676 -0.04623474 -0.00072638976 -0.022648294 0.1681698 0.14267018 0.0015961725
-0.016161835 0.010775824 0.091013595 -0.044683304 0.03541067 0.12117796 -0.16197264 0.0056067444
-0.0814481 0.10950757 -0.12270833 0.07180127 0.057430893 -0.006327533 -0.018443352 0.178178
0.0005836022 0.10446565 -0.08053601 -0.008221791 0.062489785 0.01719349 -0.07048359 0.0020373426

network_body._body_endoder.seq_layers.2.bias f4 [128]
00000000: 822b 0938 a507 7cb9 f727 403a 7f16 d33a
00000010: 1bfd 12b9 3db1 5a39 c9aa 3ab9 cc35 41ba
00000020: d1cc b2b9 54c3 acb9 5bf8 fe38 d24a c6b7
00000030: 617c a6b9 d891 15b9 e39a a939 d840 8cb9
00000040: 0395 9139 0643 6fb8 e708 48ba 526a 57ba
00000050: d20c 9e3a 9545 1eba e7d1 98b9 dff9 9eb9
00000060: c1eb ceb9 5e74 91b9 9578 d7b9 950c 8a39
00000070: 3a1a d6b7 d084 adb9 b79c eab9 8b31 dbb9
00000080: efbb 50b9 ffb6 43ba 0323 9fb9 df00 d438
00000090: e2b8 5b37 5344 8ab9 2995 9cb9 9460 c0b8
000000a0: b11e d138 b5c3 e3b8 8af2 e9b9 041d bf3a
000000b0: 4614 88b9 b0f0 5db9 054a a4b9 8d89 5739
000000c0: 268c c339 0ab7 8338 15d2 1cba 7994 3db8
000000d0: 9f44 7138 3919 d3b9 42f7 1839 3510 22b8
000000e0: 936e a1b8 03a6 973a 0e8f 14ba a83b 2fba
000000f0: a631 05ba d25b c5ba 3e58 bab9 293c 09ba
00000100: 15ca 61ba 2834 1138 6a1b 1e39 38c9 243a
00000110: 3cdf a8b9 a885 833a f745 56b9 7a4c e9b9
00000120: 36f7 5239 4897 b3b9 e76e a0b9 5989 bfb9
00000130: 0b91 da38 be5f 5dba 15b1 19ba 2fc0 47ba
00000140: 237e 06ba f8c9 e237 2d33 3fb9 5052 f7b9
00000150: 1660 8539 3a4e 7039 7cee c937 b0ab 7e37
00000160: 55c3 7638 1c53 81b9 9940 dab9 0b8e 3839
00000170: 1db8 64b9 60ea 4aba 83da 6938 8e03 6e39
00000180: 12a7 38b9 e0e6 5138 b254 2eb9 8d37 8cb9
00000190: 2d40 bdb9 6bbd bab9 b625 5139 7f01 6638
000001a0: cba6 83ba a0b1 b5b9 f7d6 063a 696b bdb8
000001b0: 2a3e 78b9 21aa 9338 50e0 9239 f9d3 23ba
000001c0: e1a8 01ba 9cae 7439 3949 d639 e707 e8b9
000001d0: f3e3 06ba 6238 1138 a9d7 ac3a aa91 e339
000001e0: 7553 8bb9 5b5a 0bba de02 1939 1210 d7b9
000001f0: f579 bab9 1bda bab9 fce0 c4b9 38fa 32ba
3.2703865e-05 -0.0002403544 0.0007330174 0.0016104727 -0.00014017934 0.00020856127 -0.00017801965 -0.0007370382
-0.00034103406 -0.00032951927 0.000121579236 -2.363828e-05 -0.00031754657 -0.00014264078 0.00032349591 -0.00026751193
0.00027767578 -5.704446e-05 -0.0007630721 -0.0008217442 0.0012058264 -0.000603759 -0.0002914809 -0.00030322277
-0.00039467032 -0.00027743255 -0.00041097836 0.00026330785 -2.5523e-05 -0.00033096084 -0.0004474872 -0.00041807847
-0.00019906437 -0.0007465928 -0.0003035293 0.0001010911 1.3096464e-05 -0.00026372317 -0.00029865772 -9.1732625e-05
9.971613e-05 -0.00010860657 -0.0004462193 0.0014580791 -0.00025955046 -0.00021165865 -0.00031335666 0.0002055524
0.00037297717 6.2806605e-05 -0.00059822324 -4.5199387e-05 5.7522786e-05 -0.00040263848 0.0001458796 -3.8638904e-05
-7.697674e-05 0.0011569861 -0.0005667069 -0.00066846097 -0.00050809456 -0.0015057272 -0.0003554243 -0.00052351
-0.00086131814 3.461927e-05 0.00015078267 0.00062860874 -0.0003220978 0.001003434 -0.00020434694 -0.00044498203
0.00020119254 -0.00034254254 -0.00030600207 -0.0003653269 0.000104220664 -0.00084447477 -0.0005862874 -0.0007619885
-0.000513049 2.7035348e-05 -0.00018234244 -0.0004717284 0.00025439326 0.00022917325 2.407212e-05 1.5179554e-05
5.8832888e-05 -0.0002466672 -0.0004162833 0.00017600523 -0.00021812362 -0.0007740613 5.5755034e-05 0.00022698773
-0.00017609846 5.0044502e-05 -0.00016625485 -0.0002674427 -0.00036096704 -0.00035617812 0.00019945842 5.4837667e-05
-0.0010044215 -0.0003465535 0.00051437266 -9.032229e-05 -0.00023674281 7.041195e-05 0.00028014416 -0.0006249543
-0.00049461244 0.000233347 0.00040871816 -0.00044256376 -0.00051456614 3.4623205e-05 0.001318683 0.00043405342
-0.00026574326 -0.0005315893 0.00014592285 -0.0004101997 -0.0003556755 -0.00035639186 -0.0003755166 -0.00068274466

action_model._continuous_distribution.log_sigma f4 [1, 2]
00000000: 32cb bdba df6f 68bb
-0.0014480113 -0.003546707

action_model._continuous_distribution.mu.weight f4 [2, 128]
00000000: 13b3 c2bc d749 02bd c712 f1bc 070a 6b3c
00000010: 5173 4cbc 819d dc3c e14f a93b f150 023c
00000020: 7b9a 413a e1e4 bfbc 6110 0dbc caf6 73bb
00000030: 9495 49bc b6ae 04bd 1a86 803b eb6e 833c
00000040: a0c0 8eba 9968 1c3c d0ca a53b 0f17 ec3a
00000050: ccf0 9e3b 41dd b8bc 0d6a 253c 479c 63bc
00000060: 0f08 683c 57fa 47bc b5de 893a 33b5 533c
00000070: 08e1 f7bb a38a c2bb 4467 df3a c76f 073d
00000080: 3989 21bc c3eb 663b 0e33 2fbc ba0b 703c
00000090: eb5d 03bc 0a63 40bc 5352 d6bc 94a5 013c
000000a0: d390 453c 9169 86bc 4081 cebc 8685 f7bb
000000b0: 1a81 20bc 702e a23c ccbd aa3c 913b 963c
000000c0: 7e72 00bc ebbd 273c d42f a13b 0e81 f0bc
000000d0: bd71 8ab9 1c2e 8dbc 5653 f1bb 1954 1b3c
000000e0: df3e 5abc 9db5 0cbd 8b91 213c 59c7 0c3c
000000f0: a3a8 05bc 0fac 383a d36a 95bc 79c5 583c
00000100: 22e4 fb3c 34de 693c 3e6f 613c 4cc6 663c
00000110: d04e 3abd 5784 0c3b 23fc a6bb e0de 61bb
00000120: 8aa6 e8bb 9e49 1cbc 02c9 f73a 9df0 a93c
00000130: 29ba 4abd 54f8 e8bb 60dc 853b fa1d 583b
00000140: c0e7 7dbb 8f57 673b 2961 223c 6e86 ce3c
00000150: 28b2 f7bb dff3 0a3d df70 2d3c 5634 b83c
00000160: dac0 673c e826 82bc 20d7 03bb 2355 183c
00000170: ebb9 123b 8c4b a0bc 8237 65bb 46fe a5bb
00000180: 03aa c23b 1dde 8fbc e092 32bb 2f46 debb
00000190: 8751 a23b 5395 1f3c a51e ac3c 3039 9c3c
000001a0: 71aa eebc 16b0 523c 29aa 29bc 5b03 efba
000001b0: 82c8 b7bc 4c36 99bb c2f6 f33c 5673 e8bb
000001c0: a333 8a3c 0ee2 2e3c f0b6 e23c ec93 3bbc
000001d0: bb1c 41bc 1680 583b 23f3 663c f41d 643c
000001e0: 8d0f 883b 9b27 adbc 77eb 943c 0f14 b1bc
000001f0: ce5e 703c 8044 02bb 59d8 cf3c 886c a3bb
00000200: 72c6 21bb 8170 60bc bedb 0fbd 86d3 96bb
00000210: 9482 363b 966e fbbc 4343 f33a 00a6 aebc
00000220: 9708 2cbd cb07 81bc fe3f 503c ab96 3b3d
00000230: 01d9 7cbb aef5 7bbc cfa0 3cbc 8003 a939
00000240: 41ed 97bb 2ede c5ba f833 f9bb 915e 7b3b
00000250: 924e 3bba 4f20 a03c d70a af3c 5bb6 6abb
00000260: 1d61 08bc dd40 1abb 1982 b13c e78e b4bc
00000270: 0692 8bbc 99b8 63bd 532b 0f3c 4aff 8dbb
00000280: 0e6f c3bc b2a4 36bb 856c cf38 6787 37bc
00000290: abed 423c 1459 f239 8645 75bc 2e40 8b3a
000002a0: a6f1 5f3b 524b 753b 76d0 3a3c 2497 8a3b
000002b0: 4aad c03b 0a87 e4bb 8fe8 763b 45a2 393c
000002c0: c891 f6bb dcad 493c 243a 21bc e63a 17bc
000002d0: 7646 a33c cff7 1ebc 0e47 ce3b 593e 0ebc
000002e0: d0ab c83b 0e3c debc 5482 bcbc 15e7 58bc
000002f0: e64d 843b f0d3 f03a f286 d73b 0304 923c
00000300: fd2d fabc 830c a03b fa31 533c a929 56bc
00000310: b32e 463c 612a 3cba fbc8 33bd 86cb ecbb
00000320: 8cd5 133d b448 31bb 37da f4bc 02e6 58bc
00000330: 1472 1abd 12c4 d33b 1884 d63b 8900 8c3b
00000340: 1405 d93c f146 92bb 5d9a e13c 1128 bfbc
00000350: 370a 4e3c 3f75 ea3c 9e63 363b 7479 be3b
00000360: 765d 323b b120 32ba b0a1 e73c f5c9 553b
00000370: be88 483c 613c 393a cb2f 0f3c e13f d6bc
00000380: f7e8 aa3c 6bac 0dbb 2d5f 293b e6c9 04bd
00000390: f6b6 ebba 10b6 8dba ac69 f7bc 409c a93b
000003a0: d3fd b43b 6fb9 c5bb e8d8 e5bb e789 c23b
000003b0: 8479 05bd b7b0 a53c 323b 9dbb ec52 e33c
000003c0: 477b c0bc f29f 133c 7a92 dfbc eac5 cbbb
000003d0: dada 823b 79f2 69bb 43d8 87bc 13ac 0cbd
000003e0: bd2b 5d3c df0a bbbc 207a 4a3c 6810 efbc
000003f0: ebe0 c7bb cbe9 e0bb 5032 1c3d 4802 553b
-0.02376703 -0.0318087 -0.029427899 0.014345652 -0.012478665 0.026930572 0.005166993 0.007953868
0.0007385385 -0.023424568 -0.008609862 -0.0037225955 -0.012303729 -0.03239318 0.003922236 0.0160441
-0.0010891147 0.009546422 0.0050595775 0.0018012243 0.0048504826 -0.02256644 0.010096085 -0.01389224
0.014162078 -0.012205682 0.0010518642 0.012921619 -0.0075646676 -0.005936937 0.0017044325 0.033065584
-0.009859377 0.003523574 -0.010693325 0.014651233 -0.008017997 -0.011742363 -0.026162302 0.007913012
0.012058455 -0.01640776 -0.025208116 -0.007553759 -0.009796405 0.019797534 0.020842455 0.01833895
-0.007839797 0.010238151 0.0049190316 -0.029358413 -0.00026406153 -0.0172339 -0.0073646707 0.0094805
-0.013320654 -0.034352887 0.00986136 0.00859245 -0.008157882 0.00070446817 -0.018239414 0.013230675
0.03074843 0.014274169 0.013759432 0.014085364 -0.045485318 0.0021441185 -0.005095975 -0.003446512
-0.007099931 -0.009539036 0.001890451 0.020744616 -0.049493942 -0.007109681 0.0040851086 0.0032976852
-0.003874287 0.0035299992 0.00991086 0.025210585 -0.0075590797 0.03392398 0.010585993 0.022485893
0.0141451005 -0.015887693 -0.0020117238 0.009297642 0.0022388648 -0.019567274 -0.0034975712 -0.005065712
0.005940677 -0.017561967 -0.002724819 -0.006783269 0.0049535665 0.0097401915 0.021010706 0.019070238
-0.029134007 0.012859365 -0.010355511 -0.0018235253 -0.022434477 -0.004675662 0.02978075 -0.0070938272
0.016870325 0.010674013 0.027675122 -0.011448842 -0.011786635 0.003303533 0.014096054 0.013923157
0.0041522444 -0.02113705 0.018178685 -0.02161601 0.014671041 -0.0019877255 0.025371717 -0.004987303
-0.0024684933 -0.013698698 -0.03512167 -0.0046028523 0.0027848827 -0.03069238 0.0018559474 -0.02131939
-0.04200038 -0.015750786 0.012710569 0.045797985 -0.0038581493 -0.015378399 -0.011512949 0.000322368
-0.004636437 -0.0015096122 -0.007605072 0.0038355927 -0.0007145192 0.019546656 0.021367474 -0.0035814259
-0.008323935 -0.0023537197 0.02166848 -0.022040797 -0.017037403 -0.055595968 0.008738357 -0.0043334113
-0.023856666 -0.0027869162 9.8907425e-05 -0.011201716 0.011897485 0.00046224205 -0.014970189 0.0010623985
0.0034171133 0.0037428928 0.01140224 0.004229443 0.0058800327 -0.0069741057 0.0037675237 0.011330192
-0.0075247027 0.012309518 -0.009840522 -0.009230351 0.01993106 -0.009702637 0.0062950915 -0.008681857
0.0061239973 -0.027128246 -0.023011364 -0.013238688 0.0040376065 0.0018373709 0.006577366 0.017824179
-0.030539507 0.004884304 0.012890333 -0.013071456 0.012096095 -0.0007177946 -0.04389284 -0.0072264103
0.036092326 -0.002705139 -0.02988921 -0.013238432 -0.03770645 0.0064625824 0.0065465085 0.0042725247
0.02649168 -0.0044640233 0.027539426 -0.023334535 0.012575678 0.02862036 0.0027830373 0.005812818
0.0027216352 -0.00067950325 0.02827534 0.0032621596 0.012239633 0.0007066187 0.008739422 -0.026153507
0.02086304 -0.0021617662 0.0025844083 -0.032419108 -0.0017983604 -0.0010811705 -0.030201755 0.005176097
0.0055234223 -0.0060340683 -0.0070143826 0.0059368494 -0.03258659 0.020225866 -0.0047983164 0.027749501
-0.023496283 0.009010302 -0.027291525 -0.0062186616 0.0039933743 -0.0035697503 -0.016582614 -0.03434379
0.013499198 -0.022832332 0.012358218 -0.029182628 -0.0060998104 -0.006863808 0.03813392 0.003250258

action_model._continuous_distribution.mu.bias f4 [2]
00000000: 28b2 0d39 dcae 2f39
0.00013513176 0.00016754441

exp_avg f4 [128, 75]
00000000: 0000 0000 c8e4 d635 0000 0000 9e56 1b35
00000010: 0000 0000 8eb2 1635 0000 0000 184d a834
00000020: 0000 0000 4447 a634 0000 0000 049e 8034
00000030: 0000 0000 6573 7f34 0000 0000 e753 6d34
00000040: 0000 0000 df7a 6c34 0000 0000 143a 8034
00000050: 0000 0000 e52e 8034 0000 0000 1be2 a634
00000060: 0000 0000 6eb4 a734 0000 0000 8dd2 4535
00000070: 0000 0000 d3f1 1a35 0000 0000 b558 3635
00000080: 0000 0000 b558 3635 2225 a7b3 5eec 3436
00000090: 3235 98b5 b664 3b32 7f27 1cb2 d0b7 dcaf
000000a0: db03 9c36 1825 1534 1880 9633 e9ff b4b5
000000b0: 6306 a733 5080 3d34 d8a4 cf33 0000 0000
000000c0: b6fe 1b37 0000 0000 0000 0000 0000 0000
000000d0: 0000 0000 b6fe 9b36 0000 0000 b6fe 1b37
000000e0: 5ffe 4238 0000 0000 0000 0000 0000 0000
000000f0: b6fe 9b36 0000 0000 b6fe 1b37 5ffe c238
00000100: 0000 0000 0000 0000 0000 0000 b6fe 9b36
00000110: 0000 0000 b6fe 1b37 c83e 1239 0000 0000
00000120: 0000 0000 0000 0000 b6fe 9b36 0000 0000
00000130: d81b 0eb6 0000 0000 79c3 02b5 0000 0000
00000140: 6825 66b5 0000 0000 2582 b1b4 0000 0000
00000150: c7cc e2b4 0000 0000 5d63 91b4 0000 0000
00000160: 51ac a2b4 0000 0000 f25c 8cb4 0000 0000
00000170: dbf3 90b4 0000 0000 05f5 9eb4 0000 0000
00000180: aa36 95b4 0000 0000 a6fb dab4 0000 0000
00000190: ef6b b5b4 0000 0000 b62c 51b5 0000 0000
000001a0: 8b90 08b5 0000 0000 20f5 4bb5 0000 0000
000001b0: 20f5 4bb5 399e 32b5 6925 5ab6 3af9 5c37
000001c0: e32c 87b3 0be0 a0b4 eb2d 9cb2 eeee bbb6
000001d0: f09e 2db6 4c6f c634 344f 1fb7 23c9 ba35
000001e0: 1ec8 1bb6 6920 33b6 0000 0000 93ff 3bb7
000001f0: 0000 0000 0000 0000 0000 0000 0000 0000
00000200: 93ff bbb6 0000 0000 93ff 3bb7 7eff 6ab8
00000210: 0000 0000 0000 0000 0000 0000 93ff bbb6
00000220: 0000 0000 93ff 3bb7 7eff eab8 0000 0000
00000230: 0000 0000 0000 0000 93ff bbb6 0000 0000
00000240: 93ff 3bb7 873f 30b9 0000 0000 0000 0000
00000250: 0000 0000 93ff bbb6 0000 0000 e8e1 e336
00000260: 0000 0000 8b37 2a36 0000 0000 3cc5 1936
00000270: 0000 0000 e9d1 b535 0000 0000 ea30 ae35
00000280: 0000 0000 1f11 8a35 0000 0000 3206 8735
00000290: 0000 0000 0b8f 7d35 0000 0000 7248 7b35
000002a0: 0000 0000 b944 8835 0000 0000 f9f1 8835
000002b0: 0000 0000 c0ef af35 0000 0000 7263 b435
000002c0: 0000 0000 4fd4 5236 0000 0000 9e0e 2936
000002d0: 0000 0000 7638 4136 0000 0000 7638 4136
000002e0: dc08 57b5 df9a 4037 e01c 05b7 394e 5833
000002f0: 8840 2db4 7466 bdb1 3157 a637 d65b 7d34
00000300: 7b5b c934 9d55 46b7 b9c6 4335 396e 2635
00000310: 4f4b 5fb2 0000 0000 cd4b 2638 0000 0000
00000320: 0000 0000 0000 0000 0000 0000 cd4b a637
00000330: 0000 0000 cd4b 2638 bdde 4f39 0000 0000
00000340: 0000 0000 0000 0000 cd4b a637 0000 0000
00000350: cd4b 2638 bdde cf39 0000 0000 0000 0000
00000360: 0000 0000 cd4b a637 0000 0000 cd4b 2638
00000370: 0ee7 1b3a 0000 0000 0000 0000 0000 0000
00000380: cd4b a637 0000 0000 8c8f cb33 0000 0000
00000390: 99cb 1233 0000 0000 64b2 0f33 0000 0000
000003a0: 3a0f 9f32 0000 0000 feb8 9d32 0000 0000
000003b0: ad3b 7332 0000 0000 2210 7232 0000 0000
000003c0: 9282 6032 0000 0000 13f0 5f32 0000 0000
000003d0: 5bbb 7232 0000 0000 45a8 7232 0000 0000
000003e0: d221 9e32 0000 0000 c4a8 9e32 0000 0000
000003f0: ceed 3b33 0000 0000 9687 1233 0000 0000
0.0 1.6010827e-06 0.0 5.7868044e-07 0.0 5.6139186e-07 0.0 3.1348532e-07
0.0 3.0971762e-07 0.0 2.395683e-07 0.0 2.3790706e-07 0.0 2.2102869e-07
0.0 2.2023913e-07 0.0 2.3884115e-07 0.0 2.3875978e-07 0.0 3.1084423e-07
0.0 3.1237454e-07 0.0 7.369461e-07 0.0 5.772137e-07 0.0 6.792937e-07
0.0 6.792937e-07 -7.783298e-08 2.6959674e-06 -1.1340364e-06 1.0907732e-08 -9.0893755e-09 -4.0148374e-10
4.649611e-06 1.3890201e-07 7.0082194e-08 -1.3485525e-06 7.777705e-08 1.7648676e-07 9.6691736e-08 0.0
9.298024e-06 0.0 0.0 0.0 0.0 4.649012e-06 0.0 9.298024e-06
4.6490106e-05 0.0 0.0 0.0 4.649012e-06 0.0 9.298024e-06 9.298021e-05
0.0 0.0 0.0 4.649012e-06 0.0 9.298024e-06 0.00013947033 0.0
0.0 0.0 4.649012e-06 0.0 -2.1175856e-06 0.0 -4.8713224e-07 0.0
-8.573611e-07 0.0 -3.3063512e-07 0.0 -4.2244775e-07 0.0 -2.708065e-07 0.0
-3.0300228e-07 0.0 -2.614466e-07 0.0 -2.6999518e-07 0.0 -2.9608069e-07 0.0
-2.7793186e-07 0.0 -4.0788763e-07 0.0 -3.379241e-07 0.0 -7.792363e-07 0.0
-5.0874286e-07 0.0 -7.5980097e-07 0.0 -7.5980097e-07 -6.654041e-07 -3.2506307e-06 1.3171049e-05
-6.294592e-08 -2.9965335e-07 -1.8181671e-08 -5.6008494e-06 -2.5871523e-06 3.6961353e-07 -9.495579e-06 1.3916618e-06
-2.3213283e-06 -2.6691944e-06 0.0 -1.1205574e-05 0.0 0.0 0.0 0.0
-5.602787e-06 0.0 -1.1205574e-05 -5.6027893e-05 0.0 0.0 0.0 -5.602787e-06
0.0 -1.1205574e-05 -0.000112055786 0.0 0.0 0.0 -5.602787e-06 0.0
-1.1205574e-05 -0.00016808334 0.0 0.0 0.0 -5.602787e-06 0.0 6.791426e-06
0.0 2.5364304e-06 0.0 2.2913582e-06 0.0 1.3546643e-06 0.0 1.2978246e-06
0.0 1.0286784e-06 0.0 1.0060087e-06 0.0 9.4458e-07 0.0 9.361021e-07
0.0 1.015279e-06 0.0 1.0203213e-06 0.0 1.3108292e-06 0.0 1.3439987e-06
0.0 3.1416018e-06 0.0 2.519147e-06 0.0 2.8792106e-06 0.0 2.8792106e-06
-8.0106634e-07 1.14801505e-05 -7.934141e-06 5.0362562e-08 -1.6135357e-07 -5.5122715e-09 1.9829344e-05 2.3595871e-07
3.7505728e-07 -1.1821653e-05 7.293234e-07 6.2000214e-07 -1.2997432e-08 0.0 3.964808e-05 0.0
0.0 0.0 0.0 1.982404e-05 0.0 3.964808e-05 0.00019824035 0.0
0.0 0.0 1.982404e-05 0.0 3.964808e-05 0.0003964807 0.0 0.0
0.0 1.982404e-05 0.0 3.964808e-05 0.00059472106 0.0 0.0 0.0
1.982404e-05 0.0 9.479035e-08 0.0 3.4178445e-08 0.0 3.3457027e-08 0.0
1.851696e-08 0.0 1.836133e-08 0.0 1.415803e-08 0.0 1.4089922e-08 0.0
1.3068204e-08 0.0 1.3034895e-08 0.0 1.4128854e-08 0.0 1.4124514e-08 0.0
1.8409e-08 0.0 1.8470367e-08 0.0 4.3755612e-08 0.0 3.411659e-08 0.0

exp_avg_sq f4 [128, 75]
00000000: 0000 0000 08d1 6c2c 0000 0000 ad17 ef2a
00000010: 0000 0000 2d75 f92a 0000 0000 e952 0d2a
00000020: 0000 0000 6bf1 0f2a 0000 0000 063d a629
00000030: 0000 0000 e4c0 a729 0000 0000 e24f 8e29
00000040: 0000 0000 dcb1 8e29 0000 0000 6c4d a729
00000050: 0000 0000 13a8 a629 0000 0000 0585 0f2a
00000060: 0000 0000 0aa6 0d2a 0000 0000 68ce 4b2b
00000070: 0000 0000 3b9a ef2a 0000 0000 de83 2e2b
00000080: 0000 0000 de83 2e2b dcd2 e527 7b5a 282d
00000090: 177e 582c d1e1 7e23 f745 1626 b0b3 a020
000000a0: e1a8 f62d 9783 aa27 b4de d328 9be4 142b
000000b0: 8116 1e28 8e09 8527 2751 f926 0000 0000
000000c0: cdab f62e 0000 0000 0000 0000 0000 0000
000000d0: 0000 0000 cdab f62d 0000 0000 cdab f62e
000000e0: 36b6 4031 0000 0000 0000 0000 0000 0000
000000f0: cdab f62d 0000 0000 cdab f62e 36b6 4032
00000100: 0000 0000 0000 0000 0000 0000 cdab f62d
00000110: 0000 0000 cdab f62e fccc d832 0000 0000
00000120: 0000 0000 0000 0000 cdab f62d 0000 0000
00000130: f3a0 3930 0000 0000 e2dc ba2e 0000 0000
00000140: a8f6 c32e 0000 0000 9e25 dd2d 0000 0000
00000150: a0ba e12d 0000 0000 2a24 822d 0000 0000
00000160: f376 832d 0000 0000 c7ea 5e2d 0000 0000
00000170: 5c8d 5f2d 0000 0000 2a13 832d 0000 0000
00000180: 2c7d 822d 0000 0000 c104 e12d 0000 0000
00000190: c2b2 dd2d 0000 0000 d60e 202f 0000 0000
000001a0: f748 bb2e 0000 0000 2121 092f 0000 0000
000001b0: 2121 092f 46bb 062c 1e37 0431 e888 8530
000001c0: 234e 7927 d98b 1e2a c2dd e624 a830 c131
000001d0: cd9b 9a2b 547d 172d 9813 3e2f 81f8 022c
000001e0: b4cc 5c2b 136a 1c2b 0000 0000 b332 c132
000001f0: 0000 0000 0000 0000 0000 0000 0000 0000
00000200: b332 c131 0000 0000 b332 c132 9aef 1635
00000210: 0000 0000 0000 0000 0000 0000 b332 c131
00000220: 0000 0000 b332 c132 9aef 1636 0000 0000
00000230: 0000 0000 0000 0000 b332 c131 0000 0000
00000240: b332 c132 8ecd a936 0000 0000 0000 0000
00000250: 0000 0000 b332 c131 0000 0000 ce33 802e
00000260: 0000 0000 f5ca 012d 0000 0000 5ca3 072d
00000270: 0000 0000 7b73 192c 0000 0000 3672 1c2c
00000280: 0000 0000 2584 b42b 0000 0000 134b b62b
00000290: 0000 0000 5a8d 9a2b 0000 0000 5609 9b2b
000002a0: 0000 0000 deb2 b52b 0000 0000 a20d b52b
000002b0: 0000 0000 8be6 1b2c 0000 0000 75e0 192c
000002c0: 0000 0000 ab78 5e2d 0000 0000 501f 022d
000002d0: 0000 0000 f685 3e2d 0000 0000 f685 3e2d
000002e0: de16 2c2a cc9d 362f d7f6 b22e 2fb6 5125
000002f0: 64b0 2c28 5327 ef22 e9f6 0530 77c9 bb29
00000300: e12e 9f2a 0a60 922d 612b 082a 14e7 9a29
00000310: 81db c928 0000 0000 80f8 0531 0000 0000
00000320: 0000 0000 0000 0000 0000 0000 80f8 0530
00000330: 0000 0000 80f8 0531 4854 5133 0000 0000
00000340: 0000 0000 0000 0000 80f8 0530 0000 0000
00000350: 80f8 0531 4854 5134 0000 0000 0000 0000
00000360: 0000 0000 80f8 0530 0000 0000 80f8 0531
00000370: cc7e eb34 0000 0000 0000 0000 0000 0000
00000380: 80f8 0530 0000 0000 a80a 0628 0000 0000
00000390: 5a9a 8726 0000 0000 a197 8c26 0000 0000
000003a0: ca2a a025 0000 0000 b3b7 a225 0000 0000
000003b0: ac4e 3c25 0000 0000 99c8 3d25 0000 0000
000003c0: b623 2125 0000 0000 b182 2125 0000 0000
000003d0: eb59 3d25 0000 0000 4bb6 3c25 0000 0000
000003e0: 624f a225 0000 0000 c77a a025 0000 0000
000003f0: 4fa8 e626 0000 0000 0edb 8726 0000 0000
0.0 3.3653653e-12 0.0 4.2471357e-13 0.0 4.4312592e-13 0.0 1.2552081e-13
0.0 1.278471e-13 0.0 7.382467e-14 0.0 7.449751e-14 0.0 6.319924e-14
0.0 6.3369205e-14 0.0 7.4297204e-14 0.0 7.401037e-14 0.0 1.2747102e-13
0.0 1.2580922e-13 0.0 7.2406534e-13 0.0 4.2561947e-13 0.0 6.200022e-13
0.0 6.200022e-13 6.3788882e-15 9.569785e-12 3.076544e-12 1.3817186e-17 5.2136524e-16 2.7223962e-19
2.804196e-11 4.732715e-15 2.3522288e-14 5.2897416e-13 8.775642e-15 3.6925275e-15 1.7299842e-15 0.0
1.1217303e-10 0.0 0.0 0.0 0.0 2.8043257e-11 0.0 1.1217303e-10
2.8043252e-09 0.0 0.0 0.0 2.8043257e-11 0.0 1.1217303e-10 1.1217301e-08
0.0 0.0 0.0 2.8043257e-11 0.0 1.1217303e-10 2.5238926e-08 0.0
0.0 0.0 2.8043257e-11 0.0 6.753133e-10 0.0 8.4975374e-11 0.0
8.911388e-11 0.0 2.5141497e-11 0.0 2.5662417e-11 0.0 1.4795349e-11 0.0
1.49458e-11 0.0 1.267137e-11 0.0 1.27074705e-11 0.0 1.4901486e-11 0.0
1.4834876e-11 0.0 2.558165e-11 0.0 2.5204176e-11 0.0 1.4557186e-10 0.0
8.5167366e-11 0.0 1.2471847e-10 0.0 1.2471847e-10 1.9146503e-12 1.9239859e-09 9.715935e-10
3.459805e-15 1.4081738e-13 1.0012227e-16 5.622571e-09 1.0985602e-12 8.611185e-12 1.728736e-10 1.8612059e-12
7.8443784e-13 5.556954e-13 0.0 2.2491212e-08 0.0 0.0 0.0 0.0
5.622803e-09 0.0 2.2491212e-08 5.622802e-07 0.0 0.0 0.0 5.622803e-09
0.0 2.2491212e-08 2.2491208e-06 0.0 0.0 0.0 5.622803e-09 0.0
2.2491212e-08 5.060522e-06 0.0 0.0 0.0 5.622803e-09 0.0 5.8299685e-11
0.0 7.3778665e-12 0.0 7.710135e-12 0.0 2.1806712e-12 0.0 2.2232333e-12
0.0 1.2826447e-12 0.0 1.2952715e-12 0.0 1.0981591e-12 0.0 1.1016004e-12
0.0 1.2910469e-12 0.0 1.2864607e-12 0.0 2.2154802e-12 0.0 2.1867206e-12
0.0 1.2646033e-11 0.0 7.396597e-12 0.0 1.0829995e-11 0.0 1.0829995e-11
1.5284602e-13 1.6608864e-10 8.1383504e-11 1.8189587e-16 9.586167e-15 6.4822716e-18 4.8736e-10 8.339417e-14
2.8276603e-13 1.6640928e-11 1.2094277e-13 6.8790595e-14 2.2410677e-14 0.0 1.9495303e-09 0.0
0.0 0.0 0.0 4.873826e-10 0.0 1.9495303e-09 4.8738258e-08 0.0
0.0 0.0 4.873826e-10 0.0 1.9495303e-09 1.9495303e-07 0.0 0.0
0.0 4.873826e-10 0.0 1.9495303e-09 4.3864418e-07 0.0 0.0 0.0
4.873826e-10 0.0 7.440805e-15 0.0 9.409344e-16 0.0 9.755551e-16 0.0
2.778457e-16 0.0 2.8227e-16 0.0 1.6333056e-16 0.0 1.6461102e-16 0.0
1.3976623e-16 0.0 1.4008804e-16 0.0 1.6423602e-16 0.0 1.6368164e-16 0.0
2.8156312e-16 0.0 2.7838773e-16 0.0 1.6005076e-15 0.0 9.426882e-16 0.0

exp_avg f4 [128]
00000000: a1f9 9b36 e447 bcb6 aa40 a637 f9a0 9334
00000010: fbcc 0e38 c5a4 ca37 bb23 2a37 ad61 9838
00000020: ff05 e237 88cb 0db8 a30b a3b7 2e67 2a38
00000030: 0e5b 50b6 10a6 28b8 cd57 10b8 3e4a c537
00000040: 0f19 1635 b860 13b9 4134 1137 2bed ca35
00000050: 1a83 4636 2357 3bb8 9f58 aa36 a16b 8bb4
00000060: 99e8 6bb7 868f c638 bc57 a0b3 a09a c1b8
00000070: 6bb6 e735 754a 9738 3e3a 6136 92fd b0b8
00000080: ab69 5035 7f9c e838 4796 17b6 9a56 4fb6
00000090: 5526 0db7 45c2 7a37 46b8 1db4 72cb 4635
000000a0: 93ba b638 b0e2 6138 c891 db36 ae8c 8638
000000b0: 7822 14b8 67ab ff34 3faa f035 70fa 2437
000000c0: 95b4 7338 f372 10b8 f6f2 b5b3 41aa 8936
000000d0: 6532 76b8 9c46 e536 7c73 90b8 2b0b a138
000000e0: 3ad2 1f33 8c56 c737 de7b 8f34 617d 0ab9
000000f0: be49 f9b7 43ce 9c33 1648 d0b5 6275 7938
00000100: 7e60 e4b6 5d89 45b6 6596 8c35 564f f2b6
00000110: 1be9 1936 639f 8eb7 db45 ad38 2c15 90b6
00000120: 376a 2bb8 b4d9 9836 1b37 8d38 b89c 1b38
00000130: 888b f9b7 d86c 7538 27a8 56b6 63cf ff35
00000140: e6f9 4d32 f71f 89b8 16dc 6536 b8a7 0339
00000150: f6ea 2d34 580b 3438 7be1 2837 a5d0 90b8
00000160: d2eb 2ab7 2260 6833 e132 0235 f095 8938
00000170: d134 9db8 af42 e637 9195 0fb6 b15e 1a35
00000180: 3fd8 88b4 3a21 b137 c988 7f38 d88b 11b5
00000190: ba5f 79b6 8ad1 acb8 8733 5b36 bbbb bb35
000001a0: 26c7 2ab5 0ae6 8a37 7d50 4bb4 4ed6 28b6
000001b0: 1fcc 0337 2264 1b33 4357 9b35 008d 1bb7
000001c0: 1cb3 61b6 915d 0a37 3918 9138 a315 7e38
000001d0: 6543 27b8 ac91 ef35 5a77 77b4 deab 7237
000001e0: c4d5 b234 e16e 36b7 79cb fab6 be2b f0b5
000001f0: c91d aeb7 050b d3b1 3a1e e2b3 76ba b335
4.6484206e-06 -5.611206e-06 1.9818854e-05 2.7498007e-07 3.404634e-05 2.4157003e-05 1.0141109e-05 7.266118e-05
2.6944092e-05 -3.3806573e-05 -1.9436533e-05 4.0627252e-05 -3.1047416e-06 -4.020898e-05 -3.4414046e-05 2.3518802e-05
5.591582e-07 -0.00014055043 8.65484e-06 1.5119198e-06 2.958061e-06 -4.4665427e-05 5.0767117e-06 -2.5969078e-07
-1.4061247e-05 9.468109e-05 -7.4665394e-08 -9.231758e-05 1.7263932e-06 7.21411e-05 3.3561514e-06 -8.439565e-05
7.7639805e-07 0.00011091772 -2.2588226e-06 -3.0895812e-06 -8.41318e-06 1.4946393e-05 -1.4688803e-07 7.40568e-07
8.7131884e-05 5.38553e-05 6.54368e-06 6.4158216e-05 -3.531805e-05 4.7622163e-07 1.7930942e-06 9.833471e-06
5.8103895e-05 -3.443933e-05 -8.4726636e-08 4.1027383e-06 -5.8697904e-05 6.832952e-06 -6.887966e-05 7.6791584e-05
3.7211272e-08 2.376295e-05 2.672595e-07 -0.00013207413 -2.9717452e-05 7.301835e-08 -1.5518187e-06 5.9475547e-05
-6.8061627e-06 -2.9435244e-06 1.0474583e-06 -7.221398e-06 2.2934462e-06 -1.700194e-05 8.2622944e-05 -4.293999e-06
-4.0868497e-05 4.555297e-06 6.733668e-05 3.7100835e-05 -2.9748087e-05 5.851392e-05 -3.1986363e-06 1.9059338e-06
1.1989391e-08 -6.538623e-05 3.4251766e-06 0.00012555614 1.6197359e-07 4.292591e-05 1.0066079e-05 -6.905318e-05
-1.0187696e-05 5.410414e-08 4.850281e-07 6.560597e-05 -7.496181e-05 2.7449189e-05 -2.139572e-06 5.7507265e-07
-2.5489314e-07 2.1115517e-05 6.092413e-05 -5.422021e-07 -3.7159612e-06 -8.240629e-05 3.2663536e-06 1.3987222e-06
-6.3619734e-07 1.6558002e-05 -1.893513e-07 -2.5158693e-06 7.855734e-06 3.617982e-08 1.1573796e-06 -9.271549e-06
-3.3631868e-06 8.247226e-06 6.9186506e-05 6.057847e-05 -3.987867e-05 1.7849284e-06 -2.3047087e-07 1.446434e-05
3.331062e-07 -1.0873861e-05 -7.474268e-06 -1.7894124e-06 -2.0756286e-05 -6.142161e-09 -1.0529443e-07 1.3390807e-06

exp_avg_sq f4 [128]
00000000: 48aa f62d 5231 c131 dbf7 0530 dea2 8b29
00000010: 6e23 6831 823b 3330 3169 2f31 705a 8c31
00000020: b1a8 9231 2d4f be31 54b5 2431 8d8d 9e30
00000030: 640d 3f2d 6290 0e31 97fe ca31 45be 2030
00000040: 56eb 082b 33e3 a532 2155 ea2e 7050 e62b
00000050: ffc9 4d30 d201 2731 53d8 fe2d 2e0d d02c
00000060: 1bb5 4a30 11d8 0632 c2da 3d2a 0483 d731
00000070: 21b3 b52c dbab 2332 c940 4531 c82a 6e32
00000080: 09d5 af2c b800 8632 533e 282d ed0c 812d
00000090: 9a66 ef31 e85f 6e30 432f 0c29 5bdb 882c
000000a0: 0abe c331 c727 4d31 cf33 292e e9ad 7b31
000000b0: d2d6 3231 eb94 902b 1294 292c b536 f72e
000000c0: fc00 6031 b47a be31 7bc0 b92a 3998 ab2d
000000d0: a9ff ac31 27c2 4731 5611 6f31 ba78 a831
000000e0: 8924 1227 2f62 6830 01d9 4b30 fd86 8032
000000f0: 3e48 f730 b21d fd27 2bd4 ab2e 18fc 2b31
00000100: 2415 6c2e 9175 8c2d 2adf 112c 7a91 142f
00000110: efb3 022d c633 ba31 2a04 c531 288a 412e
00000120: feee ac31 f9c8 342f 1997 2032 2155 c030
00000130: a54b 8b30 da44 c231 43b6 4b2d 51e3 062d
00000140: ece0 812b da67 d831 76b9 822d 18b6 7532
00000150: c1ce 572c e27a 0532 21f1 a132 6898 f331
00000160: d7b0 2331 362a 3b2a 8c78 6b2a bf81 7531
00000170: f66c dd31 27c8 2930 ce57 322c 4981 be2b
00000180: ed0d 042e 110e 6132 0272 6631 7017 812c
00000190: 264a 192e 7824 4c32 fe8d eb2c 5c69 6e2c
000001a0: bf72 c12d e7db ea30 48a0 ea28 4e79 052d
000001b0: 2524 2130 d93a aa26 cf54 042c 8408 4831
000001c0: 4679 012d 5e74 5a2e 423b 6631 d5c7 2b31
000001d0: 385a 3c31 4fd5 202d 51fa 4029 46dd a32f
000001e0: 9441 d629 8454 f02f be6b 8c2e f166 c92c
000001f0: 92f7 2231 969b 0a2c d8e8 752b 8ca3 ff2b
2.8042582e-11 5.6226463e-09 4.873734e-10 6.201093e-14 3.3780583e-09 6.5204386e-10 2.5525646e-09 4.084818e-09
4.2683372e-09 5.538729e-09 2.3968214e-09 1.1536244e-09 1.0860066e-11 2.0745792e-09 5.9079173e-09 5.847805e-10
4.86435e-13 1.9311846e-08 1.065621e-10 1.6364809e-12 7.486562e-10 2.4302733e-09 2.8972524e-11 5.913179e-12
7.374454e-10 7.848954e-09 1.6862469e-13 6.2722183e-09 5.1642167e-12 9.526924e-09 2.87041e-09 1.3863151e-08
4.997451e-12 1.559998e-08 9.563533e-12 1.4671342e-11 6.96748e-09 8.6720187e-10 3.1127238e-14 3.889706e-12
5.696852e-09 2.9854037e-09 3.8472166e-11 3.6624164e-09 2.602452e-09 1.0273148e-12 2.409854e-12 1.12419775e-10
3.259685e-09 5.5436775e-09 3.2996162e-13 1.950805e-11 5.034924e-09 2.9068674e-09 3.4788932e-09 4.9031685e-09
2.0281376e-15 8.4540636e-10 7.415935e-10 1.4962547e-08 1.7992148e-09 7.02538e-15 7.813868e-11 2.5027074e-09
5.3678964e-11 1.5968367e-11 2.072962e-12 1.3512205e-10 7.429598e-12 5.4191984e-09 5.733928e-09 4.4005827e-11
5.033029e-09 1.6442304e-10 9.347581e-09 1.3994034e-09 1.013508e-09 5.6539706e-09 1.1579684e-11 7.6674925e-12
9.22843e-13 6.298234e-09 1.486165e-11 1.430228e-08 3.066811e-12 7.769559e-09 1.885252e-08 7.0895574e-09
2.3820144e-09 1.6623581e-13 2.0914016e-13 3.5725944e-09 6.444334e-09 6.1766275e-10 2.5344063e-12 1.3536196e-12
3.0025694e-11 1.3099922e-08 3.353421e-09 3.6690026e-12 3.485403e-11 1.1882655e-08 6.694866e-12 3.388032e-12
2.1992517e-11 1.7088241e-09 2.604873e-14 7.58711e-12 5.8622823e-10 1.181207e-15 1.8805406e-12 2.910867e-09
7.359729e-12 4.9670816e-11 3.350309e-09 2.4997366e-09 2.7408884e-09 9.142311e-12 4.284968e-14 2.9806752e-10
9.514885e-14 4.3715798e-10 6.385602e-11 5.7241924e-12 2.371483e-09 1.9697347e-12 8.736462e-13 1.8164233e-12
