Unity Project/CSC 30014 Project/results/test/Car/Car-1938.pt (torch, 651359 bytes, 36 tensors)

network_body._body_endoder.seq_layers.0.weight f4 [128, 75]
-0.12306903 -0.11271362 0.27262357 -0.08731493 -0.023554055 0.19176856 -0.17816932 0.025649976
0.08581872 -0.15790501 0.00090763916 -0.09763198 -0.18417571 0.14279293 0.017764669 -0.03406429
0.090160966 -0.08481275 0.08923231 -0.06219492 0.09071068 0.13162135 0.12776452 0.11248099
-0.07508515 -0.124460846 -0.039284162 -0.029267456 0.036652923 -0.0074174698 0.0858383 -0.04052029
-0.18869889 0.06546691 -0.09552475 0.23019043 0.09516721 -0.062264964 -0.11686117 0.18598805
0.015835825 0.20390168 -0.19174822 0.033901345 -0.11589896 -0.06158563 0.07330774 0.20871377
-0.17270552 -0.12697977 -0.13288845 -0.02664771 -0.059538398 -0.3080792 0.103034966 -0.09560612
-0.14475535 0.030554296 -0.24738497 -0.1259334 0.016837157 -0.033605672 -0.04040065 -0.12633537
0.05862549 0.122049905 -0.10165575 0.076319896 0.104334034 -0.09014669 0.041960414 0.093986385
0.04234401 -0.097651385 0.1870236 -0.09983092 0.030612594 0.040266547 -0.0054515204 -0.030091165
0.0927426 0.04478501 -0.046821743 0.085003585 0.19773155 -0.02657292 -0.0044808057 -0.029816514
0.0043257787 -0.066933826 -0.23168272 0.003979367 0.06808638 0.06284918 -0.07099135 -0.064027175
0.0017369714 -0.10552474 -0.111813225 -0.059508797 -0.08461735 0.044864643 0.08835792 0.047983073
-0.16946134 0.14177081 0.122902386 -0.030322019 0.061199576 0.014318937 -0.19791391 -0.078966804
-0.13399757 0.12447714 0.0049693706 0.1418291 -0.043869674 0.069314234 0.17625962 0.072178274
-0.030644909 0.07819 0.07327365 -0.16320617 -0.10189753 0.26431683 -0.08172573 -0.118670836
-0.071633235 -0.16153502 -0.13015085 -0.03266763 0.014942105 0.004885475 -0.005491325 -0.12380798
0.12886086 -0.19161959 0.027847376 0.13306732 0.08818374 -0.18256755 -0.2184853 0.07127221
-0.03553321 0.07620012 0.2625527 0.09068772 0.08395134 0.020841358 -0.068630084 0.14581059
0.04221738 -0.17769541 -0.2104064 0.075621 0.21727885 -0.06250766 -0.0892119 -0.1404637
0.21671605 0.11110359 -0.029374126 0.04773084 -0.07132876 -0.1710072 0.062492024 0.25939482
0.06724627 0.09544825 -0.038678087 -0.009430633 0.20857503 0.004739055 -0.013366093 -0.09980954
0.034006108 0.08325842 -0.15812072 -0.1598396 0.009462723 -0.0047244523 -0.066325255 -0.26849264
-0.023998188 0.17334937 -0.1869277 0.08235228 -0.15471514 -0.10268432 0.232632 0.064945824
0.0036442752 0.06771987 -0.010753274 -0.044033937 -0.11086743 -0.32423884 0.07801771 0.06849797
0.035037614 0.011223924 0.0414221 -0.020675484 0.116158456 0.0391186 -0.014073596 0.23441494
-0.13985257 -0.11402486 0.015205494 0.18647209 0.06466675 0.024920486 0.0377376 0.1244501
-0.034848824 0.0043399544 0.097701155 -0.037109017 0.07883106 0.01805037 0.059022464 -0.21604076
-0.103495575 0.04413931 -0.12274637 -0.20223826 -0.009087031 0.022783803 -0.2574664 0.20104708
0.11411763 -0.015245104 -0.088562034 0.026045473 -0.1591679 -0.07799096 0.08072133 -0.13101012
0.10532044 -0.07944013 0.086577274 -0.16788886 -0.20132276 0.07967392 0.0361659 -0.07237448
-0.061263263 0.34021127 -0.1979598 -0.176254 0.21753666 0.04022211 -0.24740733 -0.13958786
00000000: 9e0b fcbd 66d6 e6bd 5195 8b3e 2cd2 b2bd
00000010: 6ff4 c0bc fa5e 443e 0572 36be e61f d23c
00000020: bac1 af3d dab1 21be a2ee 6d3a 47f3 c7bd
00000030: 8f98 3cbe 4f38 123e 3687 913c ff86 0bbd
00000040: 50a6 b83d 4fb2 adbd 6ebf b63d 1ac0 7ebd
00000050: 85c6 b93d bfc7 063e b4d4 023e 6f5c e63d
00000060: 3ec6 99bd 54e5 febd 6ee8 20bd 4ec2 efbc
00000070: 6021 163d 3f0e f3bb fecb af3d 9bf8 25bd
00000080: 483a 41be 8413 863d 7ba2 c3bd 0ab7 6b3e
00000090: 07e7 c23d 8c09 7fbd e954 efbd a773 3e3e
000000a0: 22ba 813c 9acb 503e a559 44be 23dc 0a3d
000000b0: 6f5c edbd 3741 7cbd 5e22 963d 10b9 553e
000000c0: b7d9 30be fc06 02be e913 08be 4c4c dabc
000000d0: 89de 73bd 8fbc 9dbe ff03 d33d 24cd c3bd
000000e0: bf3a 14be 014d fa3c 7c52 7dbe aff4 00be
000000f0: 14ee 893c 1aa6 09bd 277b 25bd 0f5e 01be
00000100: 4821 703d 4df5 f93d e430 d0bd 9b4d 9c3d
00000110: 15ad d53d d49e b8bd afde 2b3d ef7b c03d
00000120: ea70 2d3d 73fd c7bd 1d83 3f3e 2774 ccbd
00000130: 43c7 fa3c 89ee 243d aba2 b2bb bf81 f6bc
00000140: d5ef bd3d 7d70 373d 28c8 3fbd 5c16 ae3d
00000150: 247a 4a3e 74af d9bc b9d3 92bb c341 f4bc
00000160: 43bf 8d3b 9a14 89bd 3c3e 6dbe 5a65 823b
00000170: df70 8b3d 12b7 803d ea63 91bd ae20 83bd
00000180: 17ab e33a 5b1d d8bd 55fe e4bd 7fbf 73bd
00000190: dc4b adbd fdc3 373d fff4 b43d e689 443d
000001a0: 4687 2dbe 5e2c 113e 3fb4 fb3d e265 f8bc
000001b0: 68ac 7a3d fa99 6a3c f2a9 4abe 59b9 a1bd
000001c0: a936 09be dfed fe3d 1ad6 a23b a63b 113e
000001d0: b0b0 33bd 9ff4 8d3d 677d 343e 34d2 933d
000001e0: 080b fbbc 1422 a03d 7f10 963d 851f 27be
000001f0: a7af d0bd 8954 873e d25f a7bd b209 f3bd
00000200: 72b4 92bd 7069 25be 4446 05be 7ece 05bd
00000210: bbcf 743c 5616 a03b 93f0 b3bb 0a8f fdbd
00000220: 1af4 033e ed37 44be 2e20 e43c cd42 083e
00000230: ad99 b43d fdf2 3abe 9cba 5fbe 2af7 913d
00000240: 458b 11bd cf0e 9c3d 4f6d 863e 7cba b93d
00000250: aeee ab3d 7fbb aa3c ee8d 8cbd 5f4f 153e
00000260: 22ec 2c3d c9f5 35be c674 57be 2fdf 9a3d
00000270: 597e 5e3e 0404 80bd bbb4 b6bd b7d5 0fbe
00000280: d0ea 5d3e 478a e33d 02a2 f0bc 6a81 433d
00000290: d014 92bd 831c 2fbe a3f7 7f3d 66cf 843e
000002a0: 6ab8 893d 5f7a c33d ea6c 1ebd f182 1abc
000002b0: b194 553e 134a 9b3b 75fd 5abc f268 ccbd
000002c0: fd49 0b3d 6483 aa3d 66ea 21be feac 23be
000002d0: 8909 1b3c 94cf 9abb 89d5 87bd de77 89be
000002e0: d997 c4bc 7f82 313e fa69 3fbe 50a8 a83d
000002f0: a56d 1ebe 284c d2bd 1537 6e3e 5102 853d
00000300: cbd4 6e3b b7b0 8a3d 802e 30bc ee5c 34bd
00000310: 770e e3bd a202 a6be c0c7 9f3d aa48 8c3d
00000320: 9a83 0f3d 8de4 373c 38aa 293d a25f a9bc
00000330: 7ce4 ed3d d33a 203d f194 66bc 780a 703e
00000340: 8335 0fbe de85 e9bd 7720 793c 8af2 3e3e
00000350: 0070 843d 0c26 cc3c be92 1a3d b2df fe3d
00000360: a4bd 0ebd 2d36 8e3b 8b17 c83d a0ff 17bd
00000370: 2e72 a13d 5fde 933c 8ac1 713d ca39 5dbe
00000380: 7df5 d3bd 6ccb 343d 7362 fbbd 8c17 4fbe
00000390: c5e1 14bc 19a5 ba3c a3d2 83be 49df 4d3e
000003a0: 81b6 e93d 9ac6 79bc 0360 b5bd 515d d53c
000003b0: e9fc 22be b9b9 9fbd 3a51 a53d 8427 06be
000003c0: 3eb2 d73d 82b1 a2bd 6d4f b13d 0feb 2bbe
000003d0: 8e27 4ebe 152c a33d b222 143d 1239 94bd
000003e0: 30ef 7abd 2c30 ae3e f9b5 4abe ee7b 34be
000003f0: eec1 5e3e f0bf 243d 5958 7dbe 1ff0 0ebe

network_body._body_endoder.seq_layers.0.bias f4 [128]
0.0005891878 -0.000787794 -0.0037082443 -0.0054497654 -0.0030790528 -0.0038835984 0.0012211705 -0.0011393577
-0.0032443453 -0.000912945 -0.0025768944 -0.007746921 -0.000683511 -0.000129164 -0.0060719377 -0.001993388
-0.00020281621 -0.0025206644 -0.0028453018 -0.0018561686 0.00064358336 -0.0026198686 -0.00014775847 0.0014650442
-0.0015572585 -0.0055787205 -0.0021150475 -0.0065006497 -0.0020352006 -0.00091933116 -0.006246444 0.0026223205
-0.00537695 -0.0016095492 -0.0028202264 -0.0007301823 -0.0010850945 -0.004766604 0.0046150973 -0.0042613535
-0.0044573997 -0.0035237572 0.0014911733 -0.0041671316 0.0011115235 -0.0052772444 -0.008242329 -0.0035886106
3.7511476e-05 0.0012774707 0.0019423651 -0.0021516113 -0.018430626 -0.0015581303 -0.0023010469 0.0013231505
-0.0014470391 -0.0014618811 -0.009490985 -0.00394191 -0.005882999 -0.0015650803 0.0023118893 -0.0019213357
-0.004121965 0.0006384469 -0.0018643371 -0.0034836056 0.00013527756 0.0034854435 -0.003029538 -0.007452682
-0.0030324012 -0.0005979317 -0.001891423 -0.0042051193 -0.0007580937 -0.0055861073 0.0015459026 -0.0048037283
-0.0037918075 0.00136908 -0.0052179983 0.0018842687 0.0007688927 -0.0038351829 -0.0036601203 -0.00073026266
-0.00036720795 -0.003236964 -0.0021008933 0.0028032851 -0.0022543971 0.0025980787 -0.000108969194 -3.0681596e-05
-0.0014412233 -0.010345163 -0.0032905627 -0.0069705592 0.0064967987 -0.0026291206 -0.00035396888 -0.0011897569
-0.0071046688 -0.004540165 -0.00069424894 -0.0070708836 -0.009571451 7.813933e-05 -0.0043905587 0.006001239
-0.00307828 -0.0018856837 -0.0053755515 0.0006804202 -0.0033374077 -0.0014926427 -0.013045687 -0.0057285754
-0.002314669 -5.6615638e-05 -0.0063052024 -0.0045556207 -0.00613184 -0.0030860254 0.0015025841 -0.0020866112
00000000: b973 1a3a f683 4eba 0406 73bb f293 b2bb
00000010: efc9 49bb f883 7ebb af0f a03a 8056 95ba
00000020: 159f 54bb b452 6fba 1de1 28bb e2d9 fdbb
00000030: a62d 33ba 3270 07b9 1bf7 c6bb 80a3 02bb
00000040: 10ab 54b9 bb31 25bb 3e78 3abb af4a f3ba
00000050: 26b6 283a 1ab2 2bbb 9def 1ab9 ba06 c03a
00000060: ed1c ccba b3cd b6bb 9c9c 0abb 6703 d5bb
00000070: 0061 05bb 45ff 70ba f8ae ccbb 3ddb 2b3b
00000080: 2031 b0bb 82f7 d2ba 8cd3 38bb b469 3fba
00000090: bb39 8eba 2c31 9cbb 3e3a 973b d3a2 8bbb
000000a0: 610f 92bb d6ee 66bb 7973 c33a 6f8c 88bb
000000b0: 8ab0 913a bcec acbb d50a 07bc e52e 6bbb
000000c0: a455 1d38 ce70 a73a f596 fe3a 0c02 0dbb
000000d0: d3fb 96bc 2d3a ccba 29cd 16bb 906d ad3a
000000e0: 93aa bdba 979c bfba 1480 1bbc 232b 81bb
000000f0: 2cc6 c0bb 6123 cdba 1183 173b 54d5 fbba
00000100: 8c11 87bb 725d 273a c65c f4ba 344d 64bb
00000110: 4bd9 0d39 0a6c 643b 378b 46bb a135 f4bb
00000120: 40bb 46bb 84be 1cba a0e9 f7ba 19cb 89bb
00000130: cfba 46ba aa0b b7bb e29f ca3a 9868 9dbb
00000140: f97f 78bb b472 b33a befb aabb 91f9 f63a
00000150: 848f 493a b157 7bbb a1de 6fbb 196f 3fba
00000160: d185 c0b9 3f23 54bb 24af 09bb 52b7 373b
00000170: 82be 13bb 8744 2a3b 6486 e4b8 1db0 00b8
00000180: 6ee7 bcba c27e 29bc 7ba6 57bb 4a69 e4bb
00000190: 19e3 d43b 534d 2cbb e694 b9b9 9ef1 9bba
000001a0: 48ce e8bb aac5 94bb 42fe 35ba dfb2 e7bb
000001b0: 93d1 1cbc bcde a338 adde 8fbb 0ba6 c43b
000001c0: f8bc 49bb 0c29 f7ba 6525 b0bb 3a5e 323a
000001d0: 69b8 5abb c7a4 c3ba 94bd 55bc c6b6 bbbb
000001e0: b4b1 17bb 9476 6db8 df9b cebb 5147 95bb
000001f0: 9aed c8bb ea3e 4abb 5bf2 c43a 87bf 08bb

network_body._body_endoder.seq_layers.2.weight f4 [128, 128]
0.1390338 0.019997416 0.043417573 -0.20519926 0.018867215 -0.06009573 -0.051170334 0.09879068
0.06942645 -0.12879035 0.02904398 0.0026572763 -0.0863318 -0.082106754 -0.059818644 0.017173398
-0.08485748 -0.075380355 -0.08656008 0.042468656 -0.10108007 -0.08404531 -0.022949468 0.10679659
-0.023209509 -0.13422984 0.095171124 0.090582125 0.011429143 0.09342358 0.04272342 0.017172886
0.040639155 0.070132494 0.0709553 0.09042442 0.0041115456 0.08277169 -0.023239201 0.2194428
-0.005863954 -0.11517782 -0.079579465 -0.09985839 -0.018850964 0.1282552 -0.0626564 0.10478495
-0.05830322 -0.045176204 0.03197271 0.015188052 0.044302333 0.086309955 0.09599058 -0.07080307
0.11060848 -0.09598464 0.07345035 -0.04132415 -0.0931054 -0.05801509 0.042523064 0.003436384
0.09512907 0.18165506 0.10275988 0.19373904 -0.00417119 0.1093071 0.023338996 0.090949155
0.039617967 -0.027579943 0.055161282 -0.0023766162 0.025521893 -0.055311084 0.13625193 -0.18324476
-0.14510478 -0.12115137 -0.034674566 0.1623543 -0.10800669 0.017506389 -0.07898343 -0.14517167
-0.032645665 0.01515216 0.0045760046 -0.11116321 -0.18574837 0.04841107 0.09800586 -0.0335821
0.10576453 -0.07457828 0.1196558 0.051772118 -0.008460709 -0.058376838 -0.12453298 0.16852404
-0.06407218 0.04195957 -0.06920503 -0.03244467 -0.009395087 -0.14732747 0.037532352 0.034371153
-0.085161805 -0.0016724919 0.023184206 -0.02780447 0.11700791 -0.069378085 0.1096496 -0.13427024
-0.04069522 -0.062713474 0.18768454 0.052066427 0.03040671 -0.007723977 -0.07733021 0.060854204
0.052292716 0.0548289 0.031054027 -0.087639086 0.065594435 -0.085690044 0.0078044957 -0.21545683
-0.045050036 -0.13457389 0.022827523 0.026866075 0.09012248 0.04912784 0.1859162 0.0127104195
0.22576645 0.1076614 0.012718375 -0.0045964946 0.026360892 -0.087146625 0.10202138 0.0026166756
-0.064776495 -0.0069700247 -0.058704454 0.049289327 0.1658005 -0.21744882 0.024164366 -0.04851271
-0.005812429 0.1262313 0.010999403 0.024806684 0.036554657 -0.10212297 0.010036374 0.02929731
0.23252514 -0.03535603 0.026998226 -0.111794464 0.054053303 0.025389232 -0.15913062 0.00037505213
0.059514675 0.028297385 -0.10399352 0.100094475 0.0652422 -0.00064955227 0.10288049 0.05713026
-0.13630545 0.1208596 0.21327655 0.08634902 -0.044441342 0.021263838 0.03685822 0.03826992
0.16206624 0.051272698 0.15328196 0.09931205 -0.049474597 -0.15004493 -0.15694213 0.04558995
-0.029806064 -0.10703437 0.026683625 -0.012551818 0.05107071 0.06148146 -0.049319007 -0.07423605
-0.076805025 -0.057239957 -0.028999448 -0.009329541 -0.115918405 0.0129605355 0.06122306 -0.1591457
0.073571056 -0.07080451 0.0835821 0.011485103 0.1029082 0.14615598 -0.0061576604 -0.13986735
0.06061578 -0.17218412 -0.102670774 -0.059143312 0.00033821282 -0.0122681 -0.0038446125 -0.043034706
0.066989526 -0.019985307 -0.07217749 0.0029662035 0.056593407 -0.04624569 -0.04736984 0.093906395
0.09595393 0.15802261 0.09053352 -0.08054761 0.17386287 -0.063019104 -0.016648278 -0.06630295
-0.025301479 0.2081211 -0.07801722 -0.115965374 0.035013046 0.18227386 0.121938795 -0.05839436
00000000: e05e 0e3e 9fd1 a33c a0d6 313d c11f 52be
00000010: 6b8f 9a3c f126 76bd fc97 51bd c552 ca3d
00000020: 742f 8e3d 9ee1 03be a4ed ed3c b325 2e3b
00000030: bace b0bd 9627 a8bd 6504 75bd 3aaf 8c3c
00000040: c2c9 adbd 0461 9abd 6946 b1bd 9df3 2d3d
00000050: 1103 cfbd f31f acbd 8600 bcbc 2cb8 da3d
00000060: de21 bebc 8c73 09be 14e9 c23d 1f83 b93d
00000070: 4d41 3b3c dd54 bf3d c1fe 2e3d 27ae 8c3c
00000080: 3e75 263d a0a1 8f3d 0351 913d 7030 b93d
00000090: 25ba 863b 3484 a93d 2360 bebc 9db5 603e
000000a0: 6926 c0bb 59e2 ebbd 8ffa a2bd 8e82 ccbd
000000b0: 566d 9abc 5555 033e 0052 80bd 7e99 d63d
000000c0: 5bcf 6ebd af0a 39bd d1f5 023d 4fd7 783c
000000d0: 5d76 353d 46c3 b03d b696 c43d 3301 91bd
000000e0: b386 e23d 9893 c4bd 236d 963d 8343 29bd
000000f0: 0bae bebd 3ba1 6dbd aa2c 2e3d f534 613b
00000100: 08d3 c23d c903 3a3e c673 d23d 8763 463e
00000110: 7aae 88bb 67dc df3d 6c31 bf3c 8d43 ba3d
00000120: 7346 223d 55ef e1bc ccf0 613d 01c1 1bbb
00000130: 4a13 d13c e08d 62bd a085 0b3e 84a4 3bbe
00000140: 5996 14be 361e f8bd eb06 0ebd 3540 263e
00000150: 9d32 ddbd 8f69 8f3c 11c2 a1bd e2a7 14be
00000160: 76b7 05bd c440 783c 4ff2 953b 89a9 e3bd
00000170: d234 3ebe b04a 463d 4cb7 c83d 628d 09bd
00000180: 139b d83d 7fbc 98bd 1a0e f53d 000f 543d
00000190: c99e 0abc 8d1c 6fbd 260b ffbd 9191 2c3e
000001a0: 4638 83bd ccdd 2b3d 5ebb 8dbd b4e4 04bd
000001b0: daed 19bc 03dd 16be 86bb 193d c4c8 0c3d
000001c0: 5069 aebd 8437 dbba ceec bd3c 33c6 e3bc
000001d0: d8a1 ef3d 1916 8ebd f88f e03d 237e 09be
000001e0: 08b0 26bd ec6f 80bd 6030 403e 9b43 553d
000001f0: 7e17 f93c 6a19 fdbb 4d5f 9ebd 4242 793d
00000200: e330 563d 4594 603d 0465 fe3c 1f7c b3bd
00000210: 6056 863d 437e afbd dbbc ff3b b7a0 5cbe
00000220: 6386 38bd bdcd 09be c900 bb3c 3e16 dc3c
00000230: 2392 b83d 463a 493d d160 3e3e 5d3f 503c
00000240: 522f 673e 957d dc3d bb60 503c 319e 96bb
00000250: ccf2 d73c ee79 b2bd 96f0 d03d 887c 2b3b
00000260: 8aa9 84bd ce64 e4bb 1574 70bd 9be3 493d
00000270: 9bc7 293e e7aa 5ebe 59f4 c53c 43b5 46bd
00000280: 3076 bebb c742 013e d736 343c 6337 cb3c
00000290: 56ba 153d d925 d1bd 9b6f 243c ea00 f03c
000002a0: 121b 6e3e 7cd1 10bd 622b dd3c 7ff4 e4bd
000002b0: ff66 5d3d 14fd cf3c 23f3 22be a5a2 c439
000002c0: a9c5 733d ebcf e73c 8efa d4bd 55fe cc3d
000002d0: b49d 853d b746 2aba 02b3 d23d 6b01 6a3d
000002e0: a893 0bbe 3d85 f73d 2b65 5a3e c1d7 b03d
000002f0: 2008 36bd 8031 ae3c a5f8 163d ebc0 1c3d
00000300: b1f4 253e 5203 523d f2f5 1c3e 1e64 cb3d
00000310: e0a5 4abd 61a5 19be 70b5 20be 87bc 3a3d
00000320: d92b f4bc d634 dbbd 9e97 da3c 24a6 4dbc
00000330: 852f 513d fcd3 7b3d ba02 4abd 1209 98bd
00000340: f44b 9dbd 7274 6abd 4090 edbc eeda 18bc
00000350: a166 edbd 6d58 543c 08c5 7a3d 17f7 22be
00000360: 6cac 963d f401 91bd 182d ab3d 032c 3c3c
00000370: 89c1 d23d eaa9 153e 33c6 c9bb 6339 0fbe
00000380: 4148 783d 0951 30be 0e45 d2bd 4240 72bd
00000390: 2852 b139 2400 49bc e5f5 7bbb 2945 30bd
000003a0: ce31 893d 3ab8 a3bc cbd1 93bd a364 423b
000003b0: 7dce 673d 1f6c 3dbd e106 42bd ff51 c03d
000003c0: 7e83 c43d aed0 213e a369 b93d 25f6 a4bd
000003d0: 1c09 323e 2910 81bd f861 88bc d7c9 87bd
000003e0: 0c45 cfbc b31d 553e 7ec7 9fbd 417f edbd
000003f0: d769 0f3d 00a6 3a3e 0cbb f93d ed2e 6fbd

network_body._body_endoder.seq_layers.2.bias f4 [128]
-0.0020511658 -0.003618109 -0.0024823924 -0.0017935092 0.00027613988 0.0019315857 -0.0018738809 -0.004604728
-0.005400623 -0.0038556089 -0.0014301668 -0.006675676 -0.000832551 -0.004637084 -0.0027877407 -0.004069144
-0.0020473294 -0.00012110323 -0.0049689165 -0.0018619831 0.00038169176 0.0026323576 -0.0011821707 -0.0009225658
-0.0008965348 0.00017955189 -0.0025278053 0.00057588366 -0.0039023464 0.00020414755 -0.0051373453 -0.0013223488
-0.0013489507 0.00038133716 -0.002253134 0.0002998989 -0.009447366 -0.002517192 0.003779619 -0.0017845982
-0.0030280629 -0.0030379186 -0.0020528233 -0.0042494657 -0.0023220547 -0.000101312515 -0.0008506975 -0.0017967991
0.0003968543 -0.00030831422 0.003970999 -0.0013873528 -0.00034214227 -0.00019058795 -0.0043362863 9.154708e-05
0.0005367313 -0.0021085504 -0.00026777657 -0.0049800575 -0.004021527 0.001644618 -0.00056081015 -0.0013645885
-0.00127387 -0.0030584822 -0.003997264 -0.0027656013 -0.0023039135 -0.0014693515 -0.00190882 -0.00079188077
-0.002160317 -0.00025097525 -0.0025027776 -0.00043443614 -0.001265516 -0.0021923329 -0.0024416144 -0.0033910922
0.0005442148 -0.0019176467 0.0022743596 -0.0023708788 -0.001907141 -0.0024253712 -0.0016943803 -0.0037169538
-0.0030302044 -0.0014493105 0.0013110391 0.0016494793 -3.898176e-05 0.0010367725 -0.0016808525 -0.0022382978
-0.0031773802 -0.0017653389 -0.0057840734 -0.0055121034 -0.0018925898 -0.000583663 -0.00086945517 -0.0010780573
0.0015326053 -0.0028904283 -0.0052813324 -0.0017898653 -0.0026703747 -0.0028674654 -0.0015260563 -0.003678832
-0.003956033 0.00039448563 -0.0032828122 -0.0016479456 -0.0025964908 -0.003566152 -0.0023453922 -0.0012745531
0.002519294 -0.0010884061 -0.0022743782 -0.0018811189 -0.0038721722 -0.0027638627 -0.004590941 -0.0008889847
00000000: da6c 06bb cc1d 6dbb a2af 22bb 2f14 ebba
00000010: dec6 9039 432d fd3a 029d f5ba 42e3 96bb
00000020: b6f7 b0bb 62ae 7cbb 6f74 bbba a1bf dabb
00000030: 8d3f 5aba aef2 97bb 87b2 36bb 7456 85bb
00000040: 7d2c 06bb cdf8 fdb8 4bd2 a2bb c90d f4ba
00000050: cd1d c839 a283 2c3b 11f3 9aba 58d8 71ba
00000060: 6f05 6bba 1846 3c39 89a9 25bb e6f6 163a
00000070: 82be 7fbb 7110 5639 2d57 a8bb aa52 adba
00000080: 46cf b0ba 35ee c739 51a9 13bb c03b 9d39
00000090: 20c9 1abc 79f7 24bb 7cb3 773b 2ee9 e9ba
000000a0: 7772 46bb d117 47bb a988 06bb 1a3f 8bbb
000000b0: 9d2d 18bb be77 d4b8 5801 5fba 9382 ebba
000000c0: e210 d039 3ca5 a1b9 271f 823b d6d7 b5ba
000000d0: 8f61 b3b9 90d8 47b9 6817 8ebb f7fc bf38
000000e0: 6eb3 0c3a 9b2f 0abb 5d64 8cb9 c02f a3bb
000000f0: 03c7 83bb 3990 d73a 5503 13ba fedb b2ba
00000100: fcf7 a6ba d170 48bb 7bfb 82bb 173f 35bb
00000110: 41fd 16bb 4197 c0ba 5f31 faba 3896 4fba
00000120: 1b94 0dbb 5495 83b9 a405 24bb 08c5 e3b9
00000130: acdf a5ba 3ead 0fbb 7e03 20bb 163d 5ebb
00000140: a3a9 0e3a 8c59 fbba 6c0d 153b bf60 1bbb
00000150: 08f9 f9ba faf2 1ebb f815 deba 2398 73bb
00000160: 6596 46bb caf6 bdba 2cd7 ab3a 5733 d83a
00000170: 5980 23b8 50e4 873a 0d50 dcba 68b0 12bb
00000180: 983b 50bb f262 e7ba 5388 bdbb e09e b4bb
00000190: c710 f8ba f600 19ba 26ec 63ba 9a4d 8dba
000001a0: b3e1 c83a 576d 3dbb 070f adbb ea99 eaba
000001b0: 7401 2fbb 16ec 3bbb f405 c8ba 8f18 71bb
000001c0: 9ca1 81bb f7d2 ce39 7324 57bb e1ff d7ba
000001d0: e329 2abb 1ab6 69bb 27b5 19bb e80e a7ba
000001e0: bd1a 253b d9a8 8eba bc0d 15bb e08f f6ba
000001f0: 45c4 7dbb ec21 35bb 9b6f 96bb c10a 69ba

action_model._continuous_distribution.log_sigma f4 [1, 2]
-0.006515805 0.016467588
00000000: 8982 d5bb 09e7 863c

action_model._continuous_distribution.mu.weight f4 [2, 128]
-0.024227992 -0.0070015164 -0.0127389245 -0.027456606 -0.010741565 -0.034903664 0.029084355 -0.017779928
0.011813246 0.020965712 -0.03870417 -0.001748658 -0.027666768 0.004573099 -0.034657616 -0.0020700304
-0.035359386 0.01791017 -0.0023020515 0.0028390763 -0.0035369755 -0.0036662517 -0.0038921433 0.034818865
0.030752065 -0.014430657 0.00013401509 0.0042833495 -0.00793795 -0.011224957 0.0013048063 0.0040326295
0.02302971 0.02295021 -0.02571538 0.004236966 -0.00025997384 -0.013092305 0.0008903318 -0.0011463261
-0.006143642 -0.0050925915 0.0035627147 0.0006906616 -0.019675832 0.0013980223 -0.0029479663 0.004369122
0.024964068 0.024433494 -0.011775261 -0.018086258 0.014105584 -0.0067163496 -0.018076226 0.022447543
-0.03185648 -0.029058967 0.0020092817 0.009942844 -0.015753666 0.019757846 -0.0062148385 0.01891478
0.014292528 -0.020723272 0.019732986 -0.026142225 -0.01725897 -0.0027186659 0.008152582 0.010785856
0.0063531967 -0.04208982 -0.018474322 -0.006733512 -0.0024896762 -0.016179537 0.0096289655 -0.0037405111
0.010929304 0.01188464 0.009300059 -0.016583709 0.010381866 -0.018017778 -0.0419652 0.0013282831
0.0055758255 -0.004301105 0.007857189 0.0003461107 0.024052247 0.04099088 0.0059973598 -0.014706775
0.000903173 0.016572664 0.008900993 0.014462218 -0.01356085 -0.0042137187 0.018364767 0.010665159
-0.0060300822 -0.026246427 -0.003856367 -0.00044398464 0.010591689 -0.003644419 0.014079368 -0.00078888703
-0.00041276694 0.029368997 -0.005441012 0.012587948 -0.0016761373 -0.023205241 0.008781545 -0.042449307
-0.035431076 -0.00025917304 -0.00902791 0.0065268865 -0.003926453 -0.012754406 -0.030341161 -0.022890296
0.0043500676 0.00739892 -0.01451103 -0.010907423 -0.024222905 -0.02746516 0.019431146 0.016519602
0.0015332155 0.02191624 -0.012481334 0.0011747787 -0.017857764 -0.024317952 0.032544803 0.007796307
-0.041670844 -0.012171881 -0.0316109 -0.0055791643 -0.024662722 0.0001840801 -0.00039364828 0.02443136
0.014398015 0.00052411226 3.2823194e-05 -0.020391775 -0.0029152473 -0.0249808 0.0048233797 0.007934816
0.017007329 -0.011861844 -0.001147741 0.009605375 -0.0011367819 0.012308854 -0.00042445766 -0.005878917
-0.0041101417 0.012404651 0.031751655 -0.009300416 0.013921633 -0.0015996522 0.036752187 0.0028865344
-0.0014718511 0.011830655 0.009922751 0.028199548 0.00520329 0.015781615 0.009528281 -0.004882845
-0.0007672084 -0.017335754 0.0015739856 0.003975742 0.0082348585 -0.009976986 -0.014897123 0.011823389
0.027478416 -0.012159981 -0.0006892595 0.025310341 0.0277838 -0.024089523 0.02915162 -0.017710097
-0.020595063 -0.037364576 0.003796604 -0.01541223 -0.027114788 0.034278918 0.009704737 0.024977203
-0.020365369 0.021210168 0.057145055 -0.03179874 0.0060064713 0.003720277 0.0012758017 0.009242635
0.011477489 0.0039184163 0.009798569 0.0011821386 0.0045471145 -0.035953667 -0.0020633137 0.021837214
0.0061146896 0.010966145 6.165554e-05 -0.0010279357 0.009939891 0.01926906 -0.00884264 0.00324196
-0.004986113 0.0034992015 -0.00042264114 0.0072114277 0.028971734 0.014261865 -0.029792251 -0.0013614042
0.009116784 -0.0053271498 0.010394919 0.032707483 0.004539157 0.01148966 0.0066857217 -0.01112302
-0.01541992 -0.00033509094 0.026395768 0.033672962 0.026907844 -0.011134724 -0.0023899637 -0.0007041863
00000000: c879 c6bc fa6c e5bb ecb6 50bc adec e0bc
00000010: 64fd 2fbc 25f7 0ebd 5042 ee3c 36a7 91bc
00000020: 588c 413c 49c0 ab3c 4488 1ebd 3a33 e5ba
00000030: 6ba5 e2bc efd9 953b 25f5 0dbd 59a9 07bb
00000040: 01d5 10bd 59b8 923c 04de 16bb cc0f 3a3b
00000050: 9acc 67bb 7f45 70bb 5413 7fbb 3a9e 0e3d
00000060: c1eb fb3c 906e 6cbc 6786 0c39 575b 8c3b
00000070: 2d0e 02bc e2e8 37bc 0906 ab3a 2624 843b
00000080: cda8 bc3c 1402 bc3c 10a9 d2bc 3fd6 8a3b
00000090: 194d 88b9 1b81 56bc 2865 693a 5240 96ba
000000a0: 9b50 c9bb c1df a6bb 6f7c 693b 840d 353a
000000b0: 362f a1bc d83d b73a ab32 41bb da2a 8f3b
000000c0: 7281 cc3c c028 c83c 06ed 40bc a229 94bc
000000d0: 1b1b 673c d314 dcbb 9814 94bc e9e3 b73c
000000e0: f17b 02bd 120d eebc 27ae 033b 4fe7 223c
000000f0: d50d 81bc 35db a13c d8a5 cbbb 2bf3 9a3c
00000100: 352b 6a3c dac3 a9bc 12a7 a13c 3828 d6bc
00000110: af62 8dbc a52b 32bb 6892 053c 29b7 303c
00000120: 7a2e d03b 6066 2cbd 7657 97bc cba4 dcbb
00000130: d629 23bb f38a 84bc cfc2 1d3c 5d23 75bb
00000140: d310 333c cbb7 423c 465f 183c 8fda 87bc
00000150: b418 2a3c 059a 93bc b4e3 2bbd c919 ae3a
00000160: 6ab5 b63b 49f0 8cbb 70bb 003c 3176 b539
00000170: 3809 c53c 0ee6 273d 8085 c43b aff4 70bc
00000180: eac2 6c3a 65c3 873c 78d5 113c f0f2 6c3c
00000190: 542e 5ebc 3c13 8abb b571 963c ebbc 2e3c
000001a0: ff97 c5bb bf02 d7bc 1abb 7cbb 9cc6 e8b9
000001b0: c388 2d3c 34d7 6ebb 26ad 663c 50cd 4eba
000001c0: a468 d8b9 4097 f03c 844a b2bb ae3d 4e3c
000001d0: d6b1 dbba eb18 bebc 78e0 0f3c 53df 2dbd
000001e0: 2d20 11bd 9ee1 87b9 cde9 13bc 7edf d53b
000001f0: 7aa9 80bb dbf7 50bc 078e f8bc 6e84 bbbc
00000200: 038b 8e3b a472 f23b acbf 6dbc 0cb5 32bc
00000210: 1d6f c6bc 9dfe e0bc 112e 9f3c 1e54 873c
00000220: 2df6 c83a b089 b33c 827e 4cbc 08fb 993a
00000230: 724a 92bc 7136 c7bc b34d 053d 2a78 ff3b
00000240: 0caf 2abd 926c 47bc 6e7a 01bd 6cd1 b6bb
00000250: 7a09 cabc a005 4139 9462 ceb9 4724 c83c
00000260: a7e5 6b3c 9464 093a a3ab 0938 a70c a7bc
00000270: bc0d 3fbb 89a4 ccbc 710d 9e3b 0801 023c
00000280: f452 8b3c 2e58 42bc cc6f 96ba dd5f 1d3c
00000290: 1200 95ba 13ab 493c be89 deb9 eea3 c0bb
000002a0: 5eae 86bb e13c 4b3c 060e 023d c660 18bc
000002b0: 9017 643c 6cab d1ba 7689 163d 032c 3d3b
000002c0: 21eb c0ba 5dd5 413c 0993 223c bd02 e73c
000002d0: 5c80 aa3b 7248 813c 821c 1c3c 4600 a0bb
000002e0: 7c1e 49ba b603 8ebc 314e ce3a f146 823b
000002f0: 80eb 063c 8376 23bc 1013 74bc e3b6 413c
00000300: 6a1a e13c a83a 47bc 6caf 34ba a257 cf3c
00000310: da9a e33c 6457 c5bc 61cf ee3c c414 91bc
00000320: fab6 a8bc 990b 19bd 72d0 783b 9483 7cbc
00000330: d51f debc 0d68 0c3d 9e00 1f3c fe9c cc3c
00000340: 46d5 a6bc f2c0 ad3c ef10 6a3d 653f 02bd
00000350: efd1 c43b e4cf 733b cd38 a73a 6c6e 173c
00000360: 140c 3c3c 0f66 803b 2d8a 203c fdf1 9a3a
00000370: f6ff 943b 2744 13bd a938 07bb f5e3 b23c
00000380: bc5d c83b 59ab 333c 114d 8138 ccbb 86ba
00000390: edda 223c 26da 9d3c b8e0 10bc 1077 543b
000003a0: 8c62 a3bb dc52 653b ef95 ddb9 d74d ec3b
000003b0: 2156 ed3c 99aa 693c e10e f4bc 2571 b2ba
000003c0: 905e 153c 5f8f aebb 734f 2a3c 48f8 053d
000003d0: 35bd 943b 203f 3c3c e613 db3b 543d 36bc
000003e0: d5a3 7cbc 25af afb9 f03b d83c a9ec 093d
000003f0: d76d dc3c 6b6e 36bc f0a0 1cbb 2599 38ba

action_model._continuous_distribution.mu.bias f4 [2]
0.0011729121 -0.0014020536
00000000: 66bc 993a 1dc5 b7ba

exp_avg f4 [128, 75]
0.0 7.3313918e-06 0.0 2.6234447e-06 0.0 2.6116147e-06 0.0 1.417848e-06
0.0 1.4177756e-06 0.0 1.0849416e-06 0.0 1.0843056e-06 0.0 1.0020557e-06
0.0 1.0016315e-06 0.0 1.0837801e-06 0.0 1.0850284e-06 0.0 1.4158722e-06
0.0 1.418018e-06 0.0 3.3663864e-06 0.0 2.6237476e-06 0.0 3.1087752e-06
0.0 3.1087752e-06 -1.15168355e-08 1.2340825e-05 -4.2208617e-07 1.3418979e-08 -9.597994e-09 6.599338e-09
2.1092706e-05 -2.5345082e-07 -1.5702092e-06 5.8883315e-06 1.0724445e-06 -1.4387605e-08 -1.3180428e-07 0.0
4.2185413e-05 8.297706e-28 0.0 0.0 0.0 2.1092706e-05 0.0 4.2185413e-05
0.00021092707 0.0 0.0 0.0 2.1092706e-05 0.0 4.2185413e-05 0.00042185414
0.0 0.0 0.0 2.1092706e-05 0.0 4.2185413e-05 0.0006327813 0.0
0.0 0.0 2.1092706e-05 0.0 -3.0364e-05 0.0 -1.0848963e-05 0.0
-1.0912262e-05 0.0 -5.877812e-06 0.0 -5.8885903e-06 0.0 -4.5052684e-06 0.0
-4.509083e-06 0.0 -4.1642e-06 0.0 -4.1612925e-06 0.0 -4.513366e-06 0.0
-4.506376e-06 0.0 -5.8949627e-06 0.0 -5.8817354e-06 0.0 -1.40796965e-05 0.0
-1.0840723e-05 0.0 -1.3020486e-05 0.0 -1.3020486e-05 -5.2396167e-08 -4.975092e-05 -1.7218299e-05
-1.3287125e-07 -5.445964e-08 5.50738e-08 -8.764922e-05 9.111501e-07 -1.222298e-05 2.730118e-05 8.871371e-06
2.6872128e-06 2.7665656e-06 0.0 -0.00017529844 2.3636556e-26 0.0 0.0 0.0
-8.764922e-05 0.0 -0.00017529844 -0.00087649206 0.0 0.0 0.0 -8.764922e-05
0.0 -0.00017529844 -0.0017529841 0.0 0.0 0.0 -8.764922e-05 0.0
-0.00017529844 -0.0026294768 0.0 0.0 0.0 -8.764922e-05 0.0 -6.404625e-05
0.0 -2.2873664e-05 0.0 -2.2810495e-05 0.0 -1.2368615e-05 0.0 -1.2383704e-05
0.0 -9.466456e-06 0.0 -9.4649295e-06 0.0 -8.744821e-06 0.0 -8.741619e-06
0.0 -9.457601e-06 0.0 -9.467859e-06 0.0 -1.2361524e-05 0.0 -1.2370749e-05
0.0 -2.930663e-05 0.0 -2.2880413e-05 0.0 -2.7065327e-05 0.0 -2.7065327e-05
7.354622e-08 -0.00010814978 1.6185568e-05 -1.2969485e-07 5.1465985e-08 -8.3991296e-08 -0.00018407805 2.2513964e-06
2.0002251e-05 -6.5506654e-05 -1.3551635e-05 -7.7668795e-07 2.9713627e-07 0.0 -0.0003681561 -1.0773557e-26
0.0 0.0 0.0 -0.00018407805 0.0 -0.0003681561 -0.001840781 0.0
0.0 0.0 -0.00018407805 0.0 -0.0003681561 -0.003681562 0.0 0.0
0.0 -0.00018407805 0.0 -0.0003681561 -0.0055223433 0.0 0.0 0.0
-0.00018407805 0.0 1.539774e-06 0.0 5.502061e-07 0.0 5.5205226e-07 0.0
2.979392e-07 0.0 2.9845256e-07 0.0 2.2824949e-07 0.0 2.2838763e-07 0.0
2.1093453e-07 0.0 2.1083243e-07 0.0 2.2846625e-07 0.0 2.2830905e-07 0.0
2.98478e-07 0.0 2.9809007e-07 0.0 7.1178005e-07 0.0 5.500248e-07 0.0
00000000: 0000 0000 2d00 f636 0000 0000 700e 3036
00000010: 0000 0000 3343 2f36 0000 0000 e34c be35
00000020: 0000 0000 664a be35 0000 0000 4f9e 9135
00000030: 0000 0000 7588 9135 0000 0000 5f7e 8635
00000040: 0000 0000 cc6f 8635 0000 0000 6776 9135
00000050: 0000 0000 4ba1 9135 0000 0000 0009 be35
00000060: 0000 0000 ba52 be35 0000 0000 14ea 6136
00000070: 0000 0000 a413 3036 0000 0000 5aa0 5036
00000080: 0000 0000 5aa0 5036 94db 45b2 710b 4f37
00000090: 159b e2b4 4b89 6632 6de4 24b2 64c0 e231
000000a0: 3ef0 b037 0412 88b4 fabf d2b5 6294 c536
000000b0: eaf0 8f35 5b2d 77b2 1686 0db4 0000 0000
000000c0: 3ef0 3038 7f7b 8312 0000 0000 0000 0000
000000d0: 0000 0000 3ef0 b037 0000 0000 3ef0 3038
000000e0: 4e2c 5d39 0000 0000 0000 0000 0000 0000
000000f0: 3ef0 b037 0000 0000 3ef0 3038 4e2c dd39
00000100: 0000 0000 0000 0000 0000 0000 3ef0 b037
00000110: 0000 0000 3ef0 3038 3ce1 253a 0000 0000
00000120: 0000 0000 0000 0000 3ef0 b037 0000 0000
00000130: 32b6 feb7 0000 0000 f103 36b7 0000 0000
00000140: cf13 37b7 0000 0000 053a c5b6 0000 0000
00000150: 9b96 c5b6 0000 0000 f62b 97b6 0000 0000
00000160: ba4c 97b6 0000 0000 35ba 8bb6 0000 0000
00000170: 3ba1 8bb6 0000 0000 8571 97b6 0000 0000
00000180: 7a35 97b6 0000 0000 58cd c5b6 0000 0000
00000190: b95b c5b6 0000 0000 d637 6cb7 0000 0000
000001a0: 8de0 35b7 0000 0000 9072 5ab7 0000 0000
000001b0: 9072 5ab7 320a 61b3 a5ab 50b8 0470 90b7
000001c0: 5fab 0eb4 02e7 69b3 498a 6c33 51d0 b7b8
000001d0: c295 7435 4d11 4db7 d604 e537 40d6 1437
000001e0: f755 3436 3ca9 3936 0000 0000 51d0 37b9
000001f0: ca15 ea14 0000 0000 0000 0000 0000 0000
00000200: 51d0 b7b8 0000 0000 51d0 37b9 63c4 65ba
00000210: 0000 0000 0000 0000 0000 0000 51d0 b7b8
00000220: 0000 0000 51d0 37b9 63c4 e5ba 0000 0000
00000230: 0000 0000 0000 0000 51d0 b7b8 0000 0000
00000240: 51d0 37b9 4d53 2cbb 0000 0000 0000 0000
00000250: 0000 0000 51d0 b7b8 0000 0000 9250 86b8
00000260: 0000 0000 d2e0 bfb7 0000 0000 2a59 bfb7
00000270: 0000 0000 cc82 4fb7 0000 0000 9bc3 4fb7
00000280: 0000 0000 1ed2 1eb7 0000 0000 90cb 1eb7
00000290: 0000 0000 b8b6 12b7 0000 0000 f8a8 12b7
000002a0: 0000 0000 16ac 1eb7 0000 0000 25d8 1eb7
000002b0: 0000 0000 5764 4fb7 0000 0000 f68b 4fb7
000002c0: 0000 0000 82d7 f5b7 0000 0000 50ef bfb7
000002d0: 0000 0000 590a e3b7 0000 0000 590a e3b7
000002e0: 76f0 9d33 79ce e2b8 3ec6 8737 4042 0bb4
000002f0: 730b 5d33 b45e b4b3 1305 41b9 b216 1736
00000300: 82ca a737 9e60 89b8 d45b 63b7 977d 50b5
00000310: 1986 9f34 0000 0000 1305 c1b9 6d64 5594
00000320: 0000 0000 0000 0000 0000 0000 1305 41b9
00000330: 0000 0000 1305 c1b9 5c46 f1ba 0000 0000
00000340: 0000 0000 0000 0000 1305 41b9 0000 0000
00000350: 1305 c1b9 5c46 71bb 0000 0000 0000 0000
00000360: 0000 0000 1305 41b9 0000 0000 1305 c1b9
00000370: c6f4 b4bb 0000 0000 0000 0000 0000 0000
00000380: 1305 41b9 0000 0000 3baa ce35 0000 0000
00000390: e0b1 1335 0000 0000 be30 1435 0000 0000
000003a0: 74f4 9f34 0000 0000 023b a034 0000 0000
000003b0: be14 7534 0000 0000 b73a 7534 0000 0000
000003c0: 3e7d 6234 0000 0000 2d61 6234 0000 0000
000003d0: 5350 7534 0000 0000 1d25 7534 0000 0000
000003e0: 813e a034 0000 0000 3009 a034 0000 0000
000003f0: 2711 3f35 0000 0000 6ba5 1335 0000 0000

exp_avg_sq f4 [128, 75]
0.0 2.221698e-09 0.0 3.458441e-10 0.0 2.741726e-10 0.0 9.328003e-11
0.0 8.282118e-11 0.0 5.249599e-11 0.0 4.9308075e-11 0.0 4.3731317e-11
0.0 4.264824e-11 0.0 5.0346966e-11 0.0 5.076293e-11 0.0 8.430384e-11
0.0 8.962205e-11 0.0 5.191572e-10 0.0 3.239027e-10 0.0 4.4262372e-10
0.0 4.4262372e-10 7.987009e-10 6.502874e-09 5.5437013e-08 3.768155e-14 1.1768247e-11 2.6405591e-15
1.9052196e-08 3.3663902e-10 5.984775e-11 2.7419256e-09 1.9125078e-11 2.7435188e-11 4.5321854e-12 0.0
7.6257656e-08 1.800192e-09 0.0 0.0 0.0 1.9064414e-08 0.0 7.6257656e-08
1.9170964e-06 0.0 0.0 0.0 1.9064414e-08 0.0 7.6257656e-08 7.645274e-06
0.0 0.0 0.0 1.9064414e-08 0.0 7.6257656e-08 1.718632e-05 0.0
0.0 0.0 1.9064414e-08 0.0 7.6370604e-08 0.0 1.2846271e-08 0.0
9.483649e-09 0.0 4.4124646e-09 0.0 2.8774048e-09 0.0 2.2754052e-09 0.0
1.7216952e-09 0.0 1.6971116e-09 0.0 1.5005123e-09 0.0 1.8460664e-09 0.0
1.8407658e-09 0.0 3.011832e-09 0.0 3.689817e-09 0.0 1.7831029e-08 0.0
1.1991336e-08 0.0 1.5855885e-08 0.0 1.5855885e-08 3.2574292e-07 2.3173158e-07 3.8955354e-06
1.2369298e-12 2.3282727e-09 1.915017e-13 6.772107e-07 1.4494944e-07 2.1057165e-09 2.6688792e-07 6.454e-10
3.1831404e-09 1.6941291e-10 0.0 2.7194706e-06 1.812128e-06 0.0 0.0 0.0
6.7986764e-07 0.0 2.7194706e-06 7.4862495e-05 0.0 0.0 0.0 6.7986764e-07
0.0 2.7194706e-06 0.00028388642 0.0 0.0 0.0 6.7986764e-07 0.0
2.7194706e-06 0.0006288832 0.0 0.0 0.0 6.7986764e-07 0.0 2.8565188e-07
0.0 4.4924423e-08 0.0 3.571321e-08 0.0 1.4999216e-08 0.0 1.0744295e-08
0.0 8.136097e-09 0.0 6.3928107e-09 0.0 6.050295e-09 0.0 5.538121e-09
0.0 6.7172725e-09 0.0 6.6775963e-09 0.0 1.1085073e-08 0.0 1.2920625e-08
0.0 6.518286e-08 0.0 4.2600707e-08 0.0 5.7292375e-08 0.0 5.7292375e-08
1.0181343e-06 8.4929997e-07 1.0242659e-05 4.710314e-12 6.670574e-09 8.3966005e-13 2.485505e-06 4.5569539e-07
8.370761e-09 7.225627e-07 2.587043e-09 1.2092293e-08 6.0640915e-10 0.0 9.968755e-06 5.1809657e-06
0.0 0.0 0.0 2.4921887e-06 0.0 9.968755e-06 0.00026739453 0.0
0.0 0.0 2.4921887e-06 0.0 9.968755e-06 0.0010280453 0.0 0.0
0.0 2.4921887e-06 0.0 9.968755e-06 0.0022871357 0.0 0.0 0.0
2.4921887e-06 0.0 2.3321914e-11 0.0 3.4216894e-12 0.0 2.9126445e-12 0.0
9.810039e-13 0.0 8.7247673e-13 0.0 5.508474e-13 0.0 5.1704317e-13 0.0
4.557259e-13 0.0 4.4554012e-13 0.0 5.2549414e-13 0.0 5.282607e-13 0.0
8.835331e-13 0.0 9.341408e-13 0.0 5.2866266e-12 0.0 3.2760507e-12 0.0
00000000: 0000 0000 86ac 1831 0000 0000 3b21 be2f
00000010: 0000 0000 5dba 962f 0000 0000 fd1f cd2e
00000020: 0000 0000 2e20 b62e 0000 0000 3be1 662e
00000030: 0000 0000 f5db 582e 0000 0000 1655 402e
00000040: 0000 0000 a691 3b2e 0000 0000 a56d 5d2e
00000050: 0000 0000 fa41 5f2e 0000 0000 d862 b92e
00000060: 0000 0000 bb14 c52e 0000 0000 71b4 0e30
00000070: 0000 0000 4111 b22f 0000 0000 c055 f32f
00000080: 0000 0000 c055 f32f 948b 5b30 e26f df31
00000090: a419 6e33 dfb3 2929 7907 4f2d b845 3e27
000000a0: 39a8 a332 bb11 b92f 4a9b 832e 776c 3c31
000000b0: d939 a82d 8d52 f12d 4c76 9f2c 0000 0000
000000c0: 17c3 a333 a06a f730 0000 0000 0000 0000
000000d0: 0000 0000 17c3 a332 0000 0000 17c3 a333
000000e0: 77a7 0036 0000 0000 0000 0000 0000 0000
000000f0: 17c3 a332 0000 0000 17c3 a333 3444 0037
00000100: 0000 0000 0000 0000 0000 0000 17c3 a332
00000110: 0000 0000 17c3 a333 572b 9037 0000 0000
00000120: 0000 0000 0000 0000 17c3 a332 0000 0000
00000130: 2f01 a433 0000 0000 7fb2 5c32 0000 0000
00000140: 88ed 2232 0000 0000 739c 9731 0000 0000
00000150: d7bb 4531 0000 0000 5a5d 1c31 0000 0000
00000160: c4a0 ec30 0000 0000 ce3f e930 0000 0000
00000170: 953a ce30 0000 0000 b0b8 fd30 0000 0000
00000180: 30fe fc30 0000 0000 b5f8 4e31 0000 0000
00000190: f28f 7d31 0000 0000 d92a 9932 0000 0000
000001a0: 7402 4e32 0000 0000 7633 8832 0000 0000
000001b0: 7633 8832 c4e1 ae34 e4d1 7834 65b6 8236
000001c0: 1815 ae2b 68ff 1f31 9b9c 572a 91c9 3535
000001d0: 66a3 1b34 28b4 1031 cc48 8f34 fd67 3130
000001e0: 66be 5a31 7f45 3a2f 0000 0000 2680 3636
000001f0: 3e38 f335 0000 0000 0000 0000 0000 0000
00000200: 2680 3635 0000 0000 2680 3636 7fff 9c38
00000210: 0000 0000 0000 0000 0000 0000 2680 3635
00000220: 0000 0000 2680 3636 97d6 9439 0000 0000
00000230: 0000 0000 0000 0000 2680 3635 0000 0000
00000240: 2680 3636 a3db 243a 0000 0000 0000 0000
00000250: 0000 0000 2680 3635 0000 0000 b25b 9934
00000260: 0000 0000 edf2 4033 0000 0000 1763 1933
00000270: 0000 0000 a0d7 8032 0000 0000 e995 3832
00000280: 0000 0000 efc6 0b32 0000 0000 c2a7 db31
00000290: 0000 0000 f5e2 cf31 0000 0000 d449 be31
000002a0: 0000 0000 c1cd e631 0000 0000 c270 e531
000002b0: 0000 0000 ab70 3e32 0000 0000 82f9 5d32
000002c0: 0000 0000 a8fa 8b33 0000 0000 f9f7 3633
000002d0: 0000 0000 a211 7633 0000 0000 a211 7633
000002e0: d4a6 8835 73fb 6335 e3d7 2b37 bdba a52c
000002f0: fd32 e531 e257 6c2b a7cc 2636 4ca6 f434
00000300: ffce 0f32 21f6 4135 bec7 3131 78be 4f32
00000310: 40b0 2630 0000 0000 7a3f 2737 28d8 ad36
00000320: 0000 0000 0000 0000 0000 0000 7a3f 2736
00000330: 0000 0000 7a3f 2737 1631 8c39 0000 0000
00000340: 0000 0000 0000 0000 7a3f 2736 0000 0000
00000350: 7a3f 2737 7abf 863a 0000 0000 0000 0000
00000360: 0000 0000 7a3f 2736 0000 0000 7a3f 2737
00000370: c5e3 153b 0000 0000 0000 0000 0000 0000
00000380: 7a3f 2736 0000 0000 4824 cd2d 0000 0000
00000390: adc7 702c 0000 0000 8af5 4c2c 0000 0000
000003a0: 6410 8a2b 0000 0000 9394 752b 0000 0000
000003b0: bd0c 1b2b 0000 0000 e388 112b 0000 0000
000003c0: 8346 002b 0000 0000 19d1 fa2a 0000 0000
000003d0: d8e9 132b 0000 0000 32b1 142b 0000 0000
000003e0: 45b1 782b 0000 0000 f877 832b 0000 0000
000003f0: b301 ba2c 0000 0000 1588 662c 0000 0000

exp_avg f4 [128]
2.1100783e-05 -8.769798e-05 -0.00018399188 4.440181e-06 -4.837286e-05 5.9632916e-06 0.0005818366 2.2497732e-05
-6.196574e-06 -2.6600643e-05 3.7437196e-05 -1.3986214e-07 -7.362005e-05 2.8421226e-05 0.00040409784 -0.0006193843
-0.00034671163 -0.0003428061 -0.00011703926 0.0006788634 1.33033545e-05 -2.4385395e-07 -0.00025080526 6.598728e-05
-4.8207898e-05 -0.00040685572 -0.00042204137 0.00016692304 4.239044e-07 3.0265774e-06 -8.5049054e-05 3.9121784e-05
-0.00031405946 0.00020160721 8.759117e-05 0.0008653915 -8.7763256e-05 1.5712077e-07 -8.46828e-05 -0.00046922255
-8.379921e-05 -0.00014617044 1.1383483e-05 3.6898527e-07 -8.080508e-06 0.00032331175 1.7430019e-06 -4.18858e-06
-0.00022266958 5.6667784e-07 -9.956397e-07 0.00048089068 8.0790477e-07 -7.0572474e-07 0.00040685787 0.00026791592
-9.0938065e-06 1.4079061e-05 -9.683039e-05 -0.00016969214 5.72202e-06 7.245337e-08 1.0651406e-06 -0.0004686627
-0.00014395427 -1.2139666e-05 -0.00054953946 3.2351494e-05 0.0007681693 -9.195219e-06 -6.914683e-06 6.0543425e-07
0.0004083066 0.00029345858 4.0364423e-08 -1.3324379e-07 5.3659905e-06 7.43902e-05 0.00055101357 -2.654726e-05
-0.00043115704 0.00029700212 -8.596869e-06 0.00040500585 0.0010924235 -0.0004787973 2.4225545e-05 2.2927396e-05
1.9848945e-05 -0.0002623742 -6.5116765e-05 -5.1304298e-05 -0.0009847842 5.9772633e-06 2.234045e-05 -0.00011791868
-0.00033947444 1.9991403e-06 7.2620765e-06 0.00017297786 1.1297411e-05 0.0002569833 -0.00037053763 0.00036142435
-3.360651e-07 0.00061177014 -4.7023503e-05 4.6592857e-05 -1.849286e-08 9.33714e-06 -1.0736162e-05 -4.0651536e-05
0.00016728345 1.7372857e-07 -0.00028346744 0.00012109745 -2.2276506e-08 -1.7272733e-06 -0.00012838563 -0.0003128616
-5.6447e-05 0.00030087976 9.629446e-05 -3.6439294e-06 -1.3724481e-05 -0.0010352139 -6.0396214e-05 2.3957395e-05
00000000: 9601 b137 7fea b7b8 f2ed 40b9 ddfc 9436
00000010: f7e3 4ab8 4918 c836 6586 183a 83b9 bc37
00000020: 2aec cfb6 7224 dfb7 e205 1d38 032d 16b4
00000030: 7764 9ab8 1e6a ee37 18dd d339 2d5e 22ba
00000040: d9c6 b5b9 a8ba b3b9 f972 f5b8 c0f5 313a
00000050: 7931 5f37 08eb 82b4 837e 83b9 a762 8a38
00000060: d632 4ab8 404f d5b9 6f45 ddb9 1008 2f39
00000070: fa94 e334 341c 4b36 5d5c b2b8 b216 2438
00000080: 59a8 a4b9 8666 5339 27b1 b738 71db 623a
00000090: 8a0d b8b8 07b5 2834 bb97 b1b8 fc01 f6b9
000000a0: 5cbd afb8 5445 19b9 b0fb 3e37 f318 c634
000000b0: 8591 07b7 2b82 a939 17f1 e935 a18b 8cb6
000000c0: 697c 69b9 ce1d 1835 eba1 85b5 0e20 fc39
000000d0: cbde 5835 0971 3db5 8a4f d539 1177 8c39
000000e0: 9a91 18b7 1b35 6c37 6b11 cbb8 63ef 31b9
000000f0: c7ff bf36 a997 9b33 f4f5 8e35 d8b6 f5b9
00000100: 6ef2 16b9 78ab 4bb7 f80e 10ba 27b1 0738
00000110: f85e 493a 2a45 1ab7 ad04 e8b6 2085 2235
00000120: fc11 d639 58db 9939 275d 2d33 c611 0fb4
00000130: 820d b436 ef01 9c38 e571 103a cfb1 deb7
00000140: eb0c e2b9 f3b6 9b39 453b 10b7 f756 d439
00000150: a62f 8f3a 1607 fbb9 f637 cb37 3554 c037
00000160: 4981 a637 458f 89b9 4c8f 88b8 922f 57b8
00000170: e013 81ba 4d90 c836 c067 bb37 1c4b f7b8
00000180: 7dfb b1b9 f828 0636 c3ac f336 6461 3539
00000190: 038a 3d37 b7bb 8639 b844 c2b9 8e7d bd39
000001a0: 706c b4b4 335f 203a 1a3b 45b8 b36c 4338
000001b0: 3bda 9eb2 b6a6 1c37 771f 34b7 4181 2ab8
000001c0: cf68 2f39 258a 3a34 5b9e 94b9 b3f5 fd38
000001d0: 8e5a bfb2 a9d4 e7b5 419f 06b9 9307 a4b9
000001e0: 81c1 6cb8 66bf 9d39 b2f1 c938 3b8a 74b6
000001f0: 3242 66b7 04b0 87ba f151 7db8 1df8 c837

exp_avg_sq f4 [128]
1.906399e-08 6.7986906e-07 2.492278e-06 1.9867394e-10 1.6938417e-08 1.7602415e-10 2.9597331e-06 5.1141806e-09
2.84725e-10 7.671588e-07 2.1350393e-08 7.4534675e-12 3.4528142e-08 1.48636365e-08 1.3328831e-06 4.6677515e-06
9.716198e-07 1.0313137e-06 1.6233896e-06 6.931658e-06 1.3086421e-09 1.8236627e-12 3.4012637e-06 3.1448558e-08
2.128958e-08 1.7285948e-06 2.585355e-06 5.463838e-07 2.5124046e-12 1.1516224e-06 1.2343652e-06 7.882898e-08
1.8771397e-06 2.6960936e-06 2.2786478e-06 5.63849e-06 2.3684312e-07 3.1572471e-13 7.8814274e-08 3.949358e-06
1.4082919e-07 8.658266e-07 2.0194244e-09 4.8665344e-10 4.944835e-09 9.250448e-07 2.2423358e-10 2.0096283e-10
1.8473082e-06 3.6433573e-12 6.3549335e-09 8.427959e-06 3.0925327e-12 4.6494037e-12 7.496311e-06 1.8483637e-06
1.6751883e-07 1.9386004e-08 4.771075e-07 1.4577095e-06 1.297086e-09 1.9726992e-13 1.5878557e-08 1.967758e-06
4.138204e-07 1.3442409e-08 1.814241e-06 1.2560195e-05 5.05856e-06 3.8974295e-09 2.4343485e-09 9.122681e-12
7.7247387e-07 3.1129923e-06 9.721943e-11 4.116684e-12 1.0845187e-09 8.95819e-08 2.576175e-06 6.979206e-09
1.3059533e-06 1.051896e-06 4.6662185e-09 1.6069174e-06 1.1706334e-05 2.0704906e-06 6.5830955e-06 3.1440333e-09
3.4243806e-06 1.0462396e-06 3.0616363e-08 8.710026e-08 9.066971e-06 4.9331144e-09 9.361316e-08 8.9569096e-07
9.972204e-07 7.743345e-11 9.620489e-10 1.819974e-07 1.8749825e-08 3.5747408e-07 1.3410751e-06 1.3175625e-06
1.8214015e-12 2.3569023e-06 1.6014615e-08 2.703444e-07 3.3382356e-15 1.3092799e-08 1.5563039e-09 4.4584965e-08
1.2614262e-06 2.0000236e-10 1.5730345e-06 5.732809e-07 1.3274768e-11 2.0322364e-07 6.143301e-08 1.4558618e-06
1.8568812e-08 7.5248795e-07 8.6944844e-08 2.3521547e-09 8.91576e-09 1.0200147e-05 3.0660267e-08 5.826329e-09
00000000: 28c2 a332 3f80 3635 0341 2736 be71 5a2f
00000010: f97f 9132 658a 412f d49f 4636 cfb8 af31
00000020: 7b87 9c2f c0ee 4d35 0366 b732 6f1f 032d
00000030: 184c 1433 f75a 7f32 84e5 b235 ae9f 9c36
00000040: 9a68 8235 ab6b 8a35 3ee3 d935 7d96 e836
00000050: c0db b330 3054 002c 4441 6436 0e12 0733
00000060: 48e0 b632 1102 e835 1080 2d36 35ab 1235
00000070: 75cb 302c 7291 9a35 77ac a535 b148 a933
00000080: 07f2 fb35 89ee 3436 dfea 1836 4332 bd36
00000090: f14e 7e34 babc b12a 9b40 a933 ba84 8436
000000a0: d536 1734 276b 6835 17c6 0a31 31c5 0530
000000b0: 3be7 a931 9850 7835 248c 762f 02f6 5c2f
000000c0: 07f1 f735 7230 802c 965a da31 cf65 0d37
000000d0: 1e9e 592c 1b96 a32c d288 fb36 4b15 f835
000000e0: 3adf 3334 4686 a632 9412 0035 84a6 c335
000000f0: 2845 b230 2f1b 5e2a 5165 8832 d30d 0436
00000100: 0b2b de34 57f0 6632 d980 f335 a0b9 5237
00000110: b3bc a936 27ea 8531 8349 2731 e77c 202d
00000120: 005c 4f35 cde8 5036 acc9 d52e cbd7 902c
00000130: 1c0e 9530 2c60 c033 59e2 2c36 bfcd ef31
00000140: 3748 af35 df2e 8d35 7e54 a031 43ad d735
00000150: 5266 4437 c2f2 0a36 5ce4 dc36 6b0e 5831
00000160: 69ce 6536 856c 8c35 0c7f 0333 e00b bb33
00000170: 581e 1837 2280 a931 6108 c933 6a6f 7035
00000180: 3bd8 8535 2847 aa2e 1639 8430 106b 4334
00000190: 4d0f a132 ddea bf34 fdfe b335 1ad7 b035
000001a0: 742b 002c 462b 1e36 8390 8932 da23 9134
000001b0: 948b 7027 bdee 6032 93e5 d530 b07d 3f33
000001c0: 464e a935 a9e7 5b2f 0e21 d335 90e3 1935
000001d0: 3d88 692d b035 5a34 28ed 8333 0867 c335
000001e0: 4081 9f32 94fe 4935 6fb6 ba33 8ba3 2131
000001f0: ed2b 1932 4c21 2b37 52af 0333 ef30 c831
