Unity Project/CSC 30014 Project/results/test/Car/Car-500044.pt (torch, 651359 bytes, 36 tensors)

network_body._body_endoder.seq_layers.0.weight f4 [128, 75]
000000 85 62 73 3e 10 5e 3b be 55 dc a2 3d 91 e9 eb 3d
       0.23768051 -0.18297601 0.07952181 0.11519159
000010 8e 18 17 3d 0c e2 37 3c 8e e1 86 bd 48 7e df bd
       0.03688865 0.011223327 -0.0658599 -0.10912758
000020 dd 2a 4a 3d 13 ce 27 bd f6 71 6e bd ef c0 e0 bd
       0.049357284 -0.040968012 -0.05821415 -0.10974299
000030 b9 9f a1 3d 7e 58 43 bc 2f b8 a4 bc a0 99 fc bc
       0.07891793 -0.011922954 -0.020107357 -0.030834973
000040 60 39 82 bb f2 c9 91 bd c0 12 94 bd 69 35 4d 3e
       -0.003974125 -0.07118596 -0.07230139 0.20039906
000050 1b 43 35 3d 4c 91 08 3e 6c 88 94 be 05 39 b7 bd
       0.04425345 0.13336676 -0.29010332 -0.089464225
000060 be 93 45 3e ad a7 77 bd 61 34 f0 bb 48 97 1b 3d
       0.1929464 -0.060462642 -0.007330463 0.03798607
000070 7c 57 4b 3d 35 9a 87 ba fe 92 ce 3b 3d d9 47 be
       0.04964398 -0.001034564 0.006304144 -0.19516464
000080 9b 8c b6 bd 93 76 49 3c 37 aa dc 3c 5e 0c aa bd
       -0.08913537 0.012296337 0.026936634 -0.0830314
000090 35 15 09 be 26 1e a1 bd 04 c5 19 3d da 79 63 3e
       -0.13386996 -0.078670785 0.037541404 0.22214451
0000a0 e9 85 c1 3d 0d 5f 18 be f5 48 da 39 c6 ed 64 3e
       0.094493695 -0.14880009 0.00041634557 0.22356328
0000b0 06 6e 7f bd 3e 23 ae bd c5 bf 50 be c1 f6 2a bb
       -0.062360786 -0.08502816 -0.20385654 -0.0026087018
0000c0 0c b1 81 bd ff f2 a2 bc 15 76 c8 3e fc 60 6e 3d
       -0.06332597 -0.01989126 0.3915259 0.05819796
0000d0 6b 24 36 3c 31 d4 31 bd 26 c0 8e be 06 22 c1 bd
       0.011117081 -0.043415252 -0.27880973 -0.094303176
0000e0 0b 38 9b 3a 8f 24 73 3b df e9 b8 bb 2f 93 14 bd
       0.0011842264 0.0037100648 -0.005643114 -0.036273178
0000f0 86 3c 96 3d 0c c3 65 bd 87 35 22 bd 57 2f a9 3d
       0.07335763 -0.056094214 -0.03960183 0.082609825
000100 23 bd 56 be 41 3b ea b9 6a 66 08 bd 37 13 1d 3e
       -0.20970587 -0.00044676106 -0.033300795 0.15339361
000110 cc 63 d8 3d 68 8a 4b 3e 2a af 10 3e 18 72 f8 3d
       0.1056591 0.19877017 0.1412932 0.12131137
000120 17 cf 0a be cb af 8e 3c 3c d0 09 bd b0 c7 8d bd
       -0.13555561 0.017417809 -0.033645853 -0.06922853
000130 02 cd 4d 3e 6d b9 9c bd e8 7d 65 bd ff fb 45 3d
       0.20097736 -0.07652555 -0.056028277 0.048336025
000140 94 4b 15 3e 8c 48 23 bd e1 f8 0c be f5 8c f5 bd
       0.14579612 -0.039864108 -0.13766815 -0.11989776
000150 89 63 22 3d a1 79 93 3c 32 98 49 be af 70 43 be
       0.039645705 0.018002333 -0.19686964 -0.19085954
000160 b6 7d 50 3d 4d e6 f2 b7 38 ee b5 3d a4 23 0b 3d
       0.050901137 -2.895589e-05 0.08883327 0.033969536
000170 46 72 1b be 60 5d 5f 3e 0d 0d 1a bd 6a ff e1 bd
       -0.1518031 0.21812963 -0.037610102 -0.110350445
000180 c8 c6 c5 bc 60 56 26 3c 7a bc 33 be 60 b8 fa bd
       -0.024142638 0.010152429 -0.17552367 -0.12242198
000190 db 91 a7 3d e5 90 94 bd 4b ff 81 3d 10 b6 f6 3b
       0.081821166 -0.07254199 0.063475214 0.0075290278
0001a0 e2 ce f2 3a 88 ba 66 3d f3 73 45 3d 26 a0 32 bd
       0.0018524791 0.056330234 0.04820628 -0.04360976
0001b0 96 ce 0a be ee af 69 bd 51 0a 9e 3e 4a ea 38 be
       -0.13555369 -0.057052545 0.30867246 -0.18058124
0001c0 c0 e3 88 3d 7e b0 d9 3d 53 d0 90 3d fb 89 cd bd
       0.06684065 0.10629366 0.07070985 -0.10036083
0001d0 3a 13 00 be d0 df 3f 3c e1 d6 c4 bc 18 c3 4c 3d
       -0.12507334 0.011711076 -0.024028243 0.049990743
0001e0 7a 21 9d 3d 6f a4 52 be dc ff 16 3e 40 35 8d 3d
       0.07672401 -0.20570539 0.1474604 0.06894922
0001f0 16 f7 c4 3d f4 3b 3e 3d da de 6e 3d d5 ab ae bd
       0.096174404 0.046443895 0.058317997 -0.08528868
000200 48 3d 77 3d af 11 7c 3d 60 3d fc 3d 43 28 a0 bd
       0.060361177 0.061540302 0.12316394 -0.07820179
000210 02 c2 0a 3e ed b3 92 be 8a b6 59 3d 8f 05 d0 bd
       0.1355057 -0.28652897 0.0531526 -0.1015731
000220 68 73 b1 3d f2 bd f3 3b 67 32 98 3d 3e 48 a6 bc
       0.0866459 0.0074384147 0.074314885 -0.02029812
000230 1f fd 67 3d 0a a0 3a 3d ba 41 13 be 14 f6 4a be
       0.05663788 0.04556278 -0.14380541 -0.19820434
000240 5e 61 a2 3d 55 c7 9e bd fa 2b 97 3d 61 63 41 3d
       0.079287276 -0.07752863 0.07381435 0.047213916
000250 c1 ef b6 3c d1 f7 29 3d ca fc 96 3c 31 46 54 3c
       0.02233112 0.0414961 0.018431086 0.012956188
000260 6f 67 97 bd 01 13 50 3e 3a b6 56 3e f6 99 dc 3c
       -0.07392775 0.2031975 0.20967951 0.026928883
000270 cf 77 01 3e 73 80 75 bd 55 04 dc 3d ee 2b 69 be
       0.1264336 -0.05993695 0.10743014 -0.22770664
000280 6b ed 85 3d a2 0e b9 3b 9f 4f 49 be 1d 1e 24 3d
       0.065394245 0.0056474963 -0.1965928 0.04006778
000290 e1 60 f6 bb 59 a3 93 3d 7e 11 84 bd 93 ca 0e be
       -0.007518873 0.072088905 -0.06448649 -0.13944463
0002a0 eb 5a fc 3c f5 6d c4 bd 19 a8 41 bd 8d 8b a4 bd
       0.030805072 -0.09591285 -0.04727945 -0.0803443
0002b0 a6 f2 bc 3b cf d5 46 3d 7f 91 d2 3d b8 5f 59 3d
       0.0057662306 0.048543748 0.102816574 0.0530698
0002c0 21 de af 3c 1c 76 e3 bd 12 c8 60 3e 40 8d 91 3c
       0.021468224 -0.11106512 0.21951321 0.017767549
0002d0 7b 97 19 be 31 96 45 3d 1b 45 5d 3b 27 7c 15 bd
       -0.14999191 0.048238937 0.0033763114 -0.036495354
0002e0 aa 48 45 bc ab 1e 89 3d 3a ad d6 bd 51 13 03 3e
       -0.01204125 0.066953026 -0.10482259 0.12800337
0002f0 3a 14 b9 3c b6 3b 2b 3d db d0 89 3d 0d a4 66 3e
       0.022592653 0.04180499 0.06729289 0.22523518
000300 dd d1 1b bd 4a 45 e3 3d 00 e2 01 3d 15 2c f4 3d
       -0.038041938 0.110972 0.03170967 0.119224705
000310 ec 01 1b be d1 45 a6 3d 76 30 96 bd e1 58 d2 bc
       -0.15137452 0.08118785 -0.07333462 -0.025677146
000320 fd ff 19 bc 92 32 bd bd 9a 89 b5 3d b9 17 c6 3d
       -0.009399411 -0.09238161 0.08864136 0.096724935
000330 4d ef fb 3b 7d d0 a4 bd d3 7a d9 bc cc 58 4f be
       0.007688439 -0.080475785 -0.026547825 -0.20248717
000340 bd f7 29 be 0a c6 db 3b cf 17 c4 3d 9b 23 1c be
       -0.16598411 0.0067069577 0.09574854 -0.15247957
000350 4b 41 ef 3d ff 4b 19 3e 94 56 2c be bd a7 1d 3e
       0.116823755 0.14970396 -0.16829902 0.15396018
000360 11 10 ac bc 0d 49 23 3d 90 b7 06 be 58 28 ef 3d
       -0.021003755 0.03986459 -0.13155961 0.11677617
000370 54 13 0e be 23 12 45 bd 4b c6 e0 3d b6 6f d5 bd
       -0.1387456 -0.048113 0.109753214 -0.10421698
000380 c0 57 da bc 36 9c 33 3d 9a 29 8d 3d 98 ce 7c bd
       -0.02665317 0.043850146 0.068927005 -0.06172046
000390 b9 cb 9c 3d 2d e7 ad bd 1d da dd bc ee a0 5b 3d
       0.076560445 -0.08491359 -0.027081544 0.05362027
0003a0 63 ae cd bc 0a 68 13 3e 86 e1 9f bc 71 7e b5 3d
       -0.025107568 0.14395157 -0.019516718 0.088620074
0003b0 32 bd 47 3e f9 35 72 bc de 5a d6 3d 85 59 b7 bd
       0.19505766 -0.014783376 0.1046655 -0.08952621
0003c0 de 83 8d 3d 6d e0 36 be 0c 17 ca bd 64 14 f6 bd
       0.06909917 -0.17859049 -0.09867677 -0.12015608
0003d0 7e 71 4d 3e 1e e4 17 bc 81 7d 4e 3c f4 aa c3 3c
       0.20062825 -0.009270696 0.012603165 0.023885228
0003e0 c4 58 8d bc 3b 34 69 3c 5b c9 16 bd 80 6f ef bd
       -0.01725424 0.014233644 -0.03681312 -0.11691189
0003f0 dc 3f d6 bd 59 8b 10 3b 5d f8 40 3d 3a 35 04 3b
       -0.10461399 0.0022055714 0.047111858 0.0020173327

network_body._body_endoder.seq_layers.0.bias f4 [128]
000000 c0 a6 06 3c b2 9e 12 3c 98 29 a3 3c 61 57 91 3c
       0.008218467 0.008948969 0.019917294 0.01774186
000010 20 e6 29 bb 25 1a 85 bc b1 51 3b 3c 92 b2 57 3c
       -0.0025924519 -0.016247818 0.011433051 0.013165133
000020 83 0d a3 3c 9d 5b 78 3a 8a 70 25 bb 4c 7e 76 3a
       0.019903904 0.00094741007 -0.002524408 0.0009402975
000030 0b ff 28 3c 84 3a 7b 3a 5f 28 d0 3a 61 6f ff bb
       0.010314713 0.00095836096 0.0015881172 -0.00779526
000040 4d 67 88 3c 95 a8 00 3d a3 db 84 3c dd a2 04 3b
       0.01665082 0.031410772 0.016218012 0.0020238676
000050 51 4d 31 bb 06 1b c1 3a c4 09 4c 3b 92 e2 48 bb
       -0.002705414 0.0014732785 0.003113375 -0.0030652625
000060 66 6e a3 3b f4 37 02 3c 15 70 82 3c 63 32 08 bc
       0.0049875258 0.007947911 0.015922586 -0.008312794
000070 e3 a7 3d bb af 36 57 bc 81 12 95 bb f0 1c e0 3b
       -0.002893918 -0.013135596 -0.004549325 0.006839387
000080 a7 0c 5c bc 31 62 4a bb 88 94 97 ba 67 9e 22 bc
       -0.013430751 -0.003088128 -0.0011564652 -0.009925461
000090 42 93 9b 3c 08 4d 0c bc 1b 42 e9 3c 2f 5b 01 3c
       0.018991116 -0.008563288 0.028473904 0.007895275
0000a0 98 69 45 3c 38 7f 85 bb 2a 26 af 3a 1d 3b 4b 3c
       0.012049101 -0.0040740035 0.0013362814 0.01240423
0000b0 38 cd 15 3a e5 a9 d2 ba bc e1 1e 3d d5 af 1b bc
       0.0005714479 -0.0016072361 0.038789496 -0.009502371
0000c0 50 76 23 3d cb ce e8 3a b9 a0 8c 3c 3f 51 22 3c
       0.039907753 0.0017761824 0.017166482 0.009907066
0000d0 93 4f ae ba e4 8d b2 ba 34 30 9c 3c 70 2e 1b bc
       -0.0013298861 -0.0013622609 0.019065954 -0.009471521
0000e0 d3 e4 93 bc 73 aa a9 3c 44 c0 f1 b9 81 c4 1f bc
       -0.018053448 0.02071116 -0.0004611035 -0.00975144
0000f0 bb 88 78 3c d6 52 c7 3b cc 0d b9 3c 57 8a 90 bc
       0.015169318 0.006082873 0.022589587 -0.01764409
000100 fb 5b af 3b 94 5f 1c bb 60 2a 14 bc 04 bf 20 3c
       0.005351541 -0.002386068 -0.009043306 0.009811167
000110 e2 63 4b 3d 68 a3 71 bc 30 d7 28 3c 25 cf 23 3d
       0.049655803 -0.014748432 0.010305211 0.03999247
000120 89 2a 8a 3c bf 8f 52 3a 0d 61 eb ba 7d 9c 02 bc
       0.016865985 0.0008032284 -0.0017958 -0.00797188
000130 13 1a 29 3c 6f cc 41 bc e7 d2 2e 3d 4b 20 b5 bb
       0.010321158 -0.011828526 0.0426816 -0.0055275313
000140 73 51 b7 3c 21 8d 5c 3c 82 de e1 bb db 40 9f ba
       0.022377705 0.013461382 -0.00689298 -0.0012150066
000150 32 d7 cb 3c d2 c2 9a 3b 47 0b 29 3d 44 8e 9e bc
       0.024882887 0.0047229314 0.04127052 -0.019354947
000160 fe 0b 9f 3c c6 1a cf 3b 0e 50 9b 3b 15 d9 92 3b
       0.019414898 0.0063203303 0.004739768 0.0044814446
000170 ea 23 27 3c a9 9b 93 3b 85 91 53 3c 9e 73 cb bb
       0.010201434 0.00450464 0.0129131125 -0.006208851
000180 f9 32 58 3d f4 54 c2 bb 92 38 99 bb 4d 7a be 3b
       0.052782986 -0.0059305374 -0.004675933 0.0058129192
000190 7c 18 25 3c 33 1d d9 bb 75 29 f8 3b 47 1c 94 3b
       0.010076638 -0.0066257953 0.0075733014 0.0045199725
0001a0 b5 4a bc 3b e8 43 1e bc 12 a3 d2 39 ee c7 06 bc
       0.0057462105 -0.009659745 0.00040175818 -0.008226378
0001b0 8b 8c 80 bc 63 8c 3c 3c 6a 74 31 3b cc a3 df 3a
       -0.015692016 0.01150808 0.0027077445 0.0017062365
0001c0 90 f1 a5 3b b4 97 34 3d cc 83 21 bc 54 d0 4f 3c
       0.005064197 0.044089988 -0.009858083 0.012683947
0001d0 2b c6 54 3c df 31 9e 3b 17 1b 22 ba 6c 9d 1d 3b
       0.0129867 0.0048277224 -0.0006183846 0.002405013
0001e0 11 2a 6c 39 c4 14 db 39 dc 36 62 bc 57 7b a0 bc
       0.00022522385 0.00041786407 -0.013807025 -0.019590063
0001f0 ab 1a 81 bb 55 f9 49 3c 7b 43 ce 38 9e 04 34 3c
       -0.0039399466 0.012327512 9.835415e-05 0.010987429

network_body._body_endoder.seq_layers.2.weight f4 [128, 128]
000000 8f b5 45 3d bc 48 9f bc 8c 8c b8 bd 4b ec d4 bd
       0.04826885 -0.019443862 -0.09011182 -0.10396632
000010 fc b8 10 bd 4a a5 62 bd 12 cd 39 3e b7 61 b7 bd
       -0.035332665 -0.055333413 0.18144634 -0.089541845
000020 0c f7 14 3e ba ed eb 3d 5f 20 c6 bd 84 9f 61 3d
       0.14547366 0.11519952 -0.09674143 0.055083767
000030 53 32 31 be 9b 67 20 3c 2b 74 95 bd d0 27 21 be
       -0.17304353 0.0097903265 -0.07297548 -0.15737844
000040 5b 82 30 bd ae 7e 3b bd 6c 2c 2f 3d ff a1 2b 3c
       -0.043093067 -0.045775108 0.042766973 0.010475635
000050 9f 4f 2e be 58 08 8b 3c 25 b5 16 bd a4 24 a9 3d
       -0.1702256 0.016971752 -0.036793847 0.08258942
000060 10 11 cf 3c b3 3e 17 bc 22 c6 22 be 8d 47 23 3b
       0.02527669 -0.009231257 -0.15895894 0.0024914474
000070 52 f0 8e 3d d9 0d 50 bd 91 f0 df 3d 2a a7 6a bc
       0.06979431 -0.050794456 0.10934556 -0.014322082
000080 96 40 12 bd a3 0a 35 be 83 98 36 b9 f9 59 22 3d
       -0.035706125 -0.17679839 -0.00017413688 0.039636586
000090 74 d6 86 bd 1c 0a 5e bc 6a 3b 37 bd 74 a0 7d 3c
       -0.065838724 -0.013552215 -0.044734396 0.01548015
0000a0 b3 35 72 bc d6 e2 93 bd 27 06 d1 bd cb db 08 be
       -0.014783311 -0.07221 -0.102062516 -0.13365094
0000b0 0f 0e 06 3e b7 ee 84 bb e6 88 7c bd ff 9b 43 3c
       0.130913 -0.0040567773 -0.061653994 0.011939048
0000c0 99 61 d1 3d 05 8b f9 bd 2a 94 36 bc d3 85 a2 b9
       0.102236934 -0.12184719 -0.0111437235 -0.00030998755
0000d0 3b 24 b2 bd 73 0a 08 3e 8c b4 17 bd 23 af ce bd
       -0.08698317 0.13285236 -0.037037417 -0.100919984
0000e0 42 89 06 be c0 20 95 3d 50 fb 4e bb 9b 75 a1 3d
       -0.13138297 0.07281637 -0.00315829 0.078837596
0000f0 1b 94 03 3d 8d 94 8a 3c 29 b3 d3 bd af 91 da 3c
       0.032123666 0.016916538 -0.103369065 0.026680795
000100 48 b4 1d be 9b 05 a6 bc e0 43 c5 3d 2c a2 7f bc
       -0.15400803 -0.020266345 0.09632087 -0.01560263
000110 48 e4 77 3c 69 81 5d be 33 2e 78 bd cf af 81 be
       0.01513011 -0.21631397 -0.060590934 -0.25329444
000120 2f fe bf bd f2 76 20 be a6 4e 80 3d 52 36 97 bd
       -0.093746535 -0.15670374 0.06265001 -0.07383408
000130 d6 36 20 be 1b 05 21 bd 53 c3 01 be 0a 7f 2d 3d
       -0.15645918 -0.03931151 -0.12672167 0.042357482
000140 8f 2e fd 3c ee 4c 53 3d f9 36 6a 3d 0e 4a 05 3e
       0.03090599 0.051587038 0.057181332 0.13016531
000150 47 cf 39 3d 5c c7 35 3e 72 96 72 bd ae 69 4f bd
       0.04536369 0.17751831 -0.059225507 -0.050637893
000160 82 26 f9 3d 8c 69 10 3b 56 1f a8 3d ef b5 9f bd
       0.12165548 0.0022035567 0.08209102 -0.07798373
000170 5a a1 b3 bd e1 93 a1 bd b7 e7 b3 3d 89 89 5f 3d
       -0.0877101 -0.07889534 0.087844305 0.054574523
000180 41 52 96 bc 43 c3 c0 3d 0d cb 17 be ca 65 87 3e
       -0.018349769 0.09412243 -0.14823551 0.26444846
000190 60 a6 c3 bd 90 1e be 3c fd f6 9a bd aa 67 8b 3d
       -0.09553218 0.023207933 -0.075666405 0.06806882
0001a0 8f 47 9e bd 11 1d c1 bc 1f b9 dd 3d a3 cc be 3d
       -0.077284925 -0.02357343 0.10826325 0.09316375
0001b0 71 4b 47 3d 8a cc 48 be 24 fd 42 3d 4e a9 90 bd
       0.04865593 -0.19609275 0.047604695 -0.07063542
0001c0 93 67 2f 3c b8 e4 88 bd 00 c7 93 3d c0 be 33 3d
       0.010705846 -0.0668425 0.072156906 0.043883085
0001d0 ac 80 50 3c 27 82 dc bd 1c f9 2b be b9 1b 49 3d
       0.01272599 -0.10767012 -0.16794246 0.049098704
0001e0 2f 39 16 bd 4f ce 18 bd 61 23 20 bd ee e8 53 bd
       -0.03667563 -0.037306126 -0.03909624 -0.05173581
0001f0 b4 e3 27 3d 18 9a 23 bd f6 6d 9d bd e0 1a a2 3d
       0.04098864 -0.039941877 -0.07686989 0.07915282
000200 6c f6 a1 3d 4a 3b 8b bd eb 2e b6 3d b6 89 d1 bd
       0.07908329 -0.06798418 0.08895668 -0.102313444
000210 b1 53 88 ba 9e 0c eb bd 2b 3a a5 3d 63 f1 7f 3d
       -0.0010400919 -0.11477016 0.08067735 0.062486064
000220 64 09 aa bd ea 8d 86 3d f3 06 1d 3d e6 8c 42 bd
       -0.08302572 0.06570037 0.038336705 -0.047497652
000230 d4 f1 7c bb f9 a2 13 3d a1 60 a7 3d a2 8b c9 bd
       -0.003859629 0.036044095 0.081727274 -0.09841086
000240 0b 4a 9c bd 89 be 32 bd 0c 57 bb 3d dc 88 08 3e
       -0.0763131 -0.04363874 0.09147462 0.13333458
000250 ea b3 51 3d 8e 36 a5 bd 6a 46 32 bd 00 28 8f 3c
       0.05119697 -0.08067046 -0.043524183 0.017475128
000260 bb 56 8f 3d c9 de 34 3d da ee bb 3d ac 6f f6 3d
       0.069989644 0.044157777 0.09176417 0.120330185
000270 2d 85 22 3d 66 99 e1 3c 0c af 2d 3b 83 22 69 bd
       0.039677788 0.027538966 0.002650204 -0.05691768
000280 0a 69 d1 bd f7 75 f1 3b 50 a1 66 3d af db bd ba
       -0.10225113 0.007368799 0.056306183 -0.0014485026
000290 0f 01 cd bd f6 22 30 bd 26 e4 93 3c 2c 39 b5 bd
       -0.100099675 -0.04300209 0.018053126 -0.08848795
0002a0 10 71 28 bd d9 25 80 bd dc fe c5 bc 12 64 cd bd
       -0.04112345 -0.06257219 -0.024169378 -0.100288525
0002b0 cb e8 42 3e aa 5b 22 3d 88 30 f8 3b 31 26 9d bc
       0.19034116 0.0396382 0.0075741448 -0.01918325
0002c0 e4 fa be bc 09 b3 48 3d 28 cf 8d 3c 59 f9 a0 3c
       -0.023312993 0.048998866 0.017310694 0.019650148
0002d0 dc 15 c5 3c a3 14 df bc b8 cf c4 bd 08 4d a4 3c
       0.024058275 -0.02723152 -0.09609932 0.020056263
0002e0 9b 47 e0 bc 13 66 2b be d5 5d be bd 2a 14 78 bd
       -0.027377894 -0.16738157 -0.09295241 -0.060566105
0002f0 8c 67 5f 3d 55 1c 84 3c 84 87 fd bc 85 fb e2 bd
       0.05454211 0.016126791 -0.030948408 -0.1108313
000300 13 c4 bc 3d 96 72 01 3e e3 df 5d bd 66 91 bd 3d
       0.09217086 0.12641367 -0.054168593 0.09256248
000310 c7 9a 2f 3c 20 96 31 be e0 0f 9b 3d 3a 37 0e 3e
       0.010718054 -0.17342424 0.07571387 0.13888255
000320 76 bc 17 bd 14 c1 b6 bc bc 67 9a bd a1 56 18 bd
       -0.037044965 -0.022308864 -0.07539317 -0.03719199
000330 d9 f8 44 3d ef a7 68 bd 6c e0 58 bc 6e c2 ad bc
       0.048088882 -0.05680078 -0.0132371 -0.021210875
000340 d0 2d 29 3c 00 b2 ee bd ab ef 03 be bb fe 20 bd
       0.010325864 -0.116550446 -0.12884395 -0.03930543
000350 11 47 28 3d 3f 8a 74 3d fc 97 b0 3b e9 ff f4 bd
       0.0410834 0.059702154 0.0053892117 -0.119628735
000360 22 35 3f 3e ae d8 67 bd c1 5f 27 3d 7b a0 de 3c
       0.18672612 -0.056603126 0.040862802 0.027176132
000370 e2 1f 6b bd 15 51 52 bd 38 3f 07 bd 6a 5c 33 3e
       -0.057403453 -0.051346857 -0.033019274 0.17515722
000380 8d 7f e1 bd b7 a3 33 bc f4 92 71 be 49 aa 10 bd
       -0.110106565 -0.010964326 -0.23591214 -0.035318647
000390 a8 47 b7 3d 23 ab 20 be da 93 d6 3c 23 40 f8 bc
       0.08949214 -0.15690283 0.026193548 -0.03030402
0003a0 18 88 3e bc 2c fa 2e bd 97 fc ae bd b2 db 2d 3e
       -0.011629127 -0.04271905 -0.085442714 0.16978338
0003b0 b9 ea a1 bd 56 ef 4a be c7 9f d8 ba 13 fe 81 bd
       -0.07906098 -0.19817862 -0.001652711 -0.06347289
0003c0 58 24 ab bc 51 2d 17 3d 16 56 a2 bd 64 06 9f bd
       -0.020891353 0.03690845 -0.07926576 -0.07764891
0003d0 ab ed 58 3c e5 80 34 be de 5a cb bd 91 ee 03 3c
       0.013240258 -0.17627294 -0.09929441 0.008052484
0003e0 d6 ab 8e bc ef 85 9c bd 52 b1 90 bc c2 b6 10 bd
       -0.017415922 -0.07642733 -0.017662678 -0.03533054
0003f0 1f 39 12 bd 74 89 e3 bd 1b ce 35 bd a2 af 1e 3d
       -0.035699006 -0.111102015 -0.04438601 0.038741715

network_body._body_endoder.seq_layers.2.bias f4 [128]
000000 5a 2d c6 3b d5 70 86 ba 58 57 13 bc 6f 2e 19 3b
       0.006047887 -0.0010257015 -0.008992992 0.0023373624
000010 49 e7 bf bb 67 30 9d bb 6b 13 3c 3b ec 43 77 bb
       -0.0058564288 -0.00479703 0.0028698097 -0.0037729694
000020 c8 aa d2 bb 17 ff d8 3b 3d 86 a8 ba b7 35 39 bb
       -0.00642905 0.006622206 -0.0012857389 -0.0028260776
000030 d1 e0 2b 3b 43 99 7c ba 9a 18 00 bb fc 79 d4 3b
       0.002622653 -0.0009635875 -0.0019545914 0.0064842682
000040 93 de 4f bc af f6 6e 3c 02 a8 be bb 0f fd 2a ba
       -0.012687343 0.014585181 -0.005818368 -0.0006522694
000050 f3 b9 7e 3c ba 9a d0 3a c8 74 94 3b 9b c7 b4 3b
       0.015547263 0.0015915253 0.004530523 0.005516959
000060 e9 e2 7f 3b 88 cd 62 3b 2b c6 e6 bb 28 32 9b 3b
       0.003904516 0.003460737 -0.0070426664 0.0047362037
000070 35 88 d2 3c 4f 3c 0f 3c 1e 19 5a 3b df 14 0b b9
       0.025699714 0.008742406 0.0033279131 -0.00013263848
000080 38 c4 58 3c 7a 96 8f 3b 04 81 99 3b 7b ba 6e 3c
       0.013230376 0.004381952 0.0046845693 0.014570828
000090 c4 ce 0e ba 0c bb 3f bb b3 2f ed b9 f3 2b cb bb
       -0.00054476806 -0.0029255776 -0.000452397 -0.0062003075
0000a0 98 ae fc 3b 7e 3d a1 3a bc 69 74 3c a6 1d b9 bb
       0.007711243 0.0012301651 0.014917787 -0.0056492863
0000b0 0c 57 59 bb f2 a5 82 3c 03 e8 fa 3b 3f 78 86 39
       -0.0033163456 0.01594827 0.0076570525 0.00025648062
0000c0 4c e6 a9 bb a8 bd c6 ba 08 a9 2c bc 33 32 73 38
       -0.005184924 -0.0015162723 -0.010538347 5.7982466e-05
0000d0 9f 2b 89 3b b0 78 12 3b 43 4a f6 bb 54 bb 7b 3c
       0.0041861082 0.0022349767 -0.007516177 0.015364487
0000e0 27 3d 81 3a 55 6e 55 3b 47 7a 35 bc a8 77 ad 3c
       0.0009860144 0.0032566984 -0.0110765165 0.02117522
0000f0 81 83 79 3b 3d 39 c2 3a ea 1e 49 bc 97 1c 9d bb
       0.0038072767 0.0014818084 -0.012275437 -0.004794668
000100 73 5c 07 3b c2 d8 75 3c e2 70 8e bb 46 5a b6 3b
       0.002065447 0.015005292 -0.004346953 0.0055649607
000110 de 93 02 3d 97 ef 95 3a 12 85 ed 3b 39 0b 38 3c
       0.0318793 0.0011439201 0.0072485292 0.011233144
000120 b5 d5 2e 3c 07 fe 85 bb 57 9a a9 3b 36 ab 2a bc
       0.010671069 -0.0040891203 0.0051758694 -0.010416796
000130 01 6d e3 bb 85 c4 c8 3a 64 82 d3 bb 56 9a 51 3c
       -0.0069404845 0.0015317356 -0.0064547528 0.012793144
000140 9f 06 b4 3b af da 4a bb 46 72 3d 3a 8c c1 e4 bb
       0.0054939534 -0.00309531 0.0007226806 -0.0069810804
000150 21 b0 2e 3b 71 bd 81 bb 2a d4 1b bc 8e d6 06 3c
       0.0026655274 -0.0039593508 -0.009511033 0.008229865
000160 01 8c 31 3c e8 c4 44 3b 8f 01 c6 bb 41 90 94 3c
       0.010836602 0.0030024592 -0.0060426663 0.018135192
000170 5e 34 00 bc a5 31 84 bb 3a a9 91 3c 4c b3 12 3b
       -0.007824985 -0.0040342384 0.017780889 0.0022384701
000180 74 4a d1 bb 8b e8 11 3c ac 42 c9 bb f7 dc 81 bc
       -0.0063870493 0.00890554 -0.006141981 -0.015852435
000190 2f 3b 7e 3c e4 ac 38 3c f9 8b 82 bb 23 38 d1 bb
       0.01551704 0.011271689 -0.003983971 -0.006384866
0001a0 68 0b 80 3b 1d 92 da bb 93 34 8f bb f6 af 08 bb
       0.0039076097 -0.00667025 -0.004370281 -0.0020856834
0001b0 71 35 4e 3b 35 6a e7 3c a1 96 bd 3b 93 08 b8 3c
       0.003146496 0.028248886 0.0057857786 0.022465026
0001c0 95 75 43 3c 54 f1 8d 3c f0 67 8e bb 9b 18 ca 3b
       0.011929889 0.017326988 -0.0043458864 0.006167484
0001d0 a7 35 c1 39 84 2f b7 3b 2b da 53 3c f2 da 44 3a
       0.00036851803 0.005590381 0.012930433 0.0007509432
0001e0 34 4c b3 bb 6e e6 e0 3b bf 1e 1d bb 2c 2b 3d bb
       -0.0054717306 0.006863407 -0.0023974625 -0.0028864844
0001f0 90 41 fa b9 c9 5f d9 ba d9 0f ac bb 36 8a d7 3a
       -0.00047732564 -0.0016584332 -0.0052509126 0.0016444388

action_model._continuous_distribution.log_sigma f4 [1, 2]
000000 c1 c6 81 bd 48 af b4 bd
       -0.063367374 -0.08822495

action_model._continuous_distribution.mu.weight f4 [2, 128]
000000 24 2d 0d 3b 09 57 3c 3d 72 c8 80 3b c4 9c b1 3c
       0.0021541798 0.04598144 0.003930145 0.021681197
000010 e4 33 18 bc 0e bb 28 3d be 7b ec 3c e8 1a eb bb
       -0.009289715 0.041194014 0.028867599 -0.0071748383
000020 05 05 6c 3c 47 56 ce bc 24 3a a7 bc d3 7a 4d bd
       0.014405494 -0.025187625 -0.020413466 -0.050165962
000030 6e 3a 9b bc 60 7f 2b bc 85 d1 e7 bc 12 82 ee 3c
       -0.01894876 -0.01046738 -0.028298149 0.029114757
000040 1f d0 1c 3c 79 47 94 bc d9 95 4f bb 6f 93 9b bc
       0.009571104 -0.018100487 -0.003167501 -0.0189912
000050 77 69 32 bc c6 6d fd bb 9d 09 03 3c 59 5d 05 3d
       -0.010889403 -0.0077340333 0.007997897 0.032559726
000060 fe 18 9a 3b f1 8d a8 bc 91 3f 63 b9 c6 47 92 3c
       0.0047026863 -0.020575495 -0.00021672087 0.01785649
000070 52 3d a6 3c 93 1e 23 bb 33 a2 35 ba 91 35 78 bc
       0.020292912 -0.002489005 -0.00069287716 -0.01514949
000080 41 19 21 3d 70 16 97 bb 59 40 4f bc a2 10 89 3c
       0.039330725 -0.004610829 -0.012649619 0.016731564
000090 19 54 a8 bc b2 e6 e4 3b 49 f2 93 bc 1b ea 77 3c
       -0.020547913 0.006985509 -0.018059867 0.015131499
0000a0 55 ab 0c 3d 90 9e 0a 3d b8 9e 77 3d 84 04 8f bc
       0.034343082 0.033842623 0.0604541 -0.017458208
0000b0 35 d6 7f bc 69 0c 92 b9 6c 20 89 bb 85 de 6b 3a
       -0.015615036 -0.00027856536 -0.004184773 0.00089976966
0000c0 89 ba af 3c d7 d5 30 bb 04 7a 39 bc 2e 18 3d bc
       0.021451252 -0.0026982927 -0.011320595 -0.011541409
0000d0 0d e4 68 bb 5b 23 e6 3c c7 fd e1 bc 33 55 0e 3d
       -0.003553632 0.02809303 -0.02758683 0.03474922
0000e0 3e 3f ee 3c 35 54 1e 3d e9 1e 06 3c 83 07 56 3c
       0.02908289 0.038654525 0.0081860805 0.013063314
0000f0 26 83 8d 3c e1 e8 24 3c a2 1d a3 bc a4 0d 47 bb
       0.01727445 0.010065288 -0.019911591 -0.003037312
000100 d1 7d dd bb 9e 41 92 3c bb 25 81 3c 9a 70 08 3b
       -0.0067593833 0.017853554 0.015765062 0.002081907
000110 62 a8 67 3d 20 56 80 bb 25 94 c8 bc 68 dc c6 3a
       0.056557067 -0.003916517 -0.024484703 0.0015171887
000120 8f d7 cc 3c 4d 0b ae 3c 50 ca bd 3a 83 7e c6 3b
       0.02500513 0.021245623 0.001447985 0.006057562
000130 57 c5 05 bb 15 1c 32 3b b2 46 66 bc 84 c6 a0 bb
       -0.0020411813 0.0027177383 -0.014054941 -0.0049064774
000140 5b c0 ae 3b d3 5a 75 bc 40 cc a8 bc 38 38 9d bb
       0.005332989 -0.014975267 -0.020605206 -0.0047979616
000150 55 c4 3d 3d 24 ea a1 3c 56 b9 3a 3a e6 e3 84 3c
       0.046329815 0.019764967 0.0007122954 0.016221952
000160 ff 68 b1 3c 5e 8c b9 3c 95 43 d3 3b ec 1b 47 3c
       0.021656511 0.02264994 0.0064472654 0.012152653
000170 83 d0 60 3b 2d a9 b0 3c a3 86 22 39 ec 6d c7 bb
       0.003430397 0.021565044 0.0001549968 -0.0060861018
000180 5c 4f fc bb d1 a7 1a bc 25 ba 10 bc 76 49 93 bb
       -0.00769989 -0.009439425 -0.008833443 -0.004494841
000190 1f 69 47 3a 87 cf 01 3c c2 f5 56 bc 76 42 05 bc
       0.0007606912 0.0079230135 -0.013120117 -0.008133521
0001a0 0e c8 27 3d 62 e2 e5 bb 9f bd 35 3c 8e 02 c5 3c
       0.04096227 -0.0070155123 0.0110925725 0.02404907
0001b0 a8 04 47 3b d9 99 da 3c ec 91 9e bc 03 ae 8d bc
       0.0030367766 0.026684688 -0.01935669 -0.01729489
0001c0 5a c1 b8 3c a3 f9 ba 3c 58 35 19 3d b1 90 ac 3a
       0.022553135 0.022824114 0.03740439 0.001316568
0001d0 2d a0 a3 3c 0c 1f 9a bb 34 99 9d 3c 4e 39 74 ba
       0.019973839 -0.004703408 0.019238092 -0.00093164004
0001e0 5e 1d 1e bc a4 ea ec 3c e8 7b 16 3d 59 e9 00 3c
       -0.009650556 0.02892048 0.03673926 0.007868134
0001f0 f4 84 87 3c e6 f2 f3 3c 5d d3 24 3d 94 76 0f bd
       0.01654289 0.029778909 0.040240634 -0.035025194
000200 01 ef a6 3c 27 4b 69 bc 28 2d af bb 30 25 03 bc
       0.020377638 -0.014239109 -0.005345959 -0.008004472
000210 93 b7 c7 ba a4 48 1b 3c 97 fd d0 3c d9 ba 24 bd
       -0.0015237204 0.009477768 0.025511546 -0.040217254
000220 c4 1e ff bc 94 17 eb 3b 9c 2e 9c bc 50 30 6b bc
       -0.0311426 0.0071744416 -0.019065194 -0.01435478
000230 4a 79 7c bc e4 15 17 3b 49 31 df bb c8 6d 29 bd
       -0.015409777 0.002305382 -0.006811295 -0.04136446
000240 b0 92 6c 3c 4b 17 5f 3d 50 16 eb bc b8 d1 05 3b
       0.01443927 0.054465573 -0.028697163 0.0020419192
000250 59 74 1e 3d 02 db 1b bd 48 f2 91 3c 4f 3b b9 bc
       0.038685177 -0.03805066 0.017815724 -0.022611288
000260 13 de 4c 3c ef c5 0d 3c 06 ba d3 bc 1d 12 cf 3c
       0.0125041185 0.008653148 -0.025845539 0.025277192
000270 0b 14 2f bd 29 14 fb 3c e7 0f 3a 3c 1d 5c b1 bc
       -0.042743724 0.030649262 0.0113563305 -0.021650368
000280 ab 16 25 bd 2c ee 3a 3c 0b 56 dc bc 6f fc 25 bd
       -0.04030482 0.011409324 -0.026896497 -0.040523943
000290 db 03 9f bc a0 a9 3c 3b 84 eb 45 ba a2 4e 12 bd
       -0.019411018 0.0028787628 -0.0007550048 -0.03571952
0002a0 90 b1 62 bc fb ac 8f 3c 77 6a 0a bd 39 45 fa ba
       -0.0138362795 0.017538538 -0.03379294 -0.0019094116
0002b0 f6 da 10 bd 67 61 6a 3d 9c 5f 12 bd be 52 d8 bc
       -0.035365067 0.057221796 -0.03573571 -0.026406642
0002c0 05 84 14 bd b8 07 ae bc 53 85 9f 3c 43 d5 b3 3b
       -0.036258716 -0.021243915 0.019472754 0.0054880693
0002d0 bc 35 19 3c fc 77 9c 3b 2e 0a 8e 39 57 b5 f9 bc
       0.00935119 0.0047750454 0.00027091935 -0.030481977
0002e0 6b 96 ff 3b ed c2 b8 bb a8 31 2c 3d f9 16 13 bd
       0.0077999136 -0.0056384713 0.042039543 -0.03591058
0002f0 6f fd c0 3c d5 97 5a bc 0d 59 86 3c c5 32 ff bb
       0.023558347 -0.013341864 0.016399885 -0.0077880346
000300 d5 d6 05 bd f4 23 16 bd d0 2a a6 bb 36 a3 e3 3c
       -0.032675583 -0.03665538 -0.0050710216 0.027787786
000310 7d ca 39 bd 70 b2 be 3b 70 7b 0a 3d e8 c5 c0 bc
       -0.045359123 0.0058196113 0.033809125 -0.023531869
000320 77 90 47 bd 97 24 24 bc 81 0e d6 bc 6a 67 ea 3b
       -0.048721757 -0.010018489 -0.026129963 0.007153441
000330 62 51 9e bc d6 77 02 bd f7 f8 92 bc 91 d9 25 3d
       -0.019325916 -0.031852566 -0.017940981 0.04049069
000340 9f 38 bf 3c ad 97 ec bc 88 a7 ce bb a8 bf f6 3c
       0.023342429 -0.028880918 -0.0063065924 0.030120686
000350 ac 48 eb bc 84 91 a5 bc e9 20 e9 bb 9f cb 57 bd
       -0.028721176 -0.020210989 -0.007114519 -0.052684423
000360 ca af de 3c 9f 41 18 3c 28 0f 0b bb ff 26 54 bd
       0.027183432 0.009292989 -0.002121875 -0.051795002
000370 92 23 01 bc 97 85 23 bc e5 fa e9 bc a5 67 d7 bc
       -0.007882016 -0.009980581 -0.028562019 -0.026294539
000380 14 6e 12 3d 68 72 42 bd f1 0a ac bc 84 e4 44 3b
       0.03574951 -0.047472388 -0.021001311 0.0030043432
000390 9c b3 05 bd 6e c6 38 3d a4 ef 5f 3c 1c 91 de bc
       -0.032641992 0.045111112 0.013667975 -0.027168803
0003a0 01 eb 11 bc c3 0e 9d bc b4 10 84 bc 1a e9 b0 bc
       -0.008906127 -0.019172078 -0.016121246 -0.021595526
0003b0 81 66 0e bd af e9 54 bd 78 33 20 3d 75 d4 39 3d
       -0.034765724 -0.05198067 0.039111584 0.04536863
0003c0 07 f6 09 bd 5e 83 2c bd 71 79 0b 3d c4 1d 1b 3d
       -0.033681896 -0.04211747 0.034051362 0.037870184
0003d0 4a 84 31 bd 7c 61 a1 3c 5e ce 35 bd ca 44 1c bd
       -0.04333905 0.019699804 -0.04438626 -0.03815154
0003e0 e2 c3 80 3b f8 96 2a bc 51 b7 38 bb ca c1 a4 bc
       0.003929601 -0.01041197 -0.0028185437 -0.020111937
0003f0 02 1b 31 bd df 6b c7 bb 4d 22 bc bc 77 2f 01 bd
       -0.043238647 -0.0060858573 -0.022965575 -0.031539407

action_model._continuous_distribution.mu.bias f4 [2]
000000 29 1c 19 bb 53 a8 c9 3b
       -0.0023362732 0.006154099

exp_avg f4 [128, 75]
000000 00 00 00 00 39 60 3b b8 15 fb d9 90 c0 a8 cd b6
       0.0 -4.467389e-05 -8.597826e-29 -6.129121e-06
000010 00 00 00 00 ed a5 c7 b7 49 cd 81 93 75 dc 20 b7
       0.0 -2.3799914e-05 -3.2766605e-27 -9.588072e-06
000020 00 00 00 00 4f ee 35 b7 ba 0b d3 12 5a 3d 68 b6
       0.0 -1.0843926e-05 1.3318863e-27 -3.4606405e-06
000030 00 00 00 00 fb aa 1b b7 5c d8 ff b2 23 6b a1 b6
       0.0 -9.278529e-06 -2.9784296e-08 -4.8106463e-06
000040 00 00 00 00 b3 a6 f1 b6 75 ec d6 34 b0 82 bf b6
       0.0 -7.201766e-06 4.003265e-07 -5.7074576e-06
000050 00 00 00 00 b2 62 f2 b6 39 85 dd 36 9c 87 ed b6
       0.0 -7.2236517e-06 6.6018224e-06 -7.0789374e-06
000060 00 00 00 00 77 62 11 b7 10 81 4a 36 a4 cb f9 b7
       0.0 -8.665599e-06 3.017547e-06 -2.977794e-05
000070 00 00 00 00 54 3a 68 b7 41 e5 a7 b5 06 ab b6 b7
       0.0 -1.3841858e-05 -1.2509191e-06 -2.177573e-05
000080 41 e5 a7 b5 06 ab b6 b7 9d f7 1a b9 7b d1 9b b8
       -1.2509191e-06 -2.177573e-05 -0.00014778828 -7.429995e-05
000090 1c a9 84 ba 26 f4 3e 35 a8 c4 37 b7 2a 41 96 b5
       -0.0010121199 7.11358e-07 -1.0953438e-05 -1.1194836e-06
0000a0 04 c4 07 b9 03 55 2c b9 d4 a7 0a b7 0b df 3f ba
       -0.00012947625 -0.00016434868 -8.2645165e-06 -0.0007319308
0000b0 61 b1 af 35 94 ff 79 b8 59 0c a4 b6 14 72 a6 38
       1.309014e-06 -5.9604252e-05 -4.8890183e-06 7.9367455e-05
0000c0 a1 b7 88 b9 6e 1b f9 ba 00 00 00 00 d5 62 75 37
       -0.00026076756 -0.0019005367 0.0 1.4626149e-05
0000d0 00 00 00 00 fe 20 0d b9 92 39 cc 39 a1 b7 88 b9
       0.0 -0.00013459098 0.00038952805 -0.00026076756
0000e0 3a 36 67 bb 00 00 00 00 c7 25 41 b5 00 00 00 00
       -0.0035280124 0.0 -7.1953076e-07 0.0
0000f0 b9 06 10 b9 cf 12 5d b7 a1 b7 88 b9 ed e4 95 bb
       -0.00013735415 -1.3177006e-05 -0.00026076756 -0.004574409
000100 00 00 00 00 bd d5 0a b6 00 00 00 00 ca 29 0f b9
       0.0 -2.0688015e-06 0.0 -0.0001365311
000110 c4 5e 9c b9 a1 b7 88 b9 8e 0b cc bb 00 00 00 00
       -0.00029825245 -0.00026076756 -0.0062269634 0.0
000120 2d 13 86 b7 00 00 00 00 5c 5c 08 b9 00 00 00 00
       -1.5982974e-05 0.0 -0.00013004377 0.0
000130 92 91 66 34 1d 09 58 0a fa 3a 75 34 00 00 00 00
       2.1473377e-07 1.0401736e-32 2.2838859e-07 0.0
000140 81 d8 27 b4 17 09 5d 8e ba 5c 57 33 00 00 00 00
       -1.563185e-07 -2.724473e-30 5.0142923e-08 0.0
000150 52 8a d6 b2 f2 b5 11 0e ca 25 12 33 00 00 00 00
       -2.497578e-08 1.7960233e-30 3.4027643e-08 0.0
000160 69 6d e1 b1 5c c1 7e b0 96 bd 01 33 00 00 00 00
       -6.5608003e-09 -9.267944e-10 3.020758e-08 0.0
000170 a2 9f 31 31 83 59 81 30 22 f9 d9 32 00 00 00 00
       2.584763e-09 9.411426e-10 2.5375417e-08 0.0
000180 42 32 16 32 77 06 b9 31 c8 ab 0a 33 00 00 00 00
       8.742576e-09 5.3849436e-09 3.2286863e-08 0.0
000190 0c 25 c0 32 dc b1 6e 32 8f b8 37 b3 00 00 00 00
       2.2368589e-08 1.3893864e-08 -4.2775863e-08 0.0
0001a0 6e c1 b6 33 ee d4 90 af af 91 23 b4 ee d4 90 af
       8.51022e-08 -2.6344743e-10 -1.5233557e-07 -2.6344743e-10
0001b0 af 91 23 b4 5d a1 da b5 30 ca 19 34 24 d9 b6 b7
       -1.5233557e-07 -1.6289229e-06 1.4322791e-07 -2.1797205e-05
0001c0 1f a1 60 b1 c2 a0 05 b4 19 ba 84 b1 dd 69 6c 34
       -3.2687877e-09 -1.2445074e-07 -3.8628625e-09 2.2017726e-07
0001d0 4c d5 e1 b5 b8 28 7e 34 3a a5 82 b7 78 8d 99 b4
       -1.6825884e-06 2.3670407e-07 -1.5574147e-05 -2.8601403e-07
0001e0 4a f8 c6 b1 cb 5d 1f 35 a1 1c a8 35 b8 3e f2 34
       -5.7907856e-09 5.93686e-07 1.2525308e-06 4.5121647e-07
0001f0 81 6b da b7 00 00 00 00 5c a5 95 33 00 00 00 00
       -2.6037686e-05 0.0 6.968432e-08 0.0
000200 50 a4 47 34 e3 39 db 35 b8 3e f2 34 f8 87 d3 b7
       1.8593096e-07 1.6333619e-06 4.5121647e-07 -2.5216475e-05
000210 00 00 00 00 37 d6 ae 33 00 00 00 00 cb 4c 27 34
       0.0 8.141472e-08 0.0 1.5581024e-07
000220 2a df ea 35 b8 3e f2 34 63 c1 cd b7 00 00 00 00
       1.7499308e-06 4.5121647e-07 -2.4527957e-05 0.0
000230 56 d4 d2 33 00 00 00 00 5a 74 17 34 23 94 08 36
       9.817511e-08 0.0 1.41053e-07 2.0351806e-06
000240 b8 3e f2 34 4f 74 cc b7 00 00 00 00 04 28 bb b4
       4.5121647e-07 -2.4372855e-05 0.0 -3.486058e-07
000250 00 00 00 00 83 f5 6b 34 00 00 00 00 ad ff 53 b3
       0.0 2.1975397e-07 0.0 -4.93598e-08
000260 52 e0 f6 8b 38 74 dc 34 00 00 00 00 cb 60 c9 b4
       -9.5093273e-32 4.1062754e-07 0.0 -3.7509594e-07
000270 a7 5f 1b 8d b8 e5 8e 33 00 00 00 00 25 f7 cc b3
       -4.78782e-31 6.654176e-08 0.0 -9.5444456e-08
000280 a7 78 f1 0d 60 2e 47 33 00 00 00 00 15 09 91 b3
       1.4881818e-30 4.6375476e-08 0.0 -6.753741e-08
000290 ae 33 2e af 72 85 13 33 00 00 00 00 53 db 67 b3
       -1.5843568e-10 3.4347472e-08 0.0 -5.3983353e-08
0002a0 3a d2 90 b0 93 3f 1d 33 00 00 00 00 81 f0 41 b3
       -1.0537129e-09 3.661223e-08 0.0 -4.515505e-08
0002b0 59 4b 19 b3 20 83 2d b2 00 00 00 00 68 aa 1d b3
       -3.5691617e-08 -1.009974e-08 0.0 -3.6709395e-08
0002c0 8a 93 19 b3 27 f1 3c b4 00 00 00 00 27 a3 c7 32
       -3.5757274e-08 -1.7596595e-07 0.0 2.3240842e-08
0002d0 45 79 ac b0 48 d3 6e b4 45 79 ac b0 48 d3 6e b4
       -1.2549114e-09 -2.2242341e-07 -1.2549114e-09 -2.2242341e-07
0002e0 d3 23 29 b7 33 37 d4 b1 30 da ab b7 d6 d6 03 30
       -1.0081526e-05 -6.1762875e-09 -2.048639e-05 4.796282e-10
0002f0 8f 1f 8c b4 1a 74 8e b2 2d e4 0f b3 f8 79 d2 b6
       -2.6099994e-07 -1.6583773e-08 -3.3502307e-08 -6.2726867e-06
000300 7d c1 38 b4 12 f8 59 b7 7f 38 21 b5 c4 6e 7a b5
       -1.7206726e-07 -1.2991966e-05 -6.0059386e-07 -9.329344e-07
000310 a6 fd 3b b5 f5 bc b3 b5 59 57 b9 b3 6b b5 33 b8
       -7.0032036e-07 -1.3391533e-06 -8.630622e-08 -4.2845884e-05
000320 00 00 00 00 99 85 8b b3 00 00 00 00 3e 96 82 b1
       0.0 -6.496993e-08 0.0 -3.8005785e-09
000330 23 65 d4 b5 59 57 b9 b3 de ca 30 b8 00 00 00 00
       -1.5824666e-06 -8.630622e-08 -4.2150605e-05 0.0
000340 a9 9e e4 b3 00 00 00 00 f3 9b 00 33 93 b2 19 b6
       -1.06459375e-07 0.0 2.9944157e-08 -2.290272e-06
000350 59 57 b9 b3 0c 1b 28 b8 00 00 00 00 fe ff 18 34
       -8.630622e-08 -4.007951e-05 0.0 1.4249233e-07
000360 00 00 00 00 0a e7 b0 31 97 d1 87 36 59 57 b9 b3
       0.0 5.1485403e-09 4.047713e-06 -8.630622e-08
000370 ba c0 3e b8 00 00 00 00 5d e3 12 b5 00 00 00 00
       -4.547902e-05 0.0 -5.4720095e-07 0.0
000380 a3 b2 55 33 00 00 00 00 cf 27 49 38 4e 24 13 11
       4.9755396e-08 0.0 4.795921e-05 1.1607443e-28
000390 23 b1 40 b6 00 00 00 00 c6 19 32 38 e3 7e 48 93
       -2.8713337e-06 0.0 4.246251e-05 -2.5306109e-27
0003a0 5b 26 8a 37 00 00 00 00 fa 48 8e 37 c7 21 1e 94
       1.6468743e-05 0.0 1.6961701e-05 -7.983623e-27
0003b0 78 6c 56 37 00 00 00 00 aa 37 70 37 2e ee 64 33
       1.2780649e-05 0.0 1.4318075e-05 5.330201e-08
0003c0 25 e7 71 37 00 00 00 00 32 b9 6d 37 07 e7 bb b3
       1.4418537e-05 0.0 1.416942e-05 -8.74989e-08
0003d0 15 13 4e 37 00 00 00 00 b4 4c 63 37 8c 75 be 37
       1.2283e-05 0.0 1.3548113e-05 2.2704502e-05
0003e0 d0 8e 1a 38 00 00 00 00 23 10 7b 37 7c 67 f0 37
       3.6849466e-05 0.0 1.4964523e-05 2.8658418e-05
0003f0 85 1d 79 38 00 00 00 00 16 a1 a1 37 77 5a 34 36
       5.939372e-05 0.0 1.9267707e-05 2.6874748e-06

exp_avg_sq f4 [128, 75]
000000 00 00 00 00 f0 80 e1 32 13 68 e4 2a e9 f9 6f 32
       0.0 2.6252081e-08 4.0573152e-13 1.3968454e-08
000010 00 00 00 00 bc 03 32 32 dc 31 a7 2d f7 6c ce 31
       0.0 1.0361813e-08 1.9007844e-11 6.007777e-09
000020 00 00 00 00 58 7e bb 31 18 4a 77 2d f9 04 22 31
       0.0 5.45678e-09 1.4056777e-11 2.357693e-09
000030 00 00 00 00 f6 6f 84 31 31 50 9b 2d af d3 fa 30
       0.0 3.854434e-09 1.7657072e-11 1.8250058e-09
000040 00 00 00 00 76 32 13 31 3b 1a 85 2f 11 10 44 31
       0.0 2.142e-09 2.4211197e-10 2.8530887e-09
000050 00 00 00 00 91 14 09 31 ca 8c 59 31 bb e5 34 32
       0.0 1.9947815e-09 3.1657685e-09 1.0529614e-08
000060 00 00 00 00 e0 5f 4a 31 7c c7 2d 31 45 da dd 32
       0.0 2.9449367e-09 2.5288207e-09 2.5827044e-08
000070 00 00 00 00 a5 70 32 32 f4 68 42 2e 0b 64 05 33
       0.0 1.0386576e-08 4.420371e-11 3.1057464e-08
000080 f4 68 42 2e 0a 64 05 33 fa c0 c5 36 08 64 68 34
       4.420371e-11 3.105746e-08 5.893523e-06 2.1643075e-07
000090 95 34 f0 39 20 73 6b 2d c4 13 51 32 d7 8e 34 2d
       0.00045815544 1.3383766e-11 1.2169895e-08 1.0263532e-11
0000a0 3d f2 2a 35 06 4d 25 36 4b 3a 23 30 65 16 85 38
       6.368244e-07 2.463175e-06 5.9381894e-10 6.3461055e-05
0000b0 39 a0 91 30 5b 65 48 33 b9 c8 1a 31 15 95 62 31
       1.0595677e-09 4.665831e-08 2.2524047e-09 3.2972072e-09
0000c0 fe 10 30 36 2e e9 39 3a 00 00 00 00 75 7e f2 30
       2.6235934e-06 0.00070919364 0.0 1.7643759e-09
0000d0 00 00 00 00 f9 31 2f 35 43 dd a1 35 fe 10 30 36
       0.0 6.52653e-07 1.205983e-06 2.6235934e-06
0000e0 b0 8f 97 3a 00 00 00 00 31 c4 9f 32 00 00 00 00
       0.0011563208 0.0 1.8599254e-08 0.0
0000f0 0d d6 27 35 cd 39 63 37 fe 10 30 36 64 6c cf 3a
       6.2523833e-07 1.3543712e-05 2.6235934e-06 0.001582515
000100 00 00 00 00 ee 45 97 33 00 00 00 00 41 a6 13 35
       0.0 7.0442056e-08 0.0 5.50037e-07
000110 e4 9b 52 38 fe 10 30 36 66 57 fd 3a 00 00 00 00
       5.0213086e-05 2.6235934e-06 0.0019328415 0.0
000120 cc 31 32 34 00 00 00 00 2a 15 e4 34 00 00 00 00
       1.6595658e-07 0.0 4.2483708e-07 0.0
000130 13 6f 1f 2e 40 b6 e7 21 8e b8 3b 2d 00 00 00 00
       3.6251068e-11 1.570141e-18 1.0670699e-11 0.0
000140 bf 29 d2 2c 8f 96 d0 22 9e 0f 9f 2c 00 00 00 00
       5.9731937e-12 5.6537923e-18 4.5207857e-12 0.0
000150 dc ac 0a 2c 9f 18 ad 22 c6 69 f3 2b 00 00 00 00
       1.9706936e-12 4.6917813e-18 1.7295547e-12 0.0
000160 61 a7 ae 2b 59 4d df 22 cf 14 a7 2b 00 00 00 00
       1.2409901e-12 6.0526166e-18 1.1871839e-12 0.0
000170 08 4f 78 2b 5a 6b 04 26 7e 39 b1 2b 00 00 00 00
       8.8216977e-13 4.594219e-16 1.2592564e-12 0.0
000180 24 70 8c 2b bb 67 59 27 77 71 22 2c 00 00 00 00
       9.978724e-13 3.0171032e-15 2.308457e-12 0.0
000190 86 75 03 2c 13 34 3a 27 bf 77 2a 2d 00 00 00 00
       1.8681458e-12 2.5840915e-15 9.68997e-12 0.0
0001a0 b1 5e 13 2d 8b 94 c0 24 f1 4d 60 2d 8b 94 c0 24
       8.377008e-12 8.351837e-17 1.2750232e-11 8.351837e-17
0001b0 f1 4d 60 2d 47 ba 13 31 82 89 14 2f f2 d8 79 33
       1.2750232e-11 2.1497202e-09 1.3509374e-10 5.817214e-08
0001c0 5b 44 19 28 df b2 94 2c 32 56 ce 26 b1 b6 dc 2f
       8.508028e-15 4.2262717e-12 1.4317485e-15 4.0147577e-10
0001d0 1c a4 a6 30 ac 99 7a 2b 39 f4 ae 32 1b 8e 21 2b
       1.2124732e-09 8.9031105e-13 2.0367326e-08 5.73959e-13
0001e0 fb df 44 2d 46 32 88 2b d3 16 3f 2d 29 d7 de 30
       1.1191044e-11 9.677335e-13 1.0862161e-11 1.6213778e-09
0001f0 ad d3 ff 33 00 00 00 00 8d 0b e9 28 00 00 00 00
       1.19128664e-07 0.0 2.5873206e-14 0.0
000200 74 d7 de 2f 82 e0 62 2d 29 d7 de 30 99 a4 95 34
       4.0534653e-10 1.2896463e-11 1.6213778e-09 2.7873173e-07
000210 00 00 00 00 07 cf 15 29 00 00 00 00 c4 d3 de 2f
       0.0 3.3264214e-14 0.0 4.0532033e-10
000220 c6 ff 7e 2d 29 d7 de 30 f1 62 0b 35 00 00 00 00
       1.44950215e-11 1.6213778e-09 5.1925514e-07 0.0
000230 cf 1c ea 29 00 00 00 00 66 97 de 2f 97 91 85 2e
       1.0396685e-13 0.0 4.048914e-10 6.074002e-11
000240 29 d7 de 30 1d f9 60 35 00 00 00 00 02 d2 06 2d
       1.6213778e-09 8.380901e-07 0.0 7.663649e-12
000250 00 00 00 00 3b 96 d9 2f 00 00 00 00 0d 66 e6 2d
       0.0 3.9578815e-10 0.0 2.6193292e-11
000260 72 43 64 24 9d 82 93 2d 00 00 00 00 ff 9e 7a 2d
       4.9496747e-17 1.6769969e-11 0.0 1.4246159e-11
000270 71 fd c8 25 15 28 d0 2c 00 00 00 00 9d a0 c1 2c
       3.4866208e-16 5.9161656e-12 0.0 5.5032216e-12
000280 12 86 18 23 4c 1f 1d 2c 00 00 00 00 89 6a 3a 2c
       8.268327e-18 2.2328415e-12 0.0 2.6491329e-12
000290 9a f7 50 23 be 23 ec 2b 00 00 00 00 67 44 fe 2b
       1.1328134e-17 1.6778729e-12 0.0 1.8066771e-12
0002a0 0f ab b6 26 4f 1b 06 2c 00 00 00 00 ad 57 04 2c
       1.2675152e-15 1.9057705e-12 0.0 1.8806998e-12
0002b0 bb 06 c8 28 35 84 8a 2c 00 00 00 00 c2 cf 59 2c
       2.220738e-14 3.936874e-12 0.0 3.0952883e-12
0002c0 db 02 fb 27 b8 1a b8 2d 00 00 00 00 a2 2c 51 2d
       6.966959e-15 2.0930244e-11 0.0 1.1890185e-11
0002d0 eb d4 e1 25 3f 80 22 2e eb d4 e1 25 3f 80 22 2e
       3.9175557e-16 3.694844e-11 3.9175557e-16 3.694844e-11
0002e0 3d 41 b1 31 f6 89 6e 2f 1c bb c1 34 42 d8 13 28
       5.1587947e-09 2.1694987e-10 3.608519e-07 8.207033e-15
0002f0 79 a4 06 2d 17 78 27 28 2d e9 31 30 99 d1 71 31
       7.653538e-12 9.296403e-15 6.472359e-10 3.5189258e-09
000300 6d 8b 34 2b 0b 46 c4 33 9b e9 a7 2b 15 95 56 2e
       6.414234e-13 9.139702e-08 1.1930902e-12 4.8790378e-11
000310 95 7b 69 2c 98 95 a6 2b e3 9f 34 31 a4 8b 1c 35
       3.3179893e-12 1.183653e-12 2.6284332e-09 5.831773e-07
000320 00 00 00 00 84 de 8c 27 00 00 00 00 77 99 34 30
       0.0 3.9099058e-15 0.0 6.5701705e-10
000330 3e 7d 26 2c e3 9f 34 31 08 b0 89 35 00 00 00 00
       2.3659542e-12 2.6284332e-09 1.0258527e-06 0.0
000340 71 6c aa 29 00 00 00 00 47 65 34 30 9c ad 5c 2e
       7.568328e-14 0.0 6.562754e-10 5.0176405e-11
000350 e3 9f 34 31 a1 24 d6 35 00 00 00 00 26 61 b0 2d
       2.6284332e-09 1.5954903e-06 0.0 2.0052026e-11
000360 00 00 00 00 12 eb 2c 30 ae 51 6c 32 e3 9f 34 31
       0.0 6.290729e-10 1.375558e-08 2.6284332e-09
000370 a6 75 0b 36 00 00 00 00 f9 4b e8 2e 00 00 00 00
       2.0781094e-06 0.0 1.0563634e-10 0.0
000380 a2 32 11 30 00 00 00 00 06 64 3e 33 5a e0 48 2a
       5.2822646e-10 0.0 4.4328793e-08 1.7841406e-13
000390 db d9 fc 32 00 00 00 00 fc 1a 63 32 80 76 43 2e
       2.943573e-08 0.0 1.3219275e-08 4.4443116e-11
0003a0 a1 94 53 32 00 00 00 00 d0 79 9d 31 58 c5 13 2e
       1.2315611e-08 0.0 4.58315e-09 3.3599207e-11
0003b0 6f 40 a1 31 00 00 00 00 4b 07 30 31 77 84 27 2e
       4.693042e-09 0.0 2.5615516e-09 3.8089056e-11
0003c0 eb c6 66 31 00 00 00 00 cc f8 11 31 03 04 2b 2f
       3.3582477e-09 0.0 2.1241702e-09 1.5553785e-10
0003d0 f7 e5 8f 31 00 00 00 00 86 87 26 31 3b 99 d8 30
       4.1879917e-09 0.0 2.4233215e-09 1.5759619e-09
0003e0 d2 36 1b 32 00 00 00 00 af f9 8f 31 6c ea 26 31
       9.034652e-09 0.0 4.1902335e-09 2.4289433e-09
0003f0 de 8d 05 33 00 00 00 00 6a d9 9f 32 c7 41 f2 2e
       3.1095503e-08 0.0 1.8608905e-08 1.101657e-10

exp_avg f4 [128]
000000 87 bb 08 b9 d7 50 72 34 ce 2a 3c b3 e1 c8 42 39
       -0.0001303983 2.2567416e-07 -4.381109e-08 0.00018576115
000010 30 7b dd 37 9b d5 f3 b4 ac 2e 00 b9 0e 04 69 34
       2.6402617e-05 -4.5417696e-07 -0.00012224418 2.1701291e-07
000020 cd ec a8 b9 60 ba 03 b6 a1 73 88 39 73 d1 45 b5
       -0.00032219887 -1.9629006e-06 0.00026026092 -7.369301e-07
000030 1d 0f 10 b8 3a ae 2b b9 31 27 91 39 f8 15 21 39
       -3.434635e-05 -0.00016372735 0.00027685755 0.0001536234
000040 a3 ed 2a b8 0b b5 0c 35 f2 a7 62 b9 e4 14 07 37
       -4.0752475e-05 5.2417516e-07 -0.00021615604 8.051491e-06
000050 7d f1 cd b8 d4 f2 f9 b8 ee eb 17 36 98 d3 eb 38
       -9.8201424e-05 -0.000119184755 2.2638083e-06 0.000112450856
000060 14 a1 d7 b8 51 e8 2c b9 a0 86 99 b8 c9 ba 9b 34
       -0.00010282002 -0.00016489743 -7.3206844e-05 2.9006904e-07
000070 99 0b 46 b7 03 2e 2b 39 a0 59 68 31 73 de 0c b9
       -1.180442e-05 0.00016324972 3.381139e-09 -0.00013434309
000080 aa b0 5a 38 4e 77 eb 38 1d 80 14 b8 f7 f4 24 39
       5.213978e-05 0.000112278954 -3.5405264e-05 0.00015731515
000090 7e df a4 b8 d1 9f 58 38 49 2e 57 37 8f 2b 8e b8
       -7.861758e-05 5.1647254e-05 1.2825775e-05 -6.779201e-05
0000a0 bd 01 d2 b8 2d 97 0b 38 a9 c4 9f b0 1b ec fa b7
       -0.00010013904 3.3280976e-05 -1.1624667e-09 -2.9912268e-05
0000b0 6f 8d 57 b8 cd fa ca 38 b8 c3 9a 36 c3 b6 21 39
       -5.1391715e-05 9.678826e-05 4.6123423e-06 0.0001542224
0000c0 fc dd 9e b3 ad 56 1b b9 53 ba fd b8 f0 56 0f b9
       -7.397827e-08 -0.00014814241 -0.00012098686 -0.0001366993
0000d0 48 7e 06 39 a9 75 2f b8 87 fd 91 37 5f 77 0c 39
       0.00012826279 -4.183283e-05 1.7403405e-05 0.0001339591
0000e0 a9 33 0a b7 28 6e 37 b7 7d 5b 4b b5 53 af 37 34
       -8.237469e-06 -1.0933298e-05 -7.5756526e-07 1.7106986e-07
0000f0 2e 1b 2f b9 d3 76 55 b8 69 e1 11 b7 b9 cd 31 39
       -0.00016699426 -5.089382e-05 -8.695156e-06 0.00016956673
000100 40 1c a5 b8 78 06 06 b9 4e 67 f7 37 c5 5b 0d b9
       -7.873075e-05 -0.00012781646 2.94928e-05 -0.00013480995
000110 d1 5c 18 b7 fc 23 ec 38 b0 aa 8a b8 84 40 fe b6
       -9.0815165e-06 0.000112600595 -6.612146e-05 -7.5773005e-06
000120 b6 f8 89 36 94 21 00 b7 ea 45 8b b7 b0 6d 1c b8
       4.111872e-06 -7.637213e-06 -1.6602648e-05 -3.7295453e-05
000130 ab 18 8c b9 62 ab 9b b5 4c d0 06 b8 ad 3c 64 b7
       -0.0002672126 -1.1598279e-06 -3.214208e-05 -1.3603986e-05
000140 cd d2 0d b8 1c 9c 20 b9 ae 95 21 35 52 a8 9e b5
       -3.3813343e-05 -0.00015316944 6.0194986e-07 -1.1820905e-06
000150 0e ed 8f 38 b8 a4 93 36 37 90 bd 36 96 67 ea 33
       6.862926e-05 4.400117e-06 5.6494277e-06 1.0915316e-07
000160 53 87 c4 38 89 05 17 b8 0b 73 03 b7 cc 47 1a 39
       9.3712144e-05 -3.600636e-05 -7.834994e-06 0.00014713331
000170 d3 a8 dc b8 57 82 eb b6 6d 9a b0 b9 7b 65 a9 35
       -0.000105218634 -7.0187193e-06 -0.00033684392 1.2621016e-06
000180 f4 94 e2 b6 7c ea d0 38 76 28 be 35 be 42 8c 38
       -6.7526653e-06 9.961889e-05 1.4167879e-06 6.688152e-05
000190 c1 7d ed 35 b7 9f 7b 38 76 5c a6 b5 1b 8d 9d 36
       1.7694475e-06 5.999181e-05 -1.2394873e-06 4.6953915e-06
0001a0 9a 2b c1 b8 f8 0f 8d 31 08 93 27 b6 da e5 18 39
       -9.2110786e-05 4.1054555e-09 -2.4970523e-06 0.00014581476
0001b0 8e 50 b9 35 a9 22 17 b7 62 35 e7 b7 a0 5c 2c b6
       1.3807019e-06 -9.008371e-06 -2.7562204e-05 -2.5683912e-06
0001c0 5a 4b e1 37 b2 1f 38 b7 1d 41 27 39 da f2 2c 39
       2.6857178e-05 -1.0974634e-05 0.00015950618 0.00016493667
0001d0 07 36 1d b9 37 17 68 39 bc dd 5e 38 52 02 bf b8
       -0.00014992814 0.00022133892 5.313543e-05 -9.108022e-05
0001e0 75 3e a8 b7 c8 b8 f8 35 3a d4 5f 39 cd 55 f6 37
       -2.0056244e-05 1.8531218e-06 0.00021345998 2.936544e-05
0001f0 cc 19 bf 36 8c 09 52 35 6e 1b 7c 38 af cd dc b5
       5.6952467e-06 7.824499e-07 6.0107028e-05 -1.6451139e-06
