Unity Project/CSC 30014 Project/results/test/Car/Car-23300.pt (torch, 651359 bytes, 36 tensors)

network_body._body_endoder.seq_layers.0.weight f4 [128, 75]
-0.058179975 0.039858904 -0.0029561394 0.02242182 -0.17382729 0.054301657 0.09911271 -0.02100204
-0.19028327 0.13434182 0.019055972 0.12354007 0.13845807 -0.06612011 0.032118212 -0.23082982
-0.1627459 -0.12070142 0.02838834 0.007221334 -0.1376482 0.10419061 -0.17831227 0.09173993
-0.15752453 0.029357474 0.17430568 0.10489389 0.0050769635 -0.00922782 -0.05213177 -0.023289723
0.16965851 -0.003277613 -0.17356807 0.042028673 0.032864578 -0.14236805 -0.12613398 0.11667338
-0.08005903 0.03311017 -0.14073315 0.104764245 -0.19547223 0.07323506 0.2628771 0.031816162
-0.01008422 -0.11180391 0.065627836 -0.09284314 0.15232533 0.11928443 0.0005477166 -0.14878514
0.13129315 0.06366471 -0.032150544 -0.034717273 -0.055486728 -0.016924297 -0.10668506 -0.14981078
0.2813977 0.079619765 0.21299042 -0.07162637 0.096035 0.0778644 0.20249447 -0.12735383
-0.086422935 0.09081313 -0.10161414 0.10075129 -0.1706922 0.006471283 -0.13176587 0.020506216
-0.18211146 0.0021578046 -0.34124032 -0.07532323 -0.012736183 -0.05151331 -0.09184204 -0.083825454
-0.04871175 -0.120840244 -0.05794897 -0.048174296 0.06640372 -0.12854706 -0.09303924 0.17695901
-0.044940703 -0.027627928 -0.116994046 -0.11266394 0.27640033 -0.08292612 -0.05240194 0.14680643
0.17450017 -0.011301582 0.038285628 -0.12566522 -0.11104337 0.08930661 -0.09412169 -0.11646988
0.1778689 0.06154711 0.10887671 0.05967939 0.08534619 0.005527733 -0.07513005 0.11358188
-0.09486222 0.1228585 0.049589314 0.0078053367 0.04936788 -0.05552402 0.18496522 -0.07130016
-0.1405585 0.15199156 0.12871484 -0.21312517 -0.0439757 -0.08765028 -0.23724991 -0.04994574
0.0051064566 -0.14381494 -0.08337755 0.08960761 0.04141517 0.034077074 -0.1734301 -0.079774
-0.041105676 -0.07350118 0.09993501 -0.041998852 -0.06704557 -0.03308371 0.1809261 0.2109653
0.0061050165 -0.11279335 -0.06359931 0.02135328 0.003881992 0.17325447 -0.11110347 -0.21123563
0.19193508 0.069682784 0.02276595 -0.10030229 0.1969884 -0.015666174 0.10935033 -0.042937785
0.11399113 0.059199873 -0.118804 0.058407895 0.085278526 -0.021929871 -0.03672501 -0.030652435
-0.045205176 0.15238908 -0.03328737 0.067875996 0.14453185 -0.1776184 -0.32702327 -0.045067746
0.07716999 -0.18517587 0.118773006 0.3125586 -0.22254935 0.14373128 0.1522384 -0.12969232
0.20752023 0.013205667 -0.10115812 -0.0050403033 -0.102173865 0.09708786 -0.080363035 0.16050465
0.13317825 -0.0070949416 0.18662463 -0.011553076 0.09497274 -0.03532568 -0.0801591 0.028844927
-0.006452287 0.07738179 -0.02327817 -0.06996291 -0.11658788 0.098188385 0.1340553 -0.18805192
-0.12332258 -0.03293694 -0.21607529 -0.107075796 0.24665226 0.1187868 -0.26682353 -0.052355092
-0.17541985 -0.025464352 -0.08624406 -0.01595019 0.05446359 0.023198325 -0.05825903 -0.10702488
-0.003148954 -0.17860109 0.038576946 0.06728542 0.04398315 0.18051952 0.072240576 -0.08726659
0.062810965 0.027071955 0.02569133 -0.030393424 -0.0053722546 -0.20506266 0.1028739 -0.17292376
0.017226871 0.0019298479 -0.10710705 0.09181211 0.081805035 0.08691772 0.1590911 0.16282497
00000000: 204e 6ebd 1743 233d cabb 41bb f7ad b73c
00000010: c8ff 31be 6a6b 5e3d 9bfb ca3d 780c acbc
00000020: 9ed9 42be e790 093e 451b 9c3c 9402 fd3d
00000030: f4c7 0d3e fb69 87bd 638e 033d a75e 6cbe
00000040: dca6 26be 4e32 f7bd aa8e e83c f1a0 ec3b
00000050: a6f3 0cbe e361 d53d 7e97 36be 25e2 bb3d
00000060: 1c4e 21be 167f f03c 307d 323e 9cd2 d63d
00000070: a85c a63b 4830 17bc 1f88 55bd 17ca bebc
00000080: f6ba 2d3e 39cd 56bb d4bb 31be 4226 2c3d
00000090: 029d 063d eec8 11be 4429 01be 74f2 ee3d
000000a0: fdf5 a3bd 889e 073d 5a1c 10be a38e d63d
000000b0: df29 48be 43fc 953d d497 863e aa51 023d
000000c0: 4938 25bc 73f9 e4bd e367 863d 8b24 bebd
000000d0: 2cfb 1b3e 654b f43d a494 0f3a 225b 18be
000000e0: b671 063e a562 823d 4ab0 03bd b333 0ebd
000000f0: 0d46 63bd d3a4 8abc b27d dabd ff67 19be
00000100: 5c13 903e b00f a33d 291a 5a3e d9b0 92bd
00000110: 00ae c43d 5f77 9f3d b65a 4f3e 0b69 02be
00000120: 82fe b0bd 3cfc b93d 131b d0bd b156 ce3d
00000130: f0c9 2ebe 0e0d d43b a2ed 06be a7fc a73c
00000140: 6d7b 3abe f469 0d3b 0db7 aebe 1143 9abd
00000150: 6cab 50bc 9fff 52bd ae17 bcbd aeac abbd
00000160: f985 47bd 177b f7bd e65b 6dbd 6952 45bd
00000170: acfe 873d d7a1 03be 5b8b bebd be34 353e
00000180: be13 38bd f753 e2bc 939a efbd 5abc e6bd
00000190: 5884 8d3e 2bd5 a9bd 6ba3 56bd 6d54 163e
000001a0: 2cb0 323e 452a 39bc 64d1 1c3d 62ae 00be
000001b0: b56a e3bd 62e6 b63d dfc2 c0bd c387 eebd
000001c0: 4423 363e d318 7c3d c1fa de3d 6072 743d
000001d0: fcc9 ae3d fc21 b53b c9dd 99bd 9e9d e83d
000001e0: 2047 c2bd 3d9d fb3d 2a1e 4b3d e9c3 ff3b
000001f0: f935 4a3d 286d 63bd 8667 3d3e d105 92bd
00000200: 91ee 0fbe ada3 1b3e d3cd 033e 7c3d 5abe
00000210: dd1f 34bd fd81 b3bd a4f1 72be e793 4cbd
00000220: 1054 a73b 3944 13be d9c1 aabd 3284 b73d
00000230: f4a2 293d 6794 0b3d a997 31be 8d60 a3bd
00000240: 6d5e 28bd c987 96bd baaa cc3d fd06 2cbd
00000250: 304f 89bd c982 07bd b144 393e 4a07 583e
00000260: 970c c83b 3300 e7bd 5b40 82bd 13ed ae3c
00000270: 0569 7e3b 9f69 313e 378a e3bd 274e 58be
00000280: a18a 443e d9b5 8e3d a87f ba3c 496b cdbd
00000290: 54b7 493e 5956 80bc 11f3 df3d 88df 2fbd
000002a0: 2e74 e93d 917b 723d 834f f3bd 1e3d 6f3d
000002b0: 82a6 ae3d 46a6 b3bc f76c 16bd d11a fbbc
000002c0: 1029 39bd e20b 1c3e 5658 08bd 9202 8b3d
000002d0: 2800 143e 99e1 35be 986f a7be f598 38bd
000002e0: 4d0b 9e3d be9e 3dbe 433f f33d ae07 a03e
000002f0: fae3 63be 4b2e 133e 62e4 1b3e 10ce 04be
00000300: 2f80 543e 955c 583c fd2b cfbd 2129 a5bb
00000310: 8840 d1bd 00d6 c63d 6095 a4bd 555b 243e
00000320: e15f 083e af7c e8bb 871a 3f3e 1d49 3dbc
00000330: 1181 c23d a9b1 10bd 742a a4bd 324c ec3c
00000340: b56d d3bb 587a 9e3d dcb1 bebc b748 8fbd
00000350: a0c5 eebd fe16 c93d cb45 093e af90 40be
00000360: 8c90 fcbd e3e8 06bd d742 5dbe 8e4a dbbd
00000370: 6992 7c3e 7e46 f33d 189d 88be 4b72 56bd
00000380: 43a1 33be 9e9a d0bc baa0 b0bd f9a9 82bc
00000390: 3715 5f3d 6a0a be3c 05a1 6ebd dc2f dbbd
000003a0: ae5e 4ebb 34e3 36be dc02 1e3d f0cc 893d
000003b0: ad27 343d 1cda 383e def2 933d d3b8 b2bd
000003c0: 09a3 803d 01c6 dd3c a076 d23c a1fb f8bc
000003d0: bd09 b0bb f2fb 51be 8daf d23d ed12 31be
000003e0: 5e1f 8d3c f3f2 fc3a f15a dbbd fd07 bc3d
000003f0: 6689 a73d eb01 b23d c7e8 223e 97bb 263e

network_body._body_endoder.seq_layers.0.bias f4 [128]
-0.0064453073 -0.013506149 0.0045103156 -0.011768685 -0.015971543 -0.009775239 -0.014838103 -0.01578119
0.020787314 -0.033307664 0.014968108 -0.00071914966 -0.0082222 -0.015921265 -0.018665178 -0.005514187
-0.0043499907 -0.028508676 -0.011126018 0.00041450243 -0.021711893 -0.00814852 0.00036515854 -0.005871118
-0.0010549326 -0.031075327 -0.036912683 -0.0017211429 -0.0020170482 0.0013762679 -0.0131019065 0.011000446
-0.007935321 -0.021436758 -0.0020436249 -0.0048105307 -0.0039142035 0.008596983 -0.015289004 0.0016947401
-0.025668602 -0.026950285 -0.00519261 -0.012233579 -0.018225042 -0.014595892 -0.011616474 -0.006298535
-0.031037832 -0.019479813 -0.030817175 -0.008460948 -0.021655116 -0.017889496 -0.019084137 -0.009678505
-0.0030082385 -0.047842365 -0.008907147 -0.03295935 -0.018706584 -0.01237673 -0.0072513027 -0.015342311
-0.013805858 -0.0069359397 -0.035047054 -0.0030151585 -0.0049314876 -0.016767552 -0.017670939 -0.01802599
-0.0028745972 -0.0008150329 -0.033078898 0.0044663292 0.010562153 0.007253362 0.025252389 -0.02818359
-0.011124832 -0.0204887 -0.022665098 0.002497481 0.0063563394 -0.0029635 -0.010220075 -0.0030006168
-0.012166598 -0.003953444 -0.014059674 -0.028686423 -0.015105696 -0.01935914 -0.004236513 -0.0024878583
0.0030017905 -0.024809584 -0.030640773 -0.011359532 -9.979319e-05 -0.019220905 -0.017905125 -0.006847749
-0.0049602464 0.013786703 -0.017802808 -0.019394703 -0.023172956 -0.023827277 0.019170063 -0.03010167
-0.050258018 0.007471043 -0.013008981 -0.009603841 -0.009367876 -0.0064032683 -0.0054000746 -0.012806883
0.00022021512 -0.021289365 -0.009114036 -0.0069044903 -0.0119732395 -0.007983822 0.00039865557 -0.014097592
00000000: 2833 d3bb e548 5dbc 45cb 933b 71d1 40bc
00000010: c1d6 82bc 5328 20bc 841b 73bc 8e47 81bc
00000020: 284a aa3c 9e6d 08bd cc3c 753c 5185 3cba
00000030: 68b6 06bc 506d 82bc b7e7 98bc 5ab0 b4bb
00000040: 5e8a 8ebb 078b e9bc e749 36bc 9351 d939
00000050: 24dd b1bc 5f81 05bc c072 bf39 8262 c0bb
00000060: aa45 8aba af91 febc c131 17bd f997 e1ba
00000070: 7430 04bb e363 b43a 61a9 56bc 373b 343c
00000080: 2603 02bc 249c afbc 56ee 05bb a8a1 9dbb
00000090: b842 80bb 5cda 0c3c bb7e 7abc 0b22 de3a
000000a0: f646 d2bc d8c6 dcbc c526 aabb 596f 48bc
000000b0: af4c 95bc 9c23 6fbc 0653 3ebc f163 cebb
000000c0: 0d43 febc 2194 9fbc 4d74 fcbc ca9f 0abc
000000d0: 1266 b1bc fe8c 92bc 5656 9cbc 9892 1ebc
000000e0: de25 45bb 5bf6 43bd 48ef 11bc 6200 07bd
000000f0: 8d3e 99bc c5c7 4abc 569c edbb 515e 7bbc
00000100: f731 62bc e146 e3bb 808d 0fbd f799 45bb
00000110: 5198 a1bb 1b5c 89bc a5c2 90bc 3eab 93bc
00000120: bd63 3cbb efa7 55ba bd7d 07bd 495a 923b
00000130: e10c 2d3c 9cad ed3b 19de ce3c 46e1 e6bc
00000140: ed44 36bc ebd7 a7bc 28ac b9bc c7ac 233b
00000150: d748 d03b 4837 42bb 1a72 27bc ffa5 44bb
00000160: 6956 47bc e48b 81bb 8c5a 66bc caff eabc
00000170: e27d 77bc 0f97 9ebc 72d2 8abb 560b 23bb
00000180: b0b9 443b 783d cbbc 5c02 fbbc 551d 3abc
00000190: 1048 d1b8 2975 9dbc c5ad 92bc 1563 e0bb
000001a0: 9089 a2bb a0e1 613c 32d7 91bc a4e1 9ebc
000001b0: 36d5 bdbc 6c31 c3bc 890a 9d3c c797 f6bc
000001c0: 5adb 4dbd a7cf f43b 9f23 55bc 6e59 1dbc
000001d0: b87b 19bc 82d2 d1bb 1cf3 b0bb f6d3 51bc
000001e0: 8ce9 6639 0967 aebc 0a53 15bc 103f e2bb
000001f0: 682b 44bc 94ce 02bc a502 d139 96f9 66bc

network_body._body_endoder.seq_layers.2.weight f4 [128, 128]
-0.06019559 0.13337985 0.013078703 0.033308424 0.078702435 -0.009337294 0.020110656 -0.00598677
-0.04549357 0.097781666 -0.0047433227 -0.02845413 -0.0060435142 -0.034654174 -0.024768155 -0.024940325
-0.061971843 0.008006426 -0.06362584 0.10351402 -0.01672508 -0.11368663 0.21922421 -0.14003946
0.101359636 0.030260243 0.09976985 0.10416555 -0.19410011 -0.012763283 0.10248932 0.100095354
-0.014717987 -0.03926684 -0.005136392 0.038987253 -0.023215061 -0.07686625 -0.034629613 0.11200879
-0.023759346 0.139875 0.052943055 -0.13192098 0.060151022 -0.006801713 0.065692686 0.054806046
-0.0470972 -0.017589943 -0.02825907 0.0265533 0.0875653 0.12944418 0.101656005 -0.004204091
0.09181988 0.036022644 -0.07453937 0.013353365 0.0054236064 0.03710053 0.08472337 0.031686597
-0.05696132 -0.066298105 0.06371155 -0.028613707 0.019432414 0.122865506 -0.122930065 0.12885328
-0.0637307 -0.029352907 -0.11047973 -0.13217597 0.10909083 -0.037618514 -0.011328421 0.045562174
-0.047938112 0.0002150307 -0.1551393 0.00051417015 0.18680842 -0.06720189 -0.07866451 0.01754329
-0.13623117 -0.1631136 0.113545336 -0.141684 0.0015968147 0.081267945 0.039281357 -0.100404546
-0.04330916 0.19757707 0.052428912 0.06616804 0.017320089 -0.13913767 -0.025614347 0.033462174
0.08795446 0.07847478 0.060237702 -0.023639152 0.14780715 -0.044979434 0.14262548 0.00454996
0.09516054 0.01803802 0.010970643 -0.056036424 -0.08368408 -0.015427665 -0.13214229 -0.00887006
0.12770243 0.1896214 -0.044939887 -0.039887622 0.07246329 0.07025796 0.048947982 0.057172015
-0.16747878 0.045629274 -0.060235158 0.0045577534 0.054775856 0.10258427 -0.0019362872 0.048062716
0.078432135 0.0022044443 -0.056715067 0.11911554 0.039182145 -0.041238148 -0.10241761 0.17527981
-0.0470173 0.049319256 -0.004596576 0.03672255 0.09979842 0.033314675 -0.17762774 0.011831403
0.02004379 0.046560384 0.03841412 0.1328864 0.11015806 0.13290912 0.0518983 -0.120419785
0.032882888 0.014057883 -0.080412604 -0.022844551 0.07647889 0.09307143 -0.051967505 -0.087416396
-0.037371233 0.044955406 -0.13847372 0.07755848 0.07001344 -0.042612944 -0.20374426 0.042220473
-0.085288875 -0.0497511 -0.04485089 0.06010652 0.024120826 -0.05706434 -0.012283573 0.037173998
0.07966954 -0.1271989 -0.13065146 0.15990908 -0.04285261 0.084918745 -0.08774121 -0.13796678
-0.15537821 0.052119628 -0.027683422 0.014273967 -0.003841633 -0.056695994 -0.028443776 0.07187297
0.11834968 0.04249249 -0.15893896 0.008893097 -0.05789646 0.011065053 -0.061228707 -0.01465541
-0.18350206 -0.06163951 0.10593239 0.061518684 0.041993577 0.06830277 0.00042771324 -0.15172318
-0.05535845 0.065179706 0.01123437 0.07800879 0.039245296 0.056403328 -0.014544006 0.17066516
-0.050645165 -0.036526665 0.18846217 -0.043393932 -0.016390925 -0.014106101 -0.08048159 0.034648385
-0.07567528 0.057341505 0.19431801 -0.058862276 -0.17108206 -0.13023342 0.015657213 -0.07491478
-0.019661067 -0.10599764 -0.035989568 -0.20628239 0.020650137 0.07880752 0.041222416 0.034513727
-0.17566913 0.14826736 -0.09513398 0.00023778934 -0.07772646 -0.118963234 0.007558805 -0.047845837
00000000: a78f 76bd ba94 083e 0e48 563c 6a6e 083d
00000010: be2e a13d 73fb 18bc 1abf a43c ab2c c4bb
00000020: 7757 3abd c141 c83d e06d 9bbb a318 e9bc
00000030: ac08 c6bb 89f1 0dbd 96e6 cabc a74f ccbc
00000040: 30d6 7dbd 622d 033c 444e 82bd 29ff d33d
00000050: 0903 89bc 89d4 e8bd 507c 603e 8166 0fbe
00000060: a495 cf3d 54e4 f73c 2354 cc3d bf54 d53d
00000070: 2ec2 46be 171d 51bc ece5 d13d cbfe cc3d
00000080: b623 71bc 44d6 20bd 2e4f a8bb 19b1 1f3d
00000090: 832d bebc 0d6c 9dbd c8d7 0dbd dd64 e53d
000000a0: f6a2 c2bc 643b 0f3e d1da 583d 4b16 07be
000000b0: eb60 763d e7e0 debb e389 863d 4e7c 603d
000000c0: fee8 40bd c918 90bc 917f e7bc 4e86 d93c
000000d0: 7055 b33d 048d 043e 0631 d03d 79c2 89bb
000000e0: 100c bc3d 7b8c 133d 19a8 98bd 12c8 5a3c
000000f0: 82b8 b13b baf6 173d 7283 ad3d cec9 013d
00000100: 4650 69bd 4dc7 87bd 337b 823d 4b67 eabc
00000110: ba30 9f3c e9a0 fb3d c2c2 fbbd 1df2 033e
00000120: 3e85 82bd 8275 f0bc 3243 e2bd 2359 07be
00000130: 036b df3d df15 1abd d79a 39bc 679f 3a3d
00000140: c15a 44bd dd79 6139 d6dc 1ebe 60c9 063a
00000150: b54a 3f3e 25a1 89bd dc1a a1bd f2b6 8f3c
00000160: 2f80 0bbe 4007 27be 758a e83d 9c15 11be
00000170: 364c d13a cf6f a63d 7de5 203d e6a0 cdbd
00000180: f264 31bd a551 4a3e b3bf 563d 1c83 873d
00000190: dce2 8d3c 1b7a 0ebe 2ed5 d1bc a20f 093d
000001a0: 7821 b43d 63b7 a03d cfbb 763d e5a6 c1bc
000001b0: c25a 173e 5b3c 38bd 6a0c 123e d517 953b
000001c0: 87e3 c23d 78c4 933c 36be 333c 7386 65bd
000001d0: 8f62 abbd 51c4 7cbc 4f50 07be ba53 11bc
000001e0: 6dc4 023e 1d2c 423e e312 38bd 3461 23bd
000001f0: a267 943d 68e3 8f3d ae7d 483d 342d 6a3d
00000200: 8f7f 2bbe c3e5 3a3d 24b9 76bd 3559 953b
00000210: a65c 603d b417 d23d 04cb fdba 69dd 443d
00000220: 07a1 a03d 7078 103b 0f4e 68bd d9f2 f33d
00000230: 757d 203d 55e9 28bd 53c0 d1bd 8d7c 333e
00000240: 3695 40bd fd02 4a3d e09e 96bb 626a 163d
00000250: 1d63 cc3d f874 083d 0ce4 35be 80d8 413c
00000260: e032 a43c 1ab6 3e3d 2058 1d3d 5f13 083e
00000270: 8d9a e13d 5419 083e 5093 543d a69e f6bd
00000280: 35b0 063d 0953 663c 5daf a4bd 7f24 bbbc
00000290: f7a0 9c3d 3c9c be3d e1db 54bd 5e07 b3bd
000002a0: 9412 19bd 2923 383d 0ecc 0dbe fbd6 9e3d
000002b0: 3563 8f3d e98a 2ebd 56a2 50be 60ef 2c3d
000002c0: efab aebd cfc7 4bbd 91b5 37bd 4132 763d
000002d0: 0a99 c53c 4cbc 69bd 0a41 49bc c343 183d
000002e0: c929 a33d 6e40 02be 7fc9 05be 35bf 233e
000002f0: 3886 2fbd e1e9 ad3d aab1 b3bd 2a47 0dbe
00000300: 771b 1fbe 647b 553d 58c8 e2bc 5bdd 693c
00000310: e8c3 7bbb 0f3a 68bd ec02 e9bc 2332 933d
00000320: 5161 f23d 9b0c 2e3d e5c0 22be 5ab4 113c
00000330: d724 6dbd 324a 353c f4ca 7abd 3f1d 70bc
00000340: f7e7 3bbe b679 7cbd 15f3 d83d 04fb 7b3d
00000350: 7501 2c3d 53e2 8b3d b33e e039 525d 1bbe
00000360: 8bbf 62bd f07c 853d 5d10 383c 13c3 9f3d
00000370: adbf 203d 2d07 673d fc49 6ebc d9c2 2e3e
00000380: 4e71 4fbd fc9c 15bd 3afc 403e d6bd 31bd
00000390: 4346 86bc 471d 67bc 88d3 a4bd 77eb 0d3d
000003a0: a4fb 9abd edde 6a3d 4dfb 463e 9219 71bd
000003b0: 2330 2fbe e95b 05be 8e43 803c ec6c 99bd
000003c0: 3f10 a1bc 4a15 d9bd cc69 13bd b13b 53be
000003d0: 7a2a a93c d665 a13d d6d8 283d 445e 0d3d
000003e0: 9ce2 33be 66d3 173e 9bd5 c2bd 1757 7939
000003f0: 0d2f 9fbd ffa2 f3bd daaf f73b fff9 43bd

network_body._body_endoder.seq_layers.2.bias f4 [128]
-0.0026257285 -0.00056842656 -0.021991367 -0.021944106 0.008793853 -0.022955094 -0.007366676 -0.01700775
-0.0073691853 -0.014594771 -0.0061561465 -0.006210975 -0.019460708 0.004206576 -0.0047399323 -0.0027417329
-0.012087115 -0.028128289 -0.01609941 -0.0074096285 -0.016517999 -0.006501526 -0.015275312 -0.0007781581
-0.014001458 -0.009837441 -0.019395025 -0.027648203 0.0014804893 -0.0010762021 0.0044609327 -0.01903524
-0.009668274 -0.0025639625 0.004019854 -0.005155595 -0.008442692 -0.014862948 -0.014569322 0.005199574
-0.018294651 -0.015417218 -0.0063929716 -0.011102633 -0.008665709 0.010181586 -0.009261977 -0.015564219
-0.012766636 -0.02200462 -0.02221678 -0.00199534 -0.013285799 -0.011270937 0.0018558691 -0.0070927986
-0.00040574587 -0.023662208 -0.015066234 -0.022843475 -0.025313443 -0.014528527 -0.010302794 -0.022466706
-0.0073337695 -0.018844396 -0.019297125 -0.008704395 -0.00887709 -0.0014026038 -0.00670991 -0.024094567
-0.0041020275 -0.0021607145 -0.034275413 -0.02360288 -0.016272983 -0.010354781 0.0013391298 -0.0103672
-0.02337356 -0.02392608 -0.002128623 -0.019970026 -0.007992242 -0.027816862 -0.028534323 -0.020487214
-0.034737498 -0.013477795 -0.026759032 -0.031186491 -0.020101637 -0.021825686 -0.0021296842 -6.5607106e-05
-0.023266723 -0.028772725 -0.00033026616 -0.008221197 -0.0055506714 -0.022618406 -0.015015457 -0.02521202
-0.009134983 -0.0094753485 -0.020645546 0.00076196634 -0.019481717 -0.034953084 -0.0026521625 -0.012143284
-0.0036461223 -0.00318596 -0.009743644 -0.016404817 -0.019293008 -0.0078124832 -0.00905397 -0.016675556
-0.032820046 -0.021598198 0.0018100787 -0.009201517 -0.0070924214 0.001378282 -0.004608727 -0.008975324
00000000: 6a14 2cbb 7602 15ba 3d27 b4bc 20c4 b3bc
00000010: 1814 103c 520c bcbc 2864 f1bb d653 8bbc
00000020: 3579 f1bb e81e 6fbc 80b9 c9bb 6f85 cbbb
00000030: 106c 9fbc 51d7 893b 6f51 9bbb a5ae 33bb
00000040: 0909 46bc 4c6d e6bc e9e2 83bc 78cc f2bb
00000050: c150 87bc c10a d5bb 4d45 7abc 4efd 4bba
00000060: 5f66 65bc 382d 21bc 51e2 9ebc 7c7e e2bc
00000070: fa0c c23a 5a0f 8dba 042d 923b cbef 9bbc
00000080: ae67 1ebc 2708 28bb fbb8 833b 44f0 a8bb
00000090: 3853 0abc b983 73bc 2ab4 6ebc 3061 aa3b
000000a0: aade 95bc 8098 7cbc 227c d1bb d1e7 35bc
000000b0: 9efa 0dbc abd0 263c 8cbf 17bc 1101 7fbc
000000c0: 272b 51bc 0843 b4bc f7ff b5bc 40c4 02bb
000000d0: aeac 59bc bca9 38bc a240 f33a b56a e8bb
000000e0: 4aba d4b9 3fd7 c1bc 5ed8 76bc 3d22 bbbc
000000f0: 235e cfbc 0f09 6ebc 0dcd 28bc 190c b8bc
00000100: 1e50 f0bb 905f 9abc 0115 9ebc e19c 0ebc
00000110: 3771 11bc 93d7 b7ba cede dbbb f861 c5bc
00000120: 4d6a 86bb c69a 0dbb 6064 0cbd d45a c1bc
00000130: eb4e 85bc 19a7 29bc bd85 af3a 30db 29bc
00000140: e879 bfbc a000 c4bc 5e80 0bbb 2e98 a3bc
00000150: e5f1 02bc 30e0 e3bc d0c0 e9bc cdd4 a7bc
00000160: e848 0ebd f8d1 5cbc c235 dbbc d07a ffbc
00000170: 30ac a4bc c8cb b2bc 2c92 0bbb 8c96 89b8
00000180: db99 bebc c7b4 ebbc 9327 adb9 33b2 06bc
00000190: 68e2 b5bb 3c4a b9bc 6403 76bc 7089 cebc
000001a0: e5aa 15bc 7e3e 1bbc d920 a9bc b2be 473a
000001b0: 1f98 9fbc f72a 0fbd e7cf 2dbb a0f4 46bc
000001c0: c8f3 6ebb 8acb 50bb cea3 1fbc 6563 86bc
000001d0: 5f0c 9ebc dcff ffbb 1a57 14bc 2d9b 88bc
000001e0: 506e 06bd b4ee b0bc 2a40 ed3a f6c1 16bc
000001f0: 8b67 e8bb 78a7 b43a ce04 97bb 3d0d 13bc

action_model._continuous_distribution.log_sigma f4 [1, 2]
-0.10145596 -0.07757768
00000000: 24c8 cfbd 0ce1 9ebd

action_model._continuous_distribution.mu.weight f4 [2, 128]
-0.0023993005 0.022231566 -0.00043083588 0.0035908052 -0.03873653 -0.0012752212 -0.0013952638 0.0009473708
0.00078773213 -0.0003239098 -0.025670035 -0.000821534 0.011489114 -0.00012924375 0.027399044 0.0008053437
-0.00263059 0.0014239751 -0.00032780733 -0.019249879 0.001290127 -0.00028261004 -0.014151879 -0.00089604093
0.028552186 -0.00011432093 -0.017582504 0.0019766206 0.00084676716 -0.014822246 -0.0038550368 -0.015452426
0.00056069915 -0.0011546764 0.0039884006 -0.015047236 -0.01166998 0.00064160075 0.0016622192 -0.00019113993
-0.007214118 0.02381238 -0.00023645064 0.009748585 0.0020022276 -0.027941637 -0.0052307984 -0.0002454981
-0.008988286 0.00016152735 0.008965786 -0.0032691376 -0.004274678 -0.019573288 0.03023619 0.00071348686
-0.010243519 -0.001062681 -0.0016754182 -0.0021315496 -0.0010776636 -0.010782863 0.030026559 0.011940735
-0.020502904 0.002741387 0.0031611528 0.0006893782 3.8136965e-05 -0.00018485378 0.001427532 0.004401171
-0.0058843973 -0.0004125903 0.00032125626 -0.0006369479 -0.008124686 0.0024681468 0.04295047 -0.0009935022
0.00595439 -0.001535414 0.006243093 -0.0073524774 -0.0017428519 -0.003725244 0.0030343516 0.016531266
-0.00012678478 -0.00013356644 0.0025211852 -0.0017462049 0.0027858245 -0.010043555 -7.249626e-05 -0.0013116162
-0.014731135 0.0011726449 -0.000105049556 0.018939618 -0.00010016443 -0.007873697 0.027398724 -0.007764741
0.01725538 -0.0004931785 0.00015006875 0.009081934 0.0018342288 -5.255866e-05 0.00041173643 0.0010905575
-0.008001578 -0.00018182892 0.02055225 0.011007961 -0.0026970615 0.014237978 -0.017587872 -0.0067407805
0.00067772315 0.0044891164 -0.0017711105 0.0009576012 -0.0010958031 0.0014035504 0.00037559518 -0.004236534
0.01437893 0.03580673 0.008308044 0.014831478 -0.04209095 0.009544831 0.0014422651 0.017145663
0.00032179445 -0.0006825739 0.023491353 -0.0007363829 0.025863262 -4.13739e-05 0.0151576195 0.000818537
0.033128876 0.0072756168 6.48168e-05 -0.0044250274 0.013111547 -0.00042788952 0.01931108 0.00016283964
0.032566324 0.0003721593 -0.025744418 0.005460891 -0.00030766288 0.028818289 -0.030691968 0.0072323545
0.0006687925 -0.00091917993 0.032165617 0.02247252 0.0041072555 0.023487998 0.024124563 0.00027414795
0.019796625 0.018850626 -0.0006612858 0.025578579 0.025026944 -0.047310494 0.0053948388 0.0005821802
0.026466671 0.004857388 0.010810346 0.00010810222 0.021496715 0.0013253144 0.027934665 -0.0023770374
-0.022517897 -0.0010316808 0.024092017 0.009458278 -0.00037706923 0.0045003304 0.042731144 -0.010203489
-0.008558677 0.012456076 0.012114397 -0.00016945599 -0.00013732832 -8.816326e-05 0.05235728 0.0058176937
-0.015349072 -0.019397326 0.0042786263 -0.0009436955 0.033343032 0.024869146 0.006650209 0.0012130552
0.009970492 0.010044542 -0.025363417 0.011689504 0.02368579 0.0043310807 -0.010566958 0.03386866
0.003942868 -4.4570647e-06 0.0028349003 0.00057233515 0.01958369 0.009524876 -0.001247541 0.014119714
0.024235822 0.005167825 0.00012573127 -0.016474862 0.00017864855 0.009253623 0.022479977 -0.0030290128
0.018590163 0.00014546794 0.019327015 0.023372693 0.008023757 0.003911187 0.026539817 0.018633287
-0.014345942 -0.0009068184 0.029684052 0.016587703 0.00071582134 0.008808549 0.03564663 0.02278066
0.003418811 0.010960586 -0.00040054938 0.02614507 -4.7578258e-05 0.0018361908 0.00011503879 0.03135884
00000000: 953d 1dbb f91e b63c d0e1 e1b9 b753 6b3b
00000010: 32aa 1ebd 5325 a7ba 49e1 b6ba fa58 783a
00000020: cf7f 4e3a 70d2 a9b9 f749 d2bc 375c 57ba
00000030: d63c 3c3c 9b85 07b9 f673 e03c b31d 533a
00000040: fa65 2cbb ada4 ba3a 8edd abb9 ecb1 9dbc
00000050: 7b19 a93a 472b 94b9 48dd 67bc 4ae4 6aba
00000060: 46e6 e93c 95bf efb8 2f09 90bc 318a 013b
00000070: 95f9 5d3a 01d9 72bc c9a4 7cbb 2c2c 7dbc
00000080: e2fb 123a 8358 97ba 21b1 823b af88 76bc
00000090: 7233 3fbc 1931 283a d2de d93a bc6c 48b9
000000a0: 6864 ecbb 2e12 c33c bcef 77b9 87b8 1f3c
000000b0: ce37 033b dce5 e4bc 1e67 abbb 32b6 80b9
000000c0: 9b43 13bc ab5f 2939 3be5 123c 073f 56bb
000000d0: 9912 8cbb 2958 a0bc e3b1 f73c 4b09 3b3a
000000e0: 6fd4 27bc a849 8bba b599 dbba 78b1 0bbb
000000f0: 6440 8dba 9baa 30bc 42fa f53c 13a3 433c
00000100: b5f5 a7bc d8a8 333b 582b 4f3b 63b7 343a
00000110: 41f5 1f38 4fd5 41b9 071c bb3a b337 903b
00000120: e7d1 c0bb ef50 d8b9 496e a839 daf8 26ba
00000130: 671d 05bc a2c0 213b d5ec 2f3d 6738 82ba
00000140: 0b1d c33b f23f c9ba dc92 cc3b 0ded f0bb
00000150: 6870 e4ba 3923 74bb f9db 463b 946c 873c
00000160: 88f1 04b9 f80d 0cb9 783a 253b eae0 e4ba
00000170: 6192 363b b98d 24bc 2209 98b8 89ea abba
00000180: dc5a 71bc 6fb3 993a 0d4e dcb8 4227 9b3c
00000190: 5e0f d2b8 ae00 01bc 4a73 e03c 5e6f febb
000001a0: 285b 8d3c a648 01ba c65b 1d39 64cc 143c
000001b0: 816a f03a 6e72 5cb8 54de d739 0af1 8e3a
000001c0: 0d19 03bc 54a9 3eb9 315d a83c bc5a 343c
000001d0: 2fc1 30bb 6846 693c 7114 90bc c4e1 dcbb
000001e0: 3ba9 313a 7019 933b 9b24 e8ba 8707 7b3a
000001f0: 0da1 8fba 56f7 b73a 88eb c439 9fd2 8abb
00000200: 9b95 6b3c 14aa 123d 761e 083c baff 723c
00000210: 8f67 2cbd ec61 1c3c 630a bd3a 1075 8c3c
00000220: 85b6 a839 c2ee 32ba f070 c03c d209 41ba
00000230: 31df d33c e388 2db8 aa57 783c 1793 563a
00000240: 25b2 073d 4c68 ee3b 41ee 8738 d2ff 90bb
00000250: d0d1 563c 5c56 e0b9 4532 9e3c efbf 2a39
00000260: 4464 053d 601e c339 f5e5 d2bc 46f1 b23b
00000270: d04d a1b9 5514 ec3c b96d fbbc 63fd ec3b
00000280: e851 2f3a 1ff5 70ba 18c0 033d 4a18 b83c
00000290: 2896 863b e769 c03c e0a0 c53c 84bb 8f39
000002a0: 882c a23c a16c 9a3c 245a 2dba 2b8a d13c
000002b0: 4e05 cd3c a6c8 41bd 30c7 b03b 749d 183a
000002c0: a2d0 d83c b92a 9f3b e11d 313c f0b4 e238
000002d0: e119 b03c 2cb6 ad3a 3dd7 e43c 12c8 1bbb
000002e0: 7477 b8bc 7739 87ba 9f5c c53c e5f6 1a3c
000002f0: 60b1 c5b9 8277 933b da06 2f3d 892c 27bc
00000300: b139 0cbc 9214 4c3c 777b 463c ffaf 31b9
00000310: caff 0fb9 4ae4 b8b8 9674 563d 5aa2 be3b
00000320: ad7a 7bbc 24e7 9ebc b833 8c3b 5562 77ba
00000330: b492 083d 61ba cb3c ffe9 d93b 61ff 9e3a
00000340: 465b 233c dd91 243c f1c6 cfbc 5585 3f3c
00000350: b408 c23c bdeb 8d3b 0921 2dbc ddb9 0a3d
00000360: 2d33 813b e58d 95b6 bcc9 393b c308 163a
00000370: fa6d a03c 3a0e 1c3c 8884 a3ba 5f56 673c
00000380: 348a c63c dc56 a93b bbd6 0339 4af6 86bc
00000390: 9b53 3b39 829c 173c ee27 b83c 6782 46bb
000003a0: 664a 983c c188 1839 b053 9e3c 1778 bf3c
000003b0: 1376 033c 6a29 803b 086a d93c d6a4 983c
000003c0: 3e0b 6bbc 8db7 6dba f82b f33c efe2 873c
000003d0: f5a5 3b3a bb51 103c 3302 123d 829e ba3c
000003e0: 210e 603b 0894 333c d400 d2b9 302e d63c
000003f0: c48e 47b8 57ac f03a fb40 f138 2172 003d

action_model._continuous_distribution.mu.bias f4 [2]
-0.004814889 -0.017609334
00000000: 37c6 9dbb 7341 90bc

exp_avg f4 [128, 75]
0.0 8.7292945e-05 0.0 3.1188716e-05 0.0 3.118553e-05 0.0 1.6885022e-05
0.0 1.6880993e-05 0.0 1.2920645e-05 0.0 1.2920691e-05 0.0 1.1933707e-05
0.0 1.1931406e-05 0.0 1.2920645e-05 0.0 1.2920645e-05 0.0 1.6881162e-05
0.0 1.6885022e-05 0.0 4.0119183e-05 0.0 3.119164e-05 0.0 3.7051967e-05
0.0 3.7051967e-05 -2.7714572e-08 0.00014744548 1.6124685e-07 1.1542637e-10 -2.4947853e-09 5.1993587e-09
0.00025126632 -3.3548467e-08 1.811549e-05 3.3128666e-07 3.3168723e-07 2.0522167e-07 1.6870173e-06 0.0
0.00050253264 0.0 0.0 0.0 0.0 0.00025126632 0.0 0.00050253264
0.0025126634 0.0 0.0 0.0 0.00025126632 0.0 0.00050253264 0.0050253267
0.0 0.0 0.0 0.00025126632 0.0 0.00050253264 0.007537989 0.0
0.0 0.0 0.00025126632 0.0 4.485232e-07 0.0 1.6024327e-07 0.0
1.602259e-07 0.0 8.675755e-08 0.0 8.6737664e-08 0.0 6.638804e-08 0.0
6.6388274e-08 0.0 6.1322275e-08 0.0 6.130517e-08 0.0 6.638805e-08 0.0
6.638804e-08 0.0 8.673818e-08 0.0 8.675755e-08 0.0 2.0613786e-07 0.0
1.6026367e-07 0.0 1.9037805e-07 0.0 1.9037805e-07 -1.8239316e-10 7.573144e-07 7.7831863e-10
-1.3110046e-11 -1.1291471e-11 1.9162229e-11 1.2910406e-06 -2.4533814e-10 9.8556384e-08 5.987613e-10 1.1518555e-09
1.3855066e-09 1.0763075e-08 0.0 2.5820812e-06 0.0 0.0 0.0 0.0
1.2910406e-06 0.0 2.5820812e-06 1.2910406e-05 0.0 0.0 0.0 1.2910406e-06
0.0 2.5820812e-06 2.5820813e-05 0.0 0.0 0.0 1.2910406e-06 0.0
2.5820812e-06 3.8731225e-05 0.0 0.0 0.0 1.2910406e-06 0.0 0.00034279743
0.0 0.00012245892 0.0 0.0001224451 0.0 6.63071e-05 0.0 6.6292945e-05
0.0 5.073908e-05 0.0 5.0739185e-05 0.0 4.6874142e-05 0.0 4.6854275e-05
0.0 5.073908e-05 0.0 5.073908e-05 0.0 6.629284e-05 0.0 6.63071e-05
0.0 0.0001575471 0.0 0.00012248232 0.0 0.0001455022 0.0 0.0001455022
-1.8976775e-07 0.00057830004 5.1882074e-07 -3.3064417e-08 -6.8159496e-09 7.76284e-09 0.000986717 -4.020946e-07
8.144964e-05 -8.015729e-07 3.117585e-07 1.363351e-06 1.1239553e-05 0.0 0.001973434 0.0
0.0 0.0 0.0 0.000986717 0.0 0.001973434 0.00986717 0.0
0.0 0.0 0.000986717 0.0 0.001973434 0.01973434 0.0 0.0
0.0 0.000986717 0.0 0.001973434 0.02960151 0.0 0.0 0.0
0.000986717 0.0 2.5635047e-06 0.0 9.1555086e-07 0.0 9.154296e-07 0.0
4.9585725e-07 0.0 4.9577466e-07 0.0 3.7943659e-07 0.0 3.794363e-07 0.0
3.5066356e-07 0.0 3.5038457e-07 0.0 3.7943659e-07 0.0 3.7943659e-07 0.0
4.95764e-07 0.0 4.9585725e-07 0.0 1.1781674e-06 0.0 9.158655e-07 0.0
00000000: 0000 0000 0b11 b738 0000 0000 a1d0 0238
00000010: 0000 0000 35cd 0238 0000 0000 4fa4 8d37
00000020: 0000 0000 a89b 8d37 0000 0000 bfc5 5837
00000030: 0000 0000 f2c5 5837 0000 0000 e236 4837
00000040: 0000 0000 002d 4837 0000 0000 bfc5 5837
00000050: 0000 0000 bfc5 5837 0000 0000 059c 8d37
00000060: 0000 0000 4fa4 8d37 0000 0000 a545 2838
00000070: 0000 0000 c5d3 0238 0000 0000 3f68 1b38
00000080: 0000 0000 3f68 1b38 fd10 eeb2 989b 1a39
00000090: 3223 2d34 45d3 fd2e ba70 2bb1 0ba6 b231
000000a0: 65bc 8339 ee16 10b3 b8f6 9737 b1db b134
000000b0: bf12 b234 e75a 5c34 796d e235 0000 0000
000000c0: 65bc 033a 0000 0000 0000 0000 0000 0000
000000d0: 0000 0000 65bc 8339 0000 0000 65bc 033a
000000e0: 7fab 243b 0000 0000 0000 0000 0000 0000
000000f0: 65bc 8339 0000 0000 65bc 033a 7fab a43b
00000100: 0000 0000 0000 0000 0000 0000 65bc 8339
00000110: 0000 0000 65bc 033a 3c01 f73b 0000 0000
00000120: 0000 0000 0000 0000 65bc 8339 0000 0000
00000130: 8fcc f034 0000 0000 560f 2c34 0000 0000
00000140: 8f0a 2c34 0000 0000 784f ba33 0000 0000
00000150: 8944 ba33 0000 0000 3691 8e33 0000 0000
00000160: 5791 8e33 0000 0000 47b0 8333 0000 0000
00000170: e0a6 8333 0000 0000 3791 8e33 0000 0000
00000180: 3691 8e33 0000 0000 d244 ba33 0000 0000
00000190: 784f ba33 0000 0000 be56 5d34 0000 0000
000001a0: f114 2c34 0000 0000 b86a 4c34 0000 0000
000001b0: b86a 4c34 1c8b 48af 404a 4b35 4ef1 5530
000001c0: 66a2 66ad 44a4 46ad 818d a82d d147 ad35
000001d0: 46e0 86af f2a5 d333 1596 2430 504f 9e30
000001e0: 2e6c be30 81e8 3832 0000 0000 d147 2d36
000001f0: 0000 0000 0000 0000 0000 0000 0000 0000
00000200: d147 ad35 0000 0000 d147 2d36 c699 5837
00000210: 0000 0000 0000 0000 0000 0000 d147 ad35
00000220: 0000 0000 d147 2d36 c699 d837 0000 0000
00000230: 0000 0000 0000 0000 d147 ad35 0000 0000
00000240: d147 2d36 5673 2238 0000 0000 0000 0000
00000250: 0000 0000 d147 ad35 0000 0000 7eb9 b339
00000260: 0000 0000 5168 0039 0000 0000 9b64 0039
00000270: 0000 0000 5a0e 8b38 0000 0000 c106 8b38
00000280: 0000 0000 acd0 5438 0000 0000 c9d0 5438
00000290: 0000 0000 ba9a 4438 0000 0000 6585 4438
000002a0: 0000 0000 acd0 5438 0000 0000 acd0 5438
000002b0: 0000 0000 b306 8b38 0000 0000 5a0e 8b38
000002c0: 0000 0000 3a33 2539 0000 0000 996e 0039
000002d0: 0000 0000 f391 1839 0000 0000 f391 1839
000002e0: f6c2 4bb4 0f99 173a 1745 0b35 b602 0eb3
000002f0: ba31 eab1 555d 0532 ba54 813a 76df d7b4
00000300: f1cf aa38 ac2b 57b5 c35f a734 62fc b635
00000310: 8391 3c37 0000 0000 ba54 013b 0000 0000
00000320: 0000 0000 0000 0000 0000 0000 ba54 813a
00000330: 0000 0000 ba54 013b e9a9 213c 0000 0000
00000340: 0000 0000 0000 0000 ba54 813a 0000 0000
00000350: ba54 013b e9a9 a13c 0000 0000 0000 0000
00000360: 0000 0000 ba54 813a 0000 0000 ba54 013b
00000370: de7e f23c 0000 0000 0000 0000 0000 0000
00000380: ba54 813a 0000 0000 ad08 2c36 0000 0000
00000390: 2dc4 7535 0000 0000 d8bb 7535 0000 0000
000003a0: 0d1b 0535 0000 0000 6015 0535 0000 0000
000003b0: 5eb5 cb34 0000 0000 54b5 cb34 0000 0000
000003c0: d542 bc34 0000 0000 7d1c bc34 0000 0000
000003d0: 5eb5 cb34 0000 0000 5eb5 cb34 0000 0000
000003e0: a514 0535 0000 0000 0d1b 0535 0000 0000
000003f0: 8621 9e35 0000 0000 ccd9 7535 0000 0000

exp_avg_sq f4 [128, 75]
0.0 1.1681876e-07 0.0 1.4969817e-08 0.0 1.4861491e-08 0.0 4.376252e-09
0.0 4.361544e-09 0.0 2.561063e-09 0.0 2.557231e-09 0.0 2.1844389e-09
0.0 2.182758e-09 0.0 2.558176e-09 0.0 2.5603488e-09 0.0 4.3630313e-09
0.0 4.3749453e-09 0.0 2.4709854e-08 0.0 1.4965051e-08 0.0 2.1075408e-08
0.0 2.1075408e-08 3.1453592e-12 3.3276012e-07 6.7538075e-10 7.298174e-14 7.152713e-13 3.6387654e-15
9.680115e-07 5.5056463e-12 1.9844841e-09 5.7630734e-10 4.420834e-11 6.879673e-12 5.535246e-11 0.0
3.872046e-06 0.0 0.0 0.0 0.0 9.680115e-07 0.0 3.872046e-06
9.680103e-05 0.0 0.0 0.0 9.680115e-07 0.0 3.872046e-06 0.0003872041
0.0 0.0 0.0 9.680115e-07 0.0 3.872046e-06 0.00087120873 0.0
0.0 0.0 9.680115e-07 0.0 3.06928e-12 0.0 3.9326734e-13 0.0
3.9053114e-13 0.0 1.1497884e-13 0.0 1.1460522e-13 0.0 6.728904e-14 0.0
6.719276e-14 0.0 5.7392364e-14 0.0 5.734984e-14 0.0 6.721526e-14 0.0
6.727052e-14 0.0 1.1464317e-13 0.0 1.1494404e-13 0.0 6.4921544e-13 0.0
3.9315372e-13 0.0 5.537178e-13 0.0 5.537178e-13 8.212555e-17 8.745086e-12 2.012829e-14
1.9867404e-18 1.91027e-17 9.296242e-20 2.5433596e-11 1.4820992e-16 5.0992837e-14 1.4678375e-14 1.2026425e-15
1.784827e-16 1.3719184e-15 0.0 1.01734406e-10 0.0 0.0 0.0 0.0
2.5433601e-11 0.0 1.01734406e-10 2.5433617e-09 0.0 0.0 0.0 2.5433601e-11
0.0 1.01734406e-10 1.0173447e-08 0.0 0.0 0.0 2.5433601e-11 0.0
1.01734406e-10 2.2890232e-08 0.0 0.0 0.0 2.5433601e-11 0.0 1.8185036e-06
0.0 2.3281264e-07 0.0 2.3154006e-07 0.0 6.809732e-08 0.0 6.7920745e-08
0.0 3.9859696e-08 0.0 3.98151e-08 0.0 3.4000355e-08 0.0 3.3977265e-08
0.0 3.9825355e-08 0.0 3.985107e-08 0.0 6.793915e-08 0.0 6.8081036e-08
0.0 3.8451753e-07 0.0 2.3275916e-07 0.0 3.279974e-07 0.0 3.279974e-07
2.928056e-11 5.1786064e-06 6.4731154e-09 8.91686e-13 6.876553e-12 5.772069e-14 1.5068159e-05 6.604923e-11
2.9259672e-08 6.1675425e-09 5.6380467e-10 8.290685e-11 7.055851e-10 0.0 6.0272643e-05 0.0
0.0 0.0 0.0 1.5068161e-05 0.0 6.0272643e-05 0.0015068192 0.0
0.0 0.0 1.5068161e-05 0.0 6.0272643e-05 0.0060272766 0.0 0.0
0.0 1.5068161e-05 0.0 6.0272643e-05 0.013561348 0.0 0.0 0.0
1.5068161e-05 0.0 2.750747e-10 0.0 3.523568e-11 0.0 3.501616e-11 0.0
1.0303804e-11 0.0 1.0273343e-11 0.0 6.030636e-12 0.0 6.022979e-12 0.0
5.1434156e-12 0.0 5.1398855e-12 0.0 6.02472e-12 0.0 6.0290458e-12 0.0
1.0276757e-11 0.0 1.03009545e-11 0.0 5.8181453e-11 0.0 3.522476e-11 0.0
00000000: 0000 0000 cbdd fa33 0000 0000 fa96 8032
00000010: 0000 0000 8751 7f32 0000 0000 eb5d 9631
00000020: 0000 0000 8cdc 9531 0000 0000 b2fe 2f31
00000030: 0000 0000 49bb 2f31 0000 0000 0e1d 1631
00000040: 0000 0000 7cff 1531 0000 0000 e8cb 2f31
00000050: 0000 0000 22f2 2f31 0000 0000 a1e9 9531
00000060: 0000 0000 6d52 9631 0000 0000 8b41 d432
00000070: 0000 0000 7f8c 8032 0000 0000 5009 b532
00000080: 0000 0000 5009 b532 c155 5d2c 34a6 b234
00000090: b2a5 3930 1c57 a429 bb54 492b b019 8327
000000a0: 9fec 8135 74b6 c12c 6a5f 0831 066a 1e30
000000b0: 2a6e 422e 960e f22c 5471 732e 0000 0000
000000c0: 9fec 8136 0000 0000 0000 0000 0000 0000
000000d0: 0000 0000 9fec 8135 0000 0000 9fec 8136
000000e0: a801 cb38 0000 0000 0000 0000 0000 0000
000000f0: 9fec 8135 0000 0000 9fec 8136 a801 cb39
00000100: 0000 0000 0000 0000 0000 0000 9fec 8135
00000110: 0000 0000 9fec 8136 d461 643a 0000 0000
00000120: 0000 0000 0000 0000 9fec 8135 0000 0000
00000130: 3cfb 572c 0000 0000 cc63 dd2a 0000 0000
00000140: 78d9 db2a 0000 0000 6574 012a 0000 0000
00000150: b508 012a 0000 0000 7e85 9729 0000 0000
00000160: fd4d 9729 0000 0000 723c 8129 0000 0000
00000170: ef23 8129 0000 0000 f65a 9729 0000 0000
00000180: d17a 9729 0000 0000 a513 012a 0000 0000
00000190: 5d6a 012a 0000 0000 e7bc 362b 0000 0000
000001a0: 6c53 dd2a 0000 0000 93db 1b2b 0000 0000
000001b0: 93db 1b2b 5e5e bd24 5ed8 192d ad4c b528
000001c0: 7798 1222 fa30 b023 5680 db1f 5eb7 df2d
000001d0: d9df 2a25 bda6 6529 0736 8428 ad51 ad26
000001e0: ccc6 4d25 dbb6 c526 0000 0000 61b7 df2e
000001f0: 0000 0000 0000 0000 0000 0000 0000 0000
00000200: 61b7 df2d 0000 0000 61b7 df2e 4bc7 2e31
00000210: 0000 0000 0000 0000 0000 0000 61b7 df2d
00000220: 0000 0000 61b7 df2e 4bc7 2e32 0000 0000
00000230: 0000 0000 0000 0000 61b7 df2d 0000 0000
00000240: 61b7 df2e 27a0 c432 0000 0000 0000 0000
00000250: 0000 0000 61b7 df2d 0000 0000 4f13 f435
00000260: 0000 0000 0dfb 7934 0000 0000 3f9d 7834
00000270: 0000 0000 e63c 9233 0000 0000 d3db 9133
00000280: 0000 0000 3332 2b33 0000 0000 2a01 2b33
00000290: 0000 0000 c907 1233 0000 0000 66ee 1133
000002a0: 0000 0000 710c 2b33 0000 0000 b728 2b33
000002b0: 0000 0000 f1e5 9133 0000 0000 f233 9233
000002c0: 0000 0000 b06f ce34 0000 0000 5aec 7934
000002d0: 0000 0000 9f17 b034 0000 0000 9f17 b034
000002e0: fbc6 002e e4c3 ad36 206a de31 bffc 7a2b
000002f0: 7cf2 f12c b6f9 8129 40cd 7c37 693e 912e
00000300: b356 fb32 47ea d331 3afa 1a30 6850 b62e
00000310: 23f3 4130 0000 0000 42cd 7c38 0000 0000
00000320: 0000 0000 0000 0000 0000 0000 42cd 7c37
00000330: 0000 0000 42cd 7c38 7680 c53a 0000 0000
00000340: 0000 0000 0000 0000 42cd 7c37 0000 0000
00000350: 42cd 7c38 7680 c53b 0000 0000 0000 0000
00000360: 0000 0000 42cd 7c37 0000 0000 42cd 7c38
00000370: 6b30 5e3c 0000 0000 0000 0000 0000 0000
00000380: 42cd 7c37 0000 0000 5339 972f 0000 0000
00000390: d9f7 1a2e 0000 0000 b100 1a2e 0000 0000
000003a0: 3544 352d 0000 0000 06bb 342d 0000 0000
000003b0: 242f d42c 0000 0000 2cea d32c 0000 0000
000003c0: c5f7 b42c 0000 0000 f9d7 b42c 0000 0000
000003d0: daf9 d32c 0000 0000 d120 d42c 0000 0000
000003e0: 66ca 342d 0000 0000 6037 352d 0000 0000
000003f0: 7ee2 7f2e 0000 0000 8eeb 1a2e 0000 0000

exp_avg f4 [128]
0.00025124897 1.291247e-06 0.0009865675 7.3777323e-06 0.00016909232 0.0011215756 -0.00013449506 -0.00010654102
-2.4996439e-08 3.91123e-06 5.7025944e-05 -0.0001630839 6.2402046e-07 3.2232986e-08 -2.4225106e-05 8.098824e-06
0.00019412038 1.9092467e-06 0.0006748095 -2.936664e-07 1.674777e-06 -2.6940432e-08 1.0625473e-06 -1.9974248e-06
1.3053584e-05 -3.7191003e-05 -0.00017059254 0.00022776496 -6.226024e-07 -6.4638704e-07 2.647059e-05 -0.00011356876
0.0004094066 7.87866e-05 0.00024314139 1.7572734e-06 -1.3717828e-07 0.00043201554 0.00030357737 1.882798e-06
-0.00014237608 6.2144977e-06 -0.00011761204 2.6339558e-07 9.979842e-07 -7.4886343e-06 -1.6938385e-06 0.00015041618
0.00024576386 -0.0002674242 -4.062002e-05 0.00013564022 3.1534246e-06 -4.6714245e-05 2.6747246e-06 3.7741534e-05
4.6102217e-05 3.0361416e-06 -3.1230118e-07 -8.657797e-05 7.432022e-05 -2.284338e-06 -2.2967222e-05 2.936164e-06
0.00042560778 3.2548135e-06 -1.1880554e-05 -1.7129047e-05 -1.7907529e-07 -4.4899334e-05 0.00030701727 2.8420213e-06
3.2754378e-06 0.0008822652 9.472944e-05 -0.0001555135 -1.8550899e-06 -2.033094e-07 8.677507e-08 -0.00016523467
-0.00017105803 1.4813746e-05 0.0002825311 0.00025689465 7.80719e-07 -3.4495606e-06 -3.8782264e-06 0.00038753726
2.4213643e-05 -5.0494124e-05 2.6567575e-08 -2.2176011e-06 0.00062131515 -1.2912462e-06 -5.3726217e-06 -3.206601e-06
3.5882506e-06 1.5818205e-07 1.4103124e-05 0.00016517875 5.966491e-05 0.00033996478 -0.0005475714 -5.807865e-06
-6.120676e-05 1.9274537e-06 0.00018583435 2.10176e-05 -7.868132e-06 4.2028432e-06 1.1365684e-06 1.2455319e-05
0.00015693344 2.0628726e-05 -1.1380959e-06 1.149168e-07 0.0003181076 0.0001635709 3.4692948e-06 -1.7327325e-07
6.38023e-06 0.00014280088 0.0008759583 2.0142487e-07 0.0005613917 -1.6035273e-06 -3.4284978e-06 0.0002234921
00000000: 11ba 8339 e94e ad35 b64f 813a 3d8e f736
00000010: 604e 3139 d501 933a 3e07 0db9 c66e dfb8
00000020: c0b7 d6b2 363d 8336 242f 6f38 8001 2bb9
00000030: 5c82 2735 8b70 0a33 0537 cbb7 2fe0 0737
00000040: cb8c 4b39 9c20 0036 b3e5 303a 34a9 9db4
00000050: e6c8 e035 a36a e7b2 d99c 8e35 7f0b 06b6
00000060: b700 5b37 89fd 1bb8 16e1 32b9 31d4 6e39
00000070: e920 27b5 6183 2db5 290d de37 c42b eeb8
00000080: a0a5 d639 3c3a a538 c5f3 7e39 74db eb35
00000090: 474b 13b4 2580 e239 7729 9f39 72b4 fc35
000000a0: ca4a 15b9 2186 d036 7ca6 f6b8 d068 8d34
000000b0: 7af2 8535 e146 fbb6 d957 e3b5 09b9 1d39
000000c0: ded9 8039 1235 8cb9 6a5f 2ab8 a53a 0e39
000000d0: 6c9f 5336 0aef 43b8 6b7f 3336 aa4c 1e38
000000e0: e15d 4138 84c0 4b36 59aa a7b4 3291 b5b8
000000f0: 5ddc 9b38 a14c 19b6 bca9 c0b7 ea0a 4536
00000100: 1c24 df39 456d 5a36 9752 47b7 59b0 8fb7
00000110: d747 40b4 4b52 3cb8 29f7 a039 8eb9 3e36
00000120: 98cf 5b36 d147 673a 7ba9 c638 5611 23b9
00000130: 67fc f8b5 434d 5ab4 1959 ba33 d842 2db9
00000140: 0a5e 33b9 8e88 7837 af20 9439 d1af 8639
00000150: 9a92 5135 007f 67b6 b621 82b6 5f2e cb39
00000160: 671e cb37 a7c9 53b8 b736 e432 19d2 14b6
00000170: c1df 223a e24e adb5 7846 b4b6 fc30 57b6
00000180: adcd 7036 c0d8 2934 759c 6c37 d533 2d39
00000190: b640 7a38 4d3d b239 e58a 0fba 2ee1 c2b6
000001a0: 215c 80b8 6759 0136 87dc 4239 f44e b037
000001b0: 5f01 04b7 2606 8d36 318c 9835 30f7 5037
000001c0: 808e 2439 da0b ad37 adc0 98b5 2ec8 f633
000001d0: aec7 a639 3b84 2b39 08d2 6836 fd0c 3ab4
000001e0: c215 d636 d2bc 1539 91a0 653a 3f47 5834
000001f0: 5c2a 133a c738 d7b5 2515 66b6 3459 6a39

exp_avg_sq f4 [128]
9.680042e-07 2.5433173e-11 1.5068377e-05 2.2794884e-09 5.5059115e-07 2.1014635e-05 2.836928e-06 2.6724672e-07
8.436501e-12 2.652497e-10 1.611837e-07 3.64382e-07 1.38674055e-11 7.2894344e-13 8.438014e-09 1.3876336e-08
9.626646e-07 1.3785448e-10 6.697784e-06 5.9812125e-12 6.52084e-11 4.7213532e-14 1.3309588e-10 4.6661737e-11
6.599522e-09 2.2186333e-07 4.6396968e-07 2.4711992e-06 7.63317e-11 1.257932e-10 1.2891471e-08 3.4868813e-07
2.2502627e-06 3.2930285e-07 7.45484e-07 3.757414e-10 4.625592e-11 7.3187193e-06 1.5567172e-06 4.2082644e-09
5.5654436e-07 2.1159448e-09 2.870317e-07 5.4697735e-12 3.7933381e-10 1.2004366e-09 5.6857376e-11 8.209378e-07
9.143084e-07 2.0547793e-06 1.5216193e-07 5.911391e-07 1.4688329e-09 1.5257758e-07 1.5937696e-10 2.4051712e-08
1.2929735e-07 1.116656e-09 9.6697206e-11 2.7062225e-07 4.3068997e-07 1.7760528e-10 2.2619942e-07 5.5610565e-07
3.022612e-06 8.1867946e-10 5.406831e-07 6.082684e-09 1.5096308e-11 1.9658397e-07 2.8005825e-06 2.2969824e-09
3.5162562e-10 1.066192e-05 2.9059936e-07 3.1819962e-07 2.541037e-08 2.2620874e-09 2.1152592e-10 4.838357e-07
1.4125429e-06 6.206467e-09 1.3655836e-06 1.2298674e-06 9.200575e-11 9.325946e-10 5.0366005e-09 2.1015496e-06
8.8717655e-09 2.1976076e-07 2.5309178e-14 3.6881107e-10 4.4512435e-06 2.624353e-11 1.9925682e-10 1.3989428e-10
8.822522e-09 5.2891215e-13 3.8572745e-09 5.453387e-07 1.1313333e-07 2.292953e-06 5.490839e-06 4.9833815e-10
1.2445778e-07 2.8603668e-09 8.9523695e-07 2.493771e-08 9.330925e-10 1.1164832e-07 1.3689132e-10 8.242768e-08
3.827404e-07 7.503566e-09 3.413051e-08 1.0556445e-09 2.5171585e-06 4.656006e-07 7.1173273e-10 1.0250064e-09
2.8558291e-09 3.0511043e-07 1.4892907e-05 1.181871e-10 7.108979e-06 1.6935793e-09 3.1329545e-10 6.774819e-07
00000000: 5fec 8135 6ab6 df2d 30ce 7c37 2fa5 1c31
00000010: 56cc 1335 9648 b037 0d62 3e36 1c7a 8f34
00000020: 9f6a 142d 94d2 912f d711 2d34 48a0 c334
00000030: 3ef5 732d e92d 4d2b c7f6 1032 c564 6e32
00000040: e734 8135 9692 172f 87bd e036 f971 d22c
00000050: 1165 8f2e 7fa1 5429 2957 122f 7238 4d2e
00000060: 02c2 e231 5439 6e34 8217 f934 e1d6 2536
00000070: edda a72e a34f 0a2f 4a79 5d32 5533 bb34
00000080: 3803 1736 0acb b034 451d 4835 e790 ce2f
00000090: 896f 4b2e 5293 f536 65f0 d035 4998 9031
000000a0: 7065 1535 1868 1131 5619 9a34 5773 c02c
000000b0: 7d8a d02f 9cfc a430 b70f 7a2e 6b5e 5c35
000000c0: cb6e 7535 d7e4 0936 f461 2334 c5ae 1e35
000000d0: f7df c930 35d4 2334 a03c 2f2f 469a ce32
000000e0: fcd4 0a34 d778 9930 b0a3 d42e 0a4a 9134
000000f0: 9439 e734 7147 432f 39e1 7234 4a47 1535
00000100: 14d8 4a36 7209 6130 7623 1135 dbff d031
00000110: ddc9 842d 9714 5334 a4f1 3b36 f1d8 1d31
00000120: e84e c12f 99e0 3237 ac03 9c34 06d5 aa34
00000130: ff45 da32 1073 1b31 4193 682f f0e0 0135
00000140: 9b96 bd35 a940 d531 1849 b735 ec11 a535
00000150: a252 ca2e c12c 8030 680e ad31 5908 0d36
00000160: 706a 1832 61f7 6b34 fef6 e328 8bc1 ca2f
00000170: e45b 9536 2dd7 e62d cf15 5b2f bdd0 192f
00000180: dd91 1732 23e0 142b f288 8431 6463 1235
00000190: b5f3 f233 a2e0 1936 f33d b836 6efb 0830
000001a0: b2a2 0534 1b90 4431 3750 7035 9b36 d632
000001b0: 463e 8030 50c3 ef33 7b83 162f 1903 b133
000001c0: 717b cd34 08e9 0032 e596 1233 3016 9130
000001d0: 74ec 2836 a9f7 f934 bda3 4330 35e0 8c30
000001e0: 4740 4431 0fce a334 8cdc 7937 b6f2 012f
000001f0: aa89 ee36 86c3 e830 6a3c ac2f 34dc 3535
