Unity Project/CSC 30014 Project/results/test/Car/Car-22794.onnx (onnx, 108006 bytes, 7 tensors)

action_model._continuous_distribution.log_sigma f4 [1, 2]
00000000: 5995 beba e1f1 1cbc
-0.0014540359 -0.009579153

action_model._continuous_distribution.mu.bias f4 [2]
00000000: 55bc 2fb9 c1ca 6bb9
-0.0001675946 -0.00022486878

action_model._continuous_distribution.mu.weight f4 [2, 128]
00000000: f41d 0c3c 6f5c b53c 2a4a 52bc 9d30 08bc
00000010: 490e 00bd 5217 00bd f649 d6bc ddef b23c
00000020: c7ea 18bb 3cdd 6bbc bbd0 683c e9b7 973b
00000030: bf61 a3bc 9d4a 1e3a 1e24 e83b 1b6c f238
00000040: 6730 12bd 0f45 9bbb 88b7 b83c 2eb9 b03b
00000050: f1e2 103c 4572 c0bb ba23 2d3c 8b55 39bc
00000060: 1064 a73b b072 10bc e6aa e3bc a1c3 10bd
00000070: b9d2 153c 2ecf b43c 4a4d 88bb a138 afbb
00000080: 51f9 003c e202 54bc 32fb 65bc 82f2 823b
00000090: 0b51 c3bb c736 6c3b 56d5 c2bc f754 79bc
000000a0: cf37 903c c6d3 2e3c 54fe 77bb 596b 223c
000000b0: 3272 2d3c c675 77bc f812 e93b d196 89bb
000000c0: 5ad7 dcbb 538b 343c 077d e2ba 43eb 0f3b
000000d0: 15ea 1ebb 6155 bebb 9174 973c f966 acbc
000000e0: f55f 5ebc 9cea f33c c961 653c c1e1 d23b
000000f0: 473f 863b e2b6 eabc 9811 9dbb 5d08 ac3c
00000100: 37b7 863c 7cb6 65bb 7980 17bc 70f1 24bc
00000110: e0d8 c0bc a785 123c 1bfa 2ebb 2ad2 74bc
00000120: 8069 c93b 061d 103d 5b6e 47bc 55d5 b6bc
00000130: 6ae5 e13c 5758 f33c 747b 2b3b 8639 f0bb
00000140: d915 243b 2798 e33b 6782 5b3c 413e b1bc
00000150: caa5 7eba 5038 fb3c 0eda 933c b3c2 1fbc
00000160: 4fd0 a33c bdc2 68bb 3f86 783c bae0 7b3c
00000170: bb5d 16bd d72c cd3b 02f1 6d3c 6413 76bc
00000180: d4e1 4c3c 2cb1 c4bb bc07 08bb 28a1 18bc
00000190: fee9 093c 605d 0fbc 10dd 28bb ef55 26bc
000001a0: 28da b8bc 6fdf f53c 27bc edba 591f f93b
000001b0: 485a cabb de65 23bc 1b82 5cbc 9461 013c
000001c0: b405 0539 81fc a33b 19f1 8fba 6c51 c7bc
000001d0: af37 82bb 651c 0abb 2873 34bd 75ce 66bb
000001e0: 1e26 07bc 6114 15bc 63b7 6fbc 5908 e0bb
000001f0: 7e32 cd3c 707e 223d d70d a7bb 60cb c5bb
00000200: 14df f6bb fab7 a43b 3d0a f93c 4291 ca3b
00000210: c186 383b cecd acbb 850e ccbc f19a 97bc
00000220: 8d2e 47bb e44f 80bb 0b64 d7bc 2877 4fbc
00000230: 3a1e 933b 2a35 64b8 fbc7 9b3b 0823 ef3b
00000240: be97 9c3b 1931 1b3b 27da 97bc 8bd3 3abc
00000250: db15 64b9 10ee b5b7 06c5 0e3c bd4e 503b
00000260: aa1e 163c 4388 9c3c 0de6 a13c 3751 6dbc
00000270: fd77 52bc 75df 5bba 28b9 c93b a0d6 76bc
00000280: 199f 433c c8f5 fa3c 8d42 b2bc 1d4c babc
00000290: 19e9 a0bc 6986 02bd 2aed acbc 0ed8 193c
000002a0: 4535 dd39 58e2 913c becf 0f3d 0f2b b63c
000002b0: a6d7 143c 0e40 423c 747b 3fbb 4844 2abc
000002c0: e579 173d 5589 0e3d abe6 893b c122 19bb
000002d0: c0a6 1bbc a7a2 1cbb 901f 393c 2315 f5bc
000002e0: 6520 0e3d 01e5 5339 dc37 c2bc 9459 8ebb
000002f0: 702f a73b 49b0 5b3c 9b15 1bbc 72cf 003d
00000300: f4ef c4bc b2bc 35bc 9875 0b3d 7e02 8c3b
00000310: 30f6 f6ba 875a bd3c fd46 af3c 2bc8 293c
00000320: 1c1e 9ebc 48ac d83b a4ce 91bb 8e29 1dbb
00000330: c922 d63b 4f4f cfbc f025 c9bb cd0d 133a
00000340: ec34 a83b e3af 9cbc 64ee 173c 40fb 2d3c
00000350: 6a20 923c ccaf 9e3b 5f01 59bd ac61 023c
00000360: 0181 67bc d214 1b39 2e43 a2bc 675c 153b
00000370: b0c6 4d3b 3ded 00bc 12b7 9cbc 49cb af3b
00000380: 4d6c c1bc 6dc4 10bc af73 963c b566 2d3c
00000390: 6989 fabb bfb1 9b3c 9da4 0e3d b719 a93c
000003a0: 3b3b 12bd 558d 63bc e68c b53b a8d9 40bc
000003b0: 49f4 3e3c 3ed1 debc b06c 9e3b 0cac 32ba
000003c0: 7cf8 e2bb 62f9 883c 89cd 853c 8ec1 d03b
000003d0: 5c22 943c aba9 09bd 889d a93b 4145 dc3c
000003e0: cdcf 023c 1f3b 96bc f390 9ebc 7949 253a
000003f0: 3963 90bc 9517 cbbb 4f75 973b 7b2d bebb
0.008552063 0.022138802 -0.012835065 -0.008312372 -0.031263623 -0.03127224 -0.026158314 0.021842891
-0.0023333298 -0.014396008 0.0142099215 0.004630078 -0.01994407 0.000603834 0.0070843836 0.000115595954
-0.03569069 -0.004738457 0.022548452 0.005393169 0.00884317 -0.005872997 0.0105676 -0.011311899
0.005108364 -0.008816406 -0.027791452 -0.035342816 0.0091444785 0.022071447 -0.004159604 -0.005347327
0.007871942 -0.01294014 -0.01403694 0.0039961943 -0.005960589 0.0036043392 -0.023783367 -0.015218011
0.017604737 0.010670608 -0.00378408 0.009913289 0.010586308 -0.015103763 0.007112857 -0.004198887
-0.006739539 0.011019546 -0.0017279693 0.0021960295 -0.002424841 -0.005808518 0.0184882 -0.021045195
-0.013572683 0.029774956 0.014000365 0.0064356034 0.0040968987 -0.028651658 -0.004793357 0.021000082
0.016444786 -0.0035051396 -0.009246939 -0.010067329 -0.023540914 0.008942998 -0.0026699367 -0.014942685
0.00614661 0.03518393 -0.012172307 -0.022318522 0.027575213 0.02970521 0.0026166113 -0.007331076
0.0025037436 0.006945628 0.01339779 -0.02163613 -0.00097140356 0.0306665 0.018048313 -0.00975101
0.01999679 -0.0035516464 0.0151687255 0.015373403 -0.036710482 0.006261449 0.014522793 -0.0150192715
0.0125050135 -0.006002566 -0.0020756563 -0.009315766 0.0084176045 -0.00875029 -0.002576653 -0.010152324
-0.022564963 0.030013768 -0.0018137739 0.007602614 -0.006175313 -0.0099730175 -0.013458754 0.0078968
0.00012685993 0.005004466 -0.0010981887 -0.024330817 -0.003973923 -0.0021074053 -0.044055134 -0.0035218273
-0.008248834 -0.009099097 -0.014631125 -0.0068369326 0.02504849 0.03967136 -0.0050980854 -0.006036207
-0.007533917 0.0050268145 0.03040039 0.006181867 0.0028156491 -0.0052735573 -0.024909267 -0.018506499
-0.0030392737 -0.0039157737 -0.026292821 -0.012662686 0.0044896873 -5.440895e-05 0.004754064 0.007297877
0.0047788313 0.0023680388 -0.01853664 -0.011402975 -0.00021751916 -2.1687738e-05 0.008713966 0.0031785213
0.009162584 0.019107943 0.019763017 -0.014484695 -0.01284599 -0.00083874847 0.0061561055 -0.015065819
0.011939787 0.030634776 -0.02176025 -0.022741372 -0.0196424 -0.031866465 -0.021109182 0.00938989
0.00042192094 0.017808124 0.035110228 0.022237329 0.009084618 0.011856092 -0.002921787 -0.010392256
0.036981482 0.03479894 0.004208406 -0.0023366662 -0.0095002055 -0.002390066 0.011299029 -0.029917305
0.034698863 0.00020207839 -0.023708276 -0.0043441746 0.0051020905 0.013408729 -0.0094656 0.031447835
-0.0240402 -0.011092352 0.034047693 0.004272758 -0.001884168 0.023114456 0.021396155 0.010362665
-0.019301467 0.0066123344 -0.0044496823 -0.0023981067 0.0065349084 -0.025306372 -0.0061385557 0.00056096615
0.005133262 -0.019126838 0.009273145 0.010618985 0.017837722 0.004842734 -0.052979823 0.007957857
-0.014129878 0.00014789708 -0.019807424 0.0022790672 0.0031398945 -0.007869062 -0.019130263 0.0053648097
-0.023611212 -0.008835894 0.01836571 0.010583569 -0.007645775 0.019005654 0.034824956 0.020642145
-0.035701018 -0.013888677 0.005540478 -0.011770643 0.011654922 -0.027199384 0.004834734 -0.0006815798
-0.0069265943 0.016720477 0.016333358 0.0063707298 0.01808279 -0.033609074 0.00517625 0.026888492
0.007984114 -0.018338738 -0.019356227 0.0006305199 -0.017625438 -0.0061978796 0.0046221386 -0.0058037615

network_body._body_endoder.seq_layers.0.bias f4 [128]
00000000: 6c67 feb9 959a 9b39 594b 7bb9 7884 5039
00000010: 3a9d 93b9 2e2e 9db9 0914 b039 4c96 a337
00000020: 56eb a5b9 59d3 60b9 1a7d 3539 cbc9 1bb9
00000030: dc67 94ba 9a37 7ab9 4d01 7439 cd48 3fb9
00000040: 53a6 a337 382e e4b9 0fba 31ba 6695 c3b8
00000050: df00 2aba c9a7 0a39 4c63 e7b8 5dc5 c1b9
00000060: 9eb9 5ab8 baaa c6b7 4dbb 35b9 6eaa 8337
00000070: 63a0 10ba 1c17 8ab9 1bc9 82b9 ca72 bcb9
00000080: 50b1 2837 628c 97b9 ae56 9fb8 b0cb 84bb
00000090: e5df bcb9 db14 ebb9 f059 23ba 349c 45b9
000000a0: 2276 3b39 caf2 1437 9f41 96b9 afac 8f39
000000b0: 710d 7aba 8fc0 97b9 2db8 8bb9 238e 97b8
000000c0: cc60 0aba ac20 ea39 a5ac 9eb7 6ebe 42ba
000000d0: 8991 15b9 47e3 cbba 8443 79b9 3c7f 96b9
000000e0: cd53 8cb9 b9b3 96b9 128e 0fb9 2b4a 02ba
000000f0: 4a74 d138 faba 76b9 cad8 cc38 8728 ffb9
00000100: c866 1139 4430 aeb9 7ffe 95b9 f756 ee35
00000110: c13b 9c38 c4d0 89b8 511e 4c36 cfca 6fb9
00000120: b1de 82b9 f621 bbb9 3127 15ba e5e1 f9b9
00000130: 36a0 cbba 4d85 07ba c1ec 4ab9 c28c 0ab9
00000140: f402 0439 819d e3b9 3d2e 7fb8 a82f 3ab7
00000150: 5ba6 b4b9 4587 36b9 2e5f b537 75a6 a6b8
00000160: b7d3 84ba c073 3fb9 979f 1538 e6ce b4ba
00000170: a1ab 5bba 5091 81ba c1fa 3bba 1234 7e38
00000180: d1fc 76b9 4cbc d1b9 d727 aeb9 4505 b2b8
00000190: 66c5 a3ba 5356 8eb8 7d47 b6b9 e181 99b9
000001a0: 0f71 0c38 15ba ad39 d4a2 eeb9 35f0 9fb9
000001b0: 818f 9bb9 dbfc a139 9578 deb9 9ba4 3d38
000001c0: fdab 8e38 2543 41ba 26df baba ed8d cbb9
000001d0: f7d4 edb8 ab9c a938 9666 20bb 9583 a9b9
000001e0: 2da7 88ba 2098 6eba fb07 25ba e5d1 feb9
000001f0: 31fd 85b9 280b 29ba 62b0 1638 d9f1 6cb8
-0.0004852371 0.00029679076 -0.00023965295 0.00019885774 -0.00028155168 -0.0002997978 0.00033584263 1.9501102e-05
-0.0003164659 -0.00021441038 0.00017308109 -0.00014857126 -0.0011322456 -0.00023862571 0.00023270138 -0.000182423
1.9508565e-05 -0.00043521984 -0.0006779739 -9.326152e-05 -0.0006485115 0.0001322321 -0.00011033434 -0.00036958876
-5.214812e-05 -2.368294e-05 -0.0001733128 1.569578e-05 -0.00055170635 -0.0002633863 -0.00024945367 -0.0003594368
1.0054864e-05 -0.00028905558 -7.597856e-05 -0.0040526018 -0.0003602497 -0.0004483823 -0.0006231358 -0.00018845574
0.00017877718 8.878016e-06 -0.0002865912 0.00027403745 -0.0009538746 -0.00028944432 -0.00026649368 -7.226716e-05
-0.0005278706 0.000446563 -1.8915462e-05 -0.0007428889 -0.00014263963 -0.0015555405 -0.00023771642 -0.00028705026
-0.00026765317 -0.00028744133 -0.00013690468 -0.00049701583 9.987557e-05 -0.00023530042 9.767858e-05 -0.00048667585
0.00013866567 -0.00033223827 -0.0002860911 1.7757692e-06 7.44979e-05 -6.571555e-05 3.0416015e-06 -0.00022868368
-0.0002496145 -0.00035692722 -0.0005689739 -0.00047661285 -0.0015535417 -0.00051697047 -0.00019352419 -0.00013213142
0.00012589601 -0.00043414164 -6.08398e-05 -1.109756e-05 -0.0003445622 -0.00017407264 2.1621203e-05 -7.946502e-05
-0.0010133897 -0.000182583 3.5672998e-05 -0.0013794571 -0.0008379762 -0.0009885225 -0.0007170849 6.0606813e-05
-0.0002355457 -0.00040003879 -0.0003321755 -8.488683e-05 -0.0012494742 -6.787167e-05 -0.00034767008 -0.000292792
3.3483895e-05 0.00033135773 -0.00045516214 -0.0003050581 -0.00029670823 0.00030896705 -0.0004243298 4.5214412e-05
6.803123e-05 -0.0007372371 -0.0014257177 -0.0003882492 -0.000113407084 8.08773e-05 -0.0024475208 -0.00032332228
-0.0010425799 -0.0009101648 -0.00062954397 -0.0004860304 -0.0002555638 -0.0006448501 3.5927056e-05 -5.6492023e-05

network_body._body_endoder.seq_layers.0.weight f4 [128, 75]
00000000: 708b b13d c703 3c3e f9fe 0dbe a88f 2fbd
00000010: 760e 073e 681d 593d 569e a63d 81f6 53bd
00000020: 32d9 e7bd 3368 2a3c d851 fdbd 6d00 2bbd
00000030: 330b 113c 74db 4ebe 1e23 ddbd db00 1f3d
00000040: 79d4 76be 21f9 b93d 687f c5bc 3cb3 d4bd
00000050: 9a08 8e3d 9c0a 17be fc0e e7bc 5da3 633d
00000060: 4919 9dbd 92e3 a3bd 1f9d 203e eb0e 163d
00000070: 6c28 c43d ac9e e53c 09cc 963b 66a1 f93c
00000080: 9097 d0bd c032 8f3c 1207 2b3e 805c b03d
00000090: ab8a eaba 2f7e dbbd 9c12 16bd 69ae 263e
000000a0: ea9e 8a3c 5292 0abe cad0 69bd 497c 023e
000000b0: 54b8 b0bb f7a6 c7bd 6e8c e83c 9d2e 0a3e
000000c0: fa08 c33d b56d 773e 6243 b63d c265 9b3e
000000d0: 4051 ecbd e72b d03c ae5f 503e cbc4 63bd
000000e0: ccec 8b3d a92b 29be 0929 8ebd 1b99 d83d
000000f0: 76ca 873d 8f32 1cbc 967c 9cbd df2f 0dbe
00000100: 79a0 9bbc 5db6 133e 1d1e 813d 30b2 e13d
00000110: e42e abbd cb07 83bc e9e7 c4bd 0514 ebbd
00000120: bc08 b6bd f960 153e 7ddc c5bd e187 b3bd
00000130: 0c28 233e 1c5a 123e eb4c 04bd 0912 b0bd
00000140: 0d22 083d 94d5 e7bd 8bd2 71ba 5f78 c33b
00000150: 8ec3 ce3c d236 8f3c 3ef4 743d 4ad8 12be
00000160: 72de 32be 7d23 d53d 86a8 28bc 4700 67bc
00000170: c1ac 2f3d 6213 d3bd 4576 643c 2789 d8bc
00000180: f9b8 043e bb66 873d 856b 9f3d 8d02 243d
00000190: 4d5f 0bbe 59c3 31bd 2bfc 30bd 2fc0 b4bd
000001a0: 9f7a 09be 8cd4 b2bd dc66 17be 0976 06be
000001b0: 76ec 78be 5316 113d eb01 b23d e552 bbbd
000001c0: 4d30 903c dd1c fd3d c86d 33be 5ab4 59bd
000001d0: 3328 8cbd 7fe7 aabd 6bde 193e 77bd a53d
000001e0: 2847 7f3d 9157 c63d 4630 37be d5cb 6cbd
000001f0: 8a6b aa3e 8669 12be aebe 303d ca5f 523c
00000200: 0adb 4a3d 8016 e6bc 4f06 adbd b3ab 92bd
00000210: 1cb2 39bd 931d d53c 32f0 2f3d 1789 d5bd
00000220: 5602 b53d 0158 f2bd 9f4d 0e3e dc92 ab3d
00000230: 314d a93d 527f 98bb b7c7 5ebd 0ace 433e
00000240: c868 edbc 72a8 43bd 5938 60bd e975 dd3c
00000250: 9bd1 7fbe d745 893c 5c14 a4bc 4a4d 7bbe
00000260: 9e19 95bc afae bebc e99a 5d3d 9239 edbd
00000270: 9a28 7e3e a71e 2dbd 0d91 45be 784c 863c
00000280: 6f6b 91bd cced c0bd 45d6 523d 075e 77be
00000290: b4ce 733d 5a8b 53bd 6fbc edbd 4534 433d
000002a0: c6e0 11bd eda7 1fbe 4096 273d 5f69 833d
000002b0: de72 b93d 80ae f0bd c83f 0abc 52bf e6bb
000002c0: 65e0 1abd 5d52 f4bc 8cfd 013e 37b1 ddbd
000002d0: d8a3 4bbe 4157 c93d e356 e0bc a388 543e
000002e0: a776 b13d 0f1a 063e b51b 773d 3c04 063d
000002f0: 0913 d7bd e761 11bd 99e3 f53d 0d7f 23bd
00000300: 2be2 a1bc f82d d93d 05d9 5e3d e2d2 b73d
00000310: e677 bb3d 7650 d3bd 1938 863c c160 9abe
00000320: 62a4 413e 960b 263d 1dca 1e3e dbe3 993c
00000330: be93 34bd 1425 f8bd 1958 9d39 5062 4f3e
00000340: 5480 f8bd a96f 5f3d 5141 4fbc e229 eebc
00000350: 9897 28bd 714d 2e3e 1611 dcbd 1ea1 a0bd
00000360: 0654 acbd 92a3 7e3d d912 2b38 3987 fabd
00000370: 810a 073d de0b b23c fb93 f8bc a93c 523c
00000380: f62d 01be 226a 1fbe 7d34 13be 7267 1bbe
00000390: ad01 f6bd 8c3b 67bd 1f5b 9bba 6842 0abe
000003a0: db50 8e3e 4a9b fbbc 4b97 50be 98b4 9ebc
000003b0: 7e7e 20be 29c4 5abd d6de 70be fcea f1bc
000003c0: d72b 183e 2e59 b3bc 6b2b 2fbd fbe4 fdbd
000003d0: 2cb6 3a3b b687 97be c062 653d 5c0f 64bd
000003e0: 5a26 953d c0b6 2f3c a8f4 4dbe 12b4 18bd
000003f0: de72 21be 3b02 b5bd cc2b 7abe 7421 de3d
0.08669174 0.18360816 -0.13866796 -0.04286161 0.1318911 0.05300656 0.08135669 -0.051748756
-0.113207236 0.01040082 -0.12369126 -0.041748453 0.008852768 -0.20200902 -0.10797714 0.038819175
-0.2410449 0.09080721 -0.024108604 -0.10385749 0.06935234 -0.14750141 -0.028205387 0.055575717
-0.076708384 -0.0800239 0.15684937 0.03663532 0.09578022 0.028029762 0.0046019596 0.030472469
-0.10185158 0.017480254 0.16701916 0.08611393 -0.001789411 -0.10717427 -0.03663884 0.1627747
0.01692148 -0.1353238 -0.057083882 0.12742724 -0.0053930674 -0.09748643 0.028387275 0.13494344
0.095231965 0.24162944 0.08899571 0.30351073 -0.11538935 0.02541156 0.20348999 -0.0556076
0.06832275 -0.16520561 -0.069414206 0.105760776 0.06630413 -0.0095335385 -0.076409504 -0.13787793
-0.018997418 0.14425035 0.06304572 0.11020315 -0.08358553 -0.015994927 -0.09614546 -0.11478428
-0.08888385 0.14587773 -0.096611954 -0.08766151 0.15933245 0.14292186 -0.032299917 -0.0859719
0.0332356 -0.11320034 -0.0009224794 0.005965277 0.025239732 0.017482195 0.05980324 -0.1434032
-0.17467669 0.104071595 -0.010294085 -0.014099187 0.04288936 -0.10306431 0.013944213 -0.026432587
0.12961186 0.06611391 0.077841796 0.040041495 -0.13610573 -0.04339919 -0.043209236 -0.088257186
-0.13425682 -0.08731946 -0.14785331 -0.13130964 -0.24308953 0.03542168 0.08691772 -0.0914667
0.017601157 0.12359021 -0.17522347 -0.053150512 -0.06843605 -0.083449356 0.15026252 0.08092778
0.06232372 0.09684671 -0.17889509 -0.057811577 0.3328517 -0.14298066 0.043150596 0.012840221
0.0495253 -0.0280869 -0.08448469 -0.07161655 -0.045335874 0.026015079 0.042953677 -0.104265384
0.08838336 -0.11833192 0.13896798 0.083776206 0.08266676 -0.0046538496 -0.05438968 0.19121566
-0.028980628 -0.047768064 -0.054741237 0.027033763 -0.24982302 0.016756935 -0.02002924 -0.24541202
-0.018200692 -0.023276655 0.054102812 -0.11583246 0.24820176 -0.04226556 -0.19293614 0.016393885
-0.071005695 -0.09420356 0.051473875 -0.24156962 0.0595233 -0.051646568 -0.116082065 0.04765727
-0.03561475 -0.15591402 0.040914774 0.06416582 0.09055112 -0.11752033 -0.008438058 -0.00704185
-0.037811656 -0.02982443 0.12694377 -0.10824817 -0.1988672 0.098310955 -0.02738518 0.20755248
0.08665209 0.13095878 0.060329158 0.032718882 -0.105016775 -0.035493758 0.120063014 -0.039916087
-0.019761166 0.10604471 0.054406185 0.089757696 0.09153728 -0.10318081 0.016384171 -0.30151942
0.18910363 0.040538393 0.15506788 0.018785408 -0.04408621 -0.12116447 0.0003001101 0.20252347
-0.12133852 0.054549847 -0.01264985 -0.029072706 -0.041160196 0.17021729 -0.107454464 -0.07843231
-0.08414464 0.06216771 4.078713e-05 -0.12232823 0.032969 0.021734174 -0.030344 0.012831845
-0.12615189 -0.1556783 -0.14375491 -0.1517618 -0.120120384 -0.056453273 -0.0011852718 -0.13501894
0.27796063 -0.030713696 -0.20370214 -0.019373223 -0.15673253 -0.05340973 -0.23522505 -0.029530995
0.14860474 -0.02189311 -0.042766016 -0.1239719 0.002848993 -0.29595727 0.05600238 -0.05567871
0.072827056 0.010724723 -0.2011286 -0.037281103 -0.15766475 -0.08838316 -0.2443077 0.108462244

network_body._body_endoder.seq_layers.2.bias f4 [128]
00000000: cd80 67b9 bcaa 87ba c6ca 58b9 45b6 eab9
00000010: 2053 4d38 79ee 0cba 794e 40ba f6d6 b8b8
00000020: deac bfb9 4060 09b9 499b bd38 aa1f e4b9
00000030: 58b5 20b8 3466 ceba f90d 07ba 8597 17ba
00000040: 250e 5d38 896e d6b9 a165 2db6 ed7e 66b7
00000050: 9607 25ba 61e7 b9b9 eb59 2cba fb08 02ba
00000060: 817f ec39 3d9a 72b9 c422 5d39 9442 dbb8
00000070: 7316 213a d8b0 cb38 199d dcb9 4171 1e39
00000080: c5d2 e936 16eb 2ab9 8af4 04ba 0bd6 f338
00000090: 7d02 3839 558c 1e39 f119 3f39 8c69 1fba
000000a0: b3c3 bcb9 df7b 11ba 17df 80b9 532e c9b9
000000b0: 2693 46ba b6e0 493a 530a bdb9 f18f eeb9
000000c0: 4990 0238 7997 c1b7 3a02 0eba e4a5 1aba
000000d0: aa71 26ba 3d22 eab9 f6e2 35ba cb36 9139
000000e0: b614 2eb9 4dc3 07b9 c815 8c38 f32f bfb9
000000f0: f393 e638 78f6 01ba 1564 b338 30da 13ba
00000100: 3d97 a4b9 2470 9ab8 e0d3 1b39 6e1a 5cba
00000110: 7f46 9a37 5a46 06ba 424c b1b9 575b 03b9
00000120: 49f4 a838 c855 fcb9 63db d5b8 221b 3db9
00000130: 79f3 9fb9 c360 c8b9 8a45 05ba e5ea 38ba
00000140: 368c 2eba 7d42 a638 135e 53ba 867e b4b8
00000150: c56d fab9 40cf 9039 0aac eb36 7b79 ccb9
00000160: 9e25 56b8 b2e6 28ba 0129 4038 820a 07b9
00000170: 729e 9638 b3e8 b2b8 1165 1d38 0651 36b9
00000180: 57ff b238 304a c738 2051 b538 c9c6 83b9
00000190: fe18 e7b8 896a 6038 7338 efb9 be0d a9b9
000001a0: 2df3 fbb9 05f0 e138 b1bb 9cb9 ab08 ebb9
000001b0: 0e00 3eb8 0c5e 5e39 038b 29b9 f9b4 b4b9
000001c0: 6258 28b9 aafb cbb9 ee47 db38 f97e b1b7
000001d0: 8eaf 93b9 75ef 233a 2eb8 8638 e140 04ba
000001e0: d6c8 a2b9 e715 ef36 e8a0 1bba cb20 1aba
000001f0: f57c 9a39 a044 1a3a df18 bab9 bde7 5338
-0.00022077859 -0.0010350565 -0.00020674904 -0.0004476776 4.8953225e-05 -0.00053761114 -0.0007335912 -8.813843e-05
-0.00036559155 -0.00013101194 9.0411464e-05 -0.0004351114 -3.8315862e-05 -0.0015747012 -0.00051519234 -0.0005782771
5.270368e-05 -0.00040899616 -2.5838165e-06 -1.37386205e-05 -0.0006295381 -0.0003545834 -0.0006574678 -0.00049604446
0.00045108426 -0.00023136377 0.00021089154 -0.00010455135 0.0006145008 9.712734e-05 -0.00042078717 0.00015110245
6.968478e-06 -0.0001630004 -0.00050718396 0.000116270116 0.00017548534 0.00015120332 0.00018224843 -0.00060810964
-0.00036003962 -0.0005549769 -0.00024580277 -0.00038372222 -0.00075750274 0.0007701026 -0.0003605658 -0.00045502142
3.112879e-05 -2.3077928e-05 -0.0005417202 -0.00058993534 -0.0006349335 -0.00044657468 -0.0006938422 0.0002769738
-0.00016601649 -0.00012947358 6.679777e-05 -0.00036466084 0.00010994812 -0.0004957686 8.554027e-05 -0.00056401175
-0.000313932 -7.36418e-05 0.00014860881 -0.00083962723 1.8391058e-05 -0.00051221775 -0.00033816887 -0.0001252716
8.056366e-05 -0.00048129098 -0.000101974954 -0.00018034552 -0.00030508245 -0.00038219066 -0.00050839095 -0.0007054045
-0.00066584663 7.927881e-05 -0.00080630294 -8.606636e-05 -0.000477655 0.00027620234 7.0235737e-06 -0.00039000422
-5.105661e-05 -0.00064430677 4.5814555e-05 -0.00012878518 7.18207e-05 -8.531045e-05 3.7525842e-05 -0.00017387056
8.535262e-05 9.502878e-05 8.645863e-05 -0.00025134374 -0.000110195935 5.350498e-05 -0.0004562769 -0.0003224443
-0.0004805563 0.00010773543 -0.0002989448 -0.0004482915 -4.529958e-05 0.00021206605 -0.00016168882 -0.0003446711
-0.00016054654 -0.00038906682 0.00010456132 -2.115917e-05 -0.00028168823 0.00062536384 6.423924e-05 -0.0005045068
-0.00031048682 7.125305e-06 -0.00059367577 -0.00058795203 0.0002946627 0.000588486 -0.00035495215 5.0522143e-05

network_body._body_endoder.seq_layers.2.weight f4 [128, 128]
00000000: 4bf8 efbb 8ba4 a0bc aa6c 10be b355 413e
00000010: 607e 493d cbb2 003b 6b8c b13d 35cc a4bd
00000020: 340b 293d e696 9e3d caba 33bd 7b98 883d
00000030: 830b 92bd ce74 273d d473 b43d d77c 233d
00000040: b220 853d 9c43 0ebd 9dba 0abe 653f 2bba
00000050: e195 ad3d 2d64 063e 6543 23be 63e0 babd
00000060: 6af4 8abd fcd2 1a3d 3163 e03c 4613 22be
00000070: f05f 413c 20b8 5a3d 9d13 58be 89fa 9bbc
00000080: 86cb 19bd ddc6 06be 7b2c 683d e71b 113c
00000090: 5c99 013d 18af 913d e2a2 fa3d 855e 62bd
000000a0: 519a 423d 6aab f53b 8e63 f03c f046 48bd
000000b0: 1fc6 9a3d ae73 763d 2ba4 1e3e 91db 07bd
000000c0: c406 9b3d 6d87 16bd 21c9 9c3c 0523 d3bc
000000d0: 6b91 9cbd 8ae0 8d3d 49ad b3bd 086f a03d
000000e0: 2727 2d3c 370c b53d a1f6 2cbd 9eb7 1abe
000000f0: 4fc3 113d 0f35 413d 15d9 14bd c29e d1bd
00000100: 7cb1 953d f21c 23be 411b 713d ff64 85bd
00000110: 8480 9dbd 9c7b a8bd 8fc3 553d f24c 2f3d
00000120: 374e 1d3c eb79 f3bc e5b6 743d ff87 29bd
00000130: bcdd b1bd ad21 71bd 7e97 a93c ecf0 31bb
00000140: adcb 68bc d366 a63d baed 3abe 5945 6a3d
00000150: da2d 73be 9f81 36bd c270 743d 7465 61bd
00000160: bd9e 283c 56fc cc3d a4d7 47bd 0a6d fdbc
00000170: a021 e3bd 80c1 e13d 1b07 8d3d 6bb0 d73d
00000180: afc2 283d 15a5 22be a5e9 1dbd 7142 413c
00000190: 6796 81bb 5cc7 c03d 4dae 0abd c871 5f3d
000001a0: 0840 d23d cb6e 57bc 919f 063d eac5 afbd
000001b0: 7097 53bd 9521 cc3d c2c7 e73d f651 d13d
000001c0: 594b e73c 5152 783c 52bf 373d 13f6 3bbd
000001d0: f1b3 6bbc 46d9 d43d 9f4d 57bd 6c73 c9bc
000001e0: 74b5 82bd 0967 d23c 9caf 8c3b 06ad e13d
000001f0: 91d9 beba 3b76 e33d a047 0dbd 88b9 a13d
00000200: 7e31 a0bc d422 d53d a383 7ebd aaf2 8a3d
00000210: 9822 40be 5b8c c03d 3899 0d3e 4932 f63c
00000220: 1c49 03be b982 0e3e ff80 16be 81b1 063e
00000230: d81f ec3c cc37 5cbd 286a 513e f5e6 94bb
00000240: a3b9 7439 88cb 263e 6567 39be cf29 8bbe
00000250: 5060 95bd 89a8 843d 9932 983c 94d3 ca3d
00000260: 9a68 3fbe 1541 ddbd df69 23be 684a 26bd
00000270: e8b1 75bd 87e7 32bb 942d b6bd 1fb5 0e3e
00000280: 94d1 db3c 4492 543d 561e b43b f46e 993d
00000290: 06ec f4ba 808c 09be 7cc2 2abd c04f 96bd
000002a0: 6673 a83a 92b4 92bd ded6 18bd 61b1 09be
000002b0: af6c a1bd a97e b6bd 33a2 fe3c 6d26 ae3d
000002c0: ef92 13be 4f70 d53d 56d4 813c 5cd4 bcbd
000002d0: 554b 3abd b73d 1cbd 43e4 47bb 05fd 23bc
000002e0: 8fd1 5d3d 0a55 b43d 6d24 603d ba19 04bd
000002f0: 426a b03d 113b 1f3d 91c7 22bd 27da 22bc
00000300: 308a 063d 887d 21bc c437 e0bd 894d e0bd
00000310: ed08 85bc d84e 163d 8592 b33d b023 5cbd
00000320: 9b24 9fbc 2986 5c3e e8aa 4a3e 98be 8ebb
00000330: 432a e0bd 425f 15be ea15 3ebb 94ce 443d
00000340: 3e9e 82bd 7d7e 70bd 5ed4 6d3b c8e1 543d
00000350: 62e9 6d3e dcea 2ebd e1d5 883d 8459 bc3c
00000360: 0d09 e4bc b52f 22be 36da 873d e6af fb3c
00000370: 1ffb b4bd 1128 e93d d170 8ebd 0d9c 28be
00000380: 88fc b33c 8477 da3b ba91 1d3d 9171 21be
00000390: a51e dfbc b61a 9e3d 42e7 cabd 64f8 003d
000003a0: 34c7 d1bd 534f 033d 35cb 55be 0ee4 433d
000003b0: 585c 1ebe 5eab 293e b751 ce3d 5f9d f73c
000003c0: 0ed9 a6bd 61b0 b73d 405f 33bd 9409 2fbe
000003d0: a470 2a3d fa53 3bbe 31a5 b63d f353 31be
000003e0: 278b 51bd 6f26 23be b2c3 0c3e 7afc 473c
000003f0: b659 b7bc 7dd2 83bd 54a9 f4bd efbe 28be
-0.0073233 -0.01960971 -0.14103952 0.18880348 0.049192786 0.001963782 0.08669361 -0.08046762
0.04127045 0.07743625 -0.043879308 0.06669708 -0.07131102 0.040882878 0.08811155 0.03991398
0.06500377 -0.034732446 -0.1354775 -0.0006532579 0.08475853 0.13124152 -0.15943678 -0.091248296
-0.067848995 0.037798867 0.027391048 -0.15827665 0.011802658 0.05339825 -0.21101232 -0.019040363
-0.03754761 -0.13161798 0.056683045 0.00885675 0.031640396 0.071134746 0.12238099 -0.055265922
0.04751045 0.007497241 0.029344346 -0.048895776 0.0755732 0.060168914 0.15492313 -0.03316838
0.0756965 -0.036750246 0.019138874 -0.025773535 -0.07644924 0.06927593 -0.08773286 0.078336775
0.010568417 0.088402204 -0.04222739 -0.15109107 0.03558665 0.04716974 -0.036339838 -0.10235359
0.07309243 -0.1592901 0.058863882 -0.06513404 -0.07690528 -0.082267016 0.052188452 0.04279799
0.009601167 -0.029721221 0.059744734 -0.04138946 -0.086848706 -0.058870006 0.02070212 -0.0027151657
-0.014208716 0.08125081 -0.18254748 0.05719504 -0.2374796 -0.04455721 0.059677847 -0.055028394
0.010291752 0.10009067 -0.048789635 -0.030935783 -0.11090398 0.11023235 0.06886121 0.10531696
0.04120129 -0.15883286 -0.0385529 0.011795626 -0.003954697 0.09413025 -0.033857632 0.05455187
0.10266119 -0.013148974 0.032867018 -0.08582671 -0.051658094 0.09967343 0.11317398 0.10220711
0.02823417 0.0151563445 0.04486019 -0.04588897 -0.014386163 0.10393004 -0.05256426 -0.02459117
-0.06382266 0.025683897 0.004293395 0.1101933 -0.001456069 0.11106535 -0.034492135 0.078967154
-0.01955485 0.104070336 -0.062137257 0.06784566 -0.18763196 0.09401771 0.1382798 0.030053275
-0.12820858 0.13917054 -0.14697646 0.1315365 0.028823778 -0.05376415 0.20450652 -0.004544134
0.00023338808 0.16288579 -0.18105848 -0.27180335 -0.07293761 0.06477458 0.018578814 0.099036366
-0.18692246 -0.10803429 -0.15958355 -0.040598303 -0.059984118 -0.0027298646 -0.08895412 0.1393628
0.026833333 0.051897302 0.0054967804 0.07491866 -0.0018686063 -0.13432503 -0.04168938 -0.0733943
0.0012851774 -0.07163347 -0.03731429 -0.13446571 -0.07882058 -0.08910877 0.031083202 0.08503423
-0.1441152 0.10421812 0.01584832 -0.09220192 -0.045482 -0.038144793 -0.0030501045 -0.010009055
0.05415493 0.088052824 0.05472224 -0.032251097 0.08614017 0.03887469 -0.039741103 -0.009939707
0.03284663 -0.009856589 -0.109481364 -0.10952289 -0.016239608 0.036696285 0.08768181 -0.05374497
-0.019426635 0.21535553 0.19791758 -0.0043562166 -0.10945561 -0.14587119 -0.002900476 0.04804857
-0.063778386 -0.05871438 0.003628991 0.051973134 0.2323356 -0.042704448 0.06681419 0.022991903
-0.027836347 -0.15838511 0.06633417 0.030723523 -0.0883696 0.11384595 -0.06955112 -0.16465779
0.021971002 0.0066670794 0.038469054 -0.15765978 -0.027236292 0.077199385 -0.0990739 0.031486884
-0.10243073 0.03205807 -0.20878299 0.04782491 -0.15464914 0.16569278 0.100741796 0.030226408
-0.08146869 0.089691885 -0.04379201 -0.17093498 0.04161133 -0.18293753 0.089182265 -0.1731718
-0.051158097 -0.1593263 0.13746527 0.012206191 -0.022381645 -0.06436632 -0.11946359 -0.16479085
