Unity Project/CSC 30014 Project/results/test/Car/Car-68261.pt (torch, 651359 bytes, 36 tensors)

network_body._body_endoder.seq_layers.0.weight f4 [128, 75]
000000 e9 71 9e bd e2 ed 93 bb c1 39 03 bc 74 6d 97 bd
       -0.077365704 -0.004514442 -0.008009375 -0.073939234
000010 07 5a b4 bd cb 1c e8 ba fd c7 c3 3d 07 40 e1 3d
       -0.08806234 -0.0017708776 0.09559629 0.1099854
000020 f6 de 8d 3c d1 83 36 3c e4 0e 04 3c 6a 6e 81 bd
       0.01731823 0.011139826 0.008060191 -0.06319888
000030 f4 36 4c 3d 93 ca 1c be f1 db 95 3e 36 74 5d 3e
       0.049857095 -0.15311651 0.29269364 0.21626362
000040 73 34 bd 3d 6c 32 b4 3b fd b1 70 3e 33 61 8d be
       0.092385195 0.005499175 0.23505397 -0.2761322
000050 18 9c 4e be 34 16 96 bd 24 b0 bf 3d 3d bd ae bd
       -0.20176733 -0.07328454 0.09359768 -0.08532188
000060 51 37 86 bd 4b af a4 3c 2d bb cf 3d e1 f8 4f 3e
       -0.065535195 0.020103117 0.10143123 0.20309784
000070 68 65 3c bd b9 c8 1a be 9d ba ae bd b5 96 f0 bd
       -0.045995146 -0.15115632 -0.085316874 -0.11747495
000080 24 b2 32 bd 74 dc 4d 3e ca 7d 0a 3e 90 22 fe 3d
       -0.04362692 0.20103627 0.13524547 0.12408936
000090 c3 8c 4a 3e 6d 7c ad bc a3 eb fa bd fe 5a 70 bc
       0.19780259 -0.021177495 -0.122519754 -0.014670132
0000a0 1b ba e2 bc f8 b0 36 3b 08 6c 05 be d6 6a 9c 3d
       -0.027676633 0.0027876478 -0.13029492 0.07637565
0000b0 3d cf cf ba 3c f7 77 bd 6e 48 29 3d 0a 51 b4 3d
       -0.0015854609 -0.060538515 0.04132884 0.088045195
0000c0 3c 7e a2 3d b4 66 0f 3e 52 0c fe bd 18 ea 9f bd
       0.079342335 0.14004022 -0.12404694 -0.07808322
0000d0 26 0e e6 3c 9d 84 1b 3d c9 41 68 3d 49 44 00 be
       0.028082918 0.037968267 0.056703363 -0.12526049
0000e0 f7 3d 42 3d 29 e3 84 bc 51 40 58 be c5 68 cc bc
       0.047422376 -0.0162216 -0.21118285 -0.024952302
0000f0 92 b5 81 3d 5e c3 9b bb d6 17 f0 bb d7 53 49 bd
       0.0633346 -0.004753514 -0.00732706 -0.04915222
000100 f9 ec 88 3c 68 6e 68 ba fc 41 eb 3d b4 ca 81 bc
       0.01671456 -0.00088665495 0.11487195 -0.015843727
000110 5c 08 de 3c d4 8d bb bd 1b 8a 53 3e f9 1e 4d bd
       0.027103595 -0.09157911 0.20658152 -0.050078366
000120 e4 f7 0f be bb 1c 2a be 55 11 53 3e 4f 2d b6 3d
       -0.14059407 -0.16612522 0.2061208 0.08895361
000130 c6 a9 98 3b 4a 8b 3b bd 89 73 bd 3d 03 27 8e be
       0.0046589104 -0.045787133 0.09250552 -0.2776414
000140 fb 47 3e be 5f a3 55 bc d0 f3 41 be a3 a2 a9 bd
       -0.18582146 -0.013039439 -0.18940663 -0.082829736
000150 e2 41 10 bd 61 5b 30 3d a9 88 42 bd 60 51 a3 3d
       -0.03521908 0.043055896 -0.04749361 0.079745054
000160 a7 d1 d5 3d 69 25 09 3e ab ef 81 bc c5 99 0f bb
       0.10440379 0.13393177 -0.015861353 -0.0021911722
000170 42 c4 0f be 41 83 53 be 0f a7 cb 3b 39 bc bc 3d
       -0.1403971 -0.20655538 0.0062149833 0.09215588
000180 0c b2 91 bb 32 05 8c be e2 a2 86 3d 93 63 1a be
       -0.0044462737 -0.27347714 0.06574036 -0.15077047
000190 34 a1 4a 3d 31 b3 8b be 1d 63 38 3e 0a b2 e2 bd
       0.04947014 -0.2728515 0.18006559 -0.110691145
0001a0 39 6f e9 3b 17 67 06 3e 2f c1 10 bd 16 b8 c7 be
       0.0071238545 0.13125263 -0.035340484 -0.39007634
0001b0 e4 13 14 3e ee ee 89 bc a5 cf 63 bd 7a 07 15 be
       0.14460713 -0.016837563 -0.055617947 -0.14553633
0001c0 b8 12 86 3d 5d c3 b0 bc 84 60 c8 3d 79 48 5e bd
       0.06546539 -0.021577531 0.09784034 -0.054268334
0001d0 02 d7 c6 3d 8f 07 46 be 71 53 3d bd 57 25 60 bc
       0.09708978 -0.19338821 -0.046222154 -0.0136807775
0001e0 84 7b fb bc a4 3e 8d 3d 5b 3a 9f bd 01 eb 51 be
       -0.030698545 0.068967134 -0.07774802 -0.20499803
0001f0 55 15 01 be 6f 4e 55 3c 9b 5d d5 3c 98 e6 d9 3d
       -0.12605794 0.013019188 0.026045611 0.106396854
000200 d2 a4 a9 3e e2 41 d7 bd 1f 3d 07 be b8 1f 83 3d
       0.3313356 -0.10510613 -0.1320691 0.06402534
000210 1d 30 08 3e 85 38 32 be 3e fd d6 3d 47 0b 04 3e
       0.13299604 -0.17404373 0.10497521 0.12894927
000220 0e 5e 65 bd 0a 74 05 bd 19 ad 8c bc ce c4 b4 bc
       -0.0559979 -0.032581367 -0.017172383 -0.0220665
000230 8e 6f d9 bc 97 39 e0 bd c6 0c 28 3d 8b 00 76 3d
       -0.026542451 -0.109484844 0.041027807 0.06005911
000240 b1 4d 85 bd db c7 c0 bc 4c 79 60 be 3e ef da 3d
       -0.06508959 -0.023532799 -0.21921271 0.10690163
000250 1b 2d 00 bc 97 6d 72 3d dc ee 02 3e 2b 73 21 be
       -0.007823254 0.059186544 0.1278643 -0.1576659
000260 a3 5e 07 3d 5a af 06 be ad ae b4 3d 7d 2f 33 bd
       0.033049237 -0.13152829 0.08822379 -0.04374646
000270 c2 71 f3 3d 92 5e d2 bd 02 2f 05 be 1e 30 48 3e
       0.11886932 -0.10271944 -0.13006213 0.19549605
000280 16 60 b3 bd 0a ed 9b bd 18 06 ee bd 32 65 62 be
       -0.08758561 -0.07613571 -0.11622256 -0.22108915
000290 e3 30 a8 bd a8 36 17 3e 48 03 b7 bd e6 05 0b 3e
       -0.082124494 0.14766943 -0.08936173 0.13576469
0002a0 7e fe 33 3e 8b f7 c6 3d 09 3e 6c bd b8 05 20 3d
       0.1757755 0.09715184 -0.05767635 0.039067954
0002b0 6c b1 9f bc 82 0a 3b 3e e5 6c 4d 3d b6 a2 bb bd
       -0.019493781 0.18265727 0.050152678 -0.09161894
0002c0 4e 93 85 bc c2 06 2e 3e 45 e5 9a bd f9 b8 23 3e
       -0.016305592 0.16994765 -0.07563261 0.1598853
0002d0 96 d1 ad 3d f6 14 08 3e 8e fd ba 3b a7 c9 d9 3d
       0.08487241 0.13289246 0.0057064956 0.10634165
0002e0 eb 2b 0f 3d db b6 55 3e 97 76 f1 3d 3b 61 44 bc
       0.034953993 0.20870535 0.11790197 -0.011986072
0002f0 08 53 1d 3e fe 83 56 bd c9 9f 93 bc 57 40 9c 3d
       0.15363705 -0.05237197 -0.018020527 0.07629459
000300 47 d0 92 bd d1 98 99 bc 5a 54 63 3d 6e 82 1b bd
       -0.07168632 -0.018749626 0.055500366 -0.037966184
000310 b2 43 2d 3e 38 08 c4 3d ca ae c2 3c 3b 0c ee bd
       0.16920355 0.0957188 0.023764987 -0.116234265
000320 2c ee 3d 3e 31 d9 58 3d 11 13 1a 3c 4f 61 cb bd
       0.18547887 0.052941505 0.00940396 -0.099306695
000330 7c 54 a8 3d 00 ea 04 bc e2 73 8a 3d 9a 35 4e ba
       0.08219239 -0.008112431 0.06760384 -0.00078662636
000340 8d e5 a3 3d fa fc 0e 3e fd 7d e4 bd bb 33 dc bd
       0.08002768 0.1396369 -0.11156843 -0.10752054
000350 0a 44 35 bd 99 55 e0 3c 3e d1 95 3e 24 34 1f 3d
       -0.04425434 0.027384566 0.29261202 0.038868085
000360 a6 b0 bb 3d a7 de 77 3d d5 2d 0d 3e 85 17 da bb
       0.091645524 0.060515072 0.13787015 -0.006655636
000370 98 2f 60 3e 62 9d 10 3e d4 18 98 3d 52 f2 f0 3d
       0.21893156 0.14122537 0.074266106 0.11764969
000380 1e 1e d5 bd 0c 44 b3 3c a3 81 7e 3e e2 53 c9 bd
       -0.10406135 0.021883033 0.2485414 -0.098304525
000390 7c fa 9b 3b 31 3a fe bd 4c 4a 1f 3d 62 76 f3 3d
       0.0047600847 -0.12413443 0.038889214 0.11887814
0003a0 3a f2 13 bd c8 4b 34 be fe fd e5 bd 6a 2a a5 bd
       -0.036119677 -0.17607033 -0.11230086 -0.080647305
0003b0 d2 0e 2b 3e b2 9e 13 3e 86 1d ba 3d 9d 07 3d 3d
       0.16704872 0.14416006 0.090876624 0.04614984
0003c0 d0 5e be 3c 2a 1e 75 3e b5 45 34 3e 1b 9d 0b bc
       0.02323857 0.23937288 0.17604716 -0.008521344
0003d0 6b 20 24 3e 2d 00 14 3d b2 97 01 be 14 b5 72 3c
       0.16027991 0.03613298 -0.12655523 0.01481368
0003e0 35 cc a5 3d a3 b5 80 3d 21 53 46 bb 9a 9b 84 bd
       0.0809559 0.062846445 -0.003026195 -0.06474991
0003f0 c8 51 09 3c 95 d3 a6 3d f8 28 84 bd f0 c1 89 3c
       0.008381315 0.08145825 -0.06453127 0.01681611

network_body._body_endoder.seq_layers.0.bias f4 [128]
000000 19 87 04 bb b0 85 42 3b 85 96 6c ba 12 52 56 3a
       -0.0020222126 0.0029681735 -0.00090251147 0.00081756816
000010 98 ca af ba de 41 4f 3c 7b f0 17 3a ae 2a 5f bb
       -0.0013411818 0.012649981 0.0005796027 -0.0034052539
000020 6e 60 86 b9 c2 39 48 bb 72 cd 00 3b 73 96 52 3b
       -0.00025630317 -0.0030552004 0.0019653705 0.0032133132
000030 39 7c a3 3a c7 43 1e ba 20 18 97 ba 08 af 5d ba
       0.0012472934 -0.0006037321 -0.0011527576 -0.00084565626
000040 24 8a a7 3a 9f db 8d 3a b7 b6 94 3b 7b 16 15 3a
       0.0012782258 0.0010822898 0.004538383 0.0005687249
000050 b6 b6 3f 3b d7 dc 0e bb d7 3a 62 3b 7d f6 37 3b
       0.0029253191 -0.0021799111 0.0034519935 0.0028070502
000060 44 b1 d0 ba 2e 81 db 3b fe 38 47 3b d7 bf 12 35
       -0.001592197 0.006698749 0.003039896 5.46684e-07
000070 30 69 93 38 15 f1 05 bb 18 0e 02 3a 2b a3 20 3c
       7.029099e-05 -0.0020437886 0.00049612066 0.009804527
000080 bd 2d 5b ba e9 df 18 bb e6 27 b7 3b c7 4a 8b ba
       -0.00083610025 -0.002332682 0.005589473 -0.0010627144
000090 28 92 fd ba 4a 8c 61 3c c6 b2 83 bb a0 23 f6 3b
       -0.0019345926 0.013766358 -0.004019114 0.007511571
0000a0 9c aa 8b bb 83 91 4c b7 ed 5f 89 39 75 26 19 3b
       -0.0042622816 -1.2193227e-05 0.00026202147 0.002336887
0000b0 11 50 3a 3a c2 e9 64 bb fd 62 14 bb 33 1d fd ba
       0.0007107268 -0.003492937 -0.002264201 -0.001931107
0000c0 d4 6c 95 3b cf 1a 94 3a f5 1b c1 39 85 8a ed ba
       0.0045600925 0.0011299493 0.00036832658 -0.0018122947
0000d0 1f a1 ec bb 3a 63 ee bb a3 81 89 ba 2c f7 34 3b
       -0.0072213556 -0.0072750123 -0.0010490905 0.0027613146
0000e0 a2 df 09 bc cb 60 b5 b9 a6 20 ae bb 6d 83 62 3a
       -0.008415135 -0.00034595127 -0.0053139506 0.00086408
0000f0 a9 d5 cd b9 c3 1a 90 ba e7 46 44 b8 9d 91 ea 3a
       -0.00039259836 -0.0010994304 -4.6796074e-05 0.0017896179
000100 98 54 14 3b 3c fb 89 3a 17 aa 94 3a 3d 70 0f 3a
       0.002263343 0.0010527144 0.0011342195 0.0005471742
000110 eb 93 77 3a ab a5 2f 3c 37 d5 35 3a da dd 29 bb
       0.0009444344 0.010720651 0.00069363735 -0.0025919587
000120 4f 6d ec 39 d3 7e dd ba 1e 34 2e 3a 3f 60 24 3c
       0.0004509487 -0.0016898758 0.00066453393 0.0100327125
000130 c1 41 10 3a 6d a2 9e bb be 03 03 bb 69 26 2b bb
       0.0005502962 -0.00484114 -0.0019991244 -0.0026115424
000140 75 4c 3c 3c 6d 7d dd bb 0d 18 76 ba da d3 40 bb
       0.011492838 -0.0067593367 -0.0009387739 -0.0029423148
000150 f2 97 8a 3a 2a fe fa ba e6 b1 84 bb 8d 9a a3 3a
       0.0010573848 -0.0019149233 -0.0040495275 0.0012481973
000160 af ca 6a 3b 01 b7 08 bb 16 14 99 39 31 73 9b ba
       0.0035826375 -0.0020861032 0.000291974 -0.0011859891
000170 81 f2 18 3b 4b 42 37 39 2b 27 c1 b9 5a 53 80 ba
       0.0023337903 0.00017476936 -0.0003684101 -0.0009790466
000180 b5 6b 09 39 50 ab 9c 3b 7f 73 35 3c f2 27 25 bb
       0.00013105462 0.004781164 0.0110749 -0.0025200811
000190 1d b5 e9 b8 96 4d b6 b9 81 51 52 3b 00 97 11 bb
       -0.00011144041 -0.0003477155 0.0032092037 -0.0022215247
0001a0 fa 2c 0c 3c b9 b9 ab ba f6 be dc 3b 03 8f d0 3a
       0.008555645 -0.0013101614 0.0067366315 0.0015911761
0001b0 72 f9 09 bb 07 4f ed 3b 9d 90 9f 3a 27 29 8c 3b
       -0.0021053222 0.007242087 0.0012173835 0.0042773667
0001c0 e7 54 a1 ba 6f 66 a7 ba 36 a8 5d 3c d5 04 43 ba
       -0.0012308628 -0.0012771616 0.013528874 -0.00074393797
0001d0 72 4f f9 bb 9a b5 60 3b b6 2f 94 3a 23 07 0b b8
       -0.0076083476 0.003428793 0.0011305723 -3.314683e-05
0001e0 02 33 b6 ba 87 06 13 ba d0 5f cc b9 8f 1d a9 bb
       -0.00139007 -0.00056085776 -0.00038981298 -0.0051609944
0001f0 9f 1d 95 3a be 4c a5 b8 8f 3b 00 bc 3e e7 37 3c
       0.0011376626 -7.8821075e-05 -0.0078267 0.011224566

network_body._body_endoder.seq_layers.2.weight f4 [128, 128]
000000 7b 09 40 bd fd 80 16 be 63 4c 34 39 cb 5e c0 bd
       -0.04688404 -0.14697643 0.00017194594 -0.0939308
000010 e8 e6 e4 bc 00 23 bd bc ea 1c e2 3d aa 9f fe 3d
       -0.027942136 -0.023087978 0.11040671 0.12432797
000020 9d c1 a6 3d 6a 1c b0 bc 8e 57 c0 3d 5e b3 af bc
       0.081423976 -0.021497924 0.093917 -0.021447834
000030 d8 04 59 3d c5 15 c9 bd c6 f3 77 bd 0a f1 d8 3d
       0.052983135 -0.09818605 -0.060535215 0.105928496
000040 70 a3 28 be 71 b5 e6 bd 77 6b 3b 3d 2f 25 27 be
       -0.16468596 -0.11265076 0.045756783 -0.16322778
000050 6d d0 e5 3d 1a 84 87 3b ff df aa 3d c7 7f 77 3d
       0.11221395 0.004135621 0.08343505 0.060424592
000060 91 f1 0b be 56 6b 89 bd d2 05 ec 3d 1f a2 13 3e
       -0.13666369 -0.06709926 0.11524548 0.14417313
000070 1a b4 21 bd 5e 54 53 bd bf 41 56 3d dc 61 8b bc
       -0.0394784 -0.05159413 0.052308794 -0.017014436
000080 1c 6b 51 bd 66 54 8d bd 10 86 4b bb a8 94 8a bc
       -0.051127538 -0.06900863 -0.003105525 -0.016916588
000090 8f df 2a bd 29 df bb bd c1 d9 1e bd 95 f8 47 bc
       -0.04171711 -0.09173424 -0.038781885 -0.012205263
0000a0 95 4c 25 3e 9b de bf bc 08 d7 1e 3d 9b 79 64 3d
       0.16142495 -0.023421576 0.03877929 0.055780035
0000b0 2a 8b fd bc 06 d9 65 3c 91 da 86 bd aa 83 64 bd
       -0.030950148 0.014028793 -0.06584657 -0.055789627
0000c0 7f 2d 10 bd 5a 5f 95 3c 03 bf 9d bc 78 74 5c 3d
       -0.03519964 0.018233944 -0.01925612 0.05382201
0000d0 cc 9e 07 be 60 8b 87 3c c2 b3 2f bd e6 4a 26 bd
       -0.1324417 0.016545951 -0.04289604 -0.040598772
0000e0 18 f4 8d bd e4 35 ec 3d 2b ce 97 3c 0a 01 5e bd
       -0.06931323 0.11533716 0.018530926 -0.05420021
0000f0 e3 a0 f9 3d 75 2b 94 3c d0 e6 61 bd 7d 00 06 bc
       0.1218889 0.018087128 -0.05515176 -0.008178827
000100 0f 5c 84 3d 37 1e 58 bd 44 b5 e1 3c 15 fb a4 3d
       0.06462871 -0.05276319 0.027552254 0.080557026
000110 d2 ce af bd 60 eb 6a bd 7c 42 19 be 81 26 af 3d
       -0.0858437 -0.057353377 -0.14966768 0.08552266
000120 72 bc b5 bd f3 4c 21 bd c3 6e 42 bd 8c e6 11 be
       -0.08873834 -0.039380025 -0.04746891 -0.14248103
000130 f7 c7 e6 3c c6 06 0f bc d5 f1 5a bc ba 34 9c 3d
       0.028171523 -0.008729642 -0.013363321 0.07627244
000140 1f 36 3d bc 31 48 b6 bd ee e7 94 bd 00 57 96 bd
       -0.011548548 -0.08900488 -0.072707996 -0.07340813
000150 c5 26 2e 3d 0e cd a6 3c 59 49 97 3d 62 30 85 3d
       0.042517442 0.02036145 0.07387037 0.06503369
000160 c8 90 18 bd 2a 7b e4 bd cd 62 81 bc 7b f8 01 3e
       -0.03724745 -0.11156304 -0.015794182 0.12692444
000170 0f 08 4f 3e 72 ab 1a bd 90 39 8c 3c 7f 2e cb 3d
       0.20217918 -0.03776116 0.017117292 0.09920978
000180 de 1f 57 bd f3 e6 fa 3c d3 16 d5 bd 37 12 94 3c
       -0.052520625 0.030627703 -0.10404744 0.018075092
000190 f6 e5 a0 bd 6c 0a 7b 3c 12 ca 04 bc 25 60 ef 3b
       -0.078563616 0.015322309 -0.008104818 0.0073051625
0001a0 55 fe b4 3d 8b 31 8d 3d 70 1b bd bd d4 3c c2 ba
       0.088375725 0.06894215 -0.09233749 -0.0014819154
0001b0 cf 55 f8 bc 96 12 fb 3d 84 5a ca bd 62 c1 a8 bd
       -0.030314354 0.12259404 -0.09880546 -0.0824001
0001c0 fc 94 c7 bd 34 e0 8a bd 17 d3 77 bd cb df 86 3d
       -0.097452134 -0.067810446 -0.060504045 0.06585654
0001d0 f4 e8 37 3e 48 a0 02 3e 11 57 4f 3d 08 f7 a4 bc
       0.17959958 0.12756455 0.050620142 -0.020137325
0001e0 d4 52 dd bc 49 73 ef bd 90 d8 cb bc eb 82 5b 3d
       -0.027017035 -0.11691911 -0.024883538 0.05359165
0001f0 d6 71 8d bb c2 9c 76 bd 4e dc f8 3d b1 53 c6 3b
       -0.004316549 -0.06020809 0.12151395 0.0060524573
000200 00 07 75 3e 92 84 48 3d ce 41 42 bd 1a 91 87 3d
       0.23928452 0.048954554 -0.047426037 0.06619473
000210 1d 4c 32 be 6a 28 b7 bd 8d 6d aa 3d a2 c7 33 3b
       -0.17411847 -0.08943255 0.083216764 0.0027432223
000220 a5 06 4e be 7f 98 89 bd 8f e0 45 3d c9 34 7c 3d
       -0.20119722 -0.067185394 0.04830986 0.061573777
000230 33 3f 7d 3c 83 c4 20 3e 22 80 a3 bd 4b 76 08 bd
       0.015456962 0.15699963 -0.07983424 -0.033315938
000240 42 74 ae bc a4 ad 89 3d 16 46 10 3d 21 d8 c3 bd
       -0.02129567 0.067225724 0.03522309 -0.09562708
000250 a8 35 0d bc ea 8b 43 be 60 44 87 bd 34 02 0e be
       -0.00861875 -0.19096342 -0.06604838 -0.13868028
000260 10 b8 ee bd b6 ec d8 3d e7 e0 25 3d 88 03 b7 3c
       -0.11656201 0.10592024 0.040497687 0.022340551
000270 01 02 f4 bc e4 b1 5a bd 79 fe 15 be c7 71 09 3c
       -0.029786112 -0.053392306 -0.14647855 0.008388943
000280 d0 16 5d 3b d6 b4 76 3d 59 b2 04 3c ac c8 00 3e
       0.003373552 0.060231052 0.008099162 0.1257655
000290 0b 22 25 be 18 18 da 3d e4 ae 8e ba ca fc 1f bd
       -0.16126268 0.10649127 -0.0010885862 -0.039059438
0002a0 40 70 03 3d 67 ab 9a 3d b8 cb 2e 3d 52 86 5b 3d
       0.03208947 0.07552224 0.04267475 0.053594895
0002b0 99 3c 10 bd 6e 13 34 3d 4d 1a 24 bd 13 87 39 3e
       -0.03521404 0.043963842 -0.040064145 0.18117933
0002c0 b8 da 92 bd 07 c0 a6 3d b1 d7 9f 3c 39 0c b2 bc
       -0.071706235 0.08142095 0.01951203 -0.021734344
0002d0 7a ad 2d 3c a2 cd 7a bc dd 49 15 3e da 7f 8b 3d
       0.010600442 -0.015307816 0.14578958 0.06811495
0002e0 55 c3 b9 3d 48 e1 e3 3a 14 b4 84 3b af 7e 19 3d
       0.0907046 0.0017385865 0.0040497873 0.03747433
0002f0 6b af 89 bc d0 37 a2 3d 43 b3 ff 3c d8 07 2d ba
       -0.016807279 0.07920802 0.031213408 -0.0006600595
000300 5b 37 78 bd 26 7e 1a 3e c8 3e 88 3d da fd f2 bd
       -0.060599666 0.15087184 0.066525996 -0.118648246
000310 df 26 f6 bd 62 3d 75 bd a3 be b5 bb 15 00 c9 bc
       -0.12019133 -0.059872992 -0.0055464073 -0.024536172
000320 f4 7d 62 bd da 74 8d bd cc 93 e0 3c 9d 72 1f bb
       -0.0552959 -0.06907053 0.027414225 -0.002432979
000330 b3 d0 79 3d 32 c9 a6 3d 76 2b 22 3d 89 2b 50 bd
       0.060990047 0.08143844 0.03959223 -0.05082277
000340 4e 89 30 be 0a b4 1e bc 7a 46 8e bc c8 cc 1f 3e
       -0.17239878 -0.009686479 -0.01736759 0.15605462
000350 18 be f7 3c a5 98 48 3d 9e c2 0a 3e eb f5 09 bc
       0.030242011 0.0489737 0.13550803 -0.008420448
000360 5f f6 74 ba b7 5f 8a 3d 68 5c 10 3d 2d 38 87 3d
       -0.00093445735 0.067565374 0.035244375 0.066025116
000370 de 1f 36 3c f3 42 4d be 0d fb ab 3d 68 93 08 be
       0.011115996 -0.2004507 0.083974935 -0.13337481
000380 52 01 0e bd 07 71 a1 b9 01 1a 2a be 02 89 c7 3d
       -0.034669228 -0.00030792525 -0.16611482 0.09742929
000390 45 d0 2a be f0 2d e9 3b b9 fb 09 3d 75 3b 13 3e
       -0.16681011 0.007116072 0.033687327 0.1437815
0003a0 e9 f4 2b 3b 08 12 4f be 59 e3 5c 3d 98 2a c4 bd
       0.0026238507 -0.20221722 0.053927753 -0.095784366
0003b0 05 a7 99 ba 44 d2 49 3d 5f 5c d6 3c a2 54 83 bd
       -0.0011722749 0.04927279 0.026167093 -0.06412627
0003c0 45 ae a4 bc 04 5e 80 3d 79 d7 6f bd 37 69 cc 3d
       -0.02010263 0.06267932 -0.0585551 0.09981006
0003d0 1d 9e 53 3d e5 1d ca bd b6 b8 a9 3d 6e d7 97 3d
       0.05166446 -0.09868983 0.08287184 0.07414137
0003e0 a0 a4 e7 3c f9 cb 1a be 6d 00 f7 bd db 47 8e 3d
       0.028276742 -0.15116872 -0.12060628 0.06947299
0003f0 7a fe 23 3e a2 df de 3d ae af ab bd 8c a4 8e bd
       0.16015044 0.10882498 -0.083831176 -0.069649786

network_body._body_endoder.seq_layers.2.bias f4 [128]
000000 b4 ab 2e bb c7 7a 76 3a e7 ab b9 3b e7 45 c9 3a
       -0.0026652636 0.00094024505 0.0056662443 0.0015355916
000010 09 d1 c3 3a fd 64 02 bb ad e9 3e 37 cc 4b 7e bb
       0.0014939617 -0.001989662 1.1379289e-05 -0.0038802503
000020 48 26 b2 ba d5 bd d4 3a 80 6a ed b9 29 d5 f6 3a
       -0.0013591731 0.0016230891 -0.0004528351 0.0018831837
000030 61 fa b7 3a 3a 07 b9 bb 38 58 cf 3b 04 60 9e b9
       0.0014036411 -0.0056466134 0.006327655 -0.00030207646
000040 06 3f 35 3c 65 f7 07 ba 22 d6 47 ba 80 ea 19 bb
       0.011062389 -0.0005186706 -0.0007623156 -0.002348572
000050 e2 cd 1a b9 2c 74 04 bb 2a 3a ce 3a 3e 71 fd ba
       -0.00014763282 -0.0020210845 0.0015733887 -0.0019336117
000060 5d 64 cf ba 10 fa d8 ba 8a 9b ce 3a 2d 6f b4 ba
       -0.0015822757 -0.0016554017 0.0015762907 -0.0013766043
000070 d9 f0 22 3c b2 73 89 ba 79 57 4e 3c 5c 35 2f b9
       0.009945118 -0.001048675 0.012594097 -0.00016709178
000080 31 50 d7 bb ea 31 b2 39 a6 45 5a bb 86 3a 6b 3a
       -0.006570839 0.00033987995 -0.0033305674 0.0008973259
000090 38 66 84 ba 8a 0a 2a ba b4 2c 5e 3a e9 19 6b b9
       -0.0010101264 -0.0006486556 0.0008475289 -0.00022420999
0000a0 46 75 6e ba 0a a6 70 bb 03 4e d2 39 a0 1a 0d 3a
       -0.00090964546 -0.003672006 0.00040112445 0.00053826906
0000b0 53 1f 0f 3a 31 b0 40 ba 10 21 aa 3a 8c 2f 5e ba
       0.0005459685 -0.00073504733 0.0012979824 -0.0008475713
0000c0 49 29 15 3c a7 50 be 3a 12 07 12 bb 7a 91 86 3a
       0.009104081 0.0014519886 -0.0022282046 0.0010266744
0000d0 dd 46 0a 3b 0d 86 cb bb 07 c4 b5 39 a8 9d 44 3a
       0.0021099367 -0.0062110485 0.00034669062 0.0007500299
0000e0 c0 14 55 3a 60 77 4f bb f8 d1 87 ba 7b c7 2c 3a
       0.0008128397 -0.0031656846 -0.0010362258 0.0006591004
0000f0 6a a8 f1 ba af 61 a6 ba 38 05 24 bb d5 b5 b9 ba
       -0.0018437032 -0.0012693907 -0.0025027525 -0.001416857
000100 f1 5b 0f ba b8 d3 fe ba 67 51 dc ba 50 f6 d3 ba
       -0.00054687174 -0.0019441759 -0.0016808928 -0.0016171429
000110 cb 8f e4 b9 b1 d3 88 bb 81 2a b9 bb a4 54 3b 3b
       -0.00043594683 -0.004175626 -0.005650819 0.0028584385
000120 a5 8a bd 39 ea fe 58 bb db b0 75 bb 0e 4b d9 b9
       0.00036152187 -0.0033110925 -0.0037489447 -0.00041445385
000130 c9 aa 28 bb 27 d7 36 bb 30 d6 be bb a8 1a b1 ba
       -0.0025736562 -0.0027899237 -0.005823873 -0.0013511973
000140 be fd 64 ba 5e fe f6 ba 82 93 29 3b e4 9d 99 ba
       -0.00087353203 -0.0018844118 0.0025875275 -0.0011720029
000150 f5 d6 b4 3b f7 be b4 3a 46 24 a5 3a f9 fa cf ba
       0.005518789 0.0013789822 0.0012599311 -0.0015867642
000160 a5 51 00 b9 12 cd c9 39 3b 73 ee ba 90 f1 41 bb
       -0.00012237446 0.00038490497 -0.00181923 -0.0029593445
000170 bc 3d e5 b8 ce 82 ef 3b 9c 2d c2 3a 00 3a 0b bb
       -0.0001093107 0.0073092943 0.0014814618 -0.0021244287
000180 a2 0f d6 39 83 af bb ba aa 40 ea ba 4b 7d 6f 3a
       0.00040828908 -0.0014319274 -0.0017872055 0.00091357966
000190 f1 bb f7 3b 0b 10 9b 3a 30 d3 c5 bb 64 fc cf 3a
       0.007560246 0.0011830343 -0.0060371384 0.0015868065
0001a0 30 07 d4 ba 02 0c 9d 3a 3f 9e 30 bb 58 6b 71 3b
       -0.0016176458 0.0011981728 -0.002694979 0.0036837664
0001b0 78 11 0b ba b0 19 9f 3a 2f 5d dd 3b 00 79 33 3c
       -0.0005305032 0.0012138393 0.006755493 0.010954142
0001c0 55 56 04 bb 06 1d ab 3a b7 e2 fe ba cf cc 7d ba
       -0.002019306 0.0013054914 -0.0019446228 -0.0009681703
0001d0 54 0b 8f 3a 32 69 06 bb 48 f3 c0 ba f1 8f 0a 3c
       0.001091341 -0.0020509479 -0.0014720941 0.00845717
0001e0 89 fc 95 bb ec 99 84 3a 3f de 01 ba 59 cb 71 3a
       -0.0045772237 0.0010116673 -0.0004954077 0.00092237216
0001f0 3c b8 4f bb f2 f8 7a 39 cf c9 e0 3a 0e 3c 0d 3b
       -0.0031695506 0.00023934597 0.0017149987 0.0021550688

action_model._continuous_distribution.log_sigma f4 [1, 2]
000000 ac 4d 4a 3c 1b 7d 06 3b
       0.01234762 0.0020521346

action_model._continuous_distribution.mu.weight f4 [2, 128]
000000 a7 af 80 bc 4f 31 9f bc 34 36 ca 3b 69 9b 46 bc
       -0.015708758 -0.019432692 0.0061710123 -0.012122014
000010 60 ee 8a bc 7f 78 90 3b 26 18 7b 3c 6d 11 00 bc
       -0.01695937 0.0044088955 0.015325582 -0.007816655
000020 a5 f9 e1 bb b4 cd 74 bc 42 8a 7c 3c 2e 49 bd bb
       -0.006896215 -0.014941622 0.015413823 -0.005776546
000030 9c 67 b4 bb 0a d8 a3 3c e2 a9 aa 3c c1 4d 1f 3c
       -0.0055055153 0.020000476 0.02083296 0.009723128
000040 f8 48 15 3c d4 10 df 3c 82 57 d2 bc 5c a7 05 ba
       0.009111635 0.027229704 -0.025676493 -0.0005098486
000050 3a 06 0b 3d 7f 82 22 3c b6 af 06 3c 1f ca 70 3c
       0.033941485 0.009918808 0.008220604 0.014696627
000060 22 a3 4e 3c e4 27 65 bb 91 65 a9 3c 2c f4 69 bc
       0.012612136 -0.0034966404 0.020678313 -0.0142794065
000070 a9 5f 19 3c b8 91 c4 3b b7 15 29 bc 56 ef 45 bd
       0.009361186 0.0059988163 -0.010320119 -0.04832395
000080 a1 86 71 bc ff 54 91 bc 9d e3 83 3b 7c 83 13 bc
       -0.014741571 -0.017740725 0.0040249364 -0.009003516
000090 60 74 df bb c5 d9 88 3c 0e e2 c6 bc 75 25 ab 3c
       -0.006819293 0.016705403 -0.024277713 0.020891884
0000a0 fa b7 65 bc 64 cf d1 bb d6 d9 bd bc 29 86 81 3c
       -0.014020914 -0.0064028967 -0.023175161 0.015811043
0000b0 4f 45 07 3c da a6 ab bc 89 4e fd bc a1 52 79 bc
       0.008256271 -0.020953584 -0.030921238 -0.015217454
0000c0 b4 ba 86 bb e5 83 5c bc e7 06 96 3a 73 13 82 bc
       -0.004111612 -0.0134591805 0.0011446149 -0.015878415
0000d0 d4 7f 96 bc 87 b9 3a bc 5c b9 6b 3c 6c 0d 07 3d
       -0.0183715 -0.011396772 0.014387455 0.032971784
0000e0 1f de 8c bc f8 80 1d 3c 4a df fe 3c d4 8b e8 3b
       -0.01719576 0.009613268 0.031112332 0.007096747
0000f0 53 8a b1 bc d6 c7 09 bc e6 8b 93 3c 5f 8c 0f bc
       -0.021672403 -0.008409461 0.018011045 -0.008761494
000100 59 87 85 bc e8 21 fb 3b 7d 45 2d ba 98 f0 91 bc
       -0.01629989 0.007663954 -0.0006609781 -0.01781492
000110 71 c7 b8 bc e5 2f 0c 3c 64 fc 23 bc 07 31 b5 3c
       -0.022556039 0.008556341 -0.010008905 0.022118105
000120 33 5c 4f bc ff 83 ed 3b 76 c3 9c 3c de 27 a4 bc
       -0.012656259 0.007248401 0.019136172 -0.020038541
000130 a9 a1 0b 3d 91 a6 d5 3c 3f 7d 8f bc 91 24 e7 3a
       0.034089718 0.026080402 -0.017515777 0.0017634799
000140 6b 71 86 bc 6a 20 64 3c 87 b8 7b bc e9 0c 01 3d
       -0.016411504 0.013923744 -0.015363819 0.031506453
000150 b7 da 32 bc b8 f4 3a bc e3 e4 99 bb 3d 4f ae 3b
       -0.0109164035 -0.011410885 -0.004696475 0.0053195045
000160 4b 08 44 bb a2 1d bc 3c d0 7d 85 3c 01 68 7f bb
       -0.002991217 0.022963349 0.016295344 -0.0038971903
000170 f4 41 5f bc 89 a4 dc 3c ab 7f 58 bb e6 16 19 3c
       -0.013626564 0.026933925 -0.003303508 0.009343838
000180 ea fa de 3c e9 d8 57 bb 5c 4f 00 3c f3 47 c7 3b
       0.027219255 -0.0032935685 0.007831421 0.006081575
000190 51 ee 21 3b ce 99 87 3c c2 fe 83 bc 0d b5 d8 3a
       0.0024708698 0.016552832 -0.016112689 0.001653345
0001a0 65 71 08 3c 53 9e f7 3b 31 b8 f0 3b b5 78 30 bc
       0.008327817 0.0075567155 0.007346176 -0.010770966
0001b0 76 1e be bc 63 d2 07 3c 3b 28 47 3c ab cc ca 3b
       -0.023207884 0.008289906 0.012155588 0.006188949
0001c0 5f ad ad bc 81 89 a6 ba f6 de d6 3a f9 84 d6 bc
       -0.021200834 -0.0012705774 0.0016393352 -0.026186453
0001d0 ff 51 95 bc 1c 5a 85 3c df 64 03 3d 81 49 d6 3c
       -0.018227575 0.016278319 0.03207862 0.026158096
0001e0 98 72 a0 3b 7d 3b f0 ba 2e 1c a7 bc ac f8 35 bc
       0.004896473 -0.0018328276 -0.02039918 -0.011106651
0001f0 b3 49 4f bc 6a 05 27 3d 7e d0 d3 3c d0 e0 ca 3c
       -0.012651849 0.040776648 0.025856253 0.024765402
000200 46 60 d4 bb 97 15 c8 3b 5d db 1a bd 37 b5 88 3c
       -0.0064812033 0.0061060893 -0.037806857 0.016687972
000210 16 f5 05 3d 2f 4f 12 3b f1 69 39 bc 31 a7 15 3c
       0.032704435 0.002232503 -0.011316762 0.0091341
000220 4a 1f e8 bc 88 bd 82 3c c3 be d4 b8 70 de 60 bc
       -0.028335232 0.015959516 -0.0001014448 -0.013724908
000230 5e 76 99 3c 49 ff a6 bc ec e2 59 bc 6d 97 71 3b
       0.0187332 -0.020385401 -0.013298731 0.0036863938
000240 0a 25 04 bd e5 01 f6 39 3f 53 89 bc 26 f5 a3 39
       -0.032261886 0.00046922188 -0.016763328 0.00031272433
000250 c2 16 9b 3a e6 d9 60 bc de 92 7e 3c 9d fa 3e bb
       0.0011832344 -0.013723826 0.015537946 -0.0029141076
000260 10 41 59 ba 10 bd 7b bc e2 9a ea ba 46 63 1d bd
       -0.0008287588 -0.0153649 -0.0017898942 -0.038424753
000270 41 f9 b6 bc 1c ad da 3b 96 11 2f bd e9 d4 40 bc
       -0.02233565 0.0066734683 -0.04274138 -0.011769512
000280 55 09 00 3d da 3e 0b 3d e0 7b e3 3c 06 b5 b5 3b
       0.0312589 0.033995487 0.02776903 0.0055452613
000290 4a f3 39 bb 26 53 08 3a 57 a4 f5 3b d4 27 f9 3b
       -0.0028373771 0.00052003784 0.0074963975 0.007603625
0002a0 a6 df 3a bc 3a 64 d3 bb 0f c7 84 bc df c4 67 3c
       -0.011405861 -0.006451157 -0.0162082 0.014146059
0002b0 15 d9 ee 3b 6e 1f 62 bc a5 de 78 3c 65 f5 72 bc
       0.007289062 -0.013801439 0.015189801 -0.014829014
0002c0 1c 3f 1d bd 33 02 81 3c 35 fa de bb 1a 90 97 bc
       -0.038390264 0.015748119 -0.0068047293 -0.01850133
0002d0 2c 3d 72 bc 3f 07 48 3c 40 8b e4 39 cf a9 f2 3c
       -0.014785092 0.012208759 0.00043591298 0.029621987
0002e0 3c 99 b8 3b a7 5c 5f 3b fc d1 af 3b 90 20 28 3c
       0.0056335013 0.0034082325 0.0053656083 0.01026167
0002f0 c4 34 a0 bc 46 5a e3 bc e0 25 6a 3c c1 e2 ff bc
       -0.01955641 -0.027753007 0.014291257 -0.031236054
000300 8f 75 c6 bb 9e fb 14 bc 72 68 a0 bb 6f e5 86 3b
       -0.0060564945 -0.009093193 -0.0048952634 0.004116706
000310 84 9d 18 bb a9 be 1c 3c be cc 80 3b 74 f6 3b bc
       -0.0023287246 0.009566941 0.003930657 -0.011472333
000320 13 12 ed b8 76 15 b5 3b 0b e3 84 3c c5 75 be bb
       -0.00011304407 0.00552624 0.016221544 -0.005812379
000330 02 02 36 3c a9 49 9d 3c 26 f9 a4 3b ce 18 a6 3b
       0.011108877 0.019200163 0.0050345836 0.005068875
000340 c5 09 5b bc 5d 4a 4f bc 22 1e a8 3c 1a ad 80 3c
       -0.013369028 -0.012652007 0.020522181 0.015707541
000350 ed fd 0b 3d 7d 8f 1f 3c fd b8 89 3c 03 e1 9d bc
       0.03417771 0.0097388 0.016811842 -0.019272333
000360 0c d0 f8 bc 42 65 6b bc ae 1c 1a bd 4f 01 d1 bc
       -0.030372642 -0.014367403 -0.037625007 -0.02551332
000370 a3 de 84 bb 3c 87 cd bc 0a 70 18 3c 2f 34 17 bb
       -0.0040548607 -0.025088899 0.009304056 -0.0023071875
000380 28 da 6c 3c 7a cc 1c bd bc d1 c4 bc 8b e5 bf 3c
       0.014456309 -0.03828094 -0.02402579 0.023424884
000390 97 68 40 bc 00 ad 78 3d 01 6e b8 3b 5e dc 05 bd
       -0.011743686 0.06071186 0.005628348 -0.03268086
0003a0 30 0c fd bc 33 35 e9 3c 26 51 86 bc 81 5d 0d bd
       -0.0308896 0.02846775 -0.016396116 -0.034513
0003b0 a4 30 47 bc a8 1d 03 3d a7 b0 fd bc 5c f7 0d bd
       -0.012157593 0.032010704 -0.030968023 -0.03465973
0003c0 13 98 53 bc eb fb 92 3c d5 e3 a7 bc 9c c5 3e bc
       -0.012914675 0.01794239 -0.020494381 -0.011643793
0003d0 a6 1f cb 3c 41 1a 60 bc 66 c5 90 bb aa 3d 95 bc
       0.024795365 -0.013678134 -0.004418063 -0.01821788
0003e0 6a 78 e9 3c 32 3e 80 3c 91 88 85 bc 6e 1e 05 3c
       0.0284998 0.015654657 -0.016300471 0.008124931
0003f0 67 40 b4 bb a1 ec 89 3c 1f 45 c2 ba f7 e5 2a bc
       -0.0055008414 0.016836466 -0.0014821625 -0.010430804

action_model._continuous_distribution.mu.bias f4 [2]
000000 f0 4d 78 ba bf 36 ac 3a
       -0.0009472063 0.0013138874

exp_avg f4 [128, 75]
000000 00 00 00 00 e5 89 32 36 00 00 00 00 51 34 c8 36
       0.0 2.6604332e-06 0.0 5.966555e-06
000010 00 00 00 00 d5 74 b2 35 00 00 00 00 91 a4 81 37
       0.0 1.3296036e-06 0.0 1.545463e-05
000020 00 00 00 00 bf 39 7a 35 00 00 00 00 63 99 8f 36
       0.0 9.321629e-07 0.0 4.2795887e-06
000030 00 00 00 00 d0 54 59 35 00 00 00 00 b9 24 38 36
       0.0 8.096222e-07 0.0 2.7439512e-06
000040 00 00 00 00 61 f1 54 35 00 00 00 00 0d 5e 4d 36
       0.0 7.9327407e-07 0.0 3.0602125e-06
000050 00 00 00 00 95 af 2a 35 00 00 00 00 52 f0 6d 36
       0.0 6.358544e-07 0.0 3.5455637e-06
000060 00 00 00 00 06 34 a8 b6 00 00 00 00 75 89 b0 36
       0.0 -5.0128465e-06 0.0 5.261211e-06
000070 00 00 00 00 31 41 3a 37 00 00 00 00 86 87 0d 37
       0.0 1.11016425e-05 0.0 8.435809e-06
000080 00 00 00 00 86 87 0d 37 c5 af 85 b9 4c 27 da 37
       0.0 8.435809e-06 -0.00025498695 2.6005924e-05
000090 c0 1e 8d 3a b7 23 b3 33 19 06 d5 b6 3d 4c df 32
       0.001076661 8.3418335e-08 -6.3486045e-06 2.5995286e-08
0000a0 1f 15 3c 38 c4 87 61 37 ea 1c 60 b5 57 0e 35 b6
       4.4842363e-05 1.34426555e-05 -8.348858e-07 -2.6979449e-06
0000b0 b4 f6 cf 35 f5 e5 b8 35 c8 d4 18 35 00 00 00 00
       1.5494502e-06 1.3775995e-06 5.693405e-07 0.0
0000c0 ec 5f ba 38 57 31 c4 3a 00 00 00 00 00 00 00 00
       8.887038e-05 0.0014968318 0.0 0.0
0000d0 00 00 00 00 ec 5f 3a 38 00 00 00 00 ec 5f ba 38
       0.0 4.443519e-05 0.0 8.887038e-05
0000e0 50 6f fe 3a 00 00 00 00 00 00 00 00 00 00 00 00
       0.0019411836 0.0 0.0 0.0
0000f0 ec 5f 3a 38 00 00 00 00 ec 5f ba 38 a4 56 1c 3b
       4.443519e-05 0.0 8.887038e-05 0.0023855353
000100 00 00 00 00 00 00 00 00 00 00 00 00 ec 5f 3a 38
       0.0 0.0 0.0 4.443519e-05
000110 00 00 00 00 ec 5f ba 38 9d 75 39 3b 00 00 00 00
       0.0 8.887038e-05 0.0028298863 0.0
000120 2e 9f c1 37 00 00 00 00 51 19 27 38 00 00 00 00
       2.3081517e-05 0.0 3.983948e-05 0.0
000130 27 43 ae b3 00 00 00 00 21 65 d3 34 00 00 00 00
       -8.114721e-08 0.0 3.9375394e-07 0.0
000140 59 e3 e2 30 00 00 00 00 9f 32 7c 33 00 00 00 00
       1.650828e-09 0.0 5.8719362e-08 0.0
000150 dd 7f 79 32 00 00 00 00 7f d5 6d b3 00 00 00 00
       1.452278e-08 0.0 -5.5375036e-08 0.0
000160 f4 ab 97 32 00 00 00 00 c8 dd 46 b2 00 00 00 00
       1.7656909e-08 0.0 -1.1575544e-08 0.0
000170 f6 3c b6 32 00 00 00 00 6c 15 3a b1 00 00 00 00
       2.121531e-08 0.0 -2.707874e-09 0.0
000180 8b 2c de 32 00 00 00 00 7e 09 95 b0 00 00 00 00
       2.5864457e-08 0.0 -1.0843875e-09 0.0
000190 3f df ce b2 00 00 00 00 fa c6 24 b3 00 00 00 00
       -2.4083077e-08 0.0 -3.8365194e-08 0.0
0001a0 66 9e 53 33 00 00 00 00 47 55 c4 33 00 00 00 00
       4.927133e-08 0.0 9.142473e-08 0.0
0001b0 47 55 c4 33 6c 00 d7 35 0d 35 16 34 2b 89 68 35
       9.142473e-08 1.6018871e-06 1.3989138e-07 8.662634e-07
0001c0 56 d6 09 32 f5 60 4d b3 25 ff 27 30 c4 36 99 34
       8.023184e-09 -4.7818464e-08 6.111683e-10 2.8538318e-07
0001d0 01 0f b2 b4 ba 84 19 b3 d9 bf 91 35 22 ae d4 33
       -3.3166e-07 -3.5743803e-08 1.0859177e-06 9.903694e-08
0001e0 aa b0 e6 32 a8 40 3a b3 00 00 00 00 c1 25 0e 35
       2.6855862e-08 -4.3365304e-08 0.0 5.295406e-07
0001f0 c8 a4 1a b6 00 00 00 00 00 00 00 00 00 00 00 00
       -2.3043704e-06 0.0 0.0 0.0
000200 c1 25 8e 34 00 00 00 00 c1 25 0e 35 7d 53 b8 34
       2.647703e-07 0.0 5.295406e-07 3.4333416e-07
000210 00 00 00 00 00 00 00 00 00 00 00 00 c1 25 8e 34
       0.0 0.0 0.0 2.647703e-07
000220 00 00 00 00 c1 25 0e 35 5a b9 48 36 00 00 00 00
       0.0 5.295406e-07 2.9910211e-06 0.0
000230 00 00 00 00 00 00 00 00 c1 25 8e 34 00 00 00 00
       0.0 0.0 2.647703e-07 0.0
000240 c1 25 0e 35 7f 34 bd 36 00 00 00 00 7e 2e 8d 33
       5.295406e-07 5.6387503e-06 0.0 6.574281e-08
000250 00 00 00 00 a8 1e 87 34 00 00 00 00 00 b8 a8 b5
       0.0 2.5168015e-07 0.0 -1.2570526e-06
000260 00 00 00 00 cd 67 45 b6 00 00 00 00 e6 e1 24 b5
       0.0 -2.9415708e-06 0.0 -6.1423486e-07
000270 00 00 00 00 56 91 b5 b6 00 00 00 00 20 f9 e7 b4
       0.0 -5.4111397e-06 0.0 -4.3208365e-07
000280 00 00 00 00 5d b5 a0 b5 00 00 00 00 82 15 ca b4
       0.0 -1.1973713e-06 0.0 -3.764108e-07
000290 00 00 00 00 80 f7 58 b5 00 00 00 00 4e 48 c8 b4
       0.0 -8.082643e-07 0.0 -3.7305512e-07
0002a0 00 00 00 00 28 0e 84 b5 00 00 00 00 9f 76 b4 b4
       0.0 -9.838886e-07 0.0 -3.361392e-07
0002b0 00 00 00 00 e9 c9 9f b5 00 00 00 00 2c 5d ea 35
       0.0 -1.1905187e-06 0.0 1.7461475e-06
0002c0 00 00 00 00 12 7c 00 b6 00 00 00 00 fa ce 7d b6
       0.0 -1.9145705e-06 0.0 -3.7820414e-06
0002d0 00 00 00 00 30 09 49 b6 00 00 00 00 30 09 49 b6
       0.0 -2.9956682e-06 0.0 -2.9956682e-06
0002e0 cc d4 98 38 b5 e0 1a b7 90 16 bb b9 21 e9 2f b3
       7.287561e-05 -9.231434e-06 -0.0003568423 -4.0957392e-08
0002f0 5f 36 e4 35 e9 93 57 b2 69 ea 86 b7 c0 ef 5b b6
       1.7003148e-06 -1.2548278e-08 -1.60832e-05 -3.2773096e-06
000300 ee 1f aa 34 bd f9 02 b6 fe 1c 39 b5 70 41 be b4
       3.16882e-07 -1.9516876e-06 -6.896006e-07 -3.543787e-07
000310 93 41 c7 b4 00 00 00 00 91 76 04 b8 2e 2f f6 b9
       -3.711435e-07 0.0 -3.1581676e-05 -0.00046955928
000320 00 00 00 00 00 00 00 00 00 00 00 00 91 76 84 b7
       0.0 0.0 0.0 -1.5790838e-05
000330 00 00 00 00 91 76 04 b8 a6 7c 24 ba 00 00 00 00
       0.0 -3.1581676e-05 -0.00062746776 0.0
000340 00 00 00 00 00 00 00 00 91 76 84 b7 00 00 00 00
       0.0 0.0 -1.5790838e-05 0.0
000350 91 76 04 b8 b3 e1 4d ba 00 00 00 00 00 00 00 00
       -3.1581676e-05 -0.0007853761 0.0 0.0
000360 00 00 00 00 91 76 84 b7 00 00 00 00 91 76 04 b8
       0.0 -1.5790838e-05 0.0 -3.1581676e-05
000370 c2 46 77 ba 00 00 00 00 ae 89 d9 b6 00 00 00 00
       -0.0009432846 0.0 -6.483132e-06 0.0
000380 05 45 73 b7 00 00 00 00 66 5b 26 b6 00 00 00 00
       -1.44999985e-05 0.0 -2.4789128e-06 0.0
000390 fa 8b 30 b6 00 00 00 00 c2 fa 7c b5 00 00 00 00
       -2.630752e-06 0.0 -9.4242216e-07 0.0
0003a0 a8 3a 0c b7 00 00 00 00 6b 5c 1c b5 00 00 00 00
       -8.358307e-06 0.0 -5.8249015e-07 0.0
0003b0 3d 94 2f b5 00 00 00 00 b1 c1 fe b4 00 00 00 00
       -6.5408295e-07 0.0 -4.7452116e-07 0.0
0003c0 a0 8f 31 b5 00 00 00 00 f3 48 ec b4 00 00 00 00
       -6.614664e-07 0.0 -4.4011503e-07 0.0
0003d0 1c e0 93 b5 00 00 00 00 b2 fa a8 b4 00 00 00 00
       -1.1017578e-06 0.0 -3.1474843e-07 0.0
0003e0 01 cb c9 b5 00 00 00 00 59 dc 5e 36 00 00 00 00
       -1.5034749e-06 0.0 3.3208837e-06 0.0
0003f0 d6 dd 36 b6 00 00 00 00 74 0b 9a b6 00 00 00 00
       -2.724924e-06 0.0 -4.590891e-06 0.0

exp_avg_sq f4 [128, 75]
000000 00 00 00 00 ee 92 62 2f 00 00 00 00 34 6c fc 2f
       0.0 2.060678e-10 0.0 4.5915416e-10
000010 00 00 00 00 3f 35 09 2e 00 00 00 00 6b a0 86 30
       0.0 3.1197486e-11 0.0 9.795377e-10
000020 00 00 00 00 24 72 85 2d 00 00 00 00 7a 3b 56 30
       0.0 1.5171038e-11 0.0 7.793727e-10
000030 00 00 00 00 e5 c2 53 2d 00 00 00 00 96 ab 4c 2f
       0.0 1.2037237e-11 0.0 1.8614651e-10
000040 00 00 00 00 f1 9f 70 2d 00 00 00 00 fe 18 0e 2f
       0.0 1.3677935e-11 0.0 1.2923704e-10
000050 00 00 00 00 46 ee d5 2d 00 00 00 00 b9 b7 0e 2f
       0.0 2.4321111e-11 0.0 1.2980096e-10
000060 00 00 00 00 68 87 ab 2f 00 00 00 00 1b b6 7c 2f
       0.0 3.120093e-10 0.0 2.2983963e-10
000070 00 00 00 00 e9 df 9e 30 00 00 00 00 1c f0 12 30
       0.0 1.1559652e-09 0.0 5.3455707e-10
000080 00 00 00 00 1c f0 12 30 81 fb 38 35 d8 da fa 31
       0.0 5.3455707e-10 6.891133e-07 7.3008373e-09
000090 d6 62 b8 36 2e 1e 4d 28 e2 1a db 30 71 c5 2e 27
       5.4951333e-06 1.138633e-14 1.5941988e-09 2.4254384e-15
0000a0 50 11 a8 32 41 8f eb 2f e3 c5 87 2c 3e 10 05 31
       1.9565647e-08 4.284804e-10 3.8589006e-12 1.936328e-09
0000b0 88 00 02 2d 90 f6 4b 2d 6a 0c 86 2c 00 00 00 00
       7.389762e-12 1.1593962e-11 3.8098873e-12 0.0
0000c0 0a f1 b6 33 76 32 40 37 00 00 00 00 00 00 00 00
       8.51888e-08 1.1455841e-05 0.0 0.0
0000d0 00 00 00 00 0a f1 b6 32 00 00 00 00 0a f1 b6 33
       0.0 2.12972e-08 0.0 8.51888e-08
0000e0 ae 7c c2 37 00 00 00 00 00 00 00 00 00 00 00 00
       2.318466e-05 0.0 0.0 0.0
0000f0 0a f1 b6 32 00 00 00 00 0a f1 b6 33 93 4d 24 38
       2.12972e-08 0.0 8.51888e-08 3.9172894e-05
000100 00 00 00 00 00 00 00 00 00 00 00 00 0a f1 b6 32
       0.0 0.0 0.0 2.12972e-08
000110 00 00 00 00 0a f1 b6 33 5d 3a 79 38 00 00 00 00
       0.0 8.51888e-08 5.942058e-05 0.0
000120 37 2d 90 30 00 00 00 00 8b ab aa 32 00 00 00 00
       1.049023e-09 0.0 1.9868613e-08 0.0
000130 b7 9b 82 2b 00 00 00 00 7d e2 a8 2b 00 00 00 00
       9.280275e-13 0.0 1.1999981e-12 0.0
000140 03 2f f4 29 00 00 00 00 60 28 c3 2a 00 00 00 00
       1.0843932e-13 0.0 3.4666974e-13 0.0
000150 97 5c 49 29 00 00 00 00 4c d0 63 2a 00 00 00 00
       4.4711274e-14 0.0 2.0233918e-13 0.0
000160 04 fc 0d 29 00 00 00 00 52 65 b1 29 00 00 00 00
       3.1526878e-14 0.0 7.877955e-14 0.0
000170 34 cf 0d 29 00 00 00 00 6f 08 95 29 00 00 00 00
       3.148801e-14 0.0 6.618392e-14 0.0
000180 05 03 4a 29 00 00 00 00 01 44 b9 29 00 00 00 00
       4.485563e-14 0.0 8.227447e-14 0.0
000190 69 8a 40 2a 00 00 00 00 8c 28 b7 2a 00 00 00 00
       1.7101046e-13 0.0 3.2535465e-13 0.0
0001a0 5a ee 3a 2b 00 00 00 00 e2 82 26 2b 00 00 00 00
       6.6411254e-13 0.0 5.9156683e-13 0.0
0001b0 e2 82 26 2b 4b cc 25 2f 67 b6 e0 2c ce fe d2 30
       5.9156683e-13 1.5079242e-10 6.3867136e-12 1.5351931e-09
0001c0 9f 5b 37 24 e3 2b 11 2b 32 c6 21 23 7f df 9f 2d
       3.9759406e-17 5.1575253e-13 8.769797e-18 1.817546e-11
0001d0 02 c0 36 2b 0f f2 40 28 65 0c 22 2d e1 bb d9 28
       6.4925853e-13 1.0710629e-14 9.211386e-12 2.4173319e-14
0001e0 2b af bb 29 a8 a5 17 28 00 00 00 00 43 5d a4 2e
       8.334855e-14 8.418105e-15 0.0 7.474423e-11
0001f0 39 af 6c 31 00 00 00 00 00 00 00 00 00 00 00 00
       3.4442122e-09 0.0 0.0 0.0
000200 43 5d a4 2d 00 00 00 00 43 5d a4 2e ec 05 2c 32
       1.8686058e-11 0.0 7.474423e-11 1.0013064e-08
000210 00 00 00 00 00 00 00 00 00 00 00 00 43 5d a4 2d
       0.0 0.0 0.0 1.8686058e-11
000220 00 00 00 00 43 5d a4 2e 36 8a ae 32 00 00 00 00
       0.0 7.474423e-11 2.0319117e-08 0.0
000230 00 00 00 00 00 00 00 00 43 5d a4 2d 00 00 00 00
       0.0 0.0 1.8686058e-11 0.0
000240 43 5d a4 2e d5 95 13 33 00 00 00 00 af 45 6f 29
       7.474423e-11 3.4362376e-08 0.0 5.31291e-14
000250 00 00 00 00 56 6e a3 2d 00 00 00 00 a3 5d aa 2d
       0.0 1.8579954e-11 0.0 1.9368345e-11
000260 00 00 00 00 e2 b8 04 2e 00 00 00 00 ce 33 28 2c
       0.0 3.0177534e-11 0.0 2.3902993e-12
000270 00 00 00 00 0e bc 44 2e 00 00 00 00 19 15 90 2b
       0.0 4.4732267e-11 0.0 1.0237671e-12
000280 00 00 00 00 c7 15 1b 2e 00 00 00 00 9c a7 53 2b
       0.0 3.5262262e-11 0.0 7.5194863e-13
000290 00 00 00 00 83 f0 0f 2d 00 00 00 00 35 4b 5f 2b
       0.0 8.182013e-12 0.0 7.9329886e-13
0002a0 00 00 00 00 61 0d ca 2c 00 00 00 00 05 fe b1 2b
       0.0 5.7426707e-12 0.0 1.2647111e-12
0002b0 00 00 00 00 af c4 cd 2c 00 00 00 00 df 3c 4f 2d
       0.0 5.8482867e-12 0.0 1.1780104e-11
0002c0 00 00 00 00 83 62 4f 2d 00 00 00 00 bc e7 66 2e
       0.0 1.1788462e-11 0.0 5.2501767e-11
0002d0 00 00 00 00 9d 3c e5 2d 00 00 00 00 9d 3c e5 2d
       0.0 2.6061204e-11 0.0 2.6061204e-11
0002e0 44 38 10 33 06 eb b6 2f f3 a5 94 34 a4 8d 96 26
       3.3578786e-08 3.32726e-10 2.7687892e-07 1.0446733e-15
0002f0 17 47 9c 2e e5 fb 7b 25 0f 61 77 30 08 b0 cb 2d
       7.106687e-11 2.1856125e-16 8.9996005e-10 2.3156602e-11
000300 0f ea 92 2a 8d 52 5e 2f ec a2 1c 2b 98 2e d6 2b
       2.609722e-13 2.022011e-10 5.5648433e-13 1.5218547e-12
000310 b0 aa 8b 2a 00 00 00 00 75 47 85 31 3b 01 0d 35
       2.4809798e-13 0.0 3.878933e-09 5.2528384e-07
000320 00 00 00 00 00 00 00 00 00 00 00 00 75 47 85 30
       0.0 0.0 0.0 9.697333e-10
000330 00 00 00 00 75 47 85 31 55 11 8c 35 00 00 00 00
       0.0 3.878933e-09 1.0435857e-06 0.0
000340 00 00 00 00 00 00 00 00 75 47 85 30 00 00 00 00
       0.0 0.0 9.697333e-10 0.0
000350 75 47 85 31 07 aa eb 35 00 00 00 00 00 00 00 00
       3.878933e-09 1.7558349e-06 0.0 0.0
000360 00 00 00 00 75 47 85 30 00 00 00 00 75 47 85 31
       0.0 9.697333e-10 0.0 3.878933e-09
000370 4f a5 32 36 00 00 00 00 d0 a2 84 2e 00 00 00 00
       2.662029e-06 0.0 6.031586e-11 0.0
000380 43 b5 78 30 00 00 00 00 8c 0f a1 2e 00 00 00 00
       9.0479463e-10 0.0 7.324194e-11 0.0
000390 70 f5 21 2f 00 00 00 00 5c bd 37 2d 00 00 00 00
       1.4730062e-10 0.0 1.0444392e-11 0.0
0003a0 b2 74 b8 2f 00 00 00 00 26 92 ac 2c 00 00 00 00
       3.3552322e-10 0.0 4.9047598e-12 0.0
0003b0 7a 0e 9d 2f 00 00 00 00 02 6a 86 2c 00 00 00 00
       2.856842e-10 0.0 3.8202783e-12 0.0
0003c0 3b 2e 8c 2e 00 00 00 00 c2 8d 96 2c 00 00 00 00
       6.374675e-11 0.0 4.2789947e-12 0.0
0003d0 e6 41 3e 2e 00 00 00 00 ee a5 04 2d 00 00 00 00
       4.3259528e-11 0.0 7.540175e-12 0.0
0003e0 b4 87 3b 2e 00 00 00 00 17 c2 00 2f 00 00 00 00
       4.2639406e-11 0.0 1.1710487e-10 0.0
0003f0 f9 1e a2 2e 00 00 00 00 c8 6c d1 2f 00 00 00 00
       7.372409e-11 0.0 3.8094172e-10 0.0

exp_avg f4 [128]
000000 9c 58 3a 38 97 df 8d 34 0b 84 84 b7 08 c9 9e b7
       4.442838e-05 2.642598e-07 -1.5797114e-05 -1.892868e-05
000010 d0 c8 56 38 84 bb 6a 34 b0 a3 c3 b7 34 db eb 37
       5.1208597e-05 2.1861166e-07 -2.3322034e-05 2.8116257e-05
000020 33 85 f4 34 a7 e1 c5 2f f2 4a 02 b9 24 6e 8a b1
       4.5545457e-07 3.5994427e-10 -0.00012425685 -4.02885e-09
000030 36 14 1d b8 5e 6a ab 38 e5 e6 ab 36 1c 31 d8 37
       -3.745054e-05 8.173728e-05 5.123077e-06 2.5772075e-05
000040 7d 62 e3 b7 18 96 04 b8 9f 7f 7d 32 39 6c 7a b8
       -2.710637e-05 -3.1611038e-05 1.4755556e-08 -5.9705435e-05
000050 fc ec ec af 31 fc 02 31 83 2c 53 31 d5 aa c9 30
       -4.3096537e-10 1.9060844e-09 3.0729843e-09 1.4673228e-09
000060 82 e5 c4 b6 3c fe 83 31 ce f0 0c b7 ad 80 fb b7
       -5.8679734e-06 3.841505e-09 -8.400717e-06 -2.9981451e-05
000070 29 18 57 38 bf 19 32 38 c2 59 f9 37 93 2d 68 34
       5.1282495e-05 4.2462485e-05 2.972491e-05 2.1623264e-07
000080 41 f7 a5 38 23 3b 88 b0 76 8d fd b5 b1 5d b2 b4
       7.913868e-05 -9.91211e-10 -1.889114e-06 -3.3223253e-07
000090 3c 41 74 38 c1 b8 cd 34 4a fc f1 b1 37 4b f8 b5
       5.8234888e-05 3.8318652e-07 -7.042705e-09 -1.849933e-06
0000a0 00 33 84 b7 af 52 b9 a6 e1 e6 16 b8 c0 95 eb b6
       -1.5759375e-05 -1.2859365e-15 -3.597781e-05 -7.020979e-06
0000b0 35 fd d5 2e 9b 6a 00 b1 32 21 19 34 2d 41 a3 34
       9.731097e-11 -1.868705e-09 1.4261312e-07 3.0408538e-07
0000c0 1c b2 1e 32 4d 52 db b8 72 30 a8 b8 b1 60 b3 36
       9.237308e-09 -0.000104580635 -8.019888e-05 5.345872e-06
0000d0 25 40 58 b0 53 50 a0 b3 e3 d3 05 b4 e4 cf 30 b8
       -7.8671497e-10 -7.4651915e-08 -1.2463674e-07 -4.2155283e-05
0000e0 90 6b 9d b3 c4 de 82 36 b0 97 8b b2 8d 0a f8 b8
       -7.330448e-08 3.9002352e-06 -1.625071e-08 -0.00011827527
0000f0 bc ea 80 37 38 a3 a1 38 d5 ef 2b b8 de 87 24 31
       1.5368096e-05 7.70748e-05 -4.0992938e-05 2.3942373e-09
000100 67 33 9e 31 87 3c dd b5 2b 03 0a b7 20 6f 6b 35
       4.604249e-09 -1.6483399e-06 -8.226179e-06 8.770603e-07
000110 3a 36 2f b7 63 57 02 b2 12 34 83 b8 c4 c6 d4 38
       -1.0443438e-05 -7.586865e-09 -6.2562656e-05 0.00010145971
000120 dd 2c 11 b8 bb 57 67 38 a0 73 45 37 06 27 ce 33
       -3.4612476e-05 5.5156397e-05 1.1769036e-05 9.599721e-08
000130 3c 00 6f b8 6d 42 43 35 05 10 04 39 a1 38 b6 36
       -5.698226e-05 7.2739823e-07 0.00012594469 5.430615e-06
000140 0b d1 91 b3 f1 d2 66 34 90 d6 64 38 02 de 7b 38
       -6.7901134e-08 2.1497159e-07 5.4559263e-05 6.0049824e-05
000150 c8 e8 21 b8 2a ed 76 38 55 4c c1 b5 90 1e 91 b8
       -3.8602186e-05 5.8871847e-05 -1.4401836e-06 -6.9198315e-05
000160 e8 c6 7d b5 97 ba 48 38 86 70 98 b7 2b 6a 13 30
       -9.453929e-07 4.785749e-05 -1.817221e-05 5.362916e-10
000170 be e1 ac 30 dc 6f b3 34 09 89 42 38 29 0d 15 32
       1.2578807e-09 3.3422737e-07 4.638083e-05 8.675934e-09
000180 d5 02 7c 35 0c 6e 1c 34 4d 59 ff 35 7a ca df 33
       9.3881437e-07 1.4568667e-07 1.902497e-06 1.0421077e-07
000190 8f 3b 8a 34 ec 28 7c b6 23 00 df 31 ea b6 2b b7
       2.5747838e-07 -3.7574746e-06 6.4901697e-09 -1.0234982e-05
0001a0 01 eb 30 34 bf 44 05 37 55 72 e3 38 99 78 93 38
       1.6476771e-07 7.943424e-06 0.000108454995 7.031969e-05
0001b0 19 d2 49 b7 58 e5 52 b5 23 e3 4d b8 56 ae 59 37
       -1.2029451e-05 -7.8564835e-07 -4.9087346e-05 1.2974799e-05
0001c0 26 cb 2b 36 45 67 a8 38 d8 2c 93 b4 a5 f0 af b4
       2.5599234e-06 8.0301e-05 -2.7413512e-07 -3.2771382e-07
0001d0 d5 06 9f b6 ce a2 a2 b8 c4 50 42 b8 88 b6 75 36
       -4.7393646e-06 -7.755087e-05 -4.6328423e-05 3.6614092e-06
0001e0 4c 34 90 33 6d 40 1f 37 55 05 13 33 a3 0d ca b2
       6.715035e-08 9.492139e-06 3.4230954e-08 -2.3522096e-08
0001f0 bf fa 61 b8 2e 98 32 b0 7e ca 70 b6 2d 47 7c b7
       -5.3877706e-05 -6.4972283e-10 -3.5880653e-06 -1.5036942e-05

exp_avg_sq f4 [128]
000000 f3 f0 b6 32 4d 5e a4 2d 1d 48 85 30 7f 3e ea 31
       2.129716e-08 1.868652e-11 9.69752e-10 6.8174013e-09
000010 13 30 aa 32 bd 38 de 2b 27 07 c4 31 ca 37 40 32
       1.9812466e-08 1.5789797e-12 5.705164e-09 1.1188556e-08
000020 27 a8 25 2f bf 1e 7a 25 09 fe 17 34 99 0b 98 2a
       1.5066402e-10 2.169446e-16 1.4155388e-07 2.7008671e-13
000030 41 2d 60 32 33 6a 94 32 e3 c9 89 31 68 8a ec 31
       1.3048806e-08 1.7277761e-08 4.0101766e-09 6.884239e-09
000040 71 73 ce 31 37 ef 23 32 32 92 b0 28 cb 95 e6 32
       6.0085132e-09 9.54224e-09 1.9603327e-14 2.6843642e-08
000050 d9 0c ed 24 e6 3f a0 28 e1 49 94 25 eb 9e 56 23
       1.0280413e-16 1.779128e-14 2.572397e-16 1.16346154e-17
000060 8c ed b4 31 39 56 4f 26 5b a4 a8 2f 5b 16 ac 31
       5.2656954e-09 7.1934405e-16 3.0675804e-10 5.0084004e-09
000070 77 5e 11 33 d5 d5 f0 32 e1 cb d8 31 7f b5 13 2c
       3.384636e-08 2.8036917e-08 6.3096057e-09 2.0990707e-12
000080 a8 ce b7 32 3d d0 b5 29 3f d8 24 2d be 50 85 2d
       2.139798e-08 8.074138e-14 9.370337e-12 1.5156206e-11
000090 63 88 2f 33 4c e1 84 2c 6b f9 14 28 03 fa 9d 2e
       4.0869406e-08 3.7766786e-12 8.269734e-15 7.1839444e-11
0000a0 31 13 0f 32 44 e8 a9 19 a5 3f 06 32 74 9a 3b 2f
       8.328059e-09 1.7568002e-23 7.814298e-09 1.7062424e-10
0000b0 9a 0e 4e 22 0a 6d 90 26 5b 7b d2 2b 1e eb 50 2c
       2.7925936e-18 1.0021562e-15 1.4955635e-12 2.9689094e-12
0000c0 3a 73 eb 26 8c 63 91 33 d5 ee 44 33 00 9e 31 2f
       1.6337633e-15 6.770196e-08 4.5852023e-08 1.6154189e-10
0000d0 fd 66 19 28 c1 9b 3f 2c f7 76 69 2b 4d 23 19 33
       8.515538e-15 2.7229193e-12 8.2943326e-13 3.5655194e-08
0000e0 79 18 57 2a 82 8b be 31 2b e3 14 29 d9 ab 9f 33
       1.9104327e-13 5.545588e-09 3.305964e-14 7.4352734e-08
0000f0 e6 e5 3c 32 4c de 30 33 dc ad e8 31 f4 34 10 27
       1.0995313e-08 4.118037e-08 6.771854e-09 2.001272e-15
000100 03 4b 3f 2c 4e e4 31 2e 96 fc ca 33 a0 19 13 2f
       2.7184372e-12 4.0447916e-11 9.452303e-08 1.3378676e-10
000110 04 61 1c 30 e4 8b 2c 2b 4a e4 42 33 70 b7 a8 33
       5.6890337e-10 6.130081e-13 4.5376773e-08 7.856477e-08
000120 f1 f4 0f 32 19 77 5a 32 a1 68 b7 31 1e 73 86 29
       8.379389e-09 1.271635e-08 5.337896e-09 5.970765e-14
000130 07 3e 34 33 9b 53 c3 2d ca ff 9b 33 93 5b 9a 2f
       4.196593e-08 2.2206062e-11 7.264278e-08 2.8077504e-10
000140 64 8a 4f 2d 36 d1 7b 2d 21 0e 3d 32 52 d2 97 32
       1.1797317e-11 1.4314152e-11 1.10044605e-08 1.7674356e-08
000150 0a 35 af 32 c5 66 92 32 2d d1 19 2e f1 58 96 33
       2.03968e-08 1.7043371e-08 3.4973958e-11 7.001098e-08
000160 73 96 46 2e 03 cb 8e 32 ea 31 b5 32 80 c5 46 26
       4.5153613e-11 1.6623295e-08 2.1093872e-08 6.896271e-16
000170 5f d5 64 25 6a 40 a7 2b c6 79 03 33 89 51 31 29
       1.984814e-16 1.1883942e-12 3.0611567e-08 3.9372616e-14
000180 66 96 a5 31 17 ca 8a 2a 15 fe 12 30 20 57 2b 2c
       4.8192303e-09 2.4653952e-13 5.3475563e-10 2.4348926e-12
000190 2d 98 be 2b 0e 22 d8 31 9b 02 ba 27 9c 68 c6 30
       1.3542549e-12 6.290299e-09 5.1628195e-15 1.4436128e-09
0001a0 3a a3 17 2e 4a 85 c3 30 80 1d cd 32 29 1c 5a 32
       3.44784e-11 1.4226e-09 2.3878556e-08 1.2695673e-08
0001b0 ae 31 39 31 d1 46 4b 2e 1f 20 e6 32 89 9e 07 2f
       2.6949283e-09 4.6219754e-11 2.6790131e-08 1.2334501e-10
0001c0 e4 56 61 32 fe c5 c2 32 54 7e 4d 2b e9 a2 6c 2c
       1.311648e-08 2.2674609e-08 7.3005946e-13 3.362805e-12
0001d0 4f d9 64 31 65 77 42 33 b2 a8 58 32 b5 1b 30 33
       3.3301892e-09 4.5277734e-08 1.2611212e-08 4.1003393e-08
0001e0 79 f9 11 2b d3 40 f4 32 08 0e 94 29 fe a8 ff 2a
       5.186056e-13 2.8434817e-08 6.5749543e-14 4.541436e-13
0001f0 72 d1 8f 32 6d 59 99 23 d6 33 8a 30 2d 20 40 32
       1.6742636e-08 1.6626167e-17 1.0055554e-09 1.1183187e-08
