Unity Project/CSC 30014 Project/results/test/Car/Car-138742.onnx (onnx, 108006 bytes, 7 tensors)

action_model._continuous_distribution.log_sigma f4 [1, 2]
0.0072761034 -0.014784744
00000000: 616c ee3b b63b 72bc

action_model._continuous_distribution.mu.bias f4 [2]
-0.0003273695 0.0017971803
00000000: caa2 abb9 5d8f eb3a

action_model._continuous_distribution.mu.weight f4 [2, 128]
0.0041584377 0.030470153 0.00372632 0.0011250813 -0.003948594 0.028580725 0.030203385 -0.012787717
0.00639932 -0.022042807 -0.025812486 -0.039390903 -0.017283086 -0.007611076 -0.0034748965 0.019417422
0.009065029 -0.011913954 -0.0008809881 -0.013996001 -0.0022177128 -0.006125726 0.0082987 0.021114768
0.006500032 -0.018074796 0.0046895226 0.0178484 0.017992249 0.00093046203 0.00030024265 -0.02079039
0.022796428 0.0018628762 -0.014276334 0.007996765 -0.02156208 -0.009425189 -0.017172396 0.017280018
0.02726579 0.031177374 0.015940735 -0.012412084 -0.019133331 0.0012333167 -0.0021404293 -0.0044416413
0.013012216 -0.008912329 -0.014336573 -0.006393284 -0.0032649727 0.014023237 -0.032643653 0.021125024
0.023448514 0.01620919 -0.0010977866 0.008270281 0.019565858 0.0052930624 -0.024080662 -0.006395642
-0.00740087 0.0057235495 0.004776976 0.0031120018 0.005673159 0.00052069145 -0.021973304 -3.0759966e-05
0.013924498 0.0055420874 -0.011717994 3.154983e-05 6.6573266e-05 -0.0049360055 -0.011533931 -0.010645456
0.0040849987 -0.011763963 -0.016420472 -0.0011422675 -0.0019030931 0.01163044 0.0060512954 0.011718541
0.0123499995 0.017061848 0.010926531 0.012665733 0.006463445 0.025573805 -0.001821669 -0.0050369804
-0.016209465 -0.009164256 -0.013006517 -0.0038600753 -0.0043108608 0.01134392 -0.004999234 -0.00848683
0.033934798 -0.0038021388 0.011234748 0.014522945 0.00568236 0.018778147 -0.014908229 -0.011804196
0.015207111 0.013238488 0.03126165 0.0027574915 0.0059086005 -0.008396232 0.009655874 -0.005677559
-0.011470923 0.0015662456 0.030043708 0.0023016345 0.014687423 0.029183315 0.0398967 -0.031639423
0.014759432 -0.005800698 -0.0031931563 0.0023811643 -0.003470127 0.018577112 0.023898873 -0.02600117
-0.019896157 0.008914084 -0.010443803 -0.01911799 -0.0035645622 -0.00095885835 -0.008624347 -0.030686012
0.022197193 0.045331676 -0.028102424 -0.0019697296 0.026868667 -0.032592416 0.01556386 -0.013504109
0.010049771 0.006960989 -0.027933922 0.026434693 -0.026060473 0.019859258 0.0040338812 -0.008181771
-0.028119499 0.0051307776 -0.02007327 -0.027515937 -0.00756637 0.011225267 -0.002172519 -0.034133803
-0.003675662 0.016549857 -0.031600684 0.0028093732 -0.02682074 0.048847917 -0.033290934 -0.015889337
-0.032785248 -0.004480554 0.023900116 0.000727638 0.0052989894 0.009572884 0.0048693246 -0.018789278
0.012337239 0.0034149226 0.04099078 -0.021288253 0.01794654 -0.008750273 0.0129045155 -0.003695296
-0.022765247 -0.023853531 0.0051047513 0.026175288 -0.031558216 0.0027917286 0.026254404 -0.011927878
-0.03343845 0.003347373 -0.008520209 0.005723487 -0.021332903 -0.023670655 -0.017884383 0.03289524
0.022036929 -0.01997876 -0.0025311313 0.029281793 -0.023157854 -0.015887525 0.005741453 -0.04408902
0.015157221 0.0099070445 -0.0050701033 -0.03889821 -0.009329547 -0.0057743127 -0.011796629 -0.02409291
0.035583094 -0.03392554 -0.025026225 0.011470838 -0.021724615 0.029450899 0.012463027 -0.021197518
0.0051841685 -0.021813909 -0.012782746 -0.01524261 -0.02965461 -0.03775185 0.03505843 0.03543798
-0.024338586 -0.028219266 0.0406112 0.029663019 -0.033874616 0.018506592 -0.030008083 -0.02773974
0.0077824537 7.441506e-06 -0.0091463765 -0.011116165 -0.040221017 -0.0024670612 -0.023053316 -0.02991122
00000000: 8143 883b 8b9c f93c 4735 743b 7777 933a
00000010: 3563 81bb 2022 ea3c 176d f73c 9383 51bc
00000020: 63b1 d13b 1e93 b4bc b574 d3bc 5b58 21bd
00000030: 4295 8dbc 5566 f9bb 17bb 63bb 4911 9f3c
00000040: 7d85 143c bf32 43bc 1cf2 66ba 7c4f 65bc
00000050: 0c57 11bb 50ba c8bb 45f7 073c e1f8 ac3c
00000060: 38fe d43b 9811 94bc 91aa 993b cf36 923c
00000070: 7b64 933c 40ea 733a e369 9d39 9c50 aabc
00000080: 93bf ba3c c12b f43a 49e7 69bc dd04 033c
00000090: f6a2 b0bc 1c6c 1abc 20ad 8cbc d38e 8d3c
000000a0: 825c df3c b167 ff3c 2596 823c 0e5c 4bbc
000000b0: 81bd 9cbc 3ea7 a13a 7246 0cbb 308b 91bb
000000c0: 3131 553c 0405 12bc f2e3 6abc c17e d1bb
000000d0: 27f9 55bb b8c1 653c 5ab5 05bd 630e ad3c
000000e0: 1917 c03c 23c9 843c 9be3 8fba 1380 073c
000000f0: 9448 a03c 6d71 ad3b cf44 c5bc 8992 d1bb
00000100: ff82 f2bb 9d8c bb3b 2e88 9c3b baf2 4b3b
00000110: e8e5 b93b 037f 083a 5c01 b4bc 4304 01b8
00000120: 9423 643c 669a b53b d4fc 3fbc 5f54 0438
00000130: 409d 8b38 37be a1bb d0f8 3cbc 476a 2ebc
00000140: 74db 853b a3bd 40bc 3a84 86bc 23b8 95ba
00000150: 3571 f9ba 9a8d 3e3c f249 c63b 20ff 3f3c
00000160: a757 4a3c 4ac5 8b3c 3105 333c ef83 4f3c
00000170: 4ecb d33b 2880 d13c 12c5 eeba 410d a5bb
00000180: b6c9 84bc ad25 16bc 4919 55bc 51f9 7cbb
00000190: 1f42 8dbb d9db 393c 9dd0 a3bb 580c 0bbc
000001a0: 37ff 0a3d 4e2d 79bb f311 383c a5f1 6d3c
000001b0: 1733 ba3b a1d4 993c a541 74bc 6366 41bc
000001c0: 3f27 793c 3ee6 583c 370c 003d 08b7 343b
000001d0: ef9c c13b 5990 09bc ac33 1e3c d10a babb
000001e0: 8af0 3bbc 7b4a cd3a 391e f63c 05d7 163b
000001f0: 84a3 703c d911 ef3c b96a 233d 5798 01bd
00000200: 8bd1 713c c813 bebb 4644 51bb 4f0d 1c3b
00000210: 126b 63bb 072f 983c 92c7 c33c 6800 d5bc
00000220: 44fd a2bc 610c 123c 7c1c 2bbc 559d 9cbc
00000230: 6e9b 69bb e55b 7bba 224d 0dbc 3b61 fbbc
00000240: e3d6 b53c b5ad 393d 0e37 e6bc 9416 01bb
00000250: ae1b dc3c a07f 05bd 8fff 7e3c 5740 5dbc
00000260: cba7 243c 0219 e43b aed5 e4bc 928d d83c
00000270: c67c d5bc e2af a23c a62e 843b d60c 06bc
00000280: dd5a e6bc 1520 a83b b370 a4bc 1a69 e1bc
00000290: 50ef f7bb 2fea 373c d260 0ebb e3cf 0bbd
000002a0: 60e3 70bb 9193 873c b86f 01bd 761d 383b
000002b0: 2bb7 dbbc c114 483d 135c 08bd 5b2a 82bc
000002c0: d349 06bd 9cd1 92bb 2dca c33c f6be 3e3a
000002d0: 25a3 ad3b 96d7 1c3c db8e 9f3b f9eb 99bc
000002e0: 2222 4a3c e5cc 5f3b f3e5 273d b464 aebc
000002f0: 9f04 933c 4e5d 0fbc 766d 533c c72c 72bb
00000300: 2f7e babc 7b68 c3bc c245 a73b 8f6d d63c
00000310: 3043 01bd 6ff5 363b 7a13 d73c 256d 43bc
00000320: c2f6 08bd 9a5f 5b3b 5998 0bbc 178c bb3b
00000330: 57c2 aebc f6e8 c1bc 4582 92bc 29bd 063d
00000340: ca86 b43c 7faa a3bc 56e1 25bb 5fe0 ef3c
00000350: 8ab5 bdbc 8e26 82bc cc22 bc3b b096 34bd
00000360: fe55 783c 2851 223c 1c23 a6bb bb53 1fbd
00000370: f5da 18bc 7236 bdbb a646 41bc 7f5e c5bc
00000380: 94bf 113d 82f5 0abd cc03 cdbc 2ff0 3b3c
00000390: d2f7 b1bc 0343 f13c b931 4c3c 6ba6 adbc
000003a0: f5df a93b 15b3 b2bc b96e 51bc 24bc 79bc
000003b0: 3aee f2bc afa1 1abd 6e99 0f3d 6a27 113d
000003c0: b761 c7bc 172c e7bc ee57 263d dcff f23c
000003d0: 1cc0 0abd 239b 973c 83d3 f5bc 743e e3bc
000003e0: f403 ff3b 0db2 f936 afda 15bc 9320 36bc
000003f0: cbbe 24bd 6bae 21bb 4fda bcbc 6008 f5bc

network_body._body_endoder.seq_layers.0.bias f4 [128]
0.0015513215 0.005760393 0.018349247 0.007308587 -0.0012946683 -0.008106155 0.00649133 0.0075330073
0.0067121857 -0.0047180154 3.5467765e-05 -0.003055103 0.0021366347 0.00068974576 0.007561416 -0.0025730683
0.00682669 0.012794098 0.003934766 0.0023403936 -0.0028003338 -0.002674212 0.0019101504 -0.00013940329
-0.0048912335 0.0017503387 0.0077292784 -0.009485428 -0.0045858226 -0.0036673658 -0.0013888265 0.0009164515
-0.0042267474 0.0021236837 -0.0013875549 -0.00288341 0.002934966 -0.0044731423 0.011787216 0.0035283347
-0.0007622098 -0.0023670853 0.0006866025 0.0234297 -0.00012689306 0.0013236345 0.03132325 -0.0028701844
0.02193109 -0.0030057116 0.012831651 0.0025125863 -6.7837624e-05 -0.00083070574 0.008470475 -0.0042585474
-0.015728343 0.0010380313 0.0019679917 -0.00082804397 0.003492259 0.00082768814 -0.0020316897 -0.010099931
0.00058487157 -0.001254346 -0.0031297954 0.0046575824 0.025355468 -0.007587586 0.004803375 0.016473634
0.0189635 0.0023255236 -0.0012740896 -0.0023726262 0.0024018562 -0.008004034 0.03216366 -0.0016630342
0.015455634 0.0015948439 -0.0037610591 -0.0011314967 0.02012273 -0.000810661 0.023348708 -0.011312833
0.0031114582 0.00049663987 0.0012621549 0.005885399 0.0040823603 0.0057997797 0.006213187 -0.010197797
0.02508798 -0.0006764021 -0.0039802575 0.0019541536 0.015872058 -0.002202984 0.012199876 0.0011716239
0.0009473894 -0.0077579264 -0.0007992795 -0.0016456216 -0.011201235 -4.2875323e-05 2.18937e-06 -0.001607551
0.000738107 0.02493004 -0.0046448456 0.016559796 0.0047368137 0.0018127201 0.0007107059 -0.00025300845
-0.0026660846 0.00057151663 -0.011403005 -0.011953721 -0.0006236084 -0.0012339032 -0.0001029544 0.0028644989
00000000: b655 cb3a aec1 bc3b 2951 963c df7c ef3b
00000010: dcb1 a9ba aecf 04bc 39b5 d43b 72d7 f63b
00000020: e5f1 db3b 9599 9abb 39c3 1438 1f38 48bb
00000030: c806 0c3b 0ed0 343a c1c5 f73b eca0 28bb
00000040: 6db2 df3b 569e 513c 36ef 803b 4a61 193b
00000050: ce85 37bb d541 2fbb 035e fa3a c92c 12b9
00000060: a446 a0bb 9f6b e53a e345 fd3b c568 1bbc
00000070: ab44 96bb 3058 70bb 4909 b6ba 053e 703a
00000080: 8780 8abb 802d 0b3b 9ede b5ba 98f7 3cbb
00000090: 8f58 403b 7093 92bb 2b1f 413c a23b 673b
000000a0: 09cf 47ba 1a21 1bbb 1dfd 333a a4ef bf3c
000000b0: 990e 05b9 ce7d ad3a cf4c 003d b419 3cbb
000000c0: d4a8 b33c 79fb 44bb d83b 523c 34aa 243b
000000d0: 0c44 8eb8 b8c3 59ba bfc7 0a3c 498b 8bbb
000000e0: bad8 80bc 8d0e 883a 6cf9 003b 1711 59ba
000000f0: 62de 643b 36f9 583a 1926 05bb 2e7a 25bc
00000100: 1152 193a de68 a4ba 411d 4dbb a29e 983b
00000110: 45b6 cf3c 49a1 f8bb a165 9d3b b7f3 863c
00000120: 5859 9b3c d067 183b 5aff a6ba 107e 1bbb
00000130: 7668 1d3b 5a23 03bc 0bbe 033d 2bfa d9ba
00000140: a139 7d3c 150a d13a 1a7c 76bb bb4e 94ba
00000150: 6cd8 a43c 8a82 54ba ca45 bf3c 7659 39bc
00000160: 9be9 4b3b f030 023a e46e a53a 4eda c03b
00000170: 52c5 853b 140c be3b fd97 cb3b a914 27bc
00000180: 4f85 cd3c 9450 31ba d26c 82bb 4211 003b
00000190: 1e06 823c f05f 10bb fde1 473c 2d91 993a
000001a0: 3a5a 783a 3436 febb bd86 51ba e6b1 d7ba
000001b0: 6285 37bc 07d5 33b8 17ed 1236 76b4 d2ba
000001c0: 867d 413a 153a cc3c ca33 98bb 69a8 873c
000001d0: 4637 9b3b cb98 ed3a aa4e 3a3a 38a6 84b9
000001e0: 7ab9 2ebb d5d1 153a abd3 3abc 8ad9 43bc
000001f0: a779 23ba ecba a1ba 39e9 d7b8 51ba 3b3b

network_body._body_endoder.seq_layers.0.weight f4 [128, 75]
0.23768051 -0.21190146 0.08610446 0.11674606 0.03688865 -0.015854677 -0.05279243 -0.09749382
0.049357284 -0.048699807 -0.062348284 -0.10608669 0.07891793 -0.015399104 -0.005561869 -0.03046448
-0.003974125 -0.07602005 -0.06211711 0.20445397 0.04425345 0.12744495 -0.2718787 -0.08254751
0.1929464 -0.06366777 0.0031973072 0.025506336 0.04964398 0.004144243 0.0120741455 -0.20770366
-0.08336544 -0.00024278717 0.016856153 -0.08964367 -0.1355098 -0.05950446 0.028311703 0.19754384
0.08687659 -0.18804406 0.00027201846 0.20472452 -0.049137186 -0.10175684 -0.18125123 -0.0081120785
-0.069992915 -0.022364605 0.3915259 0.061458576 0.011117081 -0.05009098 -0.27556202 -0.10097012
-0.0026805915 0.0037100648 0.003326443 -0.036273178 0.06660916 -0.04718042 -0.0462688 0.07788019
-0.20970587 0.015332947 -0.033300795 0.14664894 0.12179265 0.19210316 0.13640414 0.12131137
-0.13105612 0.017417809 -0.040528435 -0.06922853 0.18692932 -0.07490468 -0.059745166 0.048336025
0.13283394 -0.04027305 -0.13223667 -0.11989776 0.03753974 0.017530857 -0.19555238 -0.19085954
0.050209153 0.0012144134 0.08799967 0.033969536 -0.15429294 0.21036457 -0.038108863 -0.110350445
-0.027609786 0.0035705545 -0.17136407 -0.12242198 0.080460325 -0.072691485 0.057552528 0.0075290278
0.0023472493 0.06086458 0.042079218 -0.039075416 -0.14168087 -0.07506906 0.30558062 -0.17797294
0.07601467 0.09238813 0.07073356 -0.10413433 -0.14828259 0.019873308 -0.033998568 0.044198476
0.08052937 -0.17466685 0.13888177 0.06575888 0.09950153 0.046443895 0.05641636 -0.08528868
0.05716342 0.056856938 0.11997369 -0.07720277 0.1355057 -0.28752837 0.0531526 -0.104766995
0.08574005 0.0042480365 0.07415429 -0.02029812 0.058762528 0.04556278 -0.14700285 -0.19580936
0.07609693 -0.07837428 0.07381435 0.06378727 0.02233112 0.037916835 0.018431086 -0.0040517985
-0.06968889 0.20996955 0.20967951 0.006386067 0.1286204 -0.042119265 0.10743014 -0.23289248
0.06389282 0.014512441 -0.1965928 0.038063537 -0.00618398 0.07619208 -0.06448649 -0.1426226
0.028095992 -0.09377676 -0.04727945 -0.083127834 0.015102362 0.052217852 0.102816574 0.055586025
0.03154021 -0.1224423 0.21951321 0.028014774 -0.1441307 0.038793437 0.009237568 -0.045940865
-0.03436113 0.065411024 -0.115598105 0.11280516 -0.0032632302 0.020311499 0.065081306 0.18561046
-0.042028535 0.09771222 0.03783529 0.10512234 -0.13315643 0.07761434 -0.0749029 -0.03189763
-0.009399411 -0.09145858 0.08864136 0.09515876 0.012842045 -0.082044065 -0.031526744 -0.20248717
-0.16310693 0.0067069577 0.09418714 -0.14220816 0.115255475 0.14547764 -0.16829902 0.1369427
-0.021003755 0.03867429 -0.14141703 0.11520789 -0.14162312 -0.048113 0.10368369 -0.10421698
-0.026875772 0.043850146 0.07922636 -0.048730586 0.04115088 -0.08491359 -0.0020961468 0.028756827
-0.07387111 0.14395157 0.0021945403 0.08091258 0.15819615 -0.014783376 0.1204122 -0.09144186
0.039970573 -0.17859049 -0.08791573 -0.11972029 0.17931652 -0.009270696 0.016291646 -0.0041542277
-0.026788726 0.014233644 -0.04964637 -0.12824537 -0.09985856 0.0022055714 0.019400744 0.013916137
00000000: 8562 733e b2fc 58be 8957 b03d 8f18 ef3d
00000010: 8e18 173d abe1 81bc e03c 58bd d7aa c7bd
00000020: dd2a 4a3d 7379 47bd ea60 7fbd fb43 d9bd
00000030: b99f a13d 864c 7cbc 5740 b6bb a590 f9bc
00000040: 6039 82bb 66b0 9bbd 836e 7ebd 625c 513e
00000050: 1b43 353d ee80 023e af33 8bbe ab0e a9bd
00000060: be93 453e 3f64 82bd ea89 513b aaf2 d03c
00000070: 7c57 4b3d 6ecc 873b a3d2 453c 45b0 54be
00000080: 80bb aabd af94 7eb9 ea15 8a3c 1a97 b7bd
00000090: 15c3 0abe f3ba 73bd f2ed e73c ef48 4a3e
000000a0: 5bec b13d 9f8e 40be b39d 8e39 4ea3 513e
000000b0: 1344 49bd e465 d0bd ec99 39be 86e8 04bc
000000c0: 7258 8fbd fa35 b7bc 1576 c83e fdbb 7b3d
000000d0: 6b24 363c 332c 4dbd 7716 8dbe 6cc9 cebd
000000e0: ddac 2fbb 8f24 733b 7400 5a3b 2f93 14bd
000000f0: 626a 883d 4240 41bd 5a84 3dbd a67f 9f3d
00000100: 23bd 56be 0a37 7b3c 6a66 08bd 242b 163e
00000110: 6d6e f93d b1b6 443e 87ad 0b3e 1872 f83d
00000120: 9333 06be cbaf 8e3c 2501 26bd b0c7 8dbd
00000130: 666a 3f3e a067 99bd 59b7 74bd fffb 453d
00000140: 9f05 083e 5bf5 24bd 0d69 07be f58c f5bd
00000150: 45c3 193d df9c 8f3c e23e 48be af70 43be
00000160: 1da8 4d3d f42c 9f3a 2c39 b43d a423 0b3d
00000170: f8fe 1dbe cf69 573e 0a18 1cbd 6aff e1bd
00000180: eb2d e2bc f7ff 693b 107a 2fbe 60b8 fabd
00000190: 62c8 a43d 46df 94bd 33bc 6b3d 10b6 f63b
000001a0: 4fd4 193b 234d 793d 425b 2c3d 8b0d 20bd
000001b0: ca14 11be cfbd 99bd 1075 9c3e 8a3e 36be
000001c0: 94ad 9b3d fd35 bd3d c2dc 903d 6144 d5bd
000001d0: 64d7 17be 59cd a23c 1542 0bbd 7609 353d
000001e0: 95ec a43d dedb 32be 0637 0e3e 97ac 863d
000001f0: 75c7 cb3d f43b 3e3d d714 673d d5ab aebd
00000200: 3124 6a3d d2e2 683d c4b4 f53d 7c1c 9ebd
00000210: 02c2 0a3e eb36 93be 8ab6 593d 1490 d6bd
00000220: 7b98 af3d 1d33 8b3b 34de 973d 3e48 a6bc
00000230: fab0 703d 0aa0 3a3d ea87 16be 4082 48be
00000240: b5d8 9b3d b282 a0bd fa2b 973d e6a2 823d
00000250: c1ef b63c af4e 1b3d cafc 963c f3c4 84bb
00000260: 0cb9 8ebd 4202 573e 3ab6 563e 3642 d13b
00000270: 11b5 033e 4085 2cbd 5504 dc3d 5e7b 6ebe
00000280: 3dda 823d 97c5 6d3c 9f4f 49be 83e8 1b3d
00000290: fca2 cabb 980a 9c3d 7e11 84bd a90b 12be
000002a0: 9129 e63c 080e c0bd 19a8 41bd ed3e aabd
000002b0: e66f 773c 63e2 553d 7f91 d23d 2cae 633d
000002c0: 4f30 013d 07c3 fabd 12c8 603e 3d7f e53c
000002d0: 0097 13be dee5 1e3d 2b59 173c 7d2c 3cbd
000002e0: 42be 0cbd 37f6 853d b3be ecbd 6406 e73d
000002f0: ebdb 55bb 4d64 a63c 5949 853d ab10 3e3e
00000300: 1d26 2cbd 581d c83d 2df9 1a3d 624a d73d
00000310: 295a 08be 44f4 9e3d b166 99bd 17a7 02bd
00000320: fdff 19bc a34e bbbd 9a89 b53d 99e2 c23d
00000330: 7167 523c b806 a8bd 3022 01bd cc58 4fbe
00000340: 8105 27be 0ac6 db3b 30e5 c03d 049f 11be
00000350: 100b ec3d 17f8 143e 9456 2cbe b53a 0c3e
00000360: 1110 acbc ef68 1e3d a0cf 10be 1df2 eb3d
00000370: a705 11be 2312 45bd 1d58 d43d b66f d5bd
00000380: 942a dcbc 369c 333d 6e41 a23d b999 47bd
00000390: d38d 283d 2de7 adbd 825f 09bb 7093 eb3c
000003a0: bd49 97bd 0a68 133e 47d2 0f3b 7fb5 a53d
000003b0: 2cfe 213e f935 72bc ac9a f63d df45 bbbd
000003c0: 2fb8 233d 6de0 36be 2a0d b4bd e92f f5bd
000003d0: c09e 373e 1ee4 17bc 0f76 853c 3020 88bb
000003e0: 0874 dbbc 3b34 693c fe59 4bbd c152 03be
000003f0: a582 ccbd 598b 103b 4fee 9e3c 8200 643c

network_body._body_endoder.seq_layers.2.bias f4 [128]
0.0011840141 -0.0003427076 -0.0039584516 -0.0019360118 -0.0041426383 -0.00039885702 0.0011829858 -0.0033244973
-0.0069870534 0.0040525603 3.567623e-05 -0.0016003153 -0.0025569764 -0.0025686037 -0.0025776022 0.004215484
-0.007073867 0.006539607 -0.002414051 -0.0017405672 0.0067669447 -0.001665476 0.0013606544 0.0020108272
0.0010390386 0.00013282489 -0.002250091 0.0019154259 0.016458577 0.0036280602 -0.0016237005 -0.002286645
0.015253264 -0.0005615491 0.0018067687 0.02087579 -0.0048552398 0.0012448112 -0.001393422 -0.0023017959
-0.0012441531 0.0008745338 0.0115880845 -0.00027125474 0.00017173846 0.00954788 0.008138762 0.002947273
-0.001878648 -0.0042085918 -0.005680276 -0.00201299 -0.0012346486 9.076254e-06 -0.0022493869 0.0060771327
0.00047700395 -0.0011030168 -0.005795712 0.013656887 0.0012075884 7.6173834e-05 -0.007415817 -0.0036648125
0.0017502108 0.010673968 -0.004334481 0.0015522463 0.026428996 -0.0018946154 0.0009289505 -0.001010932
0.0117641 -0.0021363962 -0.00064417295 -0.005907087 -0.002358452 0.0004945479 -0.0026608445 0.006070374
0.0015395714 -0.0038471562 -0.00086919 -0.0034519765 0.00013930931 -0.0016652255 -0.00590317 0.00092269224
0.00066817 -0.0013867515 -0.001970733 0.011260163 -0.0026139913 -0.0017024424 0.006344442 0.0027388649
0.0008908171 0.010377812 -0.002613176 -0.011051399 0.011322367 0.003413734 -0.0018220111 -0.006451446
-0.0029823168 -0.002429833 -0.0011898467 0.0065949783 0.007359693 0.024909034 0.0012870618 0.015095645
0.01673448 0.016175963 -0.0025557897 0.0015032194 0.0027225409 0.0011202497 0.01403173 0.0032027774
0.0021347953 0.0015318263 -0.0020098598 -0.0019632457 0.0015204216 -0.00014728906 -0.0010392454 0.0012626925
00000000: ec30 9b3a 6fad b3b9 e6b5 81bb c7c1 fdba
00000010: f8be 87bb af1d d1b9 6b0e 9b3a cfdf 59bb
00000020: a7f3 e4bb 57cb 843b 0fa3 1538 acc1 d1ba
00000030: f292 27bb 0556 28bb fdec 28bb 0b22 8a3b
00000040: e6cb e7bb 334a d63b 0e35 1ebb be23 e4ba
00000050: 3fbd dd3b 1a4c daba fc57 b23a 15c8 033b
00000060: 5a30 883a e946 0b39 4376 13bb 070f fb3a
00000070: 23d4 863c c0c4 6d3b 59d2 d4ba 89db 15bb
00000080: d4e8 793c ec34 13ba 19d1 ec3a b403 ab3c
00000090: b418 9fbb ef28 a33a 7ca3 b6ba bad9 16bb
000000a0: da12 a3ba f840 653a f3db 3d3c 3237 8eb9
000000b0: b114 3439 b66e 1c3c 7158 053c 0927 413b
000000c0: f73c f6ba 3ae8 89bb 9c21 babb 5eec 03bb
000000d0: efd3 a1ba 3746 1837 736a 13bb af22 c73b
000000e0: 6316 fa39 1a93 90ba f5e9 bdbb 23c1 5f3c
000000f0: f147 9e3a 84bf 9f38 6200 f3bb 5a2d 70bb
00000100: 5467 e53a dee1 2e3c 4308 8ebb be74 cb3a
00000110: 9f81 d83c be54 f8ba d084 733a 4081 84ba
00000120: 36be 403c c802 0cbb b7dd 28ba 3d90 c1bb
00000130: 4290 1abb 8ca4 013a 9061 2ebb fde9 c63b
00000140: 72cb c93a 9220 7cbb 5ada 63ba 8e3a 62bb
00000150: 8f13 1239 b243 daba 616f c1bb d4e0 713a
00000160: 2128 2f3a a9c3 b5ba 6a27 01bb 8c7c 383c
00000170: 7f4f 2bbb 7d24 dfba 09e5 cf3b 877e 333b
00000180: b985 693a b307 2a3c d141 2bbb ed10 35bc
00000190: 7381 393c f4b8 5f3b 8cd0 eeba a766 d3bb
000001a0: f972 43bb d53d 1fbb a1f4 9bba b01a d83b
000001b0: 9429 f13b 080e cc3c a1b2 a83a b953 773c
000001c0: c016 893c 7483 843c 097f 27bb ac07 c53a
000001d0: a86c 323b 58d5 923a 57e5 653c b0e5 513b
000001e0: ece7 0b3b 90c7 c83a dab7 03bb cca9 00bb
000001f0: e248 c73a 9b71 1ab9 4a37 88ba ee80 a53a

network_body._body_endoder.seq_layers.2.weight f4 [128, 128]
0.043866035 -0.010266212 -0.07755694 -0.09622993 -0.03339433 -0.052725174 0.16912474 -0.077165745
0.13268524 0.11691787 -0.092958085 0.06434085 -0.17100255 0.0071977144 -0.06616445 -0.15732108
-0.030305678 -0.02113955 0.032912727 0.024278052 -0.1706682 0.01370733 -0.039758697 0.08438368
0.009797836 -0.012779542 -0.16201198 0.0094703 0.06596966 -0.051375646 0.11436363 -0.016881766
-0.034177348 -0.17478277 -0.0012180061 0.050880276 -0.0600074 -0.015008091 -0.02570575 0.012230002
-0.021219414 -0.077525355 -0.09811048 -0.12767665 0.12783132 -0.0029380429 -0.043631613 0.010988837
0.11703456 -0.124686874 -0.009932794 -0.002690099 -0.08745655 0.1314095 -0.025064925 -0.10239721
-0.14190073 0.09515892 0.0050754994 0.087853275 0.018019218 0.0147717595 -0.08183421 0.028825564
-0.15788017 -0.02423077 0.09372716 -0.019994782 0.041077673 -0.21804841 -0.064876296 -0.22718698
-0.08776872 -0.14942887 0.060511973 -0.07722202 -0.1632381 -0.029313847 -0.11506271 0.04974151
0.04016312 0.035231207 0.07130763 0.12853919 0.053188335 0.17473756 -0.03724846 -0.04073247
0.13249288 0.0010397132 0.079402626 -0.07752875 -0.089421116 -0.06539809 0.080388404 0.06548267
0.00558347 0.0922192 -0.15016732 0.26205167 -0.07846051 0.020947654 -0.06744331 0.075591475
-0.08123253 -0.018642249 0.10636881 0.10389028 0.05915223 -0.18502846 0.044737782 -0.06837075
0.0054797516 -0.044327423 0.07021757 0.045436606 0.007512948 -0.09107519 -0.1667795 0.044606034
-0.03919686 -0.03863585 -0.027276648 -0.049877524 0.03988649 -0.032066677 -0.07923726 0.09207438
0.081014514 -0.072886564 0.09168952 -0.077065825 0.020156965 -0.10819923 0.07615725 0.06666491
-0.0816569 0.06271112 0.04829904 -0.035327848 -0.008739538 0.03545073 0.08196371 -0.090836115
-0.07636647 -0.03783038 0.089846134 0.12864856 0.07476661 -0.07863659 -0.039597817 0.032989096
0.06293731 0.04652933 0.09401006 0.12734707 0.04013008 0.028840251 0.006460202 -0.053747006
-0.11401617 0.021680173 0.0673774 -0.001564726 -0.079883784 -0.03494701 0.02144471 -0.08751051
-0.043581665 -0.056509748 -0.016239919 -0.09416215 0.19176629 0.04191087 0.011480685 -0.013788684
-0.021245455 0.050305758 0.018171623 0.022131601 0.026413605 -0.020432208 -0.09501468 0.027922511
-0.036724795 -0.16238037 -0.08635329 -0.05128415 0.052541707 0.020596879 -0.020428812 -0.09906482
0.11062758 0.1284184 -0.05039048 0.09326712 0.017115317 -0.16779162 0.07064875 0.14442413
-0.03209572 -0.021589557 -0.06580004 -0.03449146 0.049985617 -0.06090038 -0.016281089 -0.027786141
0.0029040896 -0.115703285 -0.12086309 -0.031196536 0.042292975 0.06474017 0.012891534 -0.10981646
0.17980865 -0.050193366 0.04488463 0.045102544 -0.050421476 -0.053495016 -0.03408658 0.18705308
-0.10162475 -0.009752548 -0.23461919 -0.027955413 0.08688895 -0.1528098 0.017397916 -0.032148197
-0.01078244 -0.03512797 -0.08180094 0.17599949 -0.07001359 -0.19793609 0.002547776 -0.06253955
-0.021452375 0.044292215 -0.07539995 -0.077644035 0.01489191 -0.18232548 -0.07252197 0.010786087
-0.013946042 -0.06078299 -0.016181491 -0.04304797 -0.028609082 -0.10944184 -0.04152153 0.04241222
00000000: dfac 333d 9d33 28bc 2cd6 9ebd 3314 c5bd
00000010: 7ec8 08bd 5af6 57bd 092f 2d3e 1309 9ebd
00000020: a4de 073e a372 ef3d cf60 bebd 23c5 833d
00000030: 4b1b 2fbe ceda eb3b 3a81 87bd c718 21be
00000040: 9d43 f8bc d92c adbc 7fcf 063d c4e2 c63c
00000050: a5c3 2ebe b694 603c 04da 22bd 5ad1 ac3d
00000060: 1a87 203c 4961 51bc 78e6 25be 5129 1b3c
00000070: 1a1b 873d 456f 52bd 7b37 ea3d a14b 8abc
00000080: 8cfd 0bbd 41fa 32be 81a5 9fba d667 503d
00000090: 52ca 75bd 7fe4 75bc dd94 d2bc 5960 483c
000000a0: 56d4 adbc 9dc5 9ebd 26ee c8bd abbd 02be
000000b0: 37e6 023e 2e8c 40bb 10b7 32bd 860a 343c
000000c0: d1af ef3d d55b ffbd 28bd 22bc 5f4c 30bb
000000d0: 6b1c b3bd 3690 063e f554 cdbc a1b5 d1bd
000000e0: 6d4e 11be aee2 c23d 6050 a63b 6bec b33d
000000f0: 0a9d 933c 4005 723c b298 a7bd 9723 ec3c
00000100: 57ab 21be 9c7f c6bc 06f4 bf3d 19cc a3bc
00000110: 1041 283d 1548 5fbe dddd 84bd b4a3 68be
00000120: 16c0 b3bd e203 19be 67db 773d 9426 9ebd
00000130: e327 27be 9823 f0bc 00a6 ebbd c1bd 4b3d
00000140: 1582 243d 994e 103d bc09 923d c79f 033e
00000150: 03dc 593d 67ee 323e d791 18bd 17d7 26bd
00000160: 37ac 073e fc46 883a d89d a23d 65c7 9ebd
00000170: 6b22 b7bd 6fef 85bd ada2 a43d c71b 863d
00000180: 8bf5 b63b 6cdd bc3d 76c5 19be a32b 863e
00000190: e7af a0bd 6a9a ab3c b81f 8abd b4cf 9a3d
000001a0: 3e5d a6bd a1b7 98bc e4d7 d93d 6dc4 d43d
000001b0: 9c49 723d 1a78 3dbe f73e 373d f705 8cbd
000001c0: 7d8f b33b ac90 35bd 3bce 8f3d bc1b 3a3d
000001d0: 2d2f f63b a185 babd 3fc8 2abe d1b4 363d
000001e0: e38c 20bd a040 1ebd 4773 dfbc 604c 4cbd
000001f0: 0460 233d 5958 03bd 2547 a2bd 7e91 bc3d
00000200: f0ea a53d 8d45 95bd b7c7 bb3d b0d4 9dbd
00000210: 3820 a53c 8f97 ddbd 55f8 9b3d 9d87 883d
00000220: bc3b a7bd b06e 803d 37d5 453d efb3 10bd
00000230: 4730 0fbc c934 113d 97dc a73d 4908 babd
00000240: 0666 9cbd 07f4 1abd 4001 b83d 73bc 033e
00000250: 3d1f 993d 380c a1bd 5231 22bd 931f 073d
00000260: 47e5 803d 8a95 3e3d 5988 c03d 4567 023e
00000270: 705f 243d 6442 ec3c 1ab0 d33b d225 5cbd
00000280: 4f81 e9bd 9e9a b13c 2afd 893d 7e17 cdba
00000290: 1c9a a3bd 9924 0fbd d1ac af3c b638 b3bd
000002a0: b082 32bd c476 67bd 9409 85bc 16d8 c0bd
000002b0: 625e 443e bbaa 2b3d 7c19 3c3c efe9 61bc
000002c0: f30a aebc 690d 4e3d a8dc 943c 554d b53c
000002d0: 5861 d83c 7261 a7bc 0e97 c2bd c0bd e43c
000002e0: bd6c 16bd 0a47 26be fed9 b0bd 540f 52bd
000002f0: f935 573d c9ba a83c 535a a7bc 7fe2 cabd
00000300: b690 e23d 1d80 033e 3f66 4ebd d502 bf3d
00000310: 6c35 8c3c 91d1 2bbe 4bb0 903d ebe3 133e
00000320: cd76 03bd 95dc b0bc 2cc2 86bd eb46 0dbd
00000330: b8bd 4c3d ad72 79bd eb5f 85bc c39f e3bc
00000340: 8a52 3e3b d8f5 ecbd 1187 f7bd e18f ffbc
00000350: 663b 2d3d 7f96 843d 0337 533c 74e7 e0bd
00000360: c21f 383e 8f97 4dbd f2d8 373d 72bd 383d
00000370: c086 4ebd 971d 5bbd 5f9e 0bbd d88a 3f3e
00000380: a320 d0bd 27c9 1fbc 0340 70be c002 e5bc
00000390: d5f2 b13d 2c7a 1cbe 1386 8e3c d4ad 03bd
000003a0: d5a8 30bc 59e2 0fbd 4087 a7bd 3639 343e
000003b0: 4963 8fbd c2af 4abe 97f8 263b bc14 80bd
000003c0: e4bc afbc c16b 353d 4a6b 9abd d603 9fbd
000003d0: 33fd 733c 88b3 3abe 6686 94bd 21b8 303c
000003e0: f17d 64bc 96f7 78bd 0c8f 84bc 1153 30bd
000003f0: 985d eabc 0b23 e0bd 7b12 2abd 70b8 2d3d
