Unity Project/CSC 30014 Project/results/test/Car/Car-33529.pt (torch, 651359 bytes, 36 tensors)

network_body._body_endoder.seq_layers.0.weight f4 [128, 75]
-0.06611366 0.08947947 -0.18510175 0.08822468 -0.15417354 0.032956686 -0.033987183 0.11482675
0.041246522 -0.032834597 -0.07707822 -0.16431107 0.025596278 0.0023785334 0.024770139 0.051458504
0.09894064 -0.04939055 0.009353804 0.019628594 0.10699696 0.16276057 -0.02844677 0.014052884
-0.00048485698 0.15039697 -0.10502844 -0.07688431 0.027298728 -0.08324656 0.08418504 0.12190932
-0.119931474 -0.01596369 0.042177636 -0.10239074 0.017363451 -0.09200977 0.031321798 -0.09785679
-0.024041103 -0.118744 0.021933801 0.10700133 -0.0370639 0.16992657 0.26698756 -0.041553553
-0.047321845 0.09238594 -0.064037286 0.098401055 -0.074852064 0.05888684 -0.19035532 -0.015526926
0.1484287 -0.100610964 -0.10167124 -0.12504895 -0.07328044 -0.16626698 -0.18676233 0.14732978
0.055383645 0.07865208 0.0021508192 0.116904 -0.093315996 0.04083376 -0.07708197 -0.11902487
-0.03923745 0.11836645 -0.014384344 0.041332096 0.018527817 -0.034601305 0.11459944 0.017957002
0.0622654 -0.088894345 -0.035379235 0.056228343 0.060308393 -0.06499288 -0.047940258 -0.06817011
-0.09802845 -0.08327812 -0.12458871 -0.047565155 -0.03336496 -0.20929602 0.037954714 -0.020621752
0.021097576 -0.0083734915 0.019262696 0.03776979 -0.04649782 -0.17276679 -0.10475026 0.22386411
0.053942543 -0.042795442 0.014368256 -0.01340466 -0.07429776 -0.043636773 0.031848934 0.044020876
0.0071848244 0.05278729 -0.11966865 0.2004009 0.03238133 0.03054241 0.017688472 -0.17955372
-0.118877575 -0.062379416 0.12567678 -0.15420505 0.10747583 0.0078025875 0.010590157 0.22765037
0.02174361 0.06943364 0.07951823 -0.19599664 -0.008200921 0.010982374 -0.12461556 -0.13940607
-0.2142422 0.13593726 -0.014765352 -0.017872404 -0.0010004258 -0.16370173 0.03812436 -0.068247244
-0.081900634 0.049254507 0.092837356 0.06849353 0.07454298 0.076500736 0.20198016 0.032410532
0.101056114 0.12087566 -0.07465644 0.0018247961 -0.01926468 -0.06086182 -0.014117945 -0.11824784
-0.04592032 -0.08324636 -0.030641329 -0.068480864 -0.14921293 0.1513875 0.08133615 0.14349239
0.031809315 0.059960425 0.008810389 -0.11337285 -0.16400461 0.045989383 -0.07400382 0.040240172
-0.053873383 -0.06856256 0.011427345 -0.100683264 -0.12569834 -0.15189451 -0.13837041 0.028223744
-0.20844084 0.089385405 -0.108925104 -0.07052672 0.047983974 -0.12445589 -0.01290308 0.0725187
0.100545704 0.025887204 0.09545378 -0.016149472 -0.08449624 0.17741232 -0.085630335 0.09045486
-0.12502275 -0.05025857 0.1455905 -0.076111816 0.05511481 -0.25547668 0.09290679 0.07802773
-0.02837525 0.030056357 0.025204638 -0.010393298 -0.03080715 -0.01967278 -0.04970118 -0.02957159
-0.014579622 -0.022612086 0.11924009 -0.21570916 -0.059268516 0.00047155574 0.16745497 0.0950267
0.23636551 -0.14436744 -0.11472129 0.009279923 -0.047402598 -0.12805118 -0.1423156 -0.11448803
-0.20287645 0.031477127 0.042465363 -0.023882445 0.006530423 0.18860126 -0.14539737 0.08993627
-0.051809996 0.09081334 -0.009802256 -0.0552813 -0.08163175 0.083199725 -0.06500629 0.17933063
0.03935925 -0.05378564 -0.055002224 0.06668043 -0.005846403 -0.040608462 0.06464401 0.093199745
00000000: 9966 87bd 0341 b73d 508b 3dbe 24af b43d
00000010: abdf 1dbe 97fd 063d 2536 0bbd 492a eb3d
00000020: 1df2 283d 927d 06bd 30db 9dbd 2941 28be
00000030: 49af d13c 2be1 1b3b bfea ca3c 27c6 523d
00000040: 64a1 ca3d bf4d 4abd b340 193c 25cc a03c
00000050: 3921 db3d b5aa 263e 3309 e9bc 113e 663c
00000060: 6734 feb9 aa01 1a3e 2719 d7bd 8575 9dbd
00000070: 95a1 df3c 2c7d aabd 3569 ac3d 98ab f93d
00000080: a29e f5bd 49c6 82bc 75c2 2c3d 3cb2 d1bd
00000090: cc3d 8e3c 9e6f bcbd 494b 003d 2469 c8bd
000000a0: d9f1 c4bc 0e30 f3bd 84ae b33c 8323 db3d
000000b0: 51d0 17bd 3b01 2e3e 98b2 883e 0f34 2abd
000000c0: 8dd4 41bd d734 bd3d fb25 83bd 7e86 c93d
000000d0: 0a4c 99bd 5433 713d 81ec 42be a664 7ebc
000000e0: b1fd 173e 1f0d cebd 0339 d0bd d50c 00be
000000f0: 0e14 96bd e441 2abe a03e 3fbe 9edd 163e
00000100: f6d9 623d 5714 a13d c2f4 0c3b 5d6b ef3d
00000110: 751c bfbd 4d41 273d 27dd 9dbd 50c3 f3bd
00000120: 73b7 20bd 1c6a f23d 50ac 6bbc d84b 293d
00000130: a6c7 973c 19ba 0dbd 1cb3 ea3d 901a 933c
00000140: 010a 7f3d 3d0e b6bd d1e9 10bd b14f 663d
00000150: ef05 773d fd1a 85bd 015d 44bd c59c 8bbd
00000160: 24c3 c8bd b88d aabd 5e28 ffbd aed3 42bd
00000170: b2a9 08bd b251 56be 6776 1b3d f3ee a8bc
00000180: d3d4 ac3c f830 09bc cdcc 9d3c 7fb4 1a3d
00000190: 8074 3ebd c7e9 30be 4e87 d6bd a23c 653e
000001a0: dbf2 5c3d 464a 2fbd d568 6b3c 389f 5bbc
000001b0: 6d29 98bd 79bc 32bd 0774 023d 3c4f 343d
000001c0: ad6e eb3b 7c37 583d d614 f5bd e535 4d3e
000001d0: 49a2 043d 1434 fa3c 6ae7 903c eedc 37be
000001e0: 1676 f3bd 8f81 7fbd 6ab1 003e eee7 1dbe
000001f0: 4a1c dc3d d9ac ff3b 5682 2d3c 2e1d 693e
00000200: a81f b23c 3933 8e3d 74da a23d 58b3 48be
00000210: 285d 06bc 6aef 333c 7136 ffbd 77c0 0ebe
00000220: 4f62 5bbe 2333 0b3e 60ea 71bc 2669 92bc
00000230: b820 83ba 6da1 27be 4a28 1c3d 36c5 8bbd
00000240: 85bb a7bd 18bf 493d 8321 be3d 5646 8c3d
00000250: fda9 983d 6bac 9c3d e3d3 4e3e e8c0 043d
00000260: 82f6 ce3d a88d f73d 7ae5 98bd ff2d ef3a
00000270: f6d0 9dbc 3e4a 79bd f44e 67bc ec2b f2bd
00000280: f216 3cbd 117d aabd 8603 fbbc b23f 8cbd
00000290: 46cb 18be 5305 1b3e 9193 a63d abef 123e
000002a0: 7c4a 023d 1099 753d 7359 103c 0630 e8bd
000002b0: d3f0 27be 5d5f 3c3d 518f 97bd e1d2 243d
000002c0: 56aa 5cbd 876a 8cbd c239 3b3c 0733 cebd
000002d0: 11b7 00be 3c8a 1bbe f9b0 0dbe 7b35 e73c
000002e0: 8471 55be b20f b73d 2014 dfbd 5070 90bd
000002f0: d88a 443d bbe2 febd 7167 53bc af84 943d
00000300: e8ea cd3d 6711 d43c 457d c33d e64b 84bc
00000310: 5d0c adbd 93ab 353e f55e afbd 6640 b93d
00000320: f705 00be eedb 4dbd ad15 153e 83e0 9bbd
00000330: 11c0 613d d7cd 82be ea45 be3d 01cd 9f3d
00000340: 3673 e8bc c038 f63c f579 ce3c a748 2abc
00000350: 475f fcbc cf28 a1bc 7793 4bbd 1e40 f2bc
00000360: 5edf 6ebc fb3c b9bc 2634 f43d dde2 5cbe
00000370: 8bc3 72bd 243b f739 5179 2b3e 5c9d c23d
00000380: cd09 723e 0fd5 13be fff2 eabd d10a 183c
00000390: 3a29 42bd d91f 03be 2ebb 11be b378 eabd
000003a0: d8be 4fbe 29ee 003d 29f0 2d3d 1ea5 c3bc
000003b0: 29fd d53b b020 413e 0ce3 14be 8230 b83d
000003c0: b836 54bd 58fc b93d a499 20bc a56e 62bd
000003d0: 8c2e a7bd 9e64 aa3d 0522 85bd 73a2 373e
000003e0: 2a37 213d 554e 5cbd 034a 61bd c08f 883d
000003f0: 2f93 bfbb 0f55 26bd 1464 843d 82df be3d

network_body._body_endoder.seq_layers.0.bias f4 [128]
0.00019987037 -0.0014009089 -2.8508075e-06 0.00050716207 -0.00073472556 -0.00051705097 0.00079632807 -0.0018043033
-0.00011091753 -0.0026421808 -0.0017926603 0.00035715007 0.0025735586 -0.0010350515 -2.9533567e-05 3.0259087e-05
-0.00016035639 0.0016905896 0.0017212674 0.00021599002 -0.00023799745 0.0010010448 -0.00076012034 -0.00079292234
0.0029637977 0.0009775863 -0.00206666 -0.0004463589 -0.0010708364 -0.0010408077 0.0014895434 -0.00045909523
0.0021530623 -0.0007359915 -0.00031665235 -0.00041215814 4.9425613e-05 -0.0025762178 -0.0006549975 0.00017113349
-0.0015373074 0.00044960322 -0.0007903831 -0.0005543076 -0.00037474773 -0.00027111266 -0.0007070563 -0.00018562353
-0.00486418 0.00068045466 0.0007534342 0.0033764595 0.003127618 -0.0032042596 -0.0006317545 0.0007362525
-0.00044661917 0.00046637608 -0.0003297959 -0.001442966 0.00018190162 -0.00017850913 -0.001215568 -0.00097058376
0.0016089355 -0.0004721633 0.0005560733 -0.00074156205 0.00010406491 -0.0006533127 -0.00046033578 0.0002839934
0.0031714737 0.0017214995 0.00054762425 -0.00045551415 -0.0026601423 -0.0003633673 -0.00017596378 -0.0004060554
2.1322365e-05 -0.0035238725 -0.0018862219 7.9132355e-05 -0.00049423735 -0.00041262613 0.0005428718 2.1490254e-05
-0.0006978783 0.002327384 0.00043761265 0.0024600755 0.00018065082 0.0028988176 -0.00016792788 0.000591087
1.8171113e-05 -0.000101008176 -0.0009736791 -6.500409e-05 0.0021245242 -0.0016010161 -0.0012159238 0.00011294429
0.000628921 -0.0030230128 0.000450636 0.0033365556 0.0010259403 0.0012902962 -0.0008622736 -0.00018289841
0.00036073237 0.0027370628 0.0022608347 0.0011827562 -0.00046778857 0.0014748912 0.00015312633 0.00023605111
-0.0010218781 -0.0016999759 -0.0003193338 0.00013604912 -4.9466158e-05 0.0018977358 0.00036845356 -0.0005498336
00000000: 4b94 5139 b49e b7ba 8050 3fb6 12f3 043a
00000010: 999a 40ba b48a 07ba acc0 503a 5f7e ecba
00000020: 659c e8b8 7028 2dbb b3f7 eaba df3f bb39
00000030: 26a9 283b 91aa 87ba dabe f7b7 e5d4 fd37
00000040: 5725 28b9 c696 dd3a 269c e13a 617b 6239
00000050: f48e 79b9 7d35 833a d042 47ba 1edc 4fba
00000060: 463c 423b 5a22 803a cd70 07bb 4705 eab9
00000070: 4f5b 8cba b66b 88ba c83c c33a b8b2 f0b9
00000080: 641a 0d3b 8eef 40ba 5c04 a6b9 ee16 d8b9
00000090: 594e 4f38 c3d5 28bb 23b4 2bba 4c72 3339
000000a0: 7a7f c9ba b9b8 eb39 b631 4fba f44e 11ba
000000b0: ca79 c4b9 2024 8eb9 bf59 39ba f0a3 42b9
000000c0: b363 9fbb 8a60 323a 1d82 453a 9747 5d3b
000000d0: b9f8 4c3b 8efe 51bb 549c 25ba 1201 413a
000000e0: 3628 eab9 f083 f439 75e8 acb9 e821 bdba
000000f0: d8bc 3e39 2e2e 3bb9 b253 9fba c66e 7eba
00000100: ebe2 d23a af8c f7b9 73c5 113a 6365 42ba
00000110: 6c3d da38 1343 2bba 3959 f1b9 f3e4 9439
00000120: 80d8 4f3b f0a3 e13a 718e 0f3a 13d2 eeb9
00000130: c855 2ebb 5582 beb9 eb82 38b9 d5e3 d4b9
00000140: 6edd b237 c5f0 66bb 1b3b f7ba dcf3 a538
00000150: b58f 01ba be55 d8b9 834f 0e3a f845 b437
00000160: d2f1 36ba 0687 183b 606f e539 3839 213b
00000170: 166d 3d39 17fa 3d3b cc15 30b9 2df3 1a3a
00000180: 2b6e 9837 5ad4 d3b8 803e 7fba ce52 88b8
00000190: 9a3b 0b3b 30d9 d1ba a25f 9fba 81dc ec38
000001a0: 2dde 243a bd1d 46bb 5743 ec39 1daa 5a3b
000001b0: d878 863a 281f a93a 340a 62ba 6bc8 3fb9
000001c0: ae20 bd39 4b60 333b 832a 143b b606 9b3a
000001d0: 8541 f5b9 2351 c13a 8990 2039 7d84 7739
000001e0: 8af0 85ba bad1 deba 426c a7b9 68a8 0e39
000001f0: e279 4fb8 72bd f83a 002d c139 b522 10ba

network_body._body_endoder.seq_layers.2.weight f4 [128, 128]
-0.11684458 -0.033739578 0.058407232 -0.091608934 -0.0033343036 0.17750649 0.010896679 0.11476169
-0.034551397 0.01171779 -0.031875428 0.11364927 0.2559991 0.17312089 0.03464527 -0.16124408
0.19143845 0.1395782 0.0343062 -0.08140552 0.10623854 0.032046 -0.007343791 0.0022553494
0.100330725 0.04945542 0.03153042 0.09665801 0.02759704 -0.05258198 0.1287077 -0.00876088
-0.10101039 -0.003687889 0.055479452 0.010282659 0.055325393 -0.040637482 -0.1484497 -0.1469555
-0.017408213 -0.18705383 0.08505946 0.1646273 -0.08047218 0.08323669 0.14343974 -0.03113592
-0.069634534 0.029000832 -0.23378085 -0.06047807 -0.09629598 -0.13216476 -0.008434788 -0.12925652
-0.051198203 0.05942507 -0.016937872 0.14359967 0.040944565 0.025618583 0.02116788 -0.060929593
0.14590174 0.11372863 0.069908045 0.0035398977 -0.025443237 -0.11351485 -0.16347189 0.006250351
0.055330843 0.097527616 -0.08087003 0.07049768 -0.06373311 -0.09831033 0.25158134 -0.0819336
-0.14716901 0.010217067 0.0029498674 0.12380767 0.08034242 0.020904424 -0.038516406 0.035797182
-0.041471254 0.07858694 -0.06315417 0.034164187 -0.022709673 0.049615484 0.011315475 -0.14069884
0.11190064 -0.008056576 -0.06764623 -0.00191121 0.12023392 -0.04693837 0.011079591 -0.020274201
-0.0228361 -0.060958747 -0.029970268 -0.050640374 0.05290652 -0.030782714 0.058728393 -0.12576082
-0.17201412 -0.053332992 -0.16863008 -0.004697703 0.049015116 -0.052579116 -0.102756836 -0.074129984
-0.028780973 -0.26790103 0.061634146 0.19544539 -0.011842261 0.05231429 -0.047164273 -0.007850337
-0.07133366 0.032288227 -0.10821176 0.16568403 -0.09124838 0.043755755 -0.13140567 -0.20539822
-0.09970206 -0.093812995 -0.1296402 -0.033287108 0.14484103 0.049289882 0.056076378 -0.13488634
0.15720089 -0.09468209 0.03520106 0.0039023373 -0.092958435 0.073647454 -0.012026777 0.12380384
-0.018879786 -0.012890991 -0.04779912 0.088123105 0.025769 -0.09773219 0.018447587 -0.059452206
-0.050896987 0.04429145 0.020111138 0.027218048 -0.09402469 0.00092077896 0.05075882 -0.047708467
-0.049847 -0.102439046 -0.1578013 -0.15246387 -0.06934093 -0.18296474 0.04923861 -0.064087346
0.106005795 -0.034886565 0.055576522 -0.042423483 -0.0573104 -0.17669232 0.057409547 0.06725851
-0.031354986 -0.07483944 0.006888589 -0.21169357 0.13536729 -0.11786892 -0.114417434 0.13292606
-0.14836699 -0.03669486 -0.14382051 -0.046360712 -0.09996781 -0.09440503 0.068662904 0.0840519
-0.0999097 0.10346157 -0.045593966 -0.02164867 0.010276424 0.0061707497 0.032933254 -0.09988939
0.124440715 0.010259842 0.009573458 0.06396687 0.052941408 0.13098001 0.076320514 -0.0437519
0.06346266 -0.12680346 -0.10872388 -0.036616877 0.18164358 -0.058910016 -0.10711804 0.04862566
-0.06351766 -0.14653946 -0.10311263 -0.07240186 -0.06809317 0.051403414 -0.15921743 -0.15292093
-0.19510216 -0.030586567 -0.13724999 0.25562206 0.027478378 0.07545002 -0.24922207 0.049293388
0.07946859 -0.09498943 0.08355491 -0.013770178 -0.015432432 0.04944615 0.12563331 -0.11298943
0.013675472 -0.018701458 -0.010765154 0.033243407 0.10099717 0.049266312 0.04473482 0.15508868
00000000: 364c efbd 8332 0abd 6c3c 6f3d 779d bbbd
00000010: 5584 5abb 43c4 353e fc87 323c 2d08 eb3d
00000020: c485 0dbd f9fb 3f3c cf8f 02bd f3c0 e83d
00000030: 5012 833e 9a46 313e 33e8 0d3d 2b1d 25be
00000040: 7108 443e 96ed 0e3e a884 0c3d f0b7 a6bd
00000050: 9793 d93d ab42 033d 2fa4 f0bb 7cce 133b
00000060: 327a cd3d c491 4a3d 0b26 013d a2f4 c53d
00000070: 3013 e23c 3460 57bd f4cb 033e cb89 0fbc
00000080: 89de cebd 83b0 71bb 6c3e 633d 9978 283c
00000090: e19c 623d 7d73 26bd 3303 18be 817b 16be
000000a0: ab9b 8ebc 0a8b 3fbe a733 ae3d 0f94 283e
000000b0: 99ce a4bd ff77 aa3d dee1 123e c210 ffbc
000000c0: 8d9c 8ebd 2793 ed3c 3f64 6fbe dab7 77bd
000000d0: d436 c5bd 3356 07be 1132 0abc d25b 04be
000000e0: 35b5 51bd b467 733d 4bc1 8abc cb0b 133e
000000f0: 7db5 273d 10de d13c 4368 ad3c 4f91 79bd
00000100: 4467 153e 8eea e83d f32b 8f3d a1fd 673b
00000110: 566e d0bc 797a e8bd 2d65 27be bfcf cc3b
00000120: 98a2 623d 8fbc c73d 309f a5bd 1661 903d
00000130: 8186 82bd ed56 c9bd 45cf 803e cecc a7bd
00000140: 79b3 16be 7c65 273c 9052 413b e08e fd3d
00000150: 918a a43d c13f ab3c 61c3 1dbd 11a0 123d
00000160: c3dd 29bd 31f2 a03d f956 81bd bfef 0b3d
00000170: a309 babc 9b39 4b3d 8b64 393c 5b13 10be
00000180: 2a2c e53d bbff 03bc 1b8a 8abd 9181 faba
00000190: 343d f63d 7342 40bd 2c87 353c 1516 a6bc
000001a0: c612 bbbc e1af 79bd 3584 f5bc 486c 4fbd
000001b0: 82b4 583d 082c fcbc 2f8d 703d 72c7 00be
000001c0: 7824 30be b273 5abd 5dad 2cbe 30ef 99bb
000001d0: 13c4 483d 335d 57bd 2d72 d2bd 76d1 97bd
000001e0: 13c6 ebbc 532a 89be 1674 7c3d d622 483e
000001f0: 0b06 42bc 8247 563d 532f 41bd b39e 00bc
00000200: 6217 92bd a940 043d 219e ddbd 13a9 293e
00000210: 6ee0 babd 3c39 333d 358f 06be e953 52be
00000220: 9830 ccbd 0721 c0bd 67c0 04be 1058 08bd
00000230: 3551 143e 30e4 493d 58b0 653d a51f 0abe
00000240: 45f9 203e afe8 c1bd fd2e 103d 5bbe 7f3b
00000250: fe60 bebd 7ad4 963d f50b 45bc de8c fd3d
00000260: c8a9 9abc bc34 53bc 03c9 43bd e379 b43d
00000270: 8319 d33c d027 c8bd 651f 973c 2884 73bd
00000280: 5c79 50bd f46a 353d 1dc0 a43c 62f8 de3c
00000290: 0490 c0bd 6e60 713a 7be8 4f3d f469 43bd
000002a0: 5e2c 4cbd 90cb d1bd aa96 21be 7d1f 1cbe
000002b0: 9e02 8ebd 1c5b 3bbe 6dae 493d 3a40 83bd
000002c0: 9119 d93d 37e5 0ebd 35a4 633d 3fc4 2dbd
000002d0: 4fbe 6abd d5ee 34be 4626 6b3d d4be 893d
000002e0: 166e 00bd 6c45 99bd acb9 e13b 33c6 58be
000002f0: b99d 0a3e 4365 f1bd b053 eabd c51d 083e
00000300: 84ed 17be 594d 16bd af45 13be bbe4 3dbd
00000310: ecbb ccbd 6d57 c1bd 239f 8c3d 6723 ac3d
00000320: 759d ccbd a9e3 d33d bdc0 3abd 8d58 b1bc
00000330: 725e 283c 0034 ca3b 05e5 063d cf92 ccbd
00000340: c6da fe3d e518 283c fed9 1c3c 1001 833d
00000350: 17d9 583d a01f 063e ee4d 9c3d 3135 33bd
00000360: b6f8 813d c4d8 01be a0aa debd 94fb 15bd
00000370: c600 3a3e a14b 71bd b460 dbbd b32b 473d
00000380: 8c15 82bd 710e 16be b72c d3bd 6d47 94bd
00000390: 6f74 8bbd 638c 523d e509 23be 4e97 1cbe
000003a0: dcc8 47be ae90 fabc 438b 0cbe e5e0 823e
000003b0: 561a e13c 8a85 9a3d 1234 7fbe dde7 493d
000003c0: 6ec0 a23d d189 c2bd d61e ab3d 509c 61bc
000003d0: 50d8 7cbc 0c88 4a3d 05a6 003e 0167 e7bd
000003e0: 160f 603c cd33 99bc 5460 30bc 3d2a 083d
000003f0: 9bd7 ce3d 79cb 493d dc3b 373d 91cf 1e3e

network_body._body_endoder.seq_layers.2.bias f4 [128]
-0.0005486039 -0.0004910868 -0.0012385135 -0.0006420854 -0.0016090933 -0.00047376682 -0.0014681196 -0.0016791621
1.8761477e-05 0.0010539462 -0.0018881838 -0.00029060748 0.00064497127 -0.00045870253 -0.00042882797 -0.0059748283
-0.0010487518 -0.0026951313 -0.00046922846 -0.0026150052 0.003693248 -0.00047917772 -0.00014921193 0.00031358827
0.00022230302 0.0001721554 0.00015743307 0.00026636172 0.00012204152 -0.00088344055 0.0010183841 -0.00036943957
-0.0026897804 -0.000109923596 0.0003045495 -0.00025668702 -0.00011237693 -2.592806e-05 0.00038928745 -0.00016701838
-7.2144096e-05 -0.0024011894 -0.0007045176 -0.00031363242 -0.0019949917 -0.0004424957 -0.00019180028 0.0018102485
-0.00063933997 -0.0007376775 0.0020715843 -0.002689765 -0.00060721417 -0.0011038715 -0.0012164185 0.0009581668
-0.00052132737 -0.00066110515 -0.0040328735 0.00014907343 0.00034774782 -0.00060346257 0.00014125694 -0.0019712695
0.0009703832 0.00029899576 -0.00011038939 -3.770241e-05 0.00017859516 0.0016693773 0.0009356343 -0.0016605374
-0.0015895818 -0.0010100829 -0.0009389676 -0.00089328754 0.0012641597 -0.0014592519 -0.002098961 -0.0008071864
-2.1132031e-05 0.0013614497 -0.002732232 -0.00052565173 -0.0004039739 -0.00045453646 -0.0022981225 -0.0026830556
-0.0015588969 0.0003097009 0.0003893785 0.00037043873 -0.00018175802 -0.00048879255 -0.0030304159 0.00010203992
-0.00031618282 0.0022344007 -0.00039580453 -0.00058053853 0.00039687208 -0.0028360884 0.00039227377 -0.0005127814
-0.0024104665 -0.0005351491 -0.0001594327 -0.0021542956 0.00021686811 -0.00032591453 -0.0005139453 -0.00039149178
0.00010897766 -0.0019298467 0.000220123 -0.0004729122 -0.0021462725 0.00048059906 -0.0011094128 0.0003060023
0.00013848663 -0.0005255208 -0.00046924458 -0.0026124571 0.00014587671 -0.002535243 -0.0006898282 0.00015940021
00000000: 2fd0 0fba 47bc 00ba 9e55 a2ba 9f51 28ba
00000010: 36e8 d2ba e863 f8b9 eb6d c0ba 5517 dcba
00000020: f761 9d37 9124 8a3a ef7c f7ba ad5c 98b9
00000030: 4a13 293a 037e f0b9 51d4 e0b9 7ec8 c3bb
00000040: 4576 89ba cda0 30bb c702 f6b9 8260 2bbb
00000050: 6b0a 723b 253a fbb9 c675 1cb9 1b69 a439
00000060: 031a 6939 9d84 3439 9e14 2539 77a6 8b39
00000070: 8bf0 ff38 b196 67ba 4d7b 853a 57b1 c1b9
00000080: 0747 30bb c886 e6b8 f1ab 9f39 f393 86b9
00000090: e8ab ebb8 1680 d9b7 4719 cc39 a821 2fb9
000000a0: 114c 97b8 465d 1dbb 60af 38ba 086f a4b9
000000b0: 68be 02bb c4fe e7b9 ff1d 49b9 dc45 ed3a
000000c0: 6199 27ba b360 41ba 6bc3 073b c546 30bb
000000d0: 742d 1fba c8af 90ba 3b70 9fba 7c2d 7b3a
000000e0: b0a9 08ba 044e 2dba 3226 84bb 9850 1c39
000000f0: ec51 b639 b031 1eba 5f1e 1439 6a30 01bb
00000100: 5061 7e3a 88c2 9c39 da80 e7b8 a822 1eb8
00000110: 4645 3b39 02cf da3a 5b45 753a 64a6 d9ba
00000120: 8459 d0ba c264 84ba 0d25 76ba 832b 6aba
00000130: 29b2 a53a 5e44 bfba b98e 09bb 5d99 53ba
00000140: b144 b1b7 ac72 b23a 3f0f 33bb e4cb 09ba
00000150: 76cc d3b9 da4e eeb9 199c 16bb 34d6 2fbb
00000160: e653 ccba 5a5f a239 7f25 cc39 7237 c239
00000170: 4c96 3eb9 5022 00ba f199 46bb 44fe d538
00000180: 57c5 a5b9 066f 123b fc83 cfb9 482f 18ba
00000190: 4513 d039 abdd 39bb 18aa cd39 2d6c 06ba
000001a0: ebf8 1dbb 4049 0cba 642d 27b9 152f 0dbb
000001b0: 1767 6339 82df aab9 49ba 06ba 2341 cdb9
000001c0: f08a e438 e9f2 fcba d1d0 6639 33f1 f7b9
000001d0: 7aa8 0cbb eaf8 fb39 b769 91ba ef6e a039
000001e0: b936 1139 1bc3 09ba f104 f6b9 c235 2bbb
000001f0: 7bf6 1839 5226 26bb 96d5 34ba ab24 2739

action_model._continuous_distribution.log_sigma f4 [1, 2]
-0.0081693055 -0.003488001
00000000: 8dd8 05bc f296 64bb

action_model._continuous_distribution.mu.weight f4 [2, 128]
0.025565566 -0.0041550603 0.01379915 0.001478596 -0.01737618 -0.025152951 0.005444826 0.014806862
-0.0041239215 0.009562655 -0.00014465298 -0.011835048 -0.0013564092 0.006687408 -0.0010395951 0.0005244412
-0.016001895 0.009268655 0.007410904 0.0008718393 0.0030211483 -0.029161304 0.004811511 -0.010608996
0.015084145 0.003447828 0.03079002 -0.009473782 0.021563249 0.0114531685 0.026257616 -0.00383923
-0.0053170947 0.028792791 -0.008379555 -0.03620157 0.0050249198 -0.04896831 -0.015444609 -0.015344133
0.005573965 0.0026753906 0.0013726212 0.020264097 -0.015344503 0.040062368 0.0067191264 0.016321365
0.0046716034 0.0066589327 0.03594555 -0.0019054895 -0.0055385833 -0.010516371 -0.025566148 -0.016227994
0.014940658 0.009790847 0.010957846 0.029983843 -0.017544532 0.019742137 0.009708801 -0.021942072
-0.022436272 -0.0063126753 -0.011952981 -0.011915727 0.007477428 -0.0066713444 0.01886417 -0.0016619134
-3.3360746e-05 0.0125693185 -0.038009133 -0.016567184 0.014029002 -0.0074708243 -0.007711677 -0.0046170983
-0.0016762551 0.020095024 -0.0017465611 0.03532593 -0.01049776 0.029698022 0.0011630923 -0.041625068
-0.011945778 -0.022393448 -0.034964483 -0.025784612 -0.025870278 0.0009651011 -0.00020194415 0.020102603
-0.00764338 0.008922082 -0.029498266 -0.0034057924 -0.010087482 -0.000754382 -0.027523465 0.032207396
0.0010862536 0.025168937 -0.024535779 0.0066271 0.051367577 -0.006103622 0.041365176 0.008104071
0.01834244 0.003012546 0.018962495 -0.0036259422 0.0033336093 0.01480859 0.050119735 -0.0029469258
0.02217539 0.033396225 -0.008892343 -0.0053624776 -0.005886205 0.0019758479 -0.009330262 -0.0036592432
0.016633192 0.0042169555 4.265199e-05 0.007597654 0.013166121 0.0065200906 0.0005972286 0.0004596748
-0.029990984 0.008442879 0.038938478 0.04510497 -0.018835163 0.0074480255 0.022013221 0.0003025446
-0.0007254651 -0.018111972 0.026291782 -0.0037466877 -0.019270543 0.010757921 -0.019369738 -0.02952805
-0.031553127 -0.02208109 -0.0018130526 -0.0075471955 -0.007987472 0.012432369 0.008039128 0.023777345
-0.008218149 -0.004260866 -0.016757691 -0.0014318699 -0.00090095337 -0.00763117 -0.011502486 -0.012591089
-0.012977135 0.018190663 0.005624121 0.004615702 -0.023409814 0.0062582036 -0.00016291524 0.029366048
0.007624263 0.0016657298 -0.04715834 -0.012979679 0.0060188295 0.0049465545 -0.00019173382 -0.008244882
0.014065292 0.0059943665 -0.0085358275 -0.0013230373 -0.006871864 0.0056287046 -0.023648316 -0.022924617
0.033009566 -0.017601369 0.014746226 -0.008349574 -0.018173417 0.015278206 0.01863655 -0.0013856867
0.017667914 -0.00873755 -0.009839285 0.0034666162 -0.023052093 0.01812526 -0.006943084 0.034222014
-0.0034228093 0.0062652584 -0.028003057 0.015993211 -0.007788275 -0.013408861 0.002310274 0.012300799
0.017430691 0.017754843 -0.015295092 -0.008029419 -0.0032502953 0.016341757 -0.003212888 -0.037039395
0.022700517 0.027778685 0.0053536524 0.0047218376 -0.027759738 -0.016755361 -0.019679043 0.0068390802
-0.013224504 0.018073853 0.01576436 -0.0020898387 -0.0113973785 -0.00081129174 0.022192838 0.0056470907
-0.015980717 -0.0057802773 -0.026109561 0.008390217 -0.0070914766 0.01522503 -0.003669232 -0.022904506
0.017889617 0.019746229 0.0029362836 -0.032239486 -0.0038838675 -0.011237559 0.003490498 -0.008436852
00000000: e16e d13c 2c27 88bb d415 623c 73cd c13a
00000010: 7e58 8ebc 900d cebc 836a b23b 7b98 723c
00000020: f621 87bb afac 1c3c fdad 17b9 cae7 41bc
00000030: 8ac9 b1ba 0b22 db3b 0643 88ba a77a 093a
00000040: 6816 83bc 8fdb 173c 2bd7 f23b 258c 643a
00000050: 75fe 453b b0e3 eebc e1a9 9d3b 5bd1 2dbc
00000060: 7d23 773c f5f4 613b 5a3b fc3c ec37 1bbc
00000070: 69a5 b03c 12a6 3b3c 361a d73c 979b 7bbb
00000080: 063b aebb dcde eb3c 674a 09bc 1948 14bd
00000090: 15a8 a43b ff92 48bd 630b 7dbc f565 7bbc
000000a0: cfa5 b63b 9b55 2f3b 86e9 b33a e400 a63c
000000b0: 8367 7bbc 7018 243d 1e2c dc3b 62b4 853c
000000c0: 4014 993b 2d33 da3b a43b 133d 9ec1 f9ba
000000d0: 017d b5bb db4c 2cbc 1970 d1bc 92f0 84bc
000000e0: a9c9 743c ca69 203c 8a88 333c ada0 f53c
000000f0: 8db9 8fbc 43ba a13c aa11 1f3c dcbf b3bc
00000100: 46cc b7bc 8fda cebb 70d6 43bc 2e3a 43bc
00000110: 3605 f53b 4b9b dabb 0889 9a3c 8fd4 d9ba
00000120: d4ec 0bb8 8bef 4d3c 77af 1bbd e7b7 87bc
00000130: e6d9 653c d1cd f4bb 3cb2 fcbb 074b 97bb
00000140: cab5 dbba 529e a43c deec e4ba ecb1 103d
00000150: ccfe 2bbc 4449 f33c e772 983a 0c7f 2abd
00000160: 39b8 43bc 7772 b7bc eb36 0fbd 403a d3bc
00000170: e8ed d3bc d7fe 7c3a f8c0 53b9 37ae a43c
00000180: 5275 fabb ed2d 123c 59a6 f1bc b733 5fbb
00000190: f745 25bc b8c1 45ba e478 e1bc e7eb 033d
000001a0: 9f60 8e3a 162f ce3c 42ff c8bc 2528 d93b
000001b0: cf66 523d e400 c8bb 886e 293d f0c6 043c
000001c0: e242 963c 236e 453b 3c57 9b3c 37a1 6dbb
000001d0: af78 5a3b ba9f 723c 5a4a 4d3d 3621 41bb
000001e0: 2aa9 b53c 7bca 083d 31b1 11bc b9b7 afbb
000001f0: 11e1 c0bb 3a7d 013b f5dd 18bc eacf 6fbb
00000200: 5542 883c 632e 8a3b 3ae5 3238 bef5 f83b
00000210: b7b6 573c 7ca6 d53b 558f 1c3a 8200 f139
00000220: a7af f5bc 0054 0a3c f47d 1f3d fdbf 383d
00000230: 334c 9abc 910e f43b 1255 b43c d99e 9e39
00000240: 242d 3eba 8f5f 94bc dd61 d73c fd8a 75bb
00000250: 42dd 9dbc fe41 303c 49ad 9ebc cfe4 f1bc
00000260: da3d 01bd 67e3 b4bc f3a3 edba 774e f7bb
00000270: e3dd 02bc 23b1 4b3c 8cb6 033c b5c8 c23c
00000280: 6aa5 06bc bc9e 8bbb 6d47 89bc 95ad bbba
00000290: f52d 6cba e50e fabb ec74 3cbc db4a 4ebc
000002a0: 0d9e 54bc 9604 953c 8c4a b83b 513f 973b
000002b0: f0c5 bfbc 9e11 cd3b 3ad4 2ab9 1191 f03c
000002c0: f4d4 f93b 9e54 da3a 1b29 41bd b8a8 54bc
000002d0: 9a39 c53b b516 a23b 280c 49b9 8b15 07bc
000002e0: 1c72 663c 646c c43b dbd9 0bbc c469 adba
000002f0: 602d e1bb ff70 b83b 1dba c1bc 68cc bbbc
00000300: 0a35 073d bf30 90bc 289a 713c a7cc 08bc
00000310: 6be0 94bc 7151 7a3c aeab 983c ee9f b5ba
00000320: 4dbc 903c f127 0fbc f434 21bc 2b30 633b
00000330: bed7 bcbc 6d7b 943c cf82 e3bb 622c 0c3d
00000340: 3651 60bb cc4c cd3b ab66 e5bc 3204 833c
00000350: c934 ffbb d7b0 5bbc f767 173b 4a89 493c
00000360: cfca 8e3c 9b72 913c 4498 7abc d38d 03bc
00000370: e802 55bb 26df 853c 518f 52bb 9fb6 17bd
00000380: 6ff6 b93c 2090 e33c b16d af3b a5b9 9a3b
00000390: 6468 e3bc 8a42 89bc f235 a1bc 5d1a e03b
000003a0: 97ab 58bc 9e0f 943c 4224 813c adf5 08bb
000003b0: 12bc 3abc deac 54ba c1cd b53c 3b0b b93b
000003c0: fee9 82bc 7b68 bdbb b8e3 d5bc 1f77 093c
000003d0: 9e5f e8bb 6772 793c 7f77 70bb 3ba2 bbbc
000003e0: 3f8d 923c d8c2 a13c aa6e 403b 8d0d 04bd
000003f0: 7c88 7ebb bd1d 38bc d7c0 643b b93a 0abc

action_model._continuous_distribution.mu.bias f4 [2]
0.00022763509 -0.00032023122
00000000: 54b1 6e39 b5e4 a7b9

exp_avg f4 [128, 75]
0.0 -6.003431e-06 0.0 -7.97365e-06 0.0 -7.1780496e-06 0.0 -9.792641e-06
0.0 -8.034295e-06 0.0 -1.585513e-05 0.0 -8.775221e-06 0.0 -1.6932141e-05
0.0 -6.955363e-06 0.0 -1.841355e-05 0.0 -7.456759e-06 0.0 -1.7289603e-05
0.0 -1.0196314e-05 0.0 -9.6946305e-06 0.0 -2.1241218e-05 0.0 -6.319924e-05
0.0 -6.319924e-05 -0.00016658218 -7.190048e-05 -0.007341795 1.2389504e-08 4.53244e-06 1.9626562e-08
-0.00012282141 1.8632455e-06 -5.393203e-06 -7.845862e-06 1.0712994e-06 -3.2634054e-07 2.1990081e-06 -0.0010804036
-0.00024570074 -0.0075798086 0.0 -7.7455545e-05 0.0 -9.098531e-05 -0.0021887142 -0.00024570074
-0.007700001 0.0 -0.00011122867 0.0 -5.3444674e-05 -0.0024635019 -0.00024570074 -0.006492911
0.0 -0.00012564893 0.0 -6.336853e-06 -0.002647002 -0.00024570074 -0.0053212927 0.0
-0.00012917852 0.0 1.3712548e-06 0.0 4.989306e-08 0.0 6.336685e-08 0.0
6.5641686e-08 0.0 5.625388e-08 0.0 5.4803706e-08 0.0 8.5187246e-08 0.0
4.931396e-08 0.0 1.440673e-07 0.0 6.648491e-08 0.0 1.6207353e-07 0.0
7.3862466e-08 0.0 2.8019787e-07 0.0 9.550957e-08 0.0 1.3403003e-07 0.0
1.7782423e-07 0.0 4.5812155e-07 0.0 4.5812155e-07 2.4227184e-06 6.948903e-07 7.271301e-05
-3.0773162e-10 1.9523192e-08 2.0046562e-11 1.1872293e-06 2.9784049e-08 -1.7355863e-08 2.388842e-07 1.8224517e-08
1.7704421e-08 1.0650077e-08 8.920405e-06 2.378531e-06 7.0323615e-05 0.0 6.5415543e-07 0.0
9.232551e-07 1.845391e-05 2.378531e-06 7.268278e-05 0.0 9.147078e-07 0.0 6.11118e-07
2.0302556e-05 2.378531e-06 6.488597e-05 0.0 1.1073599e-06 0.0 2.0897154e-07 2.3402423e-05
2.378531e-06 5.461176e-05 0.0 1.2095419e-06 0.0 1.0297179e-07 0.0 6.8320182e-06
0.0 6.9220864e-06 0.0 7.1982477e-06 0.0 8.287462e-06 0.0 7.759221e-06
0.0 1.5201256e-05 0.0 8.470193e-06 0.0 1.6710537e-05 0.0 6.5532836e-06
0.0 1.815271e-05 0.0 6.9867997e-06 0.0 1.6166483e-05 0.0 9.537368e-06
0.0 1.0326191e-05 0.0 1.9829049e-05 0.0 5.963371e-05 0.0 5.963371e-05
0.0001395612 6.851884e-05 0.0067741266 1.3738261e-08 -4.0247432e-06 -2.4898108e-08 0.00011701469 -2.2789939e-06
3.0203348e-06 7.3819238e-06 -1.2323321e-06 3.6721235e-09 -2.733898e-06 0.0010392154 0.0002340717 0.006882911
0.0 7.549129e-05 0.0 8.618877e-05 0.0021311152 0.0002340717 0.006961371 0.0
0.000102216145 0.0 5.0832998e-05 0.00224877 0.0002340717 0.005935642 0.0 0.00011328925
0.0 7.976466e-06 0.0023113096 0.0002340717 0.004859663 0.0 0.00011503774 0.0
3.9021124e-06 0.0 -3.7817294e-06 0.0 -8.308316e-06 0.0 -7.279085e-06 0.0
-9.798741e-06 0.0 -8.032774e-06 0.0 -1.5354244e-05 0.0 -8.031211e-06 0.0
-1.7382226e-05 0.0 -7.1332292e-06 0.0 -1.9859162e-05 0.0 -7.841467e-06 0.0
-1.7812521e-05 0.0 -1.07978185e-05 0.0 -9.064607e-06 0.0 -2.3073675e-05 0.0
00000000: 0000 0000 1471 c9b6 0000 0000 91c6 05b7
00000010: 0000 0000 fada f0b6 0000 0000 134b 24b7
00000020: 0000 0000 09cb 06b7 0000 0000 a200 85b7
00000030: 0000 0000 4a39 13b7 0000 0000 7f09 8eb7
00000040: 0000 0000 1d62 e9b6 0000 0000 cc76 9ab7
00000050: 0000 0000 1235 fab6 0000 0000 2409 91b7
00000060: 0000 0000 d610 2bb7 0000 0000 1fa6 22b7
00000070: 0000 0000 2b2f b2b7 0000 0000 d589 84b8
00000080: 0000 0000 d589 84b8 90ac 2eb9 47c9 96b8
00000090: 7193 f0bb 9dd9 5432 5d15 9836 4497 a832
000000a0: 9fc9 00b9 a114 fa35 43f7 b4b6 b8a1 03b7
000000b0: 91c9 8f35 e733 afb4 ac92 1336 549c 8dba
000000c0: 65d1 80b9 0b60 f8bb 0000 0000 a16f a2b8
000000d0: 0000 0000 5ecf beb8 8870 0fbb 65d1 80b9
000000e0: 4a50 fcbb 0000 0000 7043 e9b8 0000 0000
000000f0: c829 60b8 b472 21bb 65d1 80b9 7cc2 d4bb
00000100: 0000 0000 a1c0 03b9 0000 0000 27a1 d4b6
00000110: 5379 2dbb 65d1 80b9 3d5e aebb 0000 0000
00000120: 1874 07b9 0000 0000 f50b b835 0000 0000
00000130: 004a 5633 0000 0000 4b14 8833 0000 0000
00000140: e6f6 8c33 0000 0000 cc9b 7133 0000 0000
00000150: 5061 6b33 0000 0000 2ff0 b633 0000 0000
00000160: 46cd 5333 0000 0000 ebb0 1a34 0000 0000
00000170: 77c6 8e33 0000 0000 6f06 2e34 0000 0000
00000180: 529e 9e33 0000 0000 1a6e 9634 0000 0000
00000190: f11a cd33 0000 0000 e5e9 0f34 0000 0000
000001a0: f4ef 3e34 0000 0000 bff3 f534 0000 0000
000001b0: bff3 f534 fc95 2236 7f88 3a35 807d 9838
000001c0: 602d a9af f4b3 a732 d854 b02d e358 9f35
000001d0: d1d7 ff32 f215 95b2 ff3f 8034 238c 9c32
000001e0: 6f14 9832 89f7 3632 d9a8 1537 da9e 1f36
000001f0: b47a 9338 0000 0000 3899 2f35 0000 0000
00000200: 9bd5 7735 78cd 9a37 da9e 1f36 456d 9838
00000210: 0000 0000 3e8a 7535 0000 0000 b60b 2435
00000220: 684f aa37 da9e 1f36 6413 8838 0000 0000
00000230: 99a0 9435 0000 0000 a961 6034 5250 c437
00000240: da9e 1f36 ee0e 6538 0000 0000 8b57 a235
00000250: 0000 0000 5721 dd33 0000 0000 973e e536
00000260: 0000 0000 4544 e836 0000 0000 7a88 f136
00000270: 0000 0000 610a 0b37 0000 0000 9a2d 0237
00000280: 0000 0000 e608 7f37 0000 0000 341b 0e37
00000290: 0000 0000 9b2d 8c37 0000 0000 47e4 db36
000002a0: 0000 0000 a646 9837 0000 0000 2770 ea36
000002b0: 0000 0000 429d 8737 0000 0000 af02 2037
000002c0: 0000 0000 a73e 2d37 0000 0000 8f56 a637
000002d0: 0000 0000 351f 7a38 0000 0000 351f 7a38
000002e0: 2d57 1239 c6b1 8f38 7ef9 dd3b 8305 6c32
000002f0: 480c 87b6 85df d5b2 c965 f538 d1f0 18b6
00000300: f5b0 4a36 3eb2 f736 9c66 a5b5 ae58 7c31
00000310: 0378 37b6 4836 883a 2571 7539 0b8a e13b
00000320: 0000 0000 1451 9e38 0000 0000 3ec0 b438
00000330: 2eaa 0b3b 2571 7539 361c e43b 0000 0000
00000340: e05c d638 0000 0000 8435 5538 1a60 133b
00000350: 2571 7539 c67f c23b 0000 0000 b495 ed38
00000360: 0000 0000 a9d2 0537 5779 173b 2571 7539
00000370: cf3d 9f3b 0000 0000 6b40 f138 0000 0000
00000380: e4ee 8236 0000 0000 9ec9 7db6 0000 0000
00000390: f263 0bb7 0000 0000 dd3e f4b6 0000 0000
000003a0: 4665 24b7 0000 0000 80c4 06b7 0000 0000
000003b0: fdcc 80b7 0000 0000 cabd 06b7 0000 0000
000003c0: 0cd0 91b7 0000 0000 f959 efb6 0000 0000
000003d0: 3a97 a6b7 0000 0000 d88e 03b7 0000 0000
000003e0: 196c 95b7 0000 0000 4728 35b7 0000 0000
000003f0: 3114 18b7 0000 0000 578e c1b7 0000 0000

exp_avg_sq f4 [128, 75]
0.0 2.2306879e-09 0.0 2.7391472e-10 0.0 1.6357736e-09 0.0 1.4208165e-10
0.0 3.979302e-10 0.0 1.4369443e-10 0.0 2.082267e-10 0.0 1.928446e-10
0.0 1.7331951e-10 0.0 2.1279649e-10 0.0 1.8819159e-10 0.0 3.4957373e-10
0.0 2.915927e-10 0.0 9.572525e-10 0.0 8.423227e-10 0.0 4.4449617e-09
0.0 4.4449617e-09 2.9573405e-07 1.6753878e-08 5.8117676e-05 6.407741e-15 1.5867939e-10 1.9976098e-16
4.8487752e-08 3.7287087e-12 3.9332873e-12 1.797302e-10 7.3328305e-12 9.368676e-13 1.8580307e-12 4.449969e-07
1.9467689e-07 7.425082e-05 0.0 2.7763292e-09 0.0 4.5159567e-08 2.181009e-06 1.9467689e-07
0.00010359794 0.0 6.5276606e-09 0.0 4.1568082e-08 3.5354474e-06 1.9467689e-07 0.00013039888
0.0 1.08852225e-08 0.0 3.6622346e-08 5.4490088e-06 1.9467689e-07 0.00014502121 0.0
1.9050388e-08 0.0 2.8223187e-08 0.0 2.659293e-13 0.0 2.5959866e-14 0.0
2.1462275e-13 0.0 1.2351563e-14 0.0 4.4374267e-14 0.0 1.4480497e-14 0.0
2.3022142e-14 0.0 2.9222454e-14 0.0 1.9679255e-14 0.0 3.5177773e-14 0.0
2.113949e-14 0.0 7.064622e-14 0.0 3.201851e-14 0.0 1.3388559e-13 0.0
8.674052e-14 0.0 5.1937404e-13 0.0 5.1937404e-13 3.003938e-11 1.9540053e-12 7.36862e-09
1.314812e-18 2.1007035e-14 2.2941641e-20 5.652024e-12 9.245162e-16 3.7488442e-16 3.665324e-14 5.4815843e-16
1.9736552e-16 2.4126288e-16 1.02686075e-10 2.2705554e-11 8.136634e-09 0.0 5.640309e-13 0.0
5.105881e-12 4.4807033e-10 2.2705554e-11 1.0995974e-08 0.0 1.0411505e-12 0.0 4.6692637e-12
5.1287113e-10 2.2705554e-11 1.3417744e-08 0.0 1.4042512e-12 0.0 4.4554707e-12 6.183004e-10
2.2705554e-11 1.657712e-08 0.0 1.9323085e-12 0.0 3.982111e-12 0.0 5.9519854e-11
0.0 4.8532664e-11 0.0 6.6690285e-11 0.0 5.4334485e-11 0.0 3.569365e-11
0.0 9.096422e-11 0.0 2.8181188e-11 0.0 1.4666544e-10 0.0 3.46651e-11
0.0 1.5064316e-10 0.0 4.0905754e-11 0.0 2.2836825e-10 0.0 7.0381465e-11
0.0 1.3355554e-10 0.0 2.63611e-10 0.0 1.6959067e-09 0.0 1.6959067e-09
4.1525485e-08 3.6425851e-09 3.4263576e-05 1.668114e-15 1.4160808e-11 1.1816638e-16 1.0566604e-08 1.7682924e-12
1.0125412e-12 4.9107957e-11 2.6537043e-12 4.1813552e-13 7.366731e-13 4.375998e-07 4.2383178e-08 3.5174187e-05
0.0 2.8110876e-09 0.0 7.0847213e-09 2.2028423e-06 4.2383178e-08 3.7606074e-05 0.0
6.2726375e-09 0.0 3.6107684e-09 3.406152e-06 4.2383178e-08 3.1238887e-05 0.0 8.907877e-09
0.0 9.809078e-10 4.10226e-06 4.2383178e-08 2.2866527e-05 0.0 1.0108504e-08 0.0
2.869285e-10 0.0 5.374126e-09 0.0 7.548743e-10 0.0 3.754976e-09 0.0
4.1702494e-10 0.0 9.403892e-10 0.0 3.7422407e-10 0.0 4.878619e-10 0.0
3.165383e-10 0.0 3.9013284e-10 0.0 3.065359e-10 0.0 4.271106e-10 0.0
4.2931156e-10 0.0 6.7267836e-10 0.0 2.1094293e-09 0.0 2.038326e-09 0.0
00000000: 0000 0000 ad4a 1931 0000 0000 1296 962f
00000010: 0000 0000 abd1 e030 0000 0000 6e38 1c2f
00000020: 0000 0000 b2c3 da2f 0000 0000 63fe 1d2f
00000030: 0000 0000 9bf2 642f 0000 0000 ee08 542f
00000040: 0000 0000 1b91 3e2f 0000 0000 e3f8 692f
00000050: 0000 0000 39eb 4e2f 0000 0000 212e c02f
00000060: 0000 0000 064e a02f 0000 0000 5490 8330
00000070: 0000 0000 3189 6730 0000 0000 4cba 9831
00000080: 0000 0000 4cba 9831 61c5 9e34 2bea 8f32
00000090: 61c3 7338 fbdc e627 4778 2e2f 094f 6625
000000a0: d940 5033 3931 832c e763 8a2c 8e9d 452f
000000b0: 2200 012d 36da 832b 4ebf 022c e9e7 ee34
000000c0: 6008 5134 1bb7 9b38 0000 0000 b3c9 3e31
000000d0: 0000 0000 78f5 4133 735d 1236 6008 5134
000000e0: b842 d938 0000 0000 e949 e031 0000 0000
000000f0: 9788 3233 8642 6d36 6008 5134 afbb 0839
00000100: 0000 0000 b701 3b32 0000 0000 b24a 1d33
00000110: a1d6 b636 6008 5134 d610 1839 0000 0000
00000120: 3fa4 a332 0000 0000 726f f232 0000 0000
00000130: 73b4 952a 0000 0000 60d3 e928 0000 0000
00000140: cca4 712a 0000 0000 8881 5e28 0000 0000
00000150: 0cd8 4729 0000 0000 c16d 8228 0000 0000
00000160: 725d cf28 0000 0000 329b 0329 0000 0000
00000170: 4641 b128 0000 0000 366d 1e29 0000 0000
00000180: 5868 be28 0000 0000 c614 9f29 0000 0000
00000190: d432 1029 0000 0000 e5bd 162a 0000 0000
000001a0: 8152 c329 0000 0000 d830 122b 0000 0000
000001b0: d830 122b 561d 042e 3b80 092c 112f fd31
000001c0: 3108 c221 ed36 bd28 7cad d81e e8dc c62c
000001d0: a13c 8526 2d1b d825 4f12 2529 f4fe 1d26
000001e0: 058c 6325 1e14 8b25 1fcf e12e 5db8 c72d
000001f0: 4bc9 0b32 0000 0000 b6c2 1e2b 0000 0000
00000200: b0a5 b32c 4b54 f62f 5db8 c72d cee8 3c32
00000210: 0000 0000 6687 922b 0000 0000 fd48 a42c
00000220: 19fa 0c30 5db8 c72d dd83 6632 0000 0000
00000230: 7ba1 c52b 0000 0000 50c3 9c2c 06f5 2930
00000240: 5db8 c72d 7965 8e32 0000 0000 60f9 072c
00000250: 0000 0000 ab1b 8c2c 0000 0000 b3e2 822e
00000260: 0000 0000 ec72 552e 0000 0000 4ba7 922e
00000270: 0000 0000 31f7 6e2e 0000 0000 7afb 1c2e
00000280: 0000 0000 4e08 c82e 0000 0000 65e2 f72d
00000290: 0000 0000 a742 212f 0000 0000 6f75 182e
000002a0: 0000 0000 48a2 252f 0000 0000 c9e7 332e
000002b0: 0000 0000 f317 7b2f 0000 0000 3ec5 9a2e
000002c0: 0000 0000 8bd8 122f 0000 0000 f3eb 902f
000002d0: 0000 0000 6a15 e930 0000 0000 6a15 e930
000002e0: c159 3233 0951 7a31 3cb6 0f38 8b66 f026
000002f0: 9c1e 792d 8f3c 0825 6a88 3532 73dd f82b
00000300: a480 8e2b a5fa 572e e3bc 3a2c ae63 eb2a
00000310: e45a 4f2b 42ef ea34 cc08 3633 ff87 1338
00000320: 0000 0000 2d2d 4131 0000 0000 de6d f331
00000330: 8bd4 1336 cc08 3633 37bb 1d38 0000 0000
00000340: b486 d731 0000 0000 4f21 7831 3f95 6436
00000350: cc08 3633 8006 0338 0000 0000 4209 1932
00000360: 0000 0000 a0d0 8630 25a6 8936 cc08 3633
00000370: 7ed1 bf37 0000 0000 aca9 2d32 0000 0000
00000380: 99bd 9d2f 0000 0000 50a7 b831 0000 0000
00000390: 8e7f 4f30 0000 0000 1e05 8131 0000 0000
000003a0: 0b43 e52f 0000 0000 013f 8130 0000 0000
000003b0: 5bbb cd2f 0000 0000 3b1a 0630 0000 0000
000003c0: ce04 ae2f 0000 0000 517a d62f 0000 0000
000003d0: 1885 a82f 0000 0000 79ce ea2f 0000 0000
000003e0: 3b04 ec2f 0000 0000 88e7 3830 0000 0000
000003f0: 79f5 1031 0000 0000 9c12 0c31 0000 0000

exp_avg f4 [128]
-0.00012287464 1.1892403e-06 0.00011705109 -0.00012462954 0.00017871901 1.6028882e-06 -1.5396804e-09 -3.9170465e-07
0.00012020365 -5.6275627e-07 -1.0722632e-08 0.00022159476 1.1345767e-07 0.00010638649 9.7602446e-05 -0.00022582189
1.3569761e-05 -2.325855e-06 -8.273532e-06 -9.609444e-05 -0.00012432455 7.129822e-05 1.8079707e-05 -1.7862803e-05
2.8610993e-08 6.016133e-08 0.00011993493 4.253525e-07 5.933157e-05 -1.946098e-05 3.7997205e-09 0.000109979606
-5.585533e-09 -0.00011420338 2.5851205e-05 -2.122365e-05 2.461689e-05 -3.11555e-08 6.6753804e-05 -0.0001786537
-1.20647055e-05 9.908935e-06 9.476815e-05 -8.3186285e-05 1.4180796e-05 1.0440084e-08 -0.00012700263 5.1672872e-05
5.3150025e-06 1.1033533e-08 3.3552296e-05 -7.825159e-06 7.006356e-09 1.1822148e-09 9.938218e-05 -3.738245e-05
1.5443973e-05 -4.889592e-05 2.099462e-05 7.739447e-05 5.190439e-05 2.6412476e-08 -0.00015196821 1.7512617e-05
5.6518537e-08 0.0001562847 -7.400503e-05 0.000105063205 -0.00010425302 -0.00028147877 -3.161267e-11 0.00026653227
-1.9880083e-05 -4.9356644e-05 3.42364e-05 9.4962775e-09 -2.867628e-09 -3.108829e-06 -0.000244677 -6.730106e-05
-0.00023807693 1.7813479e-08 -2.123395e-09 4.7976946e-06 0.00019475474 4.4151173e-05 -3.4879227e-05 2.596671e-10
3.883898e-06 6.17995e-07 0.00012997632 3.4617966e-07 5.618085e-07 -4.720169e-08 2.515634e-05 4.84658e-06
-0.00012275454 2.2066788e-05 -6.697838e-07 -4.321475e-05 1.5587919e-08 3.2876946e-05 5.812367e-10 2.508695e-06
-6.249883e-05 -6.293242e-07 -6.368928e-05 1.0830085e-05 -7.255065e-05 4.3560425e-07 6.338587e-05 1.0343016e-05
-5.1727944e-05 2.5876318e-07 6.286395e-06 -2.254756e-07 3.577524e-06 6.2131505e-07 -4.298569e-05 -0.00011894295
7.654091e-10 -5.3355254e-10 0.0001568389 0.0002739387 -6.201311e-05 8.192517e-07 5.2755735e-05 -1.0566516e-08
00000000: e9d7 00b9 fc9d 9f35 5379 f538 fdae 02b9
00000010: 8566 3b39 d222 d735 b09c d3b0 7a4b d2b4
00000020: d815 fc38 5110 17b5 a236 38b2 e45b 6839
00000030: 04a6 f333 d01b df38 eaaf cc38 9aca 6cb9
00000040: aea9 6337 e215 1cb6 8dce 0ab7 4f86 c9b8
00000050: 1e5d 02b9 f185 9538 e0a9 9737 14d8 95b7
00000060: 3dc4 f532 0a32 8133 9385 fb38 015c e434
00000070: cada 7838 2340 a3b7 b28e 8231 daa4 e638
00000080: deea bfb1 7980 efb8 0adb d837 7109 b2b7
00000090: 5e80 ce37 d6cf 05b3 2dfe 8b38 fd54 3bb9
000000a0: 8469 4ab7 8d3e 2637 43be c638 4c74 aeb8
000000b0: 0eea 6d37 fa5b 3332 022c 05b9 53bb 5838
000000c0: 8657 b236 fe8d 3d32 81ba 0c38 cd48 03b7
000000d0: 8fbc f031 7c7b a230 676b d038 1acb 1cb8
000000e0: ae8d 8137 9815 4db8 9a1d b037 d74e a238
000000f0: eab3 5938 a6e1 e232 a859 1fb9 0fe8 9237
00000100: cabe 7233 5be0 2339 2633 9bb8 6155 dc38
00000110: 6aa2 dab8 7193 93b9 b408 0bae 5bbd 8b39
00000120: 27c4 a6b7 4b04 4fb8 0e99 0f38 1225 2332
00000130: d80f 45b1 47a1 50b6 fe47 80b9 fb23 8db8
00000140: 4aa4 79b9 4104 9932 29eb 11b1 e2fb a036
00000150: 1437 4c39 f62e 3938 494b 12b8 e5c0 8e2f
00000160: 6e52 8236 4be4 2535 414a 0839 92da b934
00000170: 30cf 1635 cfba 4ab3 d406 d337 ce9f a236
00000180: acb7 00b9 111c b937 31cb 33b5 7c41 35b8
00000190: 32e6 8532 5ae5 0938 e6c4 1f30 0d5b 2836
000001a0: ce11 83b8 d4ee 28b5 ec90 85b8 dcb2 3537
000001b0: 5526 98b8 fedc e934 08ee 8438 ea86 2d37
000001c0: 75f6 58b8 24ec 8a34 b9ef d236 431a 72b4
000001d0: 6515 7036 72c8 2635 884b 34b8 0371 f9b8
000001e0: e164 5230 6ca9 12b0 1f75 2439 6e9f 8f39
000001f0: 090d 82b8 8cea 5b35 0a46 5d38 0788 35b2

exp_avg_sq f4 [128]
4.8669886e-08 5.676435e-12 1.0595399e-08 1.09851584e-07 6.307687e-08 7.375982e-09 3.9965072e-17 4.2050296e-13
2.0010544e-08 5.0963533e-10 8.9429595e-15 2.620828e-08 8.0749833e-13 2.471027e-08 2.8905704e-08 7.807067e-08
5.951148e-10 6.6359184e-12 1.2646671e-09 4.9880338e-08 5.680137e-08 3.2566723e-09 9.2248476e-09 2.9472706e-09
1.4665847e-14 8.568068e-14 1.2874391e-08 1.6220137e-12 6.9048234e-09 3.791916e-09 9.5287835e-15 2.66449e-08
4.029554e-16 1.6697468e-08 5.6431184e-09 5.6394384e-08 1.4328997e-08 8.1561636e-14 1.422612e-08 5.1838885e-08
2.2121553e-09 4.6255093e-09 6.106914e-09 8.901669e-09 7.830526e-09 7.5478804e-16 1.699733e-08 3.1887175e-09
4.733391e-10 1.4540916e-15 3.82844e-09 8.204625e-09 1.3025987e-15 3.7035759e-16 1.0384013e-07 3.3464314e-08
1.4430662e-08 2.6781345e-08 4.773593e-09 5.9609278e-09 5.2889774e-08 4.194456e-16 2.3551014e-08 1.1415647e-08
1.0196846e-13 4.4535625e-08 2.2901991e-08 1.9854776e-08 1.73454e-08 1.2010425e-07 7.6905215e-19 5.1371476e-08
7.5348316e-10 4.745253e-09 1.8370399e-09 7.099516e-15 5.965816e-16 7.514962e-09 5.2981346e-08 1.12739835e-08
7.7340744e-08 2.119746e-14 7.982185e-17 5.053912e-11 4.1129045e-08 3.838193e-08 3.2175282e-09 5.0306116e-19
4.478212e-09 4.9910887e-12 1.536131e-08 2.2333726e-12 5.222287e-11 2.8147696e-13 2.3073207e-08 9.970878e-12
2.98926e-08 1.6890178e-08 5.5203116e-12 2.1463066e-08 4.3391173e-15 8.8812413e-10 4.865224e-18 2.0497641e-09
7.761946e-09 1.4366251e-10 1.8985064e-08 1.2557811e-09 2.2888399e-08 8.79002e-12 6.595848e-09 2.8373333e-09
1.4463693e-08 4.9548126e-12 9.887502e-10 4.8045747e-13 6.007562e-12 4.084589e-11 4.836333e-09 5.174281e-08
1.9355403e-17 9.51436e-17 5.252567e-08 7.02019e-08 2.3089006e-08 1.0689722e-11 2.752778e-08 6.2107833e-16
00000000: 1b09 5133 c8b8 c72c 0f07 3632 8ce7 eb33
00000010: e074 8733 d36f fd31 6e4e 3824 ddb8 ec2a
00000020: a7e3 ab32 6616 0c30 1f1a 2128 9e20 e132
00000030: 634a 632b 7542 d432 514c f832 cea7 a733
00000040: 7b95 2330 0a7b e92c 85d0 ad30 033c 5633
00000050: c4f5 7333 fccb 5f31 4f7b 1e32 ef88 4a31
00000060: 2419 8428 8def c029 2c2e 5d32 3447 e42b
00000070: 783f ed31 0c4a 8231 c2a7 2b28 c1e0 e432
00000080: b949 e825 1f6e 8f32 65e5 c131 4836 7233
00000090: 982b 7632 15a9 b729 2367 7432 75a5 5e33
000000a0: a604 1831 69ee 9e31 fcd4 d131 f4ed 1832
000000b0: 0487 0632 878d 5926 8601 9232 8320 5b31
000000c0: 471c 0230 838e d126 508b 8331 53f4 0c32
000000d0: 69b9 bb26 227f d525 b7fe de33 67ba 0f33
000000e0: b9ea 7732 cd0c e632 f804 a431 e0d0 cc31
000000f0: ec28 6333 3fcb f125 3a4d ca32 8c1e 4432
00000100: d19c e529 7047 3f33 03ba c432 1d8d aa32
00000110: f0fe 9432 01f6 0034 f0fb 6221 89a3 5c33
00000120: aa1d 4f30 b00b a331 187b fc30 7ac9 ff27
00000130: f4f3 2b26 271b 0132 9b8d 6333 81af 4132
00000140: 8616 a633 04ee be28 810e b824 fe45 5e2e
00000150: dda5 3033 61d9 2433 5b1b 5d31 3a7a 1421
00000160: c5de 9931 bb9b af2c e1f3 8332 dd28 1d2c
00000170: b9ad 652e 1b75 9e2a 8532 c632 d868 2f2d
00000180: 4363 0033 e515 9132 8c3a c22c c85d b832
00000190: 4b55 9c27 2e20 7430 be7e b322 d5db 0c31
000001a0: 6659 0532 67f5 1d2f 9914 a332 df97 ac30
000001b0: 1f9c c432 bba2 1a2d b1a1 e231 e5fa 4231
000001c0: ff7b 7832 fc54 ae2c 8ee4 8730 9c3c 072b
000001d0: 4f5f d32c 62a4 332e d62c a631 d23b 5e33
000001e0: a785 b223 de62 db24 9698 6133 e7c1 9633
000001f0: 4355 c632 3a0e 3c2d 3a76 ec32 7e03 3326
