Unity Project/CSC 30014 Project/results/test/Car/Car-0.onnx (onnx, 108006 bytes, 7 tensors)

action_model._continuous_distribution.log_sigma f4 [1, 2]
000000 00 00 00 00 00 00 00 00
       0.0 0.0

action_model._continuous_distribution.mu.bias f4 [2]
000000 00 00 00 00 00 00 00 00
       0.0 0.0

action_model._continuous_distribution.mu.weight f4 [2, 128]
000000 41 89 40 ba 39 14 9a bc d7 ae 54 3c 14 03 a8 ba
       -0.0007344671 -0.018808471 0.012981138 -0.00128183
000010 ad e0 20 bd 13 d2 d5 bb dd 66 0b 3c 5a b4 72 bc
       -0.039276768 -0.006525287 0.008508411 -0.014813507
000020 d9 e1 31 bc 11 d3 40 bb 1f 1d 8b bc 19 d7 c0 bc
       -0.010857069 -0.002942268 -0.01698166 -0.023540067
000030 ae 4a 1f 3c 37 a0 10 3d 89 a2 99 38 2b a3 ac 3b
       0.009722395 0.035309043 7.325883e-05 0.0052684746
000040 76 e6 93 bb 83 57 59 bb 7f ee 38 39 25 2b 93 bc
       -0.004513557 -0.0033163733 0.00017636454 -0.017964909
000050 0a 55 a1 3c 45 ee a4 3c e2 7e 8b bc 4b 2f 87 bb
       0.01969387 0.020133147 -0.017028276 -0.004125511
000060 a6 a5 93 ba b0 25 f7 bb 7c 78 03 bc dd 80 7b 3c
       -0.0011264577 -0.0075423345 -0.008024331 0.015350548
000070 00 ba 15 3c 5c d4 42 bc c3 3f ce 3b 7b 1d f2 bc
       0.009138584 -0.011891451 0.006294222 -0.029555073
000080 ec 01 a9 3c 63 be 55 bc aa 91 f2 3c 82 6a 25 bc
       0.0206308 -0.01304588 0.029610474 -0.010096194
000090 cb 51 9a 3a 14 62 33 bc 6b 8c 2e bc 71 55 a3 bc
       0.0011773644 -0.010948677 -0.010653595 -0.019938203
0000a0 e7 84 1c bd dd bb 83 bc f7 b0 40 bc db 68 a1 3c
       -0.038212683 -0.016080791 -0.011760942 0.01970332
0000b0 06 08 83 bc 0b 21 cc 3b 56 dc 9a 3c 4a c0 b6 bc
       -0.015995037 0.006229525 0.018903892 -0.022308487
0000c0 90 ae d2 ba 35 12 bc bc 73 a8 0c bc db 43 0d bc
       -0.0016073752 -0.0229579 -0.008585083 -0.008622135
0000d0 cb 7d d7 b9 9f 73 6a 3c bf 74 2f 3c bc 98 26 3a
       -0.0004110172 0.014309793 0.010708987 0.00063551567
0000e0 1c f3 85 bb b9 17 02 3d 15 c3 8c 3b 22 ba 8e bb
       -0.004087819 0.031760905 0.0042957165 -0.004355685
0000f0 5f 6e 90 bc 86 d0 ae ba ef a0 18 3b 6a 14 c4 3c
       -0.017630754 -0.0013337291 0.0023289283 0.023935515
000100 17 10 57 3c c4 58 98 bb 43 61 dc 3b bf e7 0b bb
       0.013126395 -0.0046492536 0.0067254617 -0.0021347848
000110 e0 ca 86 3c 90 8d 6a bb 57 76 aa 3c 32 6e 3f 3c
       0.01645416 -0.0035789944 0.020808382 0.011683987
000120 73 c0 af 3c e2 1c e3 3b 28 de 8d bc 3d 71 a6 3b
       0.021454072 0.0069309333 -0.017317846 0.005079417
000130 fb 4d 93 bb 72 06 d0 b9 fb 7d 13 3d 2e 09 1b bc
       -0.00449538 -0.00039677654 0.036008816 -0.009462638
000140 5f 18 bc bc 3d f3 b2 3a 9c 69 c0 bc de c5 01 bc
       -0.02296084 0.0013652813 -0.023487858 -0.00792071
000150 ee 80 9f 3a 84 54 89 bc d2 49 f5 3c b7 fe 53 3b
       0.0012169161 -0.016763933 0.029942427 0.0032347867
000160 8b 89 fd bc d0 f2 49 ba b6 54 01 bc d7 55 6b bc
       -0.030949375 -0.00077037234 -0.007893732 -0.0143637275
000170 0f 8e 08 bc eb 44 45 3b 93 09 84 3c 30 fc a8 3a
       -0.008334651 0.0030100893 0.016117847 0.001289254
000180 ab 00 ba 3c 1d b2 cf 3a 7f e0 c8 bb 00 da 89 3c
       0.022705397 0.0015845929 -0.0061302776 0.016827583
000190 a8 d3 e6 3a 6d e8 8b 3c d6 41 9b 3c 7e df 1f ba
       0.0017610686 0.017078603 0.018952291 -0.00060986716
0001a0 95 15 a7 bc 22 1f d2 3b 03 42 dd b9 ef c1 3d bd
       -0.020396033 0.0064124027 -0.00042201587 -0.046327528
0001b0 ba 80 38 bc 50 d1 13 3c 13 b7 91 3c 61 3d 2a 3d
       -0.01126116 0.009022072 0.017787492 0.04156244
0001c0 da 46 12 3d 3e 5f a2 bc 44 34 1d 3c 55 e6 7c 3c
       0.0357121 -0.019820806 0.009594981 0.015435775
0001d0 0b 72 4f 3c d3 c0 3d 3c f6 95 a4 bc 1d 61 ea 3c
       0.012661467 0.011581617 -0.020091038 0.02861076
0001e0 6b 37 90 bc 07 a9 09 bc d5 4e 17 bd f2 97 57 3c
       -0.01760455 -0.008402116 -0.036940414 0.013158785
0001f0 08 a9 ae 3a 04 d9 16 bc 84 30 08 3b 23 e0 81 3b
       0.0013325522 -0.009207014 0.002078087 0.0039634868
000200 8b 01 96 bc 1f 88 1b bd 7a ef 78 3a 9f c9 00 3c
       -0.018311283 -0.037971612 0.0009496134 0.00786057
000210 39 a8 92 bc fc fa 0c 3d 3a 1d 77 bc c6 32 c3 3a
       -0.01790248 0.034419045 -0.015082652 0.0014892451
000220 9a de 3a bc ef fd 12 bc 0f 89 1c bd 8f b4 af 3c
       -0.011405611 -0.008971675 -0.038216647 0.021448402
000230 5a 94 47 3c 35 10 78 3c 6b 42 f6 bc 97 73 e9 3c
       0.012181366 0.015140583 -0.030060967 0.0284975
000240 4f ef 3c bc cf b0 54 bc 9f 53 d7 bc 73 c6 8d 3b
       -0.011531665 -0.012981608 -0.02628499 0.0043266355
000250 fb 09 71 bc ef 1b 66 bc 2f 9d 45 3c 0f 68 85 bc
       -0.014711852 -0.014044746 0.012061401 -0.01628497
000260 37 ad 7e 3c 07 ac 89 3b bf b1 c7 3c c2 7b b5 3c
       0.015544227 0.0042014155 0.024376748 0.022153739
000270 c3 79 f2 bb aa f1 d8 3c 18 30 60 3c 99 1c 24 3b
       -0.007399769 0.026482422 0.013683341 0.002504146
000280 77 62 a9 bc 72 56 11 bd 18 78 54 bb 0e c0 b2 bc
       -0.020676835 -0.03548283 -0.0032420214 -0.021820094
000290 28 58 54 bc 20 66 7f bb 4c a4 89 bb 4d c5 1f 3c
       -0.012960471 -0.0038970783 -0.004200494 0.00975163
0002a0 09 65 84 ba 1b 4a 87 bd 63 2e b0 bb 9d 5e d1 3c
       -0.0010100912 -0.06605931 -0.0053766235 0.02555781
0002b0 bc 16 9d 3c b5 08 58 3a ab cc db 3b 57 26 e7 3c
       0.01917588 0.00082410435 0.006707748 0.028216524
0002c0 aa 2e 11 bd 35 1a 22 3a 5a 34 e9 bc 73 8c 38 bb
       -0.035444893 0.0006183715 -0.028467346 -0.0028159886
0002d0 77 99 41 bc 82 b4 c0 bc 6b b5 92 bc fc 82 98 bc
       -0.011816374 -0.023523573 -0.017908772 -0.018617146
0002e0 f3 70 b4 3b 30 01 ca 3b a9 df bd ba 44 b7 1c 3c
       0.0055066287 0.0061646923 -0.0014486212 0.009565178
0002f0 ee 93 04 bd 46 26 b3 bc 6f 31 a0 bb 7f 7a f1 3c
       -0.03236764 -0.021868836 -0.0048887054 0.029477356
000300 6f cd 05 bc da 0b 46 bb db 87 dd 3a 27 95 bc bb
       -0.008166655 -0.0030219466 0.001690145 -0.005755085
000310 65 5b a4 bb 57 80 ef 3b 04 77 b5 bb 09 f3 46 ba
       -0.005015778 0.0073090005 -0.0055378694 -0.00075893156
000320 c1 68 84 3c 1f c4 b1 bc f2 bc a3 bb b5 b8 fe 3b
       0.016163232 -0.021699963 -0.0049968893 0.0077734836
000330 db e3 11 bc 00 19 79 3c 87 fa d9 bc 32 b4 c7 ba
       -0.008904423 0.015203714 -0.026608719 -0.0015236198
000340 ca 55 de 3c d2 d7 e0 3c bb be a1 3c b3 a7 36 bc
       0.027140517 0.027446661 0.019744268 -0.011148381
000350 2b c3 9c bb 9b c5 06 3c 18 c1 e5 3c 0b c3 ac bc
       -0.004784008 0.008225824 0.028046176 -0.021089097
000360 0f fa fd 3b a7 bd 8d bb 52 2a b2 bc 3e 41 a4 3c
       0.0077507566 -0.004325587 -0.021748696 0.020050641
000370 d8 81 18 3c 7a 75 bd 3a 2f 8f a0 3b 6b a2 35 bd
       0.009308301 0.0014454566 0.0048998813 -0.044344347
000380 85 54 5f bd df 7f 43 3b 9f c9 cd ba 33 5b 85 bc
       -0.054523963 0.0029830856 -0.0015700347 -0.016278839
000390 00 58 f3 3b 55 83 e8 ba c7 64 24 3b 23 27 58 bd
       0.007426262 -0.0017739335 0.0025084482 -0.0527717
0003a0 63 2e ef bc 15 bc 78 3c da 49 04 bc 97 de 31 bc
       -0.029196924 0.015181561 -0.008074248 -0.010856292
0003b0 8a 03 b2 bb df f2 d9 bc cc 14 b5 3a eb 62 44 bc
       -0.005432551 -0.026605068 0.0013815402 -0.0119864745
0003c0 68 c6 b9 bc f5 80 a8 bb 5d f4 f1 3c dd 2d 75 3a
       -0.022677615 -0.005142326 0.029535467 0.00093528425
0003d0 5b 58 00 3c 1f 0d 92 3a c8 79 bf 3c f7 d7 12 3d
       0.007833566 0.0011142826 0.0233735 0.03585049
0003e0 ec 96 86 ba b3 23 57 3c fe 22 02 3c 08 c8 fb bb
       -0.0010268367 0.01313107 0.007942913 -0.0076837577
0003f0 50 90 08 bd ff 02 16 bc 06 14 a4 bc d4 30 07 bd
       -0.033340752 -0.009155988 -0.02002908 -0.03300555

network_body._body_endoder.seq_layers.0.bias f4 [128]
000000 00 00 00 00 00 00 00 00 00 00 00 00 00 00 00 00
       0.0 0.0 0.0 0.0
000010 00 00 00 00 00 00 00 00 00 00 00 00 00 00 00 00
       0.0 0.0 0.0 0.0
000020 00 00 00 00 00 00 00 00 00 00 00 00 00 00 00 00
       0.0 0.0 0.0 0.0
000030 00 00 00 00 00 00 00 00 00 00 00 00 00 00 00 00
       0.0 0.0 0.0 0.0
000040 00 00 00 00 00 00 00 00 00 00 00 00 00 00 00 00
       0.0 0.0 0.0 0.0
000050 00 00 00 00 00 00 00 00 00 00 00 00 00 00 00 00
       0.0 0.0 0.0 0.0
000060 00 00 00 00 00 00 00 00 00 00 00 00 00 00 00 00
       0.0 0.0 0.0 0.0
000070 00 00 00 00 00 00 00 00 00 00 00 00 00 00 00 00
       0.0 0.0 0.0 0.0
000080 00 00 00 00 00 00 00 00 00 00 00 00 00 00 00 00
       0.0 0.0 0.0 0.0
000090 00 00 00 00 00 00 00 00 00 00 00 00 00 00 00 00
       0.0 0.0 0.0 0.0
0000a0 00 00 00 00 00 00 00 00 00 00 00 00 00 00 00 00
       0.0 0.0 0.0 0.0
0000b0 00 00 00 00 00 00 00 00 00 00 00 00 00 00 00 00
       0.0 0.0 0.0 0.0
0000c0 00 00 00 00 00 00 00 00 00 00 00 00 00 00 00 00
       0.0 0.0 0.0 0.0
0000d0 00 00 00 00 00 00 00 00 00 00 00 00 00 00 00 00
       0.0 0.0 0.0 0.0
0000e0 00 00 00 00 00 00 00 00 00 00 00 00 00 00 00 00
       0.0 0.0 0.0 0.0
0000f0 00 00 00 00 00 00 00 00 00 00 00 00 00 00 00 00
       0.0 0.0 0.0 0.0
000100 00 00 00 00 00 00 00 00 00 00 00 00 00 00 00 00
       0.0 0.0 0.0 0.0
000110 00 00 00 00 00 00 00 00 00 00 00 00 00 00 00 00
       0.0 0.0 0.0 0.0
000120 00 00 00 00 00 00 00 00 00 00 00 00 00 00 00 00
       0.0 0.0 0.0 0.0
000130 00 00 00 00 00 00 00 00 00 00 00 00 00 00 00 00
       0.0 0.0 0.0 0.0
000140 00 00 00 00 00 00 00 00 00 00 00 00 00 00 00 00
       0.0 0.0 0.0 0.0
000150 00 00 00 00 00 00 00 00 00 00 00 00 00 00 00 00
       0.0 0.0 0.0 0.0
000160 00 00 00 00 00 00 00 00 00 00 00 00 00 00 00 00
       0.0 0.0 0.0 0.0
000170 00 00 00 00 00 00 00 00 00 00 00 00 00 00 00 00
       0.0 0.0 0.0 0.0
000180 00 00 00 00 00 00 00 00 00 00 00 00 00 00 00 00
       0.0 0.0 0.0 0.0
000190 00 00 00 00 00 00 00 00 00 00 00 00 00 00 00 00
       0.0 0.0 0.0 0.0
0001a0 00 00 00 00 00 00 00 00 00 00 00 00 00 00 00 00
       0.0 0.0 0.0 0.0
0001b0 00 00 00 00 00 00 00 00 00 00 00 00 00 00 00 00
       0.0 0.0 0.0 0.0
0001c0 00 00 00 00 00 00 00 00 00 00 00 00 00 00 00 00
       0.0 0.0 0.0 0.0
0001d0 00 00 00 00 00 00 00 00 00 00 00 00 00 00 00 00
       0.0 0.0 0.0 0.0
0001e0 00 00 00 00 00 00 00 00 00 00 00 00 00 00 00 00
       0.0 0.0 0.0 0.0
0001f0 00 00 00 00 00 00 00 00 00 00 00 00 00 00 00 00
       0.0 0.0 0.0 0.0

network_body._body_endoder.seq_layers.0.weight f4 [128, 75]
000000 85 44 fe bd c0 d0 d0 3c 67 bc 9c 3d 9f 56 25 b7
       -0.12415413 0.025490165 0.076531224 -9.854934e-06
000010 17 00 fa bd ed e4 92 be 6c c3 ba 3d c1 7b 88 3d
       -0.122070484 -0.28690282 0.09119305 0.06664229
000020 a7 80 51 3c 81 1f 1a be 78 39 90 3d e7 0a a6 bd
       0.012787021 -0.1505108 0.07042211 -0.08107548
000030 30 ae 45 3c 52 cc 84 3d fa 32 d3 bd 83 c3 93 bd
       0.012065455 0.064842835 -0.103124574 -0.07215025
000040 aa 29 a1 3b 82 d7 85 3c 8d c6 18 3e c6 f1 db bd
       0.004918297 0.016338114 0.14919491 -0.10739474
000050 03 3c 3a 3e 93 f5 60 3d 99 34 a9 bd 63 43 48 3d
       0.18186955 0.054921698 -0.08261985 0.04889239
000060 a5 e2 02 3e b2 fd 50 3d 2a ad d0 3d 53 50 6d 3d
       0.1278177 0.051023193 0.101892784 0.05793793
000070 5f 57 b6 bd e1 bb 88 3e 4c 13 58 3c e0 cf 94 3c
       -0.089033835 0.2670584 0.0131881945 0.018165529
000080 fe ca 55 3d 8d 47 32 be 8d 5c 34 3e 60 eb d5 bc
       0.05219554 -0.17410107 0.1761343 -0.026113212
000090 55 ae e2 bd 6b 70 b4 bd ba 23 90 3d 0a 98 22 3e
       -0.110684074 -0.088105045 0.07038064 0.15878311
0000a0 bd d1 b0 3d f2 81 7a bd 17 9c 12 bd 7e 5b 40 3e
       0.086337544 -0.06115908 -0.03579339 0.18784901
0000b0 ab f7 2f be c8 41 cd 3d d7 2e b8 bd 15 33 c3 bd
       -0.17184322 0.100223124 -0.08993309 -0.095312275
0000c0 ce b7 b3 bd a2 b2 11 be c0 85 08 3c 60 3f 68 3c
       -0.08775292 -0.142283 0.00833267 0.014175266
0000d0 10 d1 d9 bd ae d0 ab bd c8 3a 5c be 5a 7d bc bd
       -0.10635579 -0.08389412 -0.21506798 -0.092035964
0000e0 05 33 ab be 71 98 e5 3d a4 ac f0 bd e5 04 cf 3c
       -0.33437362 0.112107165 -0.117516786 0.025270889
0000f0 7b 5b a0 bc 07 e8 55 3e 22 c4 3b 3d a2 47 32 bd
       -0.019574871 0.20889293 0.045841344 -0.043525346
000100 73 19 ce 3c 35 8e c0 ba cd c8 93 3d d2 b1 75 3d
       0.02515862 -0.0014690818 0.07216034 0.059984036
000110 ef 05 d7 3d 6b 66 46 3e 2f 41 8b 3e 36 5d 3f be
       0.104991786 0.19375007 0.2719817 -0.18687901
000120 78 20 06 3c 1e 15 e3 bc 14 d8 35 be c3 ab 0b 3d
       0.008186452 -0.02772003 -0.17758209 0.03409935
000130 88 ce a4 bd 71 b9 71 3e f4 ab 23 be 4f 78 32 be
       -0.08047205 0.23605897 -0.15983564 -0.17428707
000140 8e 35 4b bd 87 74 49 3e 56 4a 4e be 0d f3 39 be
       -0.04961162 0.19673358 -0.20145544 -0.18159123
000150 c1 b2 f0 3c 0b 95 0d 3e 74 34 62 be 7b 2a 9f bd
       0.029382112 0.13826387 -0.22090322 -0.077717744
000160 15 e0 82 be a1 d5 c5 bd aa 7a d4 3c eb 77 8b bd
       -0.25561586 -0.09659887 0.025937397 -0.06809982
000170 e9 7d 30 3c 87 84 34 be 3c f3 ad bd 0f 02 bb bc
       0.010772207 -0.1762868 -0.08493659 -0.02282813
000180 07 91 8c 3e 6f f3 2b be 48 34 03 3d d0 93 b3 bd
       0.27454397 -0.16792081 0.03203228 -0.08768427
000190 3c 56 31 3c 7e 0e 25 3e 67 3f 9d 3a 9d d1 d4 3d
       0.0108237825 0.1611881 0.0011997045 0.10391543
0001a0 74 64 41 3e 50 b1 a0 bd 97 20 97 bd cf 86 a0 bd
       0.18885976 -0.0784632 -0.07379263 -0.07838213
0001b0 83 b5 3d be 3f a1 e6 bd 3a a3 d7 3d 22 9c fb 3c
       -0.18526272 -0.11261224 0.1052918 0.030714098
0001c0 03 86 a0 3c 27 ea a1 bd c1 8b 6a bd 8e 82 f1 3d
       0.019595152 -0.07905989 -0.057262186 0.117924795
0001d0 bb 52 7b bd 67 6a 41 be 22 e7 46 3b 56 85 5f 3d
       -0.061358195 -0.18888246 0.0030350168 0.05457052
0001e0 e3 c2 d6 3d f1 55 ea 3d 22 25 1e 3e 4d f4 cd bd
       0.104863904 0.11442173 0.15443853 -0.10056362
0001f0 1d 10 21 3e b9 bc dc 3c 42 c3 da bd aa 29 cf bc
       0.15728803 0.026945459 -0.10681774 -0.025288422
000200 bf f2 53 3d a8 f7 a1 bc f0 16 28 be 71 f4 90 bd
       0.051745173 -0.019771412 -0.16415 -0.070778735
000210 cd 1f 95 3b b4 40 01 be 3d ff 4a be 49 4e ab 3c
       0.00455091 -0.12622339 -0.19823928 0.020911353
000220 08 c9 9d 3d 05 33 eb bd a5 17 6e be 26 3a 18 bd
       0.07704359 -0.114843406 -0.23251207 -0.03716483
000230 2b d3 00 be 4d 1e 87 bd 4c c5 1d bd 2b 60 c5 bd
       -0.12580554 -0.06597576 -0.038518235 -0.09637483
000240 08 6d aa bd 54 31 2d 3d 63 17 7f bd d7 fb f0 bd
       -0.08321577 0.04228337 -0.062278163 -0.11766785
000250 0d 6a 20 bd 6a 8e 92 be b6 b1 fd 3d be a1 15 be
       -0.039163638 -0.28624278 0.12387411 -0.14612481
000260 1b 0f 91 3d b3 0d 45 be c0 c4 39 be a3 b6 37 3d
       0.07082959 -0.19243507 -0.1814146 0.04485191
000270 89 4c 02 3d ac a7 d8 bd b4 21 57 3e 15 8d de bd
       0.03181127 -0.10578856 0.2100895 -0.10866753
000280 56 7f d5 3d 99 f7 14 3d 52 f7 c5 bb 61 a8 0b 3e
       0.10424678 0.03636894 -0.006041446 0.1363845
000290 6a 2e 3d 3d 4e 08 2c be f0 cd d8 bd b9 82 2c 3d
       0.046186842 -0.16800043 -0.105861545 0.042116854
0002a0 c5 0f a7 bc d4 85 55 3d 30 33 ac 3d b9 98 04 3e
       -0.020393262 0.05212958 0.08408201 0.12948884
0002b0 59 af 33 bd 90 5e 3b 3d 8e b8 bb 3d 1b c6 48 be
       -0.043868396 0.04574448 0.091660604 -0.19606821
0002c0 6c 92 0f be 8e cf 11 be 78 dd 49 3e de ba 87 3d
       -0.140207 -0.14239332 0.1971339 0.06627439
0002d0 28 c6 ee 3c 47 2d b5 bc 78 ad 9b 3d 3c 5f ef 3d
       0.029147223 -0.022116316 0.07601446 0.116880864
0002e0 a5 ba e4 3d 96 af 15 3d b9 10 97 3d 47 c0 47 be
       0.11168412 0.036544405 0.073762365 -0.19506942
0002f0 8c a6 3d be 57 53 21 3e 75 db 9b 3c 04 60 8d 3b
       -0.18520564 0.15754448 0.019025544 0.0043144245
000300 b0 5c e8 3c f4 80 6a bd 81 9b 97 bb 2b 2a a8 bc
       0.02836451 -0.057251886 -0.004626692 -0.02052792
000310 16 90 19 3e ff 98 08 bd 1c a8 84 bd d1 be d7 3d
       0.1499637 -0.033349033 -0.06477377 0.10534442
000320 83 91 09 bd b0 cc f3 bd ab 56 a0 3d 14 b1 27 3e
       -0.033586036 -0.119042754 0.078290306 0.16376144
000330 cf bb fa 3d 27 73 04 be ae c5 c3 bd 92 3e 95 bb
       0.12242853 -0.12934552 -0.09559189 -0.004554578
000340 08 63 d4 3b af b5 d0 bc ba fa 2a bd 7f 93 00 bd
       0.006481532 -0.025477258 -0.041743018 -0.031390663
000350 f3 9f 9a 3d 07 81 10 3d fd af 8b 3d 73 6d de bd
       0.07550039 0.0352793 0.068206765 -0.108607195
000360 d8 17 d3 3b 22 c9 64 3d f6 e9 42 bc 76 b2 18 3d
       0.0064420514 0.055855878 -0.011896601 0.03727957
000370 c5 18 60 bd 99 d1 91 bd 8c f7 9b bc 5c 65 9d bc
       -0.054711122 -0.07120056 -0.019038938 -0.019213371
000380 44 f7 33 bd b7 77 61 bb d0 68 af bb 69 4d 3c bd
       -0.043936983 -0.003440363 -0.005353071 -0.04597226
000390 05 68 50 3d 23 ba e1 bd ba 96 8d 3d 43 4c af 3b
       0.05088045 -0.11021831 0.069135144 0.0053496673
0003a0 f9 b0 18 be 17 aa 46 bc 22 62 28 be 15 45 93 3d
       -0.1491126 -0.0121255135 -0.16443685 0.07190911
0003b0 b4 1f cb 3c 52 ee e4 bd 58 b8 38 3e 7f 33 33 bb
       0.02479539 -0.111782685 0.18039072 -0.0027343926
0003c0 13 66 4e bd 7e 5e 95 bc 30 47 3b bd f9 0a 50 3d
       -0.050390314 -0.018233534 -0.045722187 0.050791714
0003d0 9d b2 61 3e 4e 4b 06 be 50 01 07 be f4 01 29 3d
       0.22040792 -0.13114664 -0.13184094 0.04126163
0003e0 92 e5 9f bc 8b 3b 99 3d 07 2a 76 bc ae 00 21 be
       -0.019518647 0.0748206 -0.015024669 -0.15722916
0003f0 3d 4d c1 3d 04 6f 7f 3d 95 13 a1 bd b3 5d 76 bd
       0.0943856 0.062361732 -0.07865063 -0.060147952

network_body._body_endoder.seq_layers.2.bias f4 [128]
000000 00 00 00 00 00 00 00 00 00 00 00 00 00 00 00 00
       0.0 0.0 0.0 0.0
000010 00 00 00 00 00 00 00 00 00 00 00 00 00 00 00 00
       0.0 0.0 0.0 0.0
000020 00 00 00 00 00 00 00 00 00 00 00 00 00 00 00 00
       0.0 0.0 0.0 0.0
000030 00 00 00 00 00 00 00 00 00 00 00 00 00 00 00 00
       0.0 0.0 0.0 0.0
000040 00 00 00 00 00 00 00 00 00 00 00 00 00 00 00 00
       0.0 0.0 0.0 0.0
000050 00 00 00 00 00 00 00 00 00 00 00 00 00 00 00 00
       0.0 0.0 0.0 0.0
000060 00 00 00 00 00 00 00 00 00 00 00 00 00 00 00 00
       0.0 0.0 0.0 0.0
000070 00 00 00 00 00 00 00 00 00 00 00 00 00 00 00 00
       0.0 0.0 0.0 0.0
000080 00 00 00 00 00 00 00 00 00 00 00 00 00 00 00 00
       0.0 0.0 0.0 0.0
000090 00 00 00 00 00 00 00 00 00 00 00 00 00 00 00 00
       0.0 0.0 0.0 0.0
0000a0 00 00 00 00 00 00 00 00 00 00 00 00 00 00 00 00
       0.0 0.0 0.0 0.0
0000b0 00 00 00 00 00 00 00 00 00 00 00 00 00 00 00 00
       0.0 0.0 0.0 0.0
0000c0 00 00 00 00 00 00 00 00 00 00 00 00 00 00 00 00
       0.0 0.0 0.0 0.0
0000d0 00 00 00 00 00 00 00 00 00 00 00 00 00 00 00 00
       0.0 0.0 0.0 0.0
0000e0 00 00 00 00 00 00 00 00 00 00 00 00 00 00 00 00
       0.0 0.0 0.0 0.0
0000f0 00 00 00 00 00 00 00 00 00 00 00 00 00 00 00 00
       0.0 0.0 0.0 0.0
000100 00 00 00 00 00 00 00 00 00 00 00 00 00 00 00 00
       0.0 0.0 0.0 0.0
000110 00 00 00 00 00 00 00 00 00 00 00 00 00 00 00 00
       0.0 0.0 0.0 0.0
000120 00 00 00 00 00 00 00 00 00 00 00 00 00 00 00 00
       0.0 0.0 0.0 0.0
000130 00 00 00 00 00 00 00 00 00 00 00 00 00 00 00 00
       0.0 0.0 0.0 0.0
000140 00 00 00 00 00 00 00 00 00 00 00 00 00 00 00 00
       0.0 0.0 0.0 0.0
000150 00 00 00 00 00 00 00 00 00 00 00 00 00 00 00 00
       0.0 0.0 0.0 0.0
000160 00 00 00 00 00 00 00 00 00 00 00 00 00 00 00 00
       0.0 0.0 0.0 0.0
000170 00 00 00 00 00 00 00 00 00 00 00 00 00 00 00 00
       0.0 0.0 0.0 0.0
000180 00 00 00 00 00 00 00 00 00 00 00 00 00 00 00 00
       0.0 0.0 0.0 0.0
000190 00 00 00 00 00 00 00 00 00 00 00 00 00 00 00 00
       0.0 0.0 0.0 0.0
0001a0 00 00 00 00 00 00 00 00 00 00 00 00 00 00 00 00
       0.0 0.0 0.0 0.0
0001b0 00 00 00 00 00 00 00 00 00 00 00 00 00 00 00 00
       0.0 0.0 0.0 0.0
0001c0 00 00 00 00 00 00 00 00 00 00 00 00 00 00 00 00
       0.0 0.0 0.0 0.0
0001d0 00 00 00 00 00 00 00 00 00 00 00 00 00 00 00 00
       0.0 0.0 0.0 0.0
0001e0 00 00 00 00 00 00 00 00 00 00 00 00 00 00 00 00
       0.0 0.0 0.0 0.0
0001f0 00 00 00 00 00 00 00 00 00 00 00 00 00 00 00 00
       0.0 0.0 0.0 0.0

network_body._body_endoder.seq_layers.2.weight f4 [128, 128]
000000 ff bf f5 bd e6 2d 7b ba 57 e5 de 3d 03 12 55 3e
       -0.11999511 -0.00095817295 0.10883587 0.20807652
000010 ed a9 f8 bc 7c 68 5f 39 31 6b a0 bc 7e b7 ff 3c
       -0.030354464 0.0002130586 -0.019582363 0.031215426
000020 76 1f 88 bd a5 1d 60 ba 4d a5 55 bd 6a 43 12 bd
       -0.06646626 -0.0008549339 -0.052159596 -0.035708822
000030 24 b9 60 3e af 57 3b be 73 a8 3f bd 5a d4 b4 3a
       0.21945626 -0.18295167 -0.046791505 0.0013796196
000040 45 07 b9 3a dc 6e 8d 3d ff 65 e1 3d 57 43 05 bd
       0.0014116546 0.069059104 0.11005782 -0.032534923
000050 72 69 a1 3d 10 6a f5 3d 8f dd fc bc 7f 7c c1 bd
       0.0788144 0.119831204 -0.030867366 -0.09447574
000060 f9 78 c4 3d 57 2c 90 bd e0 2d 04 bd 43 d1 a0 3d
       0.09593386 -0.07039707 -0.032270312 0.078524135
000070 a3 0f b0 bd 59 1f c8 3c dc ba 24 be 17 21 cb 3d
       -0.085967325 0.02442901 -0.16086906 0.09918421
000080 05 e3 0b be 08 85 a1 bd 8a a3 69 3c 9f df 45 bc
       -0.1366082 -0.07886702 0.014260182 -0.012077241
000090 ac 44 12 3e 6e 3d af bc e7 7d 45 bd b7 f7 87 3c
       0.14284009 -0.021391597 -0.048215773 0.016597612
0000a0 aa 27 ba bc 04 02 78 3d a0 f5 82 3d c2 f7 65 3b
       -0.022723991 0.060548797 0.063945055 0.0035090302
0000b0 06 f4 bb bc e3 9c 90 bd be fb b7 bd 60 54 56 be
       -0.022943508 -0.07061174 -0.08983563 -0.20930624
0000c0 96 cc f0 3c a6 67 10 3d 19 e1 3b bc e0 de 0b be
       0.02939443 0.035255097 -0.011467242 -0.13659239
0000d0 85 89 21 3b 1c 27 c5 bd c5 67 c2 3c 70 52 1c 3d
       0.0024648618 -0.096266 0.023731122 0.038164556
0000e0 4f ac 16 bc e1 76 0c 3d 0e 22 d1 3d 0c ce 05 be
       -0.009196355 0.03429306 0.102115735 -0.13066882
0000f0 7c a5 c3 bd 87 5b f9 3d 24 c3 ac bd 7b 68 c9 bd
       -0.09553048 0.121756606 -0.084356576 -0.09834381
000100 30 4a 64 be 6e 04 89 3d 9d a9 9a 3d 44 d9 84 3d
       -0.22293925 0.06690298 0.075518824 0.06486753
000110 72 a8 ef 3c 95 c9 9f 3c 51 ff 21 bd 15 c2 9e 3d
       0.029255126 0.019505301 -0.03955013 0.07751862
000120 ef ed a3 bc 4f 14 b8 3b f3 97 86 bd 1a 36 a0 3d
       -0.020010917 0.0056176553 -0.06571951 0.07822819
000130 32 a6 ed bd ac a8 4a b9 7a a5 8c bc 52 b7 45 bd
       -0.11603965 -0.00019327056 -0.01716875 -0.04827053
000140 cd 13 6a 3e f8 30 d6 bd 98 75 fe 3d 28 5e a1 3c
       0.22859116 -0.10458559 0.12424773 0.019698218
000150 39 d0 bc 3d 98 94 87 3d 4a 0e b3 bd 16 93 b2 bd
       0.09219403 0.06620139 -0.0874296 -0.08719461
000160 75 35 43 be f7 96 3e bd 9c a4 bf bc c8 80 49 bb
       -0.19063361 -0.04653069 -0.023393922 -0.0030746926
000170 d1 30 8d 3d 5f fd 73 bd 41 66 dd 3c 7c 05 19 bd
       0.068940766 -0.059567805 0.027026298 -0.037358746
000180 4d 5f 8d bd 21 37 40 3e de ef dc bd 2c 13 eb 3c
       -0.06902943 0.1877103 -0.107879385 0.028695665
000190 73 1c 0a bd 40 cc 90 3d 7a fa 80 be 8d 0f 10 be
       -0.033718538 0.070702076 -0.25191098 -0.14068432
0001a0 bb b3 2b 3e 22 da 87 bd 33 73 8c bd 65 b2 b5 bb
       0.1676778 -0.066334024 -0.0685791 -0.005544948
0001b0 2b 32 8a 3b cc 65 7f 3d e2 5c 3d bc 03 ad 1b 3d
       0.0042174063 0.06235294 -0.0115577895 0.038006794
0001c0 cf f8 65 bd 1d 7e f1 3d 8c 33 76 bd 1d ab 28 3e
       -0.056145485 0.11791632 -0.060107753 0.16471525
0001d0 48 59 40 bd f0 11 46 be 4b af f9 bd 80 d2 a8 3c
       -0.046960145 -0.1934278 -0.121916376 0.020608187
0001e0 27 d2 86 3d a8 49 5d 3c 75 25 a7 bd c9 8c 5e bd
       0.06583052 0.013506331 -0.08161441 -0.054333482
0001f0 d1 d2 b9 3d 3f ab 88 bc 1c 7a 3a bd 83 d5 7d bd
       0.09073413 -0.016683219 -0.04552661 -0.0619712
000200 37 ab 14 bd 03 96 b8 bd 98 7c 8e bd 9a bc 50 3c
       -0.036296096 -0.090129875 -0.06957358 0.012740279
000210 77 3c 2d bd 8b ec 26 3d 69 91 dd bd 0b a5 4e ba
       -0.042293992 0.04075293 -0.108187504 -0.00078828697
000220 a9 d6 2c bd 4d f8 82 bd a3 fe b7 bd 6b ae 10 3d
       -0.042196903 -0.06395016 -0.08984115 0.035322588
000230 f6 7d 53 3e a6 90 7b 3e 68 5f 4e 3d 0f 3a df bd
       0.20653519 0.24566898 0.050383955 -0.10899746
000240 be 49 18 bd 5f fa 81 bd ce 88 a9 bd 8e 1b f7 3d
       -0.0371797 -0.063465826 -0.082780465 0.120658025
000250 0d 95 e8 bc f3 ef 14 3d 26 ab a5 bd 66 ec 1e 3d
       -0.028391385 0.036361646 -0.080892846 0.038799666
000260 a4 82 ff 3b 53 ed 66 bd 4b 06 a1 bd 99 91 4c 3e
       0.007797556 -0.056378674 -0.078625284 0.19977416
000270 fe bd 18 3b 33 de e3 bc c2 6e c2 3c b2 58 34 3e
       0.0023306604 -0.027815914 0.023734454 0.1761196
000280 00 d3 b5 bd 53 19 cc bc f1 9e 32 3d 6e a8 85 bd
       -0.08878136 -0.02491442 0.04360861 -0.06526266
000290 17 ec 06 be 38 05 c0 3d f5 9d 1f 3b a6 9d aa 3b
       -0.13175999 0.093759954 0.0024355624 0.0052067814
0002a0 27 0a 46 bd 09 17 12 3d 56 d3 78 3b 37 d3 0a 3c
       -0.048349526 0.0356665 0.0037967763 0.008473209
0002b0 db d7 09 3d 4a 0e 32 be bd 95 d9 3c f9 98 2f be
       0.03365312 -0.17388263 0.026560659 -0.17148198
0002c0 f5 f5 13 3d 0b 99 45 3d 97 4a dd 3c 3d 54 1d 3e
       0.036123235 0.048241656 0.027013106 0.15364166
0002d0 c2 80 a0 bc bd a9 f0 bd 3f a1 f0 ba 6f ed b9 3c
       -0.019592647 -0.11751125 -0.0018358602 0.022696225
0002e0 60 27 3e 3e e4 28 b3 3c 63 3b 0e bc 13 69 69 bd
       0.18569708 0.021870084 -0.008681151 -0.056984972
0002f0 7b c3 f4 3c ee bc 99 3d 64 33 9f 3c 58 36 c0 bd
       0.029878369 0.075067386 0.019433685 -0.09385365
000300 5c df 06 3c 80 03 6a 3a 31 5a 84 3d 9d 4d 95 bd
       0.008231964 0.0008926913 0.06462515 -0.07290194
000310 98 79 4c 3e 52 d0 d0 bd 8c 35 52 be 8c fc ac 3d
       0.1996826 -0.10195984 -0.20528239 0.08446607
000320 c8 46 fd bd 5e 6a 1d be ed d1 19 3e 55 77 ba 3c
       -0.12367016 -0.15372607 0.15021487 0.02276198
000330 04 21 28 3d 9c 66 84 3d 40 30 6a bd 56 98 dd 3d
       0.04104711 0.06464884 -0.05717492 0.108200714
000340 11 35 c6 3d df d0 81 bc e1 4c b4 3d d8 08 89 3d
       0.0967809 -0.015846668 0.08803726 0.0669114
000350 dd 9b 7a 3d 94 88 a6 bd 64 d9 f4 bc 82 59 f2 bb
       0.0611838 -0.08131519 -0.029888816 -0.007395924
000360 c6 4d d8 bc 3e ab fb bd 05 fa 56 3c 59 8f 33 be
       -0.026404273 -0.12288521 0.013121133 -0.17535152
000370 5f af aa bc 44 90 5b 3d 79 f2 2e bd 9b 9c 1d 3d
       -0.020835577 0.05360438 -0.04271171 0.03847943
000380 5c 44 d6 bb 8f 69 71 3d 00 61 05 3e b0 96 d2 3a
       -0.006538911 0.05893856 0.13025284 0.0016066637
000390 e8 81 94 3d 32 24 8a bd 75 5b 1b 3e be 2c e2 3d
       0.0725134 -0.06745185 0.15171607 0.1104369
0003a0 66 37 4d 3c 86 b9 18 be 32 cf e1 bd 3a 5c ad bd
       0.012525415 -0.14914522 -0.110258475 -0.084648564
0003b0 53 bf a1 bd de 1a 44 be 48 52 bc bd 21 58 83 3c
       -0.0789782 -0.19150874 -0.091953814 0.016033234
0003c0 03 aa e3 bc 97 54 3c bd f1 7c 0a 3e be 56 5e 3d
       -0.027791029 -0.04597911 0.13524224 0.054281943
0003d0 f6 19 50 3d e2 74 87 3d 8a 03 2b 3e a8 43 8a bd
       0.05080601 0.066140905 0.16700569 -0.06751186
0003e0 e1 04 66 bd ed 85 cd bd 05 25 b7 bd 5c a5 e9 bd
       -0.056156997 -0.1003531 -0.08942608 -0.11408493
0003f0 e1 16 17 bd 36 02 fb bd 28 61 7b bd 0d c8 bf bd
       -0.036887053 -0.12256281 -0.061371952 -0.093643285
