Unity Project/CSC 30014 Project/results/test/Car/Car-32224.pt (torch, 651359 bytes, 36 tensors)

network_body._body_endoder.seq_layers.0.weight f4 [128, 75]
000000 94 69 6b 3c cb 28 93 3d b7 80 6c bd dd 7c 90 bd
       0.0143684335 0.07185515 -0.05773994 -0.07055066
000010 b9 97 88 3e c1 f7 08 3d 94 43 fc 3d 2e c2 8e bd
       0.26678255 0.0334394 0.12317577 -0.069706306
000020 54 4f c8 3c e9 37 99 3d a2 10 1e 3e f0 9e c2 3d
       0.02445189 0.07481367 0.15436032 0.09502971
000030 61 a0 e7 3d 8a 70 b6 3d 7c 5f 88 3d de 01 48 3e
       0.11309887 0.08908184 0.06658837 0.19531962
000040 37 e2 80 3e 54 f9 55 bc 49 35 b0 bd 6c 12 4c 3c
       0.25172588 -0.013059933 -0.08603913 0.012455564
000050 52 66 4b bc 41 45 7a 3d aa 93 0e be 84 5b 39 3e
       -0.012414532 0.061101202 -0.13923517 0.18101317
000060 1a ec 54 bd ae f0 0c bd 9a b5 99 3d 99 57 2f bd
       -0.051982976 -0.034409218 0.07505341 -0.04280815
000070 0c 33 ab bd 27 05 13 3e 83 10 11 3e e9 24 4b be
       -0.08359346 0.14357434 0.14166455 -0.19838299
000080 90 ad f6 3d 6c 75 43 3e 37 f0 52 3e 74 8a 95 bd
       0.12044823 0.19087762 0.20599447 -0.073017985
000090 ff 9b 5c 3d 83 24 00 bc 16 46 7d 3d 19 29 3f bc
       0.053859707 -0.007821205 0.061834417 -0.011667513
0000a0 f2 b2 fc 3d 70 01 34 3d 9c fd 35 3e 4e a5 0f 3e
       0.123388186 0.043946683 0.17772526 0.14027902
0000b0 64 dd a6 bc f6 23 00 3e 50 66 24 be b6 d3 cf bd
       -0.02036924 0.12513718 -0.16054654 -0.101478025
0000c0 0d e7 cb bc db e2 ce 3a 0b fc 53 3d f4 c2 87 bd
       -0.024890447 0.0015784161 0.05175404 -0.06628981
0000d0 44 bd 81 3e 32 f3 68 3d 15 20 ab bd 07 c7 cd bc
       0.2533971 0.056872554 -0.083557285 -0.025119318
0000e0 18 00 22 3c 9a a4 a3 bc 9b 2a 00 3e ab 14 ac 3d
       0.009887718 -0.01997595 0.12516253 0.084023796
0000f0 d7 04 09 3d 30 b3 37 be 4a 7a bd be 91 95 47 be
       0.03345188 -0.17939448 -0.37007362 -0.19490649
000100 fa 47 c5 bd da 10 ad bd 7f bb 11 3c 4a ef 0c bd
       -0.09632869 -0.0845048 0.0088948 -0.03440789
000110 b0 1c ca bd 49 a2 c9 bc 2a 14 d6 3c 51 4b 13 3e
       -0.09868753 -0.024613516 0.026132662 0.143842
000120 2c 5f 80 3e d1 ff f5 bd 4e 91 66 3d db 7d 9b bd
       0.2507261 -0.12011684 0.056290917 -0.075923644
000130 f8 03 d3 bd 5d c5 30 be 5c 41 98 be d8 d2 92 3d
       -0.10303491 -0.17262788 -0.29737365 0.071691215
000140 ac 27 45 bd fd e8 77 3d b1 96 45 bd b6 b0 a4 bd
       -0.048133537 0.06052493 -0.048239414 -0.080415174
000150 cf 50 96 3e a2 27 52 be 22 bf 12 be 1f 78 63 3d
       0.29358527 -0.20522931 -0.14330724 0.05553448
000160 f8 cf e8 bd 60 41 57 3c 3f 5f 11 bb b0 87 64 bc
       -0.11367792 0.013138145 -0.0022182015 -0.013948366
000170 21 4a e2 bd 47 60 0a 3e b0 75 02 3e bb 13 ae bd
       -0.11049295 0.1351329 0.12740207 -0.08499857
000180 d6 95 d6 3d 45 9d 68 be bf cc be 3d 0f c6 cc 3b
       0.10477798 -0.22716244 0.09316396 0.0062491964
000190 ea 0b c7 3d d3 5e 76 3e 01 24 78 3c 0c 5b 88 bc
       0.09719069 0.2405961 0.015145303 -0.016644977
0001a0 73 15 95 be 46 6d 27 be f3 2d ac bc 4a 69 de bd
       -0.29117927 -0.16350278 -0.021018004 -0.10859926
0001b0 05 0d 81 3d 53 64 bb bc 37 76 32 be dc e5 79 be
       0.063013114 -0.022874987 -0.17427908 -0.2440409
0001c0 a7 81 2c bd 81 24 f6 3d 0e e2 1f 3e 17 f0 f0 bd
       -0.042115834 0.12018681 0.15613577 -0.117645435
0001d0 85 8b 6b be ec 91 32 3e 22 91 79 bd 00 35 20 bd
       -0.23002441 0.17438477 -0.060929425 -0.039113045
0001e0 1d ea e1 3c 63 7d 64 be 83 e7 41 3c 78 9b 22 bd
       0.027577454 -0.22313456 0.011834982 -0.039699048
0001f0 5f 44 e0 3b f4 96 c6 bd 77 8e 46 3d 6c 72 a2 bb
       0.006844088 -0.09696761 0.04847571 -0.004957488
000200 46 9a 91 be f4 5e 61 3e 4f 34 dd bc ac d2 b1 bd
       -0.28438014 0.22008878 -0.027002482 -0.086827606
000210 04 a3 49 be 9d bf 1f be 35 82 06 3e 68 06 4f 3d
       -0.19691092 -0.15600438 0.13135608 0.05054322
000220 28 4f d2 bd 01 fa 2e 3e b9 bf 21 be 56 6b f0 3d
       -0.10269004 0.17087556 -0.15795793 0.11739223
000230 fb b2 08 bd 7b 2a 22 be 9b 9c 9d bd af 94 e6 3c
       -0.033373814 -0.15836518 -0.07695886 0.02814707
000240 99 53 a1 bd 06 e2 f8 bc 0f 95 ed 3b a3 01 6b bd
       -0.07877273 -0.030381214 0.007250435 -0.057374608
000250 f7 6b bf bc 8b 90 8c bc 76 f0 bc bd 31 ec e7 3d
       -0.023366911 -0.017158767 -0.09225552 0.11324347
000260 ca 2a a7 3d 89 2c 1a 3e e8 e0 1b 3d 9d ed 00 3e
       0.08162458 0.15056051 0.038056284 0.12590642
000270 eb f1 c5 3c 22 3b 4f bd 17 15 e0 bd 46 84 6d 3d
       0.024163207 -0.050593503 -0.109415226 0.057987474
000280 cc 85 e8 3d ec 27 24 be 36 a4 42 bd 9e b8 0b 3d
       0.11353645 -0.16030854 -0.047519885 0.03411161
000290 50 75 ca bd b5 9b 36 3e 44 31 b9 bd 2c 7f 25 bd
       -0.09885657 0.17832835 -0.090426 -0.040404484
0002a0 23 5d 22 bc 79 fa 36 3d 36 d0 4f be 40 a3 a6 3c
       -0.009909901 0.044672463 -0.2029427 0.020341516
0002b0 09 7c c5 bd 06 f4 2e 3d e0 79 ca bd d3 b1 e6 3d
       -0.096427985 0.042713188 -0.09886527 0.11264386
0002c0 97 c8 2b bd f5 18 8d be f3 b0 aa 3e 6e 3d e4 bc
       -0.041939344 -0.27558103 0.33338127 -0.027861323
0002d0 a7 9a 48 3d 6b 18 8c be e7 cf 52 be 20 7a ee bc
       0.048975613 -0.2736238 -0.20587121 -0.029110968
0002e0 a8 a3 ea bd d6 2e e5 3c e7 46 53 3d f1 ce 4c be
       -0.11456996 0.027976435 0.05158129 -0.20000817
0002f0 6b 05 77 3d 06 f7 f9 3d a1 a0 1e bd 25 4f 4f bc
       0.0603079 0.12205319 -0.038727406 -0.012653147
000300 5b 55 f0 3a 0c b0 50 3e 27 90 58 be a1 f9 51 3c
       0.0018335985 0.20379657 -0.2114874 0.012815864
000310 06 fd 00 bd b4 37 33 3e ab 50 84 3d e6 59 d4 3d
       -0.031491302 0.17501718 0.06460699 0.10368709
000320 91 1e 01 3e e0 10 82 bb f7 12 7e bd de 1f 1d bd
       0.12609316 -0.003969297 -0.062029805 -0.03836047
000330 ca 3b 42 be ae 5d 24 be b8 29 e4 bc 6f 0e 3d bc
       -0.1896812 -0.16051361 -0.027851924 -0.011539086
000340 cd 98 ca 3d f8 37 ee bc ea 62 ce bd 87 da 94 3e
       0.09892426 -0.029079422 -0.1007746 0.29072973
000350 07 05 a6 3d 5f b9 e7 bd cf 83 f2 3d 51 e5 1f be
       0.08106428 -0.113146536 0.11841547 -0.15614821
000360 d8 fa 64 be 09 2f c7 bd b0 88 66 bd 80 6c 04 be
       -0.22361314 -0.09725768 -0.0562827 -0.12932014
000370 8f 20 96 3d b3 e2 ac 3c 8f 5a 8a 3e c4 19 b6 3d
       0.07330429 0.021104192 0.27022216 0.08891633
000380 df 84 61 3d 51 9f 90 bd 9b 97 c0 3c 2d d0 c3 bd
       0.055058356 -0.07061637 0.023509791 -0.09561191
000390 91 50 9e bd 55 d3 52 3d 16 63 31 3e 34 cc b6 3d
       -0.077302106 0.051471073 0.17322955 0.089256674
0003a0 d6 ed e1 bd bb c0 f5 bd c4 ce 04 be fb a3 37 3e
       -0.11031692 -0.11999651 -0.129695 0.17933647
0003b0 12 88 04 3d a5 a0 04 be 0e 75 d5 3d b6 46 28 bc
       0.03235633 -0.12951906 0.10422717 -0.010270765
0003c0 42 64 bf 3d c2 84 0c bc 44 bb 01 3d 31 d5 af bd
       0.093452945 -0.008576574 0.03167273 -0.08585585
0003d0 d0 b7 68 3e 27 2d 25 3e b0 9a 0c be 31 fa 05 bc
       0.22726369 0.16130506 -0.13730884 -0.008177326
0003e0 65 a5 93 3d a5 e7 ba 3d bf 1c 67 bc 50 3c 98 bb
       0.07209281 0.09126214 -0.014105975 -0.0046458617
0003f0 38 c7 da bd bd 4b 49 3e 84 5f 4c bd f1 00 f6 bd
       -0.10682529 0.19657798 -0.04989578 -0.12011898

network_body._body_endoder.seq_layers.0.bias f4 [128]
000000 54 c7 77 3b 16 8d 22 bc 0b 45 0d bc 0a d8 86 bc
       0.0037808018 -0.009921333 -0.008622418 -0.016460437
000010 d5 9b 8e bc ca a8 db 39 98 7e 40 bd 15 d9 b4 bc
       -0.01740829 0.00041896693 -0.04699573 -0.022076169
000020 0a 59 8c bc ca 4c db bb a1 8b 56 bc 13 b5 6e bc
       -0.0171323 -0.0066925036 -0.013094814 -0.014569539
000030 7c 46 ff ba 6e 15 ac 3b 84 7c fe bc b1 ba cd 3a
       -0.0019475962 0.005251578 -0.031065233 0.0015695897
000040 15 73 11 bd 7f 35 0f bc 40 a0 b1 bc 3c 4a ee 3b
       -0.03551014 -0.008740782 -0.021682858 0.007272033
000050 94 4b 06 3c 69 2b 4e bc 37 50 8c ba 07 11 9c bc
       0.00819673 -0.012583592 -0.0010705058 -0.019051088
000060 91 bb 9c bb 7b d0 3e bd 7e 24 aa 3b 8b 7d a9 bc
       -0.004783102 -0.04658554 0.0051923385 -0.020689746
000070 9e 12 c4 3c f4 e8 c9 bb 67 00 b4 bc ed 3f 14 bc
       0.023934659 -0.0061618034 -0.021972848 -0.009048444
000080 4c 7c 7d bc f6 6a a0 bc 9a 67 65 bc 0d 3f cf bc
       -0.015471529 -0.019582253 -0.014001751 -0.02529862
000090 8c 0a 6d bc 74 58 19 bc 35 c1 bb bc 05 1b 6d bc
       -0.014467847 -0.009359468 -0.022919277 -0.014471774
0000a0 40 73 9b bc c1 f4 e0 bc 3f 10 26 bc dd 36 04 bd
       -0.018975854 -0.027460458 -0.010135709 -0.032278884
0000b0 51 00 3c bb 5d 63 9c bd 3c 20 72 bc e6 bd d4 bc
       -0.0028686712 -0.076361395 -0.014778193 -0.025969457
0000c0 d7 94 b7 bb 91 b8 81 bc ad eb b4 bc 90 a5 2a bc
       -0.00560246 -0.015835078 -0.022085035 -0.01041545
0000d0 4e 0b 99 bd 59 55 24 bc e9 8e 74 bc 57 81 05 bd
       -0.07472859 -0.010030114 -0.014926651 -0.03259405
0000e0 44 81 cb bc 04 4f 9c bc 3c 4e 58 bd 4a 29 fd 3b
       -0.024841912 -0.019080646 -0.052808985 0.0077258693
0000f0 c1 44 fc bc 51 40 af bc 1c bf 80 bb 0f 87 c7 bb
       -0.030794503 -0.021392973 -0.003929032 -0.0060890983
000100 5c a4 89 bc 56 22 a0 3c 19 ee 8e bb e1 49 bd bb
       -0.016802005 0.019547623 -0.0043618795 -0.0057766293
000110 db 4a 62 bc 91 6f 69 3c 92 59 de bb a2 18 16 bd
       -0.013811792 0.014247791 -0.00678558 -0.036644585
000120 19 78 ec bc 69 c3 50 bb 41 fe cb bc 02 6e 92 bc
       -0.02886586 -0.0031854755 -0.024901511 -0.017874721
000130 9f 10 06 bd a8 be 75 bc c6 9e a6 3c 07 41 80 b9
       -0.032730695 -0.014999069 0.020339381 -0.00024462512
000140 20 8a d3 bc e9 a0 9c bc f6 6f 29 bb 73 34 e5 bb
       -0.0258227 -0.019119697 -0.0025854087 -0.006994778
000150 24 fe c8 bc b9 99 55 ba 3d 04 25 bd 6d 89 1e 3b
       -0.024535246 -0.00081482116 -0.040287245 0.00241908
000160 b7 26 0b bc 6b 23 d5 bc d2 18 96 bc 1a 46 19 39
       -0.008493117 -0.026017865 -0.018322382 0.00014617332
000170 30 ed 1b bc 8d 5d fe b9 8a c0 2c bd 88 cf 1f bd
       -0.009516999 -0.00048516356 -0.042175807 -0.039016277
000180 a5 b5 e0 bc 9d d5 21 bc 0e f8 43 bc b7 57 19 bc
       -0.027430365 -0.0098775895 -0.011960996 -0.009359292
000190 1e df 13 bc 16 72 0d bc 9c 6e 8b bc b5 bf be bc
       -0.009025363 -0.008633157 -0.017020516 -0.023284772
0001a0 7e 40 b5 bc 8c 27 bb bc 2d ba f3 bc c6 a4 85 bc
       -0.022125479 -0.022846006 -0.029751861 -0.016313922
0001b0 65 28 44 bc 0b 13 1b bd 61 3e 4a bc 7e 6f 7a 3c
       -0.011972521 -0.037859958 -0.012343974 0.015285371
0001c0 d3 d3 88 bc e7 33 83 3b 41 35 a1 bc 42 c4 6c 3b
       -0.016702568 0.00400399 -0.019678714 0.003612772
0001d0 d3 ee 1d 3c 6a 2f 71 ba 6c b1 2b bd 40 5a 7e bc
       0.00963946 -0.00092004857 -0.04191725 -0.015524447
0001e0 f5 e1 1a bc ee 45 15 3c f8 fc 12 bd ec 79 c5 3a
       -0.009453286 0.009110911 -0.03588578 0.0015066243
0001f0 27 21 a1 ba 71 ea 78 3b 9a 1f d6 bc f7 3c e9 bc
       -0.0012293205 0.0037981535 -0.026138116 -0.028471453

network_body._body_endoder.seq_layers.2.weight f4 [128, 128]
000000 09 e6 61 3c 2f f1 25 3e c9 ee 1c bd 5d e1 23 be
       0.013787755 0.16205285 -0.03831366 -0.16003938
000010 38 ab 31 3e a0 b0 99 3d a8 87 66 3d 3d 93 a2 3d
       0.17350471 0.07504392 0.056281716 0.0793824
000020 ba 9d 1e 3d f5 e2 1f 3b 2e 4a 6a 3d 27 89 b4 3d
       0.03872464 0.0024396752 0.05719965 0.08815222
000030 fc e1 bd 3d e0 d5 ff bc 5b ed f8 3d 28 41 d7 bd
       0.09271619 -0.031229913 0.12154647 -0.105104744
000040 10 5c 38 be 3d 68 a1 3d 06 d2 65 bc a5 26 62 3c
       -0.18003869 0.0788121 -0.014027124 0.013803159
000050 e7 fa 21 bd c9 09 75 bd 48 48 58 bc 77 16 e9 bd
       -0.03954592 -0.059823785 -0.013200827 -0.11381238
000060 1e ee f6 3c 36 b2 a5 bd e0 30 18 3d 45 5b 16 bd
       0.03014284 -0.08090632 0.037155986 -0.036708135
000070 f1 aa 81 3c e5 f5 b3 39 da 26 2b 3d ac 40 e7 bd
       0.015828582 0.00034324746 0.0417851 -0.11291632
000080 86 7c 1c be 1c 42 2d 3e 78 52 eb bd a6 35 37 3e
       -0.15281877 0.1691975 -0.11490339 0.17891559
000090 b6 8f f2 3d ab 4b 20 3d ca 65 42 3c 64 76 8b 3d
       0.11843817 0.039134663 0.011865089 0.068096906
0000a0 b2 a3 db 3d 8b d1 c7 3d 25 1e 1d 3c 50 9c 8b 3c
       0.10724582 0.09756764 0.009589707 0.017042309
0000b0 fd 9e 91 bd 64 a0 13 3a 2d 8a 31 3c ff e6 49 3e
       -0.07110403 0.0005631505 0.010836166 0.19717024
0000c0 eb 01 55 3d 88 63 77 3c 67 c4 e9 bd ea 42 ca 3d
       0.052003782 0.015099414 -0.11414414 0.09876044
0000d0 e7 23 a5 3c 2e ab 3c 3c ac 7d aa 3d ed 6e 4c be
       0.020158721 0.011515422 0.08324751 -0.1996419
0000e0 ca 53 fe bd 40 96 7d bc e5 63 bd 3d 51 03 34 3c
       -0.12418325 -0.015477717 0.09247569 0.010987119
0000f0 b9 51 d8 3b c2 1d 7f bd 0a d6 f6 bd 2d 88 d8 3d
       0.006601539 -0.06228424 -0.120525435 0.105728485
000100 be b4 8d bd e1 66 cb 3c 0b 9f ae bd e5 62 d4 bc
       -0.069192395 0.02482933 -0.08526429 -0.025926063
000110 ee ad 62 bd 54 e9 fc 3b 61 d4 dd bd 4a b0 d2 3c
       -0.055341654 0.0077182446 -0.10831524 0.025718827
000120 ff b7 a6 bd 00 47 0d 3e 9b db 68 3c ba ac ae bd
       -0.08140563 0.13796616 0.014212514 -0.08529039
000130 c2 fd 19 3e 8a 69 5f 3d e0 95 7d bd 7d 43 09 be
       0.15038207 0.05454401 -0.06191051 -0.13404651
000140 6c 53 b8 bc 48 b0 ee bd d2 ed 5e 3d e7 f5 02 3c
       -0.022500716 -0.11654717 0.054426022 0.007993198
000150 45 c2 74 bd 19 cc 5c 3e ef 0d e7 bd 18 2f 2f 3e
       -0.059755582 0.21562232 -0.112819545 0.17107809
000160 c8 0b be 3d 50 01 38 bd e2 47 a0 3d 43 5d 93 be
       0.09279591 -0.044923127 0.078262106 -0.2878209
000170 79 fa 4a bd 24 4e ee 3d 5d 31 34 be 61 f5 4b 3d
       -0.049555276 0.11635998 -0.17596956 0.04979456
000180 6a 0f e1 3d b1 38 d6 3d e7 d9 13 bd b3 b3 c5 3d
       0.10989268 0.10460032 -0.03609648 0.096534155
000190 61 28 f9 3d ea 35 9d bd 2d 28 09 3d d0 d6 94 3d
       0.12165905 -0.07676299 0.03348558 0.07267535
0001a0 07 22 c0 3d 17 d7 9d 3d 11 90 93 3c 30 40 28 3d
       0.0938149 0.07707041 0.018013032 0.04107684
0001b0 09 ba 3f bd d0 75 5a 3e c4 24 24 bc 79 50 33 bb
       -0.046808276 0.21334004 -0.010018531 -0.0027361198
0001c0 19 bf 62 bd a9 b9 55 bd 7a 91 d0 3d 77 d5 91 3d
       -0.055358026 -0.052179012 0.101839975 0.07120793
0001d0 9f 61 fa bd af 47 97 bc 67 d1 94 3d ca 88 1c 3d
       -0.12225651 -0.018466799 0.07266503 0.03821639
0001e0 f6 6d 0b be 00 d4 80 3d 1f d0 01 3e db 89 ea bd
       -0.13616166 0.06290436 0.12677048 -0.11452075
0001f0 dc 8f 61 be 74 50 0d 3d b5 4a 08 3e 66 d3 3c 3d
       -0.22027534 0.034500554 0.13309748 0.046100043
000200 1e a3 b7 bd 7e f9 40 3d 71 6a c8 bb 4e 36 7c bd
       -0.08966659 0.047112934 -0.0061162044 -0.061575226
000210 05 4c 18 3e 81 42 96 3c 71 19 11 3c 84 7d e8 3b
       0.14872749 0.018342258 0.008856163 0.0070950408
000220 cb 6a 80 bd b5 3c 34 3b bc 63 9f 3d 42 ce 1e 3d
       -0.06270369 0.0027502005 0.07782695 0.03877092
000230 99 8b 6b 3d 14 48 89 3d 67 31 d6 bd d5 a4 05 bd
       0.057506178 0.06703201 -0.104586415 -0.0326279
000240 86 42 91 bd 99 14 d7 3d 10 18 36 be 26 2f 68 3d
       -0.070927665 0.105019756 -0.17782617 0.05668559
000250 15 dc 72 3d c2 61 07 3b c2 1f ef bd b1 3e b9 bd
       0.059291918 0.0020657633 -0.11675979 -0.090451606
000260 58 0f eb bc e5 c5 21 3d a7 cb 8a bd 2f 16 90 3b
       -0.02869384 0.039495368 -0.06777125 0.0043971757
000270 a6 cb 9a bd 0c 83 0e be 48 d8 20 3d 01 2d 04 3d
       -0.07558374 -0.13917178 0.039268762 0.03226948
000280 03 4a 1b 3d 23 90 27 be 51 bb 7a 3d ae ba 00 3d
       0.03791238 -0.16363578 0.061213795 0.03142803
000290 36 00 04 3e 35 8d 03 be 92 a2 01 be 81 72 9d bd
       0.12890705 -0.12846835 -0.12659672 -0.076878555
0002a0 f6 2a bf 3d f6 c2 e6 bd e6 df ab bd 90 0b b1 3c
       0.09334366 -0.112676546 -0.083923146 0.021611959
0002b0 98 a0 fa bd 4f 72 e7 bc ca 99 0c bc 5e c3 3f 3e
       -0.12237662 -0.028252749 -0.008581588 0.1872687
0002c0 e2 84 aa 3d 86 8b 03 3e b8 de c7 3b 1d 60 d1 bd
       0.08326127 0.12846193 0.006099548 -0.1022341
0002d0 50 86 5d bd be 45 fd bd 3a 5a 12 3e f7 53 e7 bb
       -0.05408317 -0.12366818 0.14292231 -0.00705957
0002e0 7c 81 36 3d 55 5a 29 be 6d 38 22 be 7d 6d 28 3d
       0.04455708 -0.16538365 -0.15841837 0.04112004
0002f0 ef c0 f9 3c a5 45 33 3c df 53 e1 bd 9d 55 f0 3d
       0.030487506 0.0109418975 -0.11002325 0.117350794
000300 aa f5 66 3d 6b 10 7c 39 94 fe b3 bd 6e 19 cb 3d
       0.056386627 0.00024038709 -0.08788791 0.0991696
000310 7f 28 d4 bd d3 1e 50 3d 0a 04 0b bd 26 0b 9b bd
       -0.103592865 0.050810646 -0.0339394 -0.07570486
000320 71 8c 06 3e 20 de f4 3d e5 db 20 3b 6a 9c 16 3d
       0.13139512 0.119564295 0.002454513 0.03677026
000330 a1 26 40 bd 64 4d e7 bd d6 12 02 bc ae fe 14 bd
       -0.04691184 -0.11294058 -0.007939061 -0.036375694
000340 04 88 e0 3d 9d b0 0c bb 82 ab 8f 3d 22 f1 92 3d
       0.10963443 -0.0021467574 0.070151344 0.07174899
000350 43 47 04 be c9 f5 25 bd a5 80 b8 bd 8c a2 5d bb
       -0.12917809 -0.040517602 -0.09008912 -0.003381881
000360 8d 3e be 3d 41 f7 fb bd 56 29 44 bd a6 2f be bd
       0.09289274 -0.12303019 -0.047890984 -0.09286432
000370 bc 64 bd 3b ac 20 3c be c1 22 c7 bd 8b e8 b2 bd
       0.0057798307 -0.18371838 -0.09723426 -0.0873576
000380 e3 71 61 3d 18 f6 99 3d 12 35 60 bd 0f 51 db 3d
       0.05504025 0.07517642 -0.05473811 0.1070882
000390 f5 73 4b 3e 2f 87 47 bc 09 ce 92 3d f5 11 47 3d
       0.19868453 -0.012178226 0.07168204 0.04860111
0003a0 11 4a af 3d c1 de c8 bc 20 d3 b5 bd 1a 49 af bd
       0.08559049 -0.02452028 -0.088781595 -0.08558865
0003b0 d1 02 6d 3d a0 8f 74 bd 72 cb 01 3d a5 a0 18 bd
       0.057864014 -0.059707284 0.03168816 -0.037262578
0003c0 78 17 1e 3c 5f 5f a1 3d 6b dd 3a 3d f0 4d 24 be
       0.00964915 0.07879519 0.045621317 -0.16045356
0003d0 01 20 72 bd 3e 02 bf bd 86 c0 87 bc f0 7d b9 bd
       -0.059112553 -0.093265995 -0.016571295 -0.09057224
0003e0 a4 97 4d 3e c5 5c 6d bd 28 9d f6 bc 10 01 5b 3d
       0.20077378 -0.0579498 -0.030104235 0.05346781
0003f0 a1 a3 df 3d 7a a3 ef bd 86 00 3b 3d bb b8 b8 bd
       0.109198816 -0.117011026 0.045654796 -0.090196095

network_body._body_endoder.seq_layers.2.bias f4 [128]
000000 e4 c1 4e bc 5b 2f 14 bd 61 8b d9 bc 91 45 82 bc
       -0.012619469 -0.036177974 -0.026555719 -0.015902312
000010 13 41 13 bd 11 28 86 bc 4e 1b 08 bd 90 4d ba 3b
       -0.03595073 -0.016376527 -0.033229165 0.0056855157
000020 ed f9 b8 bc 32 f1 1b bc 89 7c b9 bc 15 40 09 bd
       -0.022580111 -0.009517955 -0.02264239 -0.03350838
000030 a3 f0 53 bc af 69 8b bc 7e 39 13 bd d5 36 be bc
       -0.01293579 -0.017018167 -0.0359435 -0.023219505
000040 93 3d fb bc b4 13 6f bc 83 bb a9 bc 30 e5 82 3c
       -0.03066901 -0.0145921 -0.020719295 0.015978426
000050 c4 e5 23 bc 2f 12 c3 bc 59 95 29 bd aa 91 2d bd
       -0.010003511 -0.023812382 -0.041402195 -0.042375244
000060 f8 4d 60 bc e3 3d 92 3b a7 18 c0 bc 06 ff 52 bc
       -0.013690464 0.004462944 -0.023449255 -0.012878185
000070 7d 29 01 bd e3 cf 3f bc b2 c0 e7 bc 43 81 50 3b
       -0.031533707 -0.011707279 -0.028290126 0.0031815327
000080 b7 cf a2 bc 3b af da bc 68 1c a0 bc 73 46 f8 bc
       -0.019874437 -0.026694885 -0.019544795 -0.03030703
000090 7d a0 9f bc af 19 44 bc 90 a1 8a bc 46 d6 07 bd
       -0.019485706 -0.011969014 -0.016922742 -0.03316333
0000a0 d3 4d eb bc 3f c7 18 bd b3 98 4c bb c5 2d 09 bd
       -0.028723633 -0.03729939 -0.0031218946 -0.033490915
0000b0 31 18 be bc 1d a0 b4 bc fa 63 68 bc eb d5 93 bc
       -0.023204895 -0.022049004 -0.0141839925 -0.01804634
0000c0 22 f6 ad 3b aa a7 b6 bc 76 0e 8c bc 3c 1f 6a bc
       0.0053088823 -0.022296745 -0.01709674 -0.014289673
0000d0 55 0a 4e bc 09 34 0f bd 0a 91 78 bc ed 01 71 bc
       -0.012575706 -0.034961734 -0.015171299 -0.014709932
0000e0 d6 b5 88 bc d1 07 dd bc ec e4 92 bc 44 5a c9 bc
       -0.016688269 -0.026981266 -0.017931424 -0.024579175
0000f0 24 a5 fc bc 86 a6 ce bc 39 b1 09 bb 51 de 06 3c
       -0.030840464 -0.025225889 -0.0021010174 0.008231715
000100 e1 7f e0 bc 3b 7f c5 bc 59 6a 46 39 6b ba 0a bc
       -0.027404727 -0.02410852 0.00018922369 -0.008467297
000110 e6 21 0a bd 30 ca 12 bc 55 b9 80 bc 46 9f 77 3b
       -0.033723734 -0.008959338 -0.015713373 0.0037784143
000120 b7 69 ee bb 3e ed 0f bd a8 ad 12 bb 1c 3d f7 bc
       -0.007275786 -0.03513836 -0.002238134 -0.030180506
000130 5c 75 f3 bb 60 49 0c bd 16 7b 14 bc fe b1 d4 bc
       -0.007429762 -0.034249663 -0.009062549 -0.02596378
000140 44 4c 02 bd 6d ad 8c bc e3 5b ba bc d0 df 6a bc
       -0.031811014 -0.01717254 -0.022748893 -0.014335588
000150 3b 33 b2 bc 00 61 c8 bc 9c 0f d8 bc cf f8 fa bc
       -0.021752944 -0.024460316 -0.02637463 -0.03063622
000160 2a e5 30 bd 00 a3 d8 bc 45 0c 08 bd 7c af dc bc
       -0.043187298 -0.026444912 -0.033214826 -0.026939146
000170 35 5c d8 bb d2 ad 91 bc a4 ce 9f bc a1 ae 16 bd
       -0.006602789 -0.01778308 -0.019507714 -0.036787633
000180 fe f4 2b bc fc 4d f6 bc e2 22 ca bc 04 37 02 bd
       -0.010495422 -0.030066483 -0.024674837 -0.03179075
000190 aa 62 10 bd b2 1c 01 bd 1c 95 e0 bc 96 a0 f6 bc
       -0.035250343 -0.031521507 -0.02741485 -0.03010587
0001a0 52 ba e1 bc 71 5d a2 bc d7 a3 25 bd 24 d2 6c bc
       -0.027554665 -0.019819947 -0.040439453 -0.014454398
0001b0 fa ef 82 bc 86 13 eb bc 15 51 54 bc 19 b9 26 bd
       -0.01598357 -0.028695833 -0.012958785 -0.040703867
0001c0 e3 1b 33 bc dc f9 55 bc 3e d6 01 bb 69 4f e0 bc
       -0.010931942 -0.013060059 -0.0019811536 -0.027381616
0001d0 b2 ca 7d bc 08 f5 0d bd c1 e5 c6 bc 8a 94 e6 bc
       -0.015490221 -0.034657508 -0.024279477 -0.028147
0001e0 23 27 33 bc 33 29 d4 bc 78 66 57 bc 33 23 6d bc
       -0.010934624 -0.025898552 -0.013146989 -0.014473724
0001f0 89 a0 7a bc 32 aa 1f bd 3b 20 af 3b 0e 82 f4 bc
       -0.015297064 -0.03898067 0.0053444183 -0.029847171

action_model._continuous_distribution.log_sigma f4 [1, 2]
000000 91 56 8e bd 39 30 b1 3b
       -0.06950105 0.00540736

action_model._continuous_distribution.mu.weight f4 [2, 128]
000000 2d c5 88 3c bc 5c 9e 3b 24 62 92 ba d9 62 ab 3c
       0.016695583 0.004832832 -0.0011168164 0.020921158
000010 a0 3e d2 3b 36 42 06 3c 50 25 f7 3a f6 ef 75 3c
       0.006416157 0.008194497 0.0018855724 0.015010824
000020 b4 54 84 bb da 4e 8e 3c b2 b1 97 3c 8b bc d8 3a
       -0.0040384177 0.017371584 0.018517349 0.0016535682
000030 b3 06 3b bb cd 37 4d 3c 7e e5 c0 3b 55 de 54 3c
       -0.0028537929 0.012525511 0.0058867326 0.012992461
000040 96 bb 8e 3c 42 94 f1 3c fb 02 1b 3b 5f 1e 8d 3c
       0.017423432 0.02948964 0.00236529 0.017226396
000050 17 48 58 3b 9a 7e 9b 3c eb 8d 85 b8 20 9f 85 3b
       0.0033001953 0.018981267 -6.3683685e-05 0.004077807
000060 f0 10 28 3c 2f 24 ca 3c 3f ee cd bb ae e4 e5 3c
       0.010257944 0.024675457 -0.0062845047 0.028063145
000070 5b 78 29 3b 2d 98 22 3c d9 57 cf 3c 9c f7 0d bc
       0.002585909 0.009923977 0.025310444 -0.008664992
000080 8c e1 36 bc c2 56 53 3c 93 94 35 3c 43 f2 51 3c
       -0.011162173 0.012899103 0.011082786 0.012814107
000090 7c 4b 07 bb e6 76 a4 bb fb 5c 0d 3c d6 ee 7c 3b
       -0.0020644357 -0.0050190566 0.008628125 0.0038594506
0000a0 53 1c 8b 3b 85 97 03 3c e5 e8 1d bb 08 46 79 3b
       0.00424532 0.008031731 -0.0024095115 0.0038036127
0000b0 4e 12 d2 3b 28 63 98 bc 57 54 1c 3c b2 10 ee bb
       0.0064108735 -0.018601969 0.009541593 -0.007265174
0000c0 78 f1 8a 3c 4c 06 27 3c 33 83 40 bc 97 03 b7 bc
       0.016960844 0.010194372 -0.01175003 -0.022340579
0000d0 39 ab 01 bc 5d 89 ef 3b f2 5a b2 3b a6 c3 0b 3c
       -0.007914358 0.007310076 0.0054429704 0.008530533
0000e0 aa 30 c6 3b a2 3e 0e 3c 80 5b b0 3c f0 4e 2f 3c
       0.0060482817 0.008681925 0.021528006 0.0106999725
0000f0 09 5b a6 3b c6 a1 30 3c 27 6c 63 3c 08 3d f1 3c
       0.00507677 0.010780757 0.013880766 0.029448047
000100 46 c0 34 3b 8c 71 c4 3c 17 e3 a1 3c 3d 81 ce 3c
       0.0027580424 0.023979925 0.019761605 0.02520811
000110 f1 94 f1 3b bc 14 b9 3c 96 4e 5b 3c d5 19 df 39
       0.0073724915 0.022592895 0.013385436 0.0004255312
000120 e6 77 0a 3d 31 2a 4c 3c 28 9e 6b 3c a7 d4 d7 3b
       0.03380575 0.012461231 0.014380969 0.0065866294
000130 e2 68 a1 3c 6b e2 05 bc 7d 8d 8e 3c 2e 64 8a 39
       0.019703332 -0.008171658 0.017401451 0.0002639605
000140 01 40 e9 3b e5 4d 8a 3c cd 7c 84 bc 83 b4 eb 3c
       0.0071182256 0.016882846 -0.01617279 0.028772598
000150 32 9a c9 3c 63 43 2a 3c b9 58 fd 3b ce ac c1 3b
       0.024609659 0.010392043 0.007731524 0.0059104925
000160 4a 60 85 3b 11 47 0f 3c 88 22 2a 3b 68 f1 56 3b
       0.0040703164 0.008744971 0.0025960524 0.0032797698
000170 8e 33 44 bc 95 fd 71 3c 89 88 3f 3c 03 40 9d 3b
       -0.011975182 0.014769931 0.011690267 0.0047988906
000180 56 0e 0a 3d 95 2b a4 3b 24 17 7d 3c c8 d7 de 3b
       0.033705078 0.005010078 0.015447412 0.0068006255
000190 a4 cc 70 3c 29 b4 80 3c 2f 72 a1 ba 7d 60 09 bc
       0.014697228 0.015710907 -0.0012317355 -0.008384821
0001a0 26 5f 9a 3b 55 65 87 ba 02 ca 6f 3b 2f 19 0a 3d
       0.0047110496 -0.0010329882 0.0036588912 0.033715423
0001b0 57 26 fc 3a 1b c5 90 bc 72 96 07 bc 2c 8a 8d 3b
       0.00192375 -0.017672112 -0.008275615 0.00431945
0001c0 72 4b 66 3c ea 3c cd 3c 7d 14 b4 3c 02 63 64 3c
       0.0140560735 0.02505346 0.021982426 0.013939621
0001d0 6f f9 dd 3c fd 29 95 3b 90 af 94 3c b3 e8 cd 3c
       0.027096478 0.0045521245 0.018150121 0.025135374
0001e0 5b c3 f1 3c 92 9c 8e bc 5e 6e 09 3b 01 69 a0 bb
       0.029512098 -0.017408643 0.0020970325 -0.00489533
0001f0 07 f3 2f 3d 84 c3 72 3b 04 e5 0c 3c 9b 63 01 3c
       0.04295638 0.0037042806 0.008599523 0.007897283
000200 db 55 52 3c 28 84 e5 3a c9 22 47 3b d3 e6 2e 3c
       0.012837852 0.0017510699 0.0030385724 0.01067515
000210 21 4f 98 b8 79 51 a7 3b b6 7a 37 bc 2f 75 0e 3c
       -7.262664e-05 0.005106148 -0.01119869 0.008694931
000220 f3 7f fc 3b 41 62 b3 bb 13 8d 11 3c f2 b3 06 3b
       0.0077056824 -0.0054743593 0.008883732 0.0020554033
000230 3d aa df 3b aa 6b d8 3b 4d 82 2a bb 8a c6 45 3c
       0.006825714 0.0066046314 -0.0026017607 0.012071261
000240 05 01 08 3c cc 79 d2 bb 87 67 d4 b9 38 89 de 3b
       0.008301024 -0.0064232107 -0.00040512925 0.00679126
000250 8f 88 8a 3c 4a 49 9d 3b a5 0a 6f b8 26 c4 d1 39
       0.01691082 0.0047999965 -5.6991954e-05 0.00040009728
000260 f7 52 a6 3c 16 c7 08 3c 14 9c 82 bb 4f 00 f9 bb
       0.020303233 0.008348247 -0.003985891 -0.0075989137
000270 e2 95 aa ba 31 e3 9b bc c5 c8 b6 39 a6 2a 5d 3c
       -0.0013014639 -0.019029232 0.0003486333 0.013498938
000280 63 dd 42 3c f7 0c 3f 3b 7a 64 43 3c 60 5d 91 3c
       0.011893603 0.0029152015 0.011925811 0.01774472
000290 1a 87 1a bc 2b 91 a7 3b 6f c9 a8 3c 35 76 a4 3a
       -0.009431625 0.005113741 0.020603864 0.0012547435
0002a0 27 7f 59 bb 33 49 0f 3b f4 9e 7d 3b e9 0e 81 3b
       -0.003318736 0.0021863698 0.003869948 0.003938545
0002b0 03 f4 ec bb ad 47 16 3c de 40 c8 3c 14 2a 68 bc
       -0.007231237 0.009172362 0.024444994 -0.014170188
0002c0 c7 cf 7a 3c 57 e0 92 bb 19 9b 89 3c e6 3a 09 bc
       0.015308327 -0.00448231 0.01679759 -0.008375859
0002d0 b4 19 a0 3a f0 76 d8 b8 06 7d ba 3c 26 00 84 3c
       0.0012214691 -0.000103218365 0.022764694 0.016113352
0002e0 a3 11 1b 3c 07 0b 0f ba c5 0d 29 3c 5d 2f 4b bc
       0.009464654 -0.00054566603 0.010318224 -0.012401429
0002f0 f8 8c 49 3b c6 5a 5d b9 17 d2 32 3c 97 87 8a 3a
       0.003075419 -0.00021110018 0.010914347 0.0010568973
000300 f3 f6 25 3c 06 a1 00 3c f4 fa 82 ba 73 5f 74 bb
       0.010129678 0.007850891 -0.0009993003 -0.0037288337
000310 0f 46 2d 3b da 77 a9 bc 84 59 ba bb 07 9f 17 bc
       0.0026439463 -0.020687032 -0.0056869406 -0.009254224
000320 a9 2b d6 3b b7 f8 0e 3c ce c7 99 3c 4f 36 fb ba
       0.0065359664 0.00872629 0.018772032 -0.0019165965
000330 e1 02 3e 3c 93 0e 89 bc b6 06 81 bc 3a e6 f3 39
       0.011597366 -0.016730582 -0.01575027 0.00046520104
000340 ab 4c 4b ba 2b fa 81 3b c8 39 79 3c 1b 36 7f bb
       -0.000775526 0.00396659 0.01521153 -0.0038942161
000350 27 c4 92 3b df 8b 06 3b 71 47 32 bc 94 3e 53 3c
       0.0044789496 0.0020530147 -0.010881291 0.012893338
000360 25 97 f5 ba f9 4d b1 bc c8 da 12 3a ba e4 a7 3b
       -0.0018737061 -0.021643626 0.0005602059 0.005123702
000370 93 3d 27 3c 3c 43 63 3c ff 32 fd 3b 40 ff 9c 39
       0.0102075515 0.01387101 0.0077270265 0.00029944815
000380 82 64 c4 ba 3b 00 f1 3a cb 93 8d 3c 3b 07 20 bb
       -0.0014983567 0.001838691 0.017282387 -0.0024418372
000390 6f ae f4 3b 1e 9c 1b 3c f3 da 1b 3c 5d 11 19 ba
       0.007467083 0.00949767 0.009512651 -0.0005839074
0003a0 2a bf 7d 39 a1 1e 16 3c b4 be 09 3c 37 fb e2 bb
       0.00024199174 0.009162576 0.008407284 -0.00692692
0003b0 fa a9 6f 3c 7e d6 3a bd 18 bc be bb 38 8e 97 b9
       0.014627928 -0.045614712 -0.0058207624 -0.00028906926
0003c0 0b aa 93 3c 2d e5 b3 3b 63 15 9f 3b 2f 58 e0 3b
       0.018025419 0.0054899664 0.0048548444 0.00684645
0003d0 ba 1c 01 3c a3 95 98 38 c8 72 8c 3c c1 3d 14 39
       0.007880384 7.275797e-05 0.017144576 0.00014137385
0003e0 78 c9 9b 3c ca 63 ff 3b 82 11 7d 3c 11 e2 b5 bb
       0.019016966 0.007793878 0.015446069 -0.005550631
0003f0 1d 2e 22 3d e7 c8 2c 3b 13 91 91 3c 9f 52 1b bc
       0.03959476 0.0026364864 0.017769372 -0.009480148

action_model._continuous_distribution.mu.bias f4 [2]
000000 24 78 1e bc d9 28 47 bc
       -0.009672198 -0.012155735

exp_avg f4 [128, 75]
000000 00 00 00 00 87 ac 1a 36 00 00 00 00 59 74 5d 35
       0.0 2.3048212e-06 0.0 8.2498224e-07
000010 00 00 00 00 bf a8 5c 35 00 00 00 00 4b 5e ef 34
       0.0 8.2201944e-07 0.0 4.4585826e-07
000020 00 00 00 00 cd 1b ef 34 00 00 00 00 c7 24 b7 34
       0.0 4.4537447e-07 0.0 3.4113165e-07
000030 00 00 00 00 aa 05 b7 34 00 00 00 00 4c 3b a9 34
       0.0 3.4090527e-07 0.0 3.1521847e-07
000040 00 00 00 00 51 1f a9 34 00 00 00 00 b0 0b b7 34
       0.0 3.150149e-07 0.0 3.409491e-07
000050 00 00 00 00 b4 24 b7 34 00 00 00 00 ab 1a ef 34
       0.0 3.411311e-07 0.0 4.4536623e-07
000060 00 00 00 00 17 56 ef 34 00 00 00 00 c4 2a 8e 35
       0.0 4.4579858e-07 0.0 1.0592271e-06
000070 00 00 00 00 d7 62 5d 35 00 00 00 00 4c 4c 83 35
       0.0 8.2472746e-07 0.0 9.782466e-07
000080 00 00 00 00 4c 4c 83 35 6a c9 a7 b1 31 cb 82 36
       0.0 9.782466e-07 -4.883238e-09 3.8979565e-06
000090 a4 3f 10 b2 18 c0 3b 30 9d 85 21 b1 d8 f2 d1 2e
       -8.396373e-09 6.8303185e-10 -2.3504534e-09 9.5473573e-11
0000a0 18 99 de 36 76 8d aa b1 e9 6f e0 32 cc 73 a8 33
       6.633938e-06 -4.9637334e-09 2.6127923e-08 7.844173e-08
0000b0 52 31 ab b2 ef bf 65 b1 14 89 e8 31 00 00 00 00
       -1.9929448e-08 -3.3432987e-09 6.7676726e-09 0.0
0000c0 18 99 5e 37 af 1f 8b 38 00 00 00 00 00 00 00 00
       1.3267876e-05 6.633938e-05 0.0 0.0
0000d0 00 00 00 00 18 99 de 36 00 00 00 00 18 99 5e 37
       0.0 6.633938e-06 0.0 1.3267876e-05
0000e0 af 1f 0b 39 00 00 00 00 00 00 00 00 00 00 00 00
       0.00013267876 0.0 0.0 0.0
0000f0 18 99 de 36 00 00 00 00 18 99 5e 37 84 af 50 39
       6.633938e-06 0.0 1.3267876e-05 0.0001990181
000100 00 00 00 00 00 00 00 00 00 00 00 00 18 99 de 36
       0.0 0.0 0.0 6.633938e-06
000110 00 00 00 00 18 99 5e 37 af 1f 8b 39 00 00 00 00
       0.0 1.3267876e-05 0.00026535752 0.0
000120 00 00 00 00 00 00 00 00 18 99 de 36 00 00 00 00
       0.0 0.0 6.633938e-06 0.0
000130 8e c2 88 33 00 00 00 00 f4 e3 c3 32 00 00 00 00
       6.368383e-08 0.0 2.2804649e-08 0.0
000140 d7 02 c3 32 00 00 00 00 e8 92 53 32 00 00 00 00
       2.270228e-08 0.0 1.2315219e-08 0.0
000150 83 76 53 32 00 00 00 00 da f5 21 32 00 00 00 00
       1.2308763e-08 0.0 9.427334e-09 0.0
000160 6b d3 21 32 00 00 00 00 04 a8 15 32 00 00 00 00
       9.419504e-09 0.0 8.711144e-09 0.0
000170 1d 8f 15 32 00 00 00 00 5c d3 21 32 00 00 00 00
       8.705482e-09 0.0 9.419491e-09 0.0
000180 4b f5 21 32 00 00 00 00 6d 6b 53 32 00 00 00 00
       9.427207e-09 0.0 1.2306242e-08 0.0
000190 86 a7 53 32 00 00 00 00 8b 71 fb 32 00 00 00 00
       1.2319907e-08 0.0 2.927188e-08 0.0
0001a0 cd e6 c3 32 00 00 00 00 5f 38 e8 32 00 00 00 00
       2.2805944e-08 0.0 2.703399e-08 0.0
0001b0 5f 38 e8 32 be 65 25 af ea 77 e7 33 04 49 55 2e
       2.703399e-08 -1.5042809e-10 1.0778588e-07 4.8495444e-11
0001c0 4e 83 4f 2f 11 55 b0 ae aa 61 81 2d 4f d9 44 34
       1.8873189e-10 -8.018664e-11 1.4708974e-11 1.8332979e-07
0001d0 62 cf cc af 82 67 89 30 26 17 5f 31 c5 83 72 b1
       -3.7254738e-10 9.997481e-10 3.246393e-09 -3.5290537e-09
0001e0 53 30 cc af 0a 7a 67 30 00 00 00 00 4f d9 c4 34
       -3.714172e-10 8.421074e-10 0.0 3.6665958e-07
0001f0 a2 0f f6 35 00 00 00 00 00 00 00 00 00 00 00 00
       1.8332978e-06 0.0 0.0 0.0
000200 4f d9 44 34 00 00 00 00 4f d9 c4 34 a2 0f 76 36
       1.8332979e-07 0.0 3.6665958e-07 3.6665956e-06
000210 00 00 00 00 00 00 00 00 00 00 00 00 4f d9 44 34
       0.0 0.0 0.0 1.8332979e-07
000220 00 00 00 00 4f d9 c4 34 ba 8b b8 36 00 00 00 00
       0.0 3.6665958e-07 5.4998936e-06 0.0
000230 00 00 00 00 00 00 00 00 4f d9 44 34 00 00 00 00
       0.0 0.0 1.8332979e-07 0.0
000240 4f d9 c4 34 a2 0f f6 36 00 00 00 00 00 00 00 00
       3.6665958e-07 7.333191e-06 0.0 0.0
000250 00 00 00 00 4f d9 44 34 00 00 00 00 a7 a5 1d 37
       0.0 1.8332979e-07 0.0 9.396498e-06
000260 00 00 00 00 b1 ac 61 36 00 00 00 00 0d ed 60 36
       0.0 3.3628132e-06 0.0 3.3516583e-06
000270 00 00 00 00 9c f7 f3 35 00 00 00 00 57 b5 f3 35
       0.0 1.8176975e-06 0.0 1.8157688e-06
000280 00 00 00 00 78 a8 ba 35 00 00 00 00 1a 8b ba 35
       0.0 1.3907111e-06 0.0 1.3898564e-06
000290 00 00 00 00 b9 7a ac 35 00 00 00 00 26 5e ac 35
       0.0 1.2850716e-06 0.0 1.2842399e-06
0002a0 00 00 00 00 42 91 ba 35 00 00 00 00 6a a8 ba 35
       0.0 1.3900355e-06 0.0 1.3907095e-06
0002b0 00 00 00 00 d0 b4 f3 35 00 00 00 00 ba ed f3 35
       0.0 1.8157534e-06 0.0 1.8174098e-06
0002c0 00 00 00 00 2d e5 90 36 00 00 00 00 ff 99 61 36
       0.0 4.318214e-06 0.0 3.361725e-06
0002d0 00 00 00 00 51 d1 85 36 00 00 00 00 51 d1 85 36
       0.0 3.9880765e-06 0.0 3.9880765e-06
0002e0 14 cc a2 b2 6b 4b 85 37 42 7e 40 b3 b7 57 af 30
       -1.8952086e-08 1.5889955e-05 -4.4818314e-08 1.2757856e-09
0002f0 f3 d2 17 b2 7e cd a7 2f 9e de e2 37 7f de 93 b2
       -8.837321e-09 3.0523134e-10 2.7044964e-05 -1.7214232e-08
000300 0c 22 fd 33 2c a8 a8 34 91 3b 8e b3 7c 61 44 b2
       1.1787424e-07 3.14148e-07 -6.623225e-08 -1.1430867e-08
000310 32 75 b4 32 00 00 00 00 9e de 62 38 25 cb 8d 39
       2.1008052e-08 0.0 5.4089927e-05 0.0002704497
000320 00 00 00 00 00 00 00 00 00 00 00 00 9e de e2 37
       0.0 0.0 0.0 2.7044964e-05
000330 00 00 00 00 9e de 62 38 25 cb 0d 3a 00 00 00 00
       0.0 5.4089927e-05 0.0005408994 0.0
000340 00 00 00 00 00 00 00 00 9e de e2 37 00 00 00 00
       0.0 0.0 2.7044964e-05 0.0
000350 9e de 62 38 b6 b0 54 3a 00 00 00 00 00 00 00 00
       5.4089927e-05 0.000811349 0.0 0.0
000360 00 00 00 00 9e de e2 37 00 00 00 00 9e de 62 38
       0.0 2.7044964e-05 0.0 5.4089927e-05
000370 25 cb 8d 3a 00 00 00 00 00 00 00 00 00 00 00 00
       0.0010817988 0.0 0.0 0.0
000380 9e de e2 37 00 00 00 00 1d 4e 95 b0 00 00 00 00
       2.7044964e-05 0.0 -1.0863378e-09 0.0
000390 61 ea d5 af 00 00 00 00 c2 e1 d4 af 00 00 00 00
       -3.891101e-10 0.0 -3.8722986e-10 0.0
0003a0 02 05 67 af 00 00 00 00 aa d5 66 af 00 00 00 00
       -2.1011107e-10 0.0 -2.0994287e-10 0.0
0003b0 c6 d1 30 af 00 00 00 00 27 a9 30 af 00 00 00 00
       -1.6081633e-10 0.0 -1.6067202e-10 0.0
0003c0 4e 63 23 af 00 00 00 00 e8 47 23 af 00 00 00 00
       -1.4860044e-10 0.0 -1.485031e-10 0.0
0003d0 d1 ab 30 af 00 00 00 00 53 d1 30 af 00 00 00 00
       -1.6068148e-10 0.0 -1.6081474e-10 0.0
0003e0 73 cd 66 af 00 00 00 00 31 13 67 af 00 00 00 00
       -2.0991368e-10 0.0 -2.1016146e-10 0.0
0003f0 b4 41 09 b0 00 00 00 00 86 e4 d5 af 00 00 00 00
       -4.993368e-10 0.0 -3.890685e-10 0.0

exp_avg_sq f4 [128, 75]
000000 00 00 00 00 55 a4 95 2d 00 00 00 00 0f b2 18 2c
       0.0 1.7012317e-11 0.0 2.1699342e-12
000010 00 00 00 00 3f c0 18 2c 00 00 00 00 2f e2 32 2b
       0.0 2.1707217e-12 0.0 6.3552196e-13
000020 00 00 00 00 2b f5 32 2b 00 00 00 00 9d a5 d1 2a
       0.0 6.357854e-13 0.0 3.7240775e-13
000030 00 00 00 00 c2 a4 d1 2a 00 00 00 00 e5 e0 b2 2a
       0.0 3.7240182e-13 0.0 3.1775204e-13
000040 00 00 00 00 34 ee b2 2a 00 00 00 00 94 ab d1 2a
       0.0 3.1784438e-13 0.0 3.7244914e-13
000050 00 00 00 00 cc a7 d1 2a 00 00 00 00 5a f5 32 2b
       0.0 3.724229e-13 0.0 6.3578797e-13
000060 00 00 00 00 60 e8 32 2b 00 00 00 00 a1 aa 7c 2c
       0.0 6.356079e-13 0.0 3.5906072e-12
000070 00 00 00 00 87 b2 18 2c 00 00 00 00 91 a2 57 2c
       0.0 2.1699602e-12 0.0 3.064358e-12
000080 00 00 00 00 91 a2 57 2c 5f c3 47 25 34 7b 55 2e
       0.0 3.064358e-12 1.7326693e-16 4.854002e-11
000090 67 ce a4 2a 3a 49 4e 23 68 4b 01 24 61 5f fd 20
       2.9275473e-13 1.1182789e-17 2.8036288e-17 4.2922984e-19
0000a0 14 e3 1a 2f 76 f0 25 26 19 5c 91 29 bd 92 9e 2a
       1.4086893e-10 5.757176e-16 6.45527e-14 2.8168258e-13
0000b0 44 bd 83 28 21 f5 0a 27 9f 5d fb 27 00 00 00 00
       1.4626003e-14 1.9284232e-15 6.9768e-15 0.0
0000c0 14 e3 1a 30 df 02 72 32 00 00 00 00 00 00 00 00
       5.634757e-10 1.4086907e-08 0.0 0.0
0000d0 00 00 00 00 14 e3 1a 2f 00 00 00 00 14 e3 1a 30
       0.0 1.4086893e-10 0.0 5.634757e-10
0000e0 df 02 72 33 00 00 00 00 00 00 00 00 00 00 00 00
       5.6347627e-08 0.0 0.0 0.0
0000f0 14 e3 1a 2f 00 00 00 00 14 e3 1a 30 9c 21 08 34
       1.4086893e-10 0.0 5.634757e-10 1.2678214e-07
000100 00 00 00 00 00 00 00 00 00 00 00 00 14 e3 1a 2f
       0.0 0.0 0.0 1.4086893e-10
000110 00 00 00 00 14 e3 1a 30 df 02 72 34 00 00 00 00
       0.0 5.634757e-10 2.2539051e-07 0.0
000120 00 00 00 00 00 00 00 00 14 e3 1a 2f 00 00 00 00
       0.0 0.0 1.4086893e-10 0.0
000130 05 da 0e 2b 00 00 00 00 34 ec 91 29 00 00 00 00
       5.0751097e-13 0.0 6.480268e-14 0.0
000140 90 a5 91 29 00 00 00 00 ae de aa 28 00 00 00 00
       6.468014e-14 0.0 1.8970363e-14 0.0
000150 ae bc aa 28 00 00 00 00 9a 26 48 28 00 00 00 00
       1.8955618e-14 0.0 1.1110601e-14 0.0
000160 a9 11 48 28 00 00 00 00 df c8 2a 28 00 00 00 00
       1.110606e-14 0.0 9.480453e-15 0.0
000170 a1 bf 2a 28 00 00 00 00 0f 17 48 28 00 00 00 00
       9.478449e-15 0.0 1.110723e-14 0.0
000180 bd 25 48 28 00 00 00 00 23 bf aa 28 00 00 00 00
       1.11104134e-14 0.0 1.8956684e-14 0.0
000190 da df aa 28 00 00 00 00 41 3f f1 29 00 00 00 00
       1.8970872e-14 0.0 1.0713523e-13 0.0
0001a0 83 eb 91 29 00 00 00 00 ff e0 cd 29 00 00 00 00
       6.480148e-14 0.0 9.1428594e-14 0.0
0001b0 ff e0 cd 29 66 51 fb 22 dd f7 cb 2b c2 e8 51 28
       9.1428594e-14 6.811987e-18 1.4492813e-12 1.1652302e-14
0001c0 fc ff b0 20 bc 34 b6 21 4d 74 b6 1e b0 d9 93 2c
       2.9984956e-19 1.2346758e-18 1.93181e-20 4.2021595e-12
0001d0 07 83 cb 23 54 80 dd 26 21 f6 37 28 a6 05 16 26
       2.2064796e-17 1.5369739e-15 1.0211911e-14 5.204936e-16
0001e0 03 4e 50 24 21 53 a1 25 00 00 00 00 b0 d9 93 2d
       4.516889e-17 2.7985378e-16 0.0 1.6808638e-11
0001f0 23 04 e7 2f 00 00 00 00 00 00 00 00 00 00 00 00
       4.2021595e-10 0.0 0.0 0.0
000200 b0 d9 93 2c 00 00 00 00 b0 d9 93 2d 23 04 e7 30
       4.2021595e-12 0.0 1.6808638e-11 1.6808638e-09
000210 00 00 00 00 00 00 00 00 00 00 00 00 b0 d9 93 2c
       0.0 0.0 0.0 4.2021595e-12
000220 00 00 00 00 b0 d9 93 2d 5d f2 81 31 00 00 00 00
       0.0 1.6808638e-11 3.7819476e-09 0.0
000230 00 00 00 00 00 00 00 00 b0 d9 93 2c 00 00 00 00
       0.0 0.0 4.2021595e-12 0.0
000240 b0 d9 93 2d 23 04 e7 31 00 00 00 00 00 00 00 00
       1.6808638e-11 6.723455e-09 0.0 0.0
000250 00 00 00 00 b0 d9 93 2c 00 00 00 00 2a 13 46 30
       0.0 4.2021595e-12 0.0 7.2059214e-10
000260 00 00 00 00 c2 68 ca 2e 00 00 00 00 f0 60 ca 2e
       0.0 9.204505e-11 0.0 9.203116e-11
000270 00 00 00 00 18 17 ed 2d 00 00 00 00 17 14 ed 2d
       0.0 2.6954036e-11 0.0 2.6952702e-11
000280 00 00 00 00 44 e2 8a 2d 00 00 00 00 6a e2 8a 2d
       0.0 1.5789266e-11 0.0 1.5789332e-11
000290 00 00 00 00 66 02 6d 2d 00 00 00 00 b6 18 6d 2d
       0.0 1.3472423e-11 0.0 1.3477377e-11
0002a0 00 00 00 00 7d e5 8a 2d 00 00 00 00 e9 e4 8a 2d
       0.0 1.5790697e-11 0.0 1.579044e-11
0002b0 00 00 00 00 5d 15 ed 2d 00 00 00 00 d4 13 ed 2d
       0.0 2.6953268e-11 0.0 2.6952586e-11
0002c0 00 00 00 00 d9 d2 27 2f 00 00 00 00 4b 65 ca 2e
       0.0 1.526347e-10 0.0 9.20389e-11
0002d0 00 00 00 00 71 3c 0f 2f 00 00 00 00 71 3c 0f 2f
       0.0 1.3027247e-10 0.0 1.3027247e-10
0002e0 f0 b6 b5 29 67 4e 0d 31 f6 55 ee 2e 0a c8 80 26
       8.069749e-14 2.0562767e-09 1.0838257e-10 8.936005e-16
0002f0 68 c8 69 28 1c ca 90 24 71 39 cd 31 e3 0b 4f 2a
       1.2977554e-14 6.279243e-17 5.9728156e-09 1.8389417e-13
000300 2b 30 82 2c 87 8d dd 2e ef a4 c2 2b 66 7f 6d 2a
       3.70017e-12 1.0075057e-10 1.3830307e-12 2.1094029e-13
000310 16 9e 30 2b 00 00 00 00 71 39 cd 32 d2 54 20 35
       6.274715e-13 0.0 2.3891262e-08 5.9728075e-07
000320 00 00 00 00 00 00 00 00 00 00 00 00 71 39 cd 31
       0.0 0.0 0.0 5.9728156e-09
000330 00 00 00 00 71 39 cd 32 d2 54 20 36 00 00 00 00
       0.0 2.3891262e-08 2.389123e-06 0.0
000340 00 00 00 00 00 00 00 00 71 39 cd 31 00 00 00 00
       0.0 0.0 5.9728156e-09 0.0
000350 71 39 cd 32 81 5f b4 36 00 00 00 00 00 00 00 00
       2.3891262e-08 5.375536e-06 0.0 0.0
000360 00 00 00 00 71 39 cd 31 00 00 00 00 71 39 cd 32
       0.0 5.9728156e-09 0.0 2.3891262e-08
000370 d2 54 20 37 00 00 00 00 00 00 00 00 00 00 00 00
       9.556492e-06 0.0 0.0 0.0
000380 71 39 cd 31 00 00 00 00 c9 c7 0f 25 00 00 00 00
       5.9728156e-09 0.0 1.2470963e-16 0.0
000390 75 b3 92 23 00 00 00 00 59 c1 92 23 00 00 00 00
       1.5905355e-17 0.0 1.5911238e-17 0.0
0003a0 80 e3 ab 22 00 00 00 00 96 ed ab 22 00 00 00 00
       4.6590518e-18 0.0 4.6601197e-18 0.0
0003b0 13 67 49 22 00 00 00 00 5e 6a 49 22 00 00 00 00
       2.7295147e-18 0.0 2.729689e-18 0.0
0003c0 f7 d9 2b 22 00 00 00 00 83 e6 2b 22 00 00 00 00
       2.3290211e-18 0.0 2.3296853e-18 0.0
0003d0 a9 6e 49 22 00 00 00 00 73 69 49 22 00 00 00 00
       2.7299163e-18 0.0 2.7296404e-18 0.0
0003e0 a6 ee ab 22 00 00 00 00 d5 e5 ab 22 00 00 00 00
       4.660232e-18 0.0 4.6592987e-18 0.0
0003f0 f3 bd f2 23 00 00 00 00 22 b4 92 23 00 00 00 00
       2.631814e-17 0.0 1.5905641e-17 0.0

exp_avg f4 [128]
000000 a1 9c de 36 6f c5 44 34 06 d7 e2 37 0d f5 56 b1
       6.6343496e-06 1.8325748e-07 2.7041428e-05 -3.1280394e-09
000010 1c 2d be 34 98 69 34 b7 f9 47 e9 2d 5e 61 ef 31
       3.542308e-07 -1.07534215e-05 2.6520995e-11 6.966885e-09
000020 f1 c7 b4 b9 b3 a0 5b b7 f9 0b 1f b6 0a 4e 8b 36
       -0.00034481243 -1.3090833e-05 -2.3699815e-06 4.1516078e-06
000030 4e 45 18 b7 ca ad 61 b3 5d b3 49 39 09 bc be b6
       -9.076042e-06 -5.2544955e-08 0.00019235672 -5.6843314e-06
000040 96 84 b6 b8 d6 10 3c b3 62 cb c5 34 86 48 d3 b3
       -8.703132e-05 -4.3787473e-08 3.684209e-07 -9.838645e-08
000050 d8 46 2c b4 f2 1d 49 b7 f4 da 31 35 16 47 dc b4
       -1.6044521e-07 -1.1987506e-05 6.6256257e-07 -4.1029915e-07
000060 b0 2b f7 b2 73 2e 80 b4 93 4c a8 39 f1 b3 af b3
       -2.8774451e-08 -2.3875654e-07 0.0003210051 -8.181804e-08
000070 46 73 b2 39 cc 28 c5 2f 7c e6 28 b9 68 2f 85 39
       0.0003403669 3.586308e-10 -0.0001610759 0.00025403057
000080 97 a4 95 39 3c 05 27 b9 be 7b b9 37 7f 52 51 32
       0.00028542124 -0.00015928311 2.211134e-05 1.2184159e-08
000090 8d 83 8c b8 e3 48 4f 39 cb 58 4b 39 1c ee 63 b3
       -6.7002235e-05 0.00019768211 0.00019392667 -5.3069115e-08
0000a0 b3 31 07 32 6c 6a 72 b5 88 e0 2f 3a aa b8 a4 36
       7.8693345e-09 -9.030689e-07 0.0006709178 4.9090786e-06
0000b0 5c 56 06 b7 f6 b4 63 b9 7e 76 48 b4 e3 c5 5c 37
       -8.0071295e-06 -0.0002171582 -1.8669559e-07 1.3159096e-05
0000c0 f5 0e 15 b6 b0 e8 91 b1 1e 1a 7e 37 29 0a 71 37
       -2.2211436e-06 -4.246509e-09 1.5145661e-05 1.4367085e-05
0000d0 1b b3 87 39 a0 89 b0 38 e3 d1 49 b2 2c 5a c3 b8
       0.0002588265 8.417969e-05 -1.1747463e-08 -9.3151204e-05
0000e0 c9 b4 96 38 9c 65 2f b6 e0 5f 5e 39 b9 49 01 b3
       7.186231e-05 -2.6136177e-06 0.00021207286 -3.0102203e-08
0000f0 45 57 51 b4 40 ee e2 37 7c 6c d2 b2 4f 89 6f 32
       -1.949639e-07 2.7052243e-05 -2.449655e-08 1.3942851e-08
000100 6c 2d 6a b7 aa c5 ee 38 19 39 97 b8 5b d8 d4 37
       -1.39580625e-05 0.00011385542 -7.210876e-05 2.5373118e-05
000110 ad 9a 4b 37 f2 c0 33 35 a7 77 3c 37 4b 77 cf b4
       1.2135756e-05 6.696347e-07 1.1233532e-05 -3.8643552e-07
000120 64 8d 70 34 e1 a7 1b 33 28 11 4d 39 16 9e b0 b6
       2.240318e-07 3.6241435e-08 0.00019556715 -5.2636124e-06
000130 47 18 7f b3 20 f4 71 38 de 35 f2 b8 23 d8 68 30
       -5.9393894e-08 5.7686237e-05 -0.00011549493 8.4708257e-10
000140 3e 43 0f 36 fd 83 01 b9 3b 6d 2d b7 d2 28 c9 b8
       2.13478e-06 -0.00012351568 -1.0337036e-05 -9.59203e-05
000150 07 43 82 38 ea 8d 01 38 db 7a 8a b7 cf 98 d3 37
       6.211368e-05 3.0888164e-05 -1.6508091e-05 2.5224317e-05
000160 ce 66 5d b7 80 8f 4f 39 19 12 38 35 f0 2c 00 38
       -1.3196563e-05 0.00019794516 6.8571677e-07 3.055943e-05
000170 38 5a 48 b5 a0 29 9f 38 de a1 60 b8 26 61 96 38
       -7.463709e-07 7.589464e-05 -5.3556512e-05 7.170653e-05
000180 62 90 88 38 6d bc 62 34 ca 10 2f 33 28 f1 be 34
       6.511879e-05 2.1116439e-07 4.0760632e-08 3.5565722e-07
000190 b9 c4 1c b0 4a 26 e4 af ce a3 6e b3 44 fe 50 39
       -5.703203e-10 -4.1500164e-10 -5.5562673e-08 0.00019931147
0001a0 66 f9 39 39 e2 46 2c b9 e0 ca e6 35 98 a6 c6 b5
       0.00017735883 -0.00016429604 1.719538e-06 -1.4800635e-06
0001b0 72 e0 08 b5 48 c8 07 38 03 01 04 34 60 92 76 b9
       -5.099056e-07 3.2373035e-05 1.2293826e-07 -0.00023514917
0001c0 c2 7c 20 33 7f 33 02 39 c9 0d 89 33 26 1a 24 38
       3.736637e-08 0.0001241695 6.382067e-08 3.9125e-05
0001d0 52 3d 37 38 8a 61 9f b0 86 a9 6c 32 7d 3d f6 b1
       4.368771e-05 -1.1596495e-09 1.3775553e-08 -7.1665327e-09
0001e0 e0 1a 8e 33 85 76 88 b6 fd 54 ce 31 51 e3 10 38
       6.617279e-08 -4.0669133e-06 6.005051e-09 3.454398e-05
0001f0 16 e0 10 39 a1 0b 0c ba 77 8b 67 b2 88 a1 9e b8
       0.00013816389 -0.0005342309 -1.347768e-08 -7.564115e-05

exp_avg_sq f4 [128]
000000 ab e2 1a 2f 56 d9 93 2c bc 38 cd 31 a1 cd 94 26
       1.4086747e-10 4.2021204e-12 5.972735e-09 1.0325299e-15
000010 9e 2f 81 2f d5 a8 10 30 c1 1f 26 25 3e 68 f0 2e
       2.3498797e-10 5.262682e-10 1.4408963e-16 1.09324536e-10
000020 91 f7 12 35 41 23 93 32 1c 4d e2 2f 59 39 19 2f
       5.4749495e-07 1.7129084e-08 4.116395e-10 1.3935643e-10
000030 dd 19 89 31 ba 50 32 28 b1 62 4d 35 7e 78 e1 2d
       3.990165e-09 9.89849e-15 7.6512066e-07 2.5633048e-11
000040 45 7d 43 34 b7 1b 2e 2c c1 ee a7 2d 6d 13 bf 2f
       1.8206363e-07 2.4742272e-12 1.909173e-11 3.47565e-10
000050 36 86 bb 2a 9a 33 49 33 1f b2 24 2f 56 e7 ae 30
       3.3311e-13 4.684589e-08 1.4978994e-10 1.2725916e-09
000060 f4 b3 32 2e 6a fc 99 2c a8 22 9c 34 24 05 f8 2a
       4.0632345e-11 4.376545e-12 2.908248e-07 4.4057217e-13
000070 f2 96 f2 34 36 a4 e2 21 0a 98 13 34 b4 8e ee 33
       4.518584e-07 1.5357822e-18 1.3745753e-07 1.1108696e-07
000080 f1 0d f5 34 eb e3 54 35 b3 df 40 31 88 67 4b 2a
       4.564495e-07 7.930782e-07 2.8066836e-09 1.8065942e-13
000090 53 bb 18 33 1b fc 24 35 b0 47 a3 34 db 32 42 28
       3.5560628e-08 6.146162e-07 3.0413275e-07 1.0780191e-14
0000a0 fd 40 1b 26 e6 34 69 2e 15 d5 ca 35 11 cf 3d 30
       5.3864503e-16 5.302505e-11 1.5112188e-06 6.905206e-10
0000b0 10 a8 e0 32 15 b3 a8 34 a5 a0 39 2c 11 f3 f6 33
       2.6153458e-08 3.1422738e-07 2.6379257e-12 1.1499481e-07
0000c0 6a 71 54 30 f0 f2 e1 26 0a 38 d6 33 48 dc a6 34
       7.728632e-10 1.567836e-15 9.975345e-08 3.1080185e-07
0000d0 eb 9d 83 34 19 ab 1f 33 18 d9 ae 28 61 27 91 34
       2.4515552e-07 3.7175685e-08 1.941203e-14 2.7037007e-07
0000e0 af 44 1d 35 50 71 14 2f d1 5a 66 34 81 ee f2 2f
       5.8587005e-07 1.3500778e-10 2.1453458e-07 4.418901e-10
0000f0 91 59 14 2c 84 00 8c 34 d8 59 1a 29 68 34 ca 26
       2.1081784e-12 2.6077407e-07 3.4272796e-14 1.403077e-15
000100 ef 2f a4 32 04 33 56 34 ac a8 0b 34 d5 57 05 34
       1.911391e-08 1.9948862e-07 1.3006746e-07 1.2418543e-07
000110 16 21 a8 33 6e 12 58 2d 3f c0 24 30 42 47 df 2f
       7.829128e-08 1.2282271e-11 5.993605e-10 4.0614095e-10
000120 6c a9 fc 2d 34 75 0e 28 cd e5 8e 35 b3 0e d1 2e
       2.8724322e-11 7.907998e-15 1.0646705e-06 9.506831e-11
000130 47 70 e2 2b 79 1d a6 33 06 6c 72 34 98 88 a5 26
       1.6089429e-12 7.7353384e-08 2.2577305e-07 1.1486199e-15
000140 87 48 52 2f f2 87 d9 34 bf 14 00 30 34 27 0c 35
       1.9125156e-10 4.0518313e-07 4.659561e-10 5.221111e-07
000150 0a 8b f0 33 02 b6 0b 35 61 54 f4 32 01 ae 7b 32
       1.1201162e-07 5.204639e-07 2.844371e-08 1.4649687e-08
000160 2c 2f ba 30 d8 cc 6f 34 e1 e9 0b 31 41 a6 29 34
       1.3546688e-09 2.2333131e-07 2.0360107e-09 1.5799834e-07
000170 57 e6 3d 2c a9 81 62 34 c9 61 b1 33 91 d3 87 34
       2.698638e-12 2.109506e-07 8.259992e-08 2.5299644e-07
000180 62 6e 80 34 3d 30 1f 2d 35 1f 40 29 93 82 23 2b
       2.3922172e-07 9.048815e-12 4.2659632e-14 5.809044e-13
000190 31 7e c9 27 21 5c cd 21 c2 dd f7 2f 63 1d 33 34
       5.5925524e-15 1.3915727e-18 4.5086607e-10 1.6681365e-07
0001a0 d4 20 29 34 aa 4a 87 34 37 0b 36 30 6b 52 ac 2d
       1.5751294e-07 2.5200035e-07 6.622715e-10 1.9590737e-11
0001b0 94 1f 28 32 f9 e3 4a 34 de ec be 30 2a aa ad 34
       9.786067e-09 1.8895652e-07 1.3891641e-09 3.2347572e-07
0001c0 fa e2 d3 30 53 4e d2 34 01 ba 59 31 0d de ee 31
       1.5416781e-09 3.9172537e-07 3.1683387e-09 6.951956e-09
0001d0 5d d0 ea 34 50 c4 29 29 9b 1e f3 2a 24 82 c0 2d
       4.37375e-07 3.7695812e-14 4.3186708e-13 2.1885667e-11
0001e0 fe c4 90 2b ac da 4e 2f 2a 4a 32 29 5d e0 60 33
       1.0286492e-12 1.8813279e-10 3.9588267e-14 5.235812e-08
0001f0 22 73 64 34 c9 94 52 35 c1 92 6f 2e 5c 30 2f 34
       2.127604e-07 7.844761e-07 5.4472652e-11 1.6315738e-07
