Unity Project/CSC 30014 Project/results/test/Car/Car-120019.pt (torch, 651359 bytes, 36 tensors)

network_body._body_endoder.seq_layers.0.weight f4 [128, 75]
000000 85 62 73 3e ba 9a 59 be 89 57 b0 3d 2e 3a ee 3d
       0.23768051 -0.2125043 0.08610446 0.11632191
000010 8e 18 17 3d 00 e4 8b bc e0 3c 58 bd 1b b8 c8 bd
       0.03688865 -0.017076492 -0.05279243 -0.0980074
000020 dd 2a 4a 3d d4 a4 49 bd ea 60 7f bd c4 57 da bd
       0.049357284 -0.049229458 -0.062348284 -0.10661271
000030 b9 9f a1 3d 38 b2 79 bc 57 40 b6 bb d6 9f fd bc
       0.07891793 -0.015240245 -0.005561869 -0.030960005
000040 60 39 82 bb a5 a6 9b bd 83 6e 7e bd cb 02 51 3e
       -0.003974125 -0.07600144 -0.06211711 0.20411222
000050 1b 43 35 3d b2 71 02 3e af 33 8b be c3 e2 a8 bd
       0.04425345 0.12738684 -0.2718787 -0.08246376
000060 be 93 45 3e 9d a4 82 bd ea 89 51 3b c6 b2 ce 3c
       0.1929464 -0.06379054 0.0031973072 0.02523173
000070 7c 57 4b 3d 7f b0 81 3b a3 d2 45 3c 9b 0b 55 be
       0.04964398 0.0039578076 0.0120741455 -0.20805208
000080 80 bb aa bd ab fc 1a ba af 7f 8a 3c 1c ff b7 bd
       -0.08336544 -0.0005912284 0.016906587 -0.08984205
000090 7a ce 0a be 3e 63 7a bd 69 03 e8 3c 5f 74 4a 3e
       -0.13555327 -0.0611298 0.028321939 0.19770955
0000a0 df 6c b1 3d 2a 7b 42 be 38 e2 56 3a 4e a1 4e 3e
       0.08663344 -0.18992296 0.00081971614 0.2017872
0000b0 94 cc 47 bd 39 6a cf bd c6 55 39 be 86 e8 04 bc
       -0.048779085 -0.10127682 -0.18099126 -0.0081120785
0000c0 8a c7 8f bd d4 92 b7 bc 15 76 c8 3e fd bb 7b 3d
       -0.07020481 -0.02240888 0.3915259 0.061458576
0000d0 6b 24 36 3c 68 0a 4e bd 77 16 8d be 84 38 cf bd
       0.011117081 -0.050302893 -0.27556202 -0.101182014
0000e0 a0 44 36 bb 8f 24 73 3b 74 00 5a 3b 2f 93 14 bd
       -0.00278119 0.0037100648 0.003326443 -0.036273178
0000f0 4a fb 87 3d 42 40 41 bd 91 62 3e bd 28 3c 9f 3d
       0.066397265 -0.04718042 -0.04648072 0.07775146
000100 23 bd 56 be 0a 37 7b 3c 6a 66 08 bd 96 f3 15 3e
       -0.20970587 0.015332947 -0.033300795 0.14643702
000110 6d 6e f9 3d 23 7f 44 3e 62 87 0b 3e 18 72 f8 3d
       0.12179265 0.19189124 0.13625863 0.12131137
000120 b6 d6 04 be cb af 8e 3c 24 00 27 bd b0 c7 8d bd
       -0.1297253 0.017417809 -0.04077162 -0.06922853
000130 05 c1 40 3e a0 67 99 bd f5 25 70 bd ff fb 45 3d
       0.18823631 -0.07490468 -0.05862995 0.048336025
000140 a3 70 07 3e 5b f5 24 bd 5e a8 06 be f5 8c f5 bd
       0.13226561 -0.04027305 -0.13150164 -0.11989776
000150 ed 8e 15 3d df 9c 8f 3c df b7 47 be af 70 43 be
       0.036513258 0.017530857 -0.19503735 -0.19085954
000160 6d f7 4d 3d f4 2c 9f 3a 5a e7 b4 3d a4 23 0b 3d
       0.05028479 0.0012144134 0.08833189 0.033969536
000170 7d 03 1e be cf 69 57 3e 95 75 1b bd 6a ff e1 bd
       -0.15431018 0.21036457 -0.03795393 -0.110350445
000180 87 44 e2 bc f7 ff 69 3b 57 70 2f be 60 b8 fa bd
       -0.027620567 0.0035705545 -0.17132698 -0.12242198
000190 91 e5 a4 3d 46 df 94 bd 70 c6 6a 3d 10 b6 f6 3b
       0.08051599 -0.072691485 0.05731815 0.0075290278
0001a0 b4 8c 2b 3b 23 4d 79 3d f0 d3 2c 3d 8b 0d 20 bd
       0.0026176395 0.06086458 0.042194307 -0.039075416
0001b0 9d f6 10 be d2 81 9a bd 5d 7e 9c 3e 49 e1 36 be
       -0.14156576 -0.075442925 0.30565158 -0.17859377
0001c0 87 78 98 3d 6c 80 bc 3d 08 50 92 3d 20 17 d5 bd
       0.07444864 0.09204182 0.07144171 -0.10404801
0001d0 7b fc 19 be da ae a4 3c 42 67 0e bd b4 9f 3e 3d
       -0.1503772 0.020102907 -0.034766443 0.046539024
0001e0 7d 5b a5 3d cd 22 32 be 06 37 0e 3e e6 d4 86 3d
       0.08074091 -0.17396088 0.13888177 0.06583576
0001f0 e7 8d cb 3d f4 3b 3e 3d d7 14 67 3d d5 ab ae bd
       0.09939175 0.046443895 0.05641636 -0.08528868
000200 ca 74 6a 3d d2 e2 68 3d 13 dd f5 3d 80 33 9e bd
       0.057240285 0.056856938 0.12005057 -0.077246666
000210 02 c2 0a 3e eb 36 93 be 8a b6 59 3d cb 67 d6 bd
       0.1355057 -0.28752837 0.0531526 -0.10469016
000220 7b 98 af 3d 20 b8 8d 3b da d7 97 3d 3e 48 a6 bc
       0.08574005 0.004324928 0.07414217 -0.02029812
000230 fa b0 70 3d 0a a0 3a 3d c7 73 16 be 40 82 48 be
       0.058762528 0.04556278 -0.14692603 -0.19580936
000240 04 01 9c 3d 49 7f a0 bd fa 2b 97 3d 75 d3 84 3d
       0.07617381 -0.07836778 0.07381435 0.06485645
000250 c1 ef b6 3c f6 8a 1b 3d ca fc 96 3c 2a 1f af bb
       0.02233112 0.03797432 0.018431086 -0.005344291
000260 0c b9 8e bd 67 64 55 3e 3a b6 56 3e af 67 85 3b
       -0.06968889 0.20839082 0.20967951 0.004071198
000270 11 b5 03 3e eb 3b 33 bd 55 04 dc 3d cf 34 71 be
       0.1286204 -0.043758314 0.10743014 -0.23555301
000280 3d da 82 3d 6f 1a 52 3c 9f 4f 49 be 55 9d 19 3d
       0.06389282 0.012823685 -0.1965928 0.03750356
000290 fc a2 ca bb 45 84 98 3d 7e 11 84 bd 0c 0d 13 be
       -0.00618398 0.074471034 -0.06448649 -0.14360446
0002a0 91 29 e6 3c fc 54 c3 bd 19 a8 41 bd 4d b9 ac bd
       0.028095992 -0.09537694 -0.04727945 -0.08433781
0002b0 e6 6f 77 3c 18 25 52 3d 7f 91 d2 3d 04 0c 5e 3d
       0.015102362 0.051304907 0.102816574 0.054210678
0002c0 4f 30 01 3d bc 5c fe bd 12 c8 60 3e f9 dd d8 3c
       0.03154021 -0.124200314 0.21951321 0.026473032
0002d0 00 97 13 be 6d d2 18 3d 2b 59 17 3c ee 3f 42 bd
       -0.1441307 0.037310053 0.009237568 -0.04742425
0002e0 39 53 10 bd 62 df 82 3d 13 88 ef bd 7b 60 e3 3d
       -0.035235617 0.06390263 -0.11695876 0.111023866
0002f0 64 f7 89 bb 99 c5 a8 3c 45 0e 82 3d 49 de 3a 3e
       -0.0042103995 0.020602034 0.06350378 0.18248858
000300 fd 36 17 bd e1 6b c3 3d 5e 48 1f 3d 88 59 d6 3d
       -0.036917675 0.09542061 0.038887374 0.104662955
000310 13 6b 07 be 44 f4 9e 3d 69 88 9c bd de b6 08 bd
       -0.1322444 0.07761434 -0.07643206 -0.03337752
000320 fd ff 19 bc a3 4e bb bd 9a 89 b5 3d 53 c1 bf 3d
       -0.009399411 -0.09145858 0.08864136 0.093630455
000330 71 67 52 3c 70 28 ab bd d7 4e 07 bd cc 58 4f be
       0.012842045 -0.08357322 -0.033034172 -0.20248717
000340 81 05 27 be 0a c6 db 3b ea c3 bd 3d 04 9f 11 be
       -0.16310693 0.0067069577 0.09265883 -0.14220816
000350 58 e9 e8 3d 88 6a 13 3e 94 56 2c be b5 3a 0c 3e
       0.11372632 0.14396107 -0.16829902 0.1369427
000360 11 10 ac bc 5f 26 18 3d a0 cf 10 be 65 d0 e8 3d
       -0.021003755 0.03714597 -0.14141703 0.11367873
000370 53 94 12 be 23 12 45 bd 72 8b d6 3d b6 6f d5 bd
       -0.14314394 -0.048113 0.10475816 -0.10421698
000380 18 db e8 bc 36 9c 33 3d d9 a1 a2 3d b9 99 47 bd
       -0.028424785 0.043850146 0.07941026 -0.048730586
000390 5c f8 26 3d 2d e7 ad bd 85 2d 87 bb 70 93 eb 3c
       0.040764198 -0.08491359 -0.0041252994 0.028756827
0003a0 8b b9 98 bd 0a 68 13 3e 50 74 64 3a 7f b5 a5 3d
       -0.074572645 0.14395157 0.00087148417 0.08091258
0003b0 90 27 21 3e f9 35 72 bc 55 4b f6 3d df 45 bb bd
       0.15737748 -0.014783376 0.12026087 -0.09144186
0003c0 8e 38 20 3d 6d e0 36 be 69 be b4 bd e9 2f f5 bd
       0.039116435 -0.17859049 -0.0882538 -0.11972029
0003d0 30 e6 36 3e 1e e4 17 bc 37 dc 81 3c 30 20 88 bb
       0.17861247 -0.009270696 0.015852077 -0.0041542277
0003e0 df 11 dd bc 3b 34 69 3c 93 68 4d bd c1 52 03 be
       -0.02698606 0.014233644 -0.050148558 -0.12824537
0003f0 fe 34 ce bd 59 8b 10 3b 99 b6 9a 3c 82 00 64 3c
       -0.10068701 0.0022055714 0.018885897 0.013916137

network_body._body_endoder.seq_layers.0.bias f4 [128]
000000 61 91 af 3a ee 47 bf 3b 6d cc 89 3c b7 32 db 3b
       0.0013394767 0.005837432 0.01682111 0.0066893953
000010 c5 99 6f ba 19 b0 02 bc 0d ee b4 3b 4e 6c eb 3b
       -0.000914004 -0.007976555 0.005521542 0.007184542
000020 6b 79 b8 3b 09 94 aa bb 09 dd 0e 3a 7a e6 71 bb
       0.0056297085 -0.0052056354 0.0005449807 -0.0036911056
000030 ef bd f9 3a 15 6c 2b 3a dc ba ea 3b 98 4c 17 bb
       0.0019053797 0.0006539238 0.0071633887 -0.0023086425
000040 23 9e e6 3b 52 30 5d 3c e8 cd 38 3b f0 8c 98 3a
       0.0070378943 0.01350029 0.0028198902 0.0011638682
000050 58 e5 73 bb ba b1 3a bb 28 ee e7 3a 7e 43 3d 39
       -0.0037215557 -0.002848728 0.0017694877 0.00018049587
000060 6e 6b 99 bb d8 08 d1 3a a0 8e ec 3b fd ab 26 bc
       -0.004681996 0.001594807 0.0072191507 -0.010172841
000070 cf 78 90 bb 03 e4 50 bb 85 41 2d bb 37 ed 33 3a
       -0.0044089328 -0.0031874187 -0.0026436758 0.0006863656
000080 78 e6 cf bb b5 6c 14 3b 50 ad 97 ba 42 80 3d bb
       -0.0063446127 0.0022647802 -0.0011572037 -0.002891556
000090 0d da a1 3a 64 98 89 bb f2 86 39 3c ce f4 5b 3b
       0.0012348309 -0.0041990746 0.011323677 0.0033562663
0000a0 02 d8 40 ba ea 74 0b bb 4e b4 14 3b 87 5d bb 3c
       -0.00073564064 -0.0021279403 0.0022690478 0.022871746
0000b0 51 e1 3b b9 2d 35 c9 3a 4b 22 ea 3c b0 b0 29 bb
       -0.00017917647 0.0015350931 0.028580805 -0.0025892667
0000c0 b1 c8 ac 3c d1 9d 5a bb 68 92 52 3c f6 c4 17 3b
       0.02109179 -0.0033358226 0.012852289 0.002315817
0000d0 06 0f de 38 d6 0f 3b ba 30 e2 f9 3b be 07 87 bb
       0.00010588583 -0.00071358436 0.0076258406 -0.004120796
0000e0 bb 56 81 bc 9c 1e 2e 3b 5e 6f 31 3b 3a 3c 0b 3b
       -0.015788427 0.0026568538 0.0027074437 0.0021245615
0000f0 89 dc 30 3b 80 f2 54 3a a3 01 d9 39 52 83 19 bc
       0.0026986918 0.00081232935 0.00041390685 -0.009369688
000100 8e 93 e2 39 83 57 93 ba db 69 42 bb 72 05 8c 3b
       0.00043216016 -0.001124129 -0.0029665146 0.00427311
000110 a5 bc d3 3c ba 8b eb bb 6e b8 8c 3b 5d bf 85 3c
       0.025846789 -0.0071882876 0.0042944467 0.0163266
000120 47 1d 98 3c 39 7c 0b 3b 9c ed 88 ba 89 b7 39 bb
       0.018568648 0.002128376 -0.001044679 -0.0028338155
000130 db c8 0c 3b a4 87 27 bc 21 29 fd 3c d8 a3 02 bb
       0.0021482024 -0.01022521 0.0309034 -0.0019934084
000140 c2 89 71 3c 65 62 ba 3a 52 ec 94 bb 12 55 92 ba
       0.014742317 0.0014219998 -0.004544773 -0.0011164269
000150 5e 40 9d 3c 3c e9 36 ba 47 6c b3 3c a2 43 2f bc
       0.019195732 -0.00069775037 0.021902217 -0.010697277
000160 67 36 51 3b cd 22 24 3a df a7 8f 3a c4 46 be 3b
       0.0031923295 0.0006261289 0.0010960064 0.0058067758
000170 23 f4 5a 3b 16 77 a1 3b b9 36 bd 3b c0 84 fc bb
       0.0033409677 0.004927526 0.0057743457 -0.0077062547
000180 47 90 ca 3c 50 b1 f1 b8 fe 32 82 bb c6 97 eb 3a
       0.024727 -0.000115248025 -0.003973364 0.0017974309
000190 fc a4 63 3c 80 1a 0a bb e0 53 11 3c cf ed 89 3a
       0.013894316 -0.0021072924 0.008870095 0.0010523143
0001a0 71 c6 36 3a d1 f2 ce bb b6 68 7a ba a8 c2 bc ba
       0.0006972319 -0.006315567 -0.00095523463 -0.0014401274
0001b0 f8 be 4a bc b8 d8 da b9 1c d9 7f b9 17 36 d9 ba
       -0.012374632 -0.00041741668 -0.00024399575 -0.0016571906
0001c0 1b 50 0f 3a df ea c4 3c a9 2c 8d bb af 11 89 3c
       0.0005466954 0.024037777 -0.0043083024 0.016732065
0001d0 81 1d 8a 3b 84 49 aa 3a 61 f4 59 3a c2 1a eb b9
       0.004214943 0.001299188 0.00083143084 -0.0004484263
0001e0 7e cb 22 bb 67 95 1c 3a 9f 49 39 bc 7d 81 32 bc
       -0.002484053 0.00059731904 -0.011309057 -0.01089513
0001f0 79 4c d1 b9 83 16 c0 ba f1 22 56 b8 1d be cb 3a
       -0.00039920563 -0.0014655147 -5.1054118e-05 0.0015544329

network_body._body_endoder.seq_layers.2.weight f4 [128, 128]
000000 1d 66 33 3d 2b 1b 1f bc c9 a7 9c bd 00 31 c4 bd
       0.043798555 -0.009711067 -0.0764919 -0.095796585
000010 ad c7 06 bd 15 10 57 bd 1a a2 2b 3e 87 9d 9c bd
       -0.03290527 -0.05250557 0.16761056 -0.076472335
000020 ac 01 07 3e 24 17 ef 3d 0e 5e bd bd 99 2e 85 3d
       0.13184232 0.116743356 -0.09246455 0.065030284
000030 76 16 2f be 10 90 ea 3b e3 86 82 bd 9a ea 20 be
       -0.17098412 0.007158287 -0.06373384 -0.15714493
000040 1d c4 f6 bc 5a 3b ae bc 7c 99 00 3d 5a 87 cc 3c
       -0.030122811 -0.021268535 0.031396374 0.024966884
000050 6d 68 2e be 2b 7e 60 3c 9c 79 22 bd 0a b6 ad 3d
       -0.17032023 0.013701956 -0.039666757 0.08481987
000060 aa 50 15 3c 54 67 52 bc 7c ec 25 be 43 4d 14 3c
       0.00911347 -0.012842018 -0.16203493 0.009051624
000070 0f f2 86 3d 49 01 52 bd fa d4 e8 3d 72 29 8a bc
       0.06589138 -0.051270757 0.11368747 -0.016865466
000080 3b e7 0c bd dc 9e 32 be 1a 8b 83 ba 74 e3 4f 3d
       -0.034400206 -0.17443413 -0.0010035962 0.050754026
000090 4c d3 72 bd c5 2b 74 bc d2 9b cd bc ab 31 47 3c
       -0.05928354 -0.014903014 -0.025098715 0.012157838
0000a0 e5 73 af bc 9e bc 9e bd 70 ce c9 bd a1 3e 02 be
       -0.021417568 -0.077508196 -0.09853828 -0.12719204
0000b0 cc df 02 3e 24 bd 2a bb cc 44 2c bd ed 49 36 3c
       0.12780684 -0.0026052678 -0.042057797 0.011126024
0000c0 bd 5a f1 3d 61 64 ff bd dd 64 27 bc 63 3b 35 bb
       0.11784885 -0.12470318 -0.010216919 -0.0027653805
0000d0 30 d1 b2 bd f0 b3 06 3e c8 c9 ca bc 85 62 d1 bd
       -0.087313056 0.13154578 -0.02475442 -0.10223869
0000e0 53 63 11 be a6 0d c2 3d 8a bc ae 3b 59 e7 b1 3d
       -0.14198045 0.094752595 0.005332534 0.08686704
0000f0 69 f0 8f 3c a6 42 73 3c 2f 65 a5 bd d3 1f ee 3c
       0.017570691 0.014847433 -0.0807594 0.02906791
000100 f3 63 21 be 47 08 c7 bc a4 02 c0 3d 6c 13 a5 bc
       -0.15760784 -0.02429594 0.09375504 -0.020150863
000110 c3 70 2a 3d 83 2a 5f be 6b 89 84 bd bb 92 68 be
       0.041611444 -0.2179356 -0.06471523 -0.22712223
000120 5e 5c b2 bd 70 94 18 be 9f 79 78 3d 5b 28 9e bd
       -0.08709024 -0.14900374 0.060662862 -0.07722541
000130 0c ae 27 be f6 30 eb bc 04 6f ea bd a1 3c 4c 3d
       -0.16374987 -0.02870987 -0.11446956 0.049862508
000140 59 1c 25 3d 03 04 0e 3d 01 39 92 3d 3f c7 03 3e
       0.040310238 0.034671795 0.07139779 0.12868975
000150 15 4b 5c 3d f3 08 33 3e ab 48 11 bd 09 74 24 bd
       0.05378254 0.17483883 -0.035469692 -0.040149722
000160 eb 7c 07 3e ef ad 96 3a c2 ba a2 3d 7e 3b 9e bd
       0.13231246 0.0011495928 0.079457775 -0.07726191
000170 fc de b6 bd 4f c8 84 bd 1d 25 a3 3d d5 c4 84 3d
       -0.0892925 -0.06483518 0.07966063 0.06482855
000180 50 27 cc 3b d4 e5 bc 3d 82 bd 19 be da 37 86 3e
       0.0062302724 0.09223524 -0.15013698 0.26214486
000190 6a ff 9e bd f8 35 ac 3c 5a e0 88 bd ef 0c 9b 3d
       -0.0776356 0.021021828 -0.06683417 0.07570826
0001a0 20 81 a6 bd 10 59 9f bc cf f7 d9 3d a3 e7 d4 3d
       -0.081300974 -0.019451648 0.10642969 0.10395744
0001b0 dd 55 73 3d 71 55 3d be 24 7f 37 3d a7 02 8c bd
       0.059408057 -0.18489625 0.044798985 -0.068364434
0001c0 d6 f6 ad 3b 8e 32 30 bd 82 f9 8f 3d e8 65 3c 3d
       0.005308966 -0.043016963 0.07030012 0.045995623
0001d0 02 af ec 3b c1 1b bc bd 2e 47 2a be 18 3e 36 3d
       0.007223011 -0.09184981 -0.16628715 0.04449281
0001e0 2e 5a 20 bd e4 39 1d bd 53 c7 dd bc c0 b3 4c bd
       -0.039148502 -0.038385287 -0.027072584 -0.04997611
0001f0 83 f4 23 3d cc 50 01 bd 81 10 a2 bd d4 61 be 3d
       0.040028106 -0.031571195 -0.07913304 0.09296003
000200 7e 4c a1 3d 59 34 8b bd ba 06 ca 3d 4f 9e 94 bd
       0.07875918 -0.06797094 0.09864564 -0.072567575
000210 31 31 a3 3c 5c 63 d8 bd 0a 05 90 3d 0c a0 91 3d
       0.019920917 -0.10565826 0.07032211 0.07110605
000220 95 68 b2 bd 01 8a 83 3d 15 a4 46 3d 0b 6b 02 bd
       -0.08711354 0.064228065 0.048496325 -0.031840365
000230 59 b1 c4 bb e8 52 08 3d f0 85 ac 3d 04 d5 bb bd
       -0.006002587 0.03328219 0.08423984 -0.09171489
000240 68 64 92 bd b8 10 01 bd df 82 aa 3d 6c dd 01 3e
       -0.07148057 -0.031510085 0.08325743 0.12682122
000250 f2 60 96 3d 31 07 a5 bd f0 ba 29 bd a9 40 07 3d
       0.073427096 -0.08058012 -0.041438043 0.03302065
000260 ab 72 6f 3d 3f e7 34 3d dd 20 bc 3d 75 71 06 3e
       0.058458965 0.044165846 0.09185956 0.13129218
000270 26 10 1c 3d d7 13 e1 3c b3 cf 13 3c 48 9a 64 bd
       0.038101338 0.02747528 0.009021687 -0.055811197
000280 1e 96 e6 bd 1d c4 b0 3c 7b fc 87 3d d9 f0 a7 b9
       -0.11259101 0.02157789 0.06639954 -0.00032032168
000290 32 1b 99 bd b3 93 14 bd c9 b8 e7 3c 75 ec b7 bd
       -0.0747589 -0.03627367 0.028286355 -0.089806475
0002a0 f0 60 38 bd 71 d5 6d bd 39 88 73 bc 37 ce b1 bd
       -0.04501432 -0.05806488 -0.014864021 -0.086819105
0002b0 11 5c 42 3e 60 af 2c 3d 12 55 98 3c c5 a6 75 bc
       0.18980433 0.042159438 0.018595252 -0.014993374
0002c0 67 2b 5b bc 6e 8c 46 3d af ab 70 3c 88 33 a3 3c
       -0.013377047 0.048473768 0.01468937 0.019922033
0002d0 fa f7 cc 3c 4d 1e b1 bc 64 73 b8 bd cf a9 db 3c
       0.025020588 -0.021620894 -0.09006384 0.02681437
0002e0 d5 f7 24 bd a5 86 20 be 18 7f a8 bd e8 2e 3e bd
       -0.040275414 -0.15676363 -0.08227366 -0.046431452
0002f0 25 bb 48 3d e9 73 9b 3c 8f 93 7f bc 1c 87 cb bd
       0.0490066 0.018976169 -0.015599146 -0.099378794
000300 8e 60 df 3d 24 2d 01 3e 69 b4 55 bd 67 9d b9 3d
       0.10907088 0.12614876 -0.052174006 0.09063225
000310 14 db cc 3c 99 08 2d be f2 73 98 3d cd 84 1a 3e
       0.025006808 -0.16897811 0.0744399 0.15089722
000320 41 70 d7 bc ee fc 93 bc fa 24 89 bd da 8d 14 bd
       -0.026298644 -0.018064942 -0.06696506 -0.036268093
000330 5e 8f 37 3d ef be 72 bd 82 30 fd bb 73 04 dd bc
       0.04481446 -0.05926412 -0.00772673 -0.02697966
000340 5e e8 0b 3c 95 c5 f5 bd e2 cb ee bd 9c d3 04 bd
       0.008539287 -0.120005764 -0.11659981 -0.03242837
000350 cd 80 48 3d 82 af 81 3d 59 01 b3 3c f7 e8 d8 bd
       0.04895096 0.063323036 0.021851229 -0.105913095
000360 a2 03 3a 3e 59 b8 52 bd 1a 49 31 3d 51 54 36 3d
       0.18165448 -0.05144534 0.043282606 0.044514004
000370 01 74 54 bd da c6 4b bd 97 ef 1d bd ae a6 43 3e
       -0.051868442 -0.049750187 -0.03855857 0.19106552
000380 07 4c c1 bd 26 f4 3c bc 3f f9 71 be 25 b2 f1 bc
       -0.09438329 -0.011532819 -0.23630236 -0.029503891
000390 6a 19 b0 3d 5f 59 1e be e6 d1 8f 3c ca e4 f1 bc
       0.08598597 -0.1546378 0.017556142 -0.02952804
0003a0 68 f4 55 bc cf 49 02 bd 57 04 ab bd 06 d7 35 3e
       -0.013058759 -0.03180867 -0.08350437 0.17757806
0003b0 2a 31 87 bd c4 e3 47 be 08 9d 46 3a e3 5f 78 bd
       -0.06601174 -0.1952048 0.00075765 -0.06063832
0003c0 e3 c4 c3 bc 2b 5d 57 3d 59 69 9d bd 64 6f 9d bd
       -0.023897594 0.052579086 -0.07686109 -0.07687262
0003d0 55 94 3c 3c 61 8e 3a be ed 89 94 bd e0 d4 06 3c
       0.0115099745 -0.18218376 -0.0725287 0.008229464
0003e0 fb 5c 80 bc 09 62 7d bd 6e 3a 54 bc 6f 11 2c bd
       -0.015669337 -0.06186107 -0.012953384 -0.042008813
0003f0 c6 e6 f4 bc d8 0f d9 bd 99 b0 2f bd 18 ab 43 3d
       -0.029895198 -0.10598725 -0.042893026 0.04777059

network_body._body_endoder.seq_layers.2.bias f4 [128]
000000 d6 ab 8e 3a 71 11 33 bb 95 d5 80 bb 69 16 f2 ba
       0.0010884951 -0.0027323628 -0.003931711 -0.0018469814
000010 fe d8 80 bb 9b ad bc b9 db 82 89 3a dd 50 32 bb
       -0.0039321175 -0.000359875 0.0010491268 -0.0027208843
000020 68 cc f6 bb 88 0b c2 3b 10 d0 de b8 97 10 bd ba
       -0.0075316913 0.005921785 -0.000106245396 -0.00144245
000030 8a 23 35 bb 18 91 1b bb 52 6d 24 bb 99 7e 72 3b
       -0.002763959 -0.0023737606 -0.0025089574 0.0037001728
000040 4a 98 e0 bb 73 5f c4 3b d8 fb 1a bb ad 52 d0 ba
       -0.006854092 0.0059928237 -0.0023648646 -0.001589378
000050 bf d8 bc 3b e7 2e e8 ba d0 9e a3 3a f8 ef f0 3a
       0.005763143 -0.0017714173 0.0012483243 0.0018382063
000060 f3 ac 73 3a 2a 2d 58 39 9c c7 0c bb 44 d2 ea 3a
       0.0009295486 0.0002061619 -0.002148128 0.0017915447
000070 78 7f 86 3c 15 40 48 3b 8b 86 eb ba 11 45 17 bb
       0.016418204 0.0030555774 -0.0017969174 -0.0023081938
000080 76 da 39 3c 93 1c 57 ba 67 1e d2 3a b4 51 90 3c
       0.011343589 -0.0008205857 0.0016030789 0.017617084
000090 ea 0b b3 bb 1d ac c6 3a ae 0b a3 ba 02 bc 0e bb
       -0.0054640668 0.0015157495 -0.0012439394 -0.0021779542
0000a0 bb 4d 65 ba 7c 13 43 3a 51 a6 23 3c ab e9 1f 3a
       -0.00087472395 0.0007441563 0.009988383 0.0006100188
0000b0 ef d8 05 ba dd ab 16 3c 83 6c 06 3c 5a 83 08 3b
       -0.0005105873 0.009196249 0.008204582 0.0020830245
0000c0 79 71 e7 ba 43 58 94 bb ca ea b4 bb 52 44 fc ba
       -0.0017657719 -0.004527123 -0.005521153 -0.0019246435
0000d0 44 60 9c ba 4f c2 59 b8 c2 e3 08 bb 0f 84 c4 3b
       -0.0011930545 -5.1917796e-05 -0.0020887707 0.005997188
0000e0 10 ef b8 39 40 6e 9b ba 37 6f ad bb 2d 4d 4f 3c
       0.0003527333 -0.0011858419 -0.005292799 0.0126526775
0000f0 40 bd 8c 3a 79 4a b3 b6 96 55 ef bb 0f 0d 59 bb
       0.0010737553 -5.3432855e-06 -0.007303904 -0.0033119356
000100 ce 05 0e 3b d2 91 1d 3c fe df 88 bb 4c f6 be 3a
       0.002167094 0.009617286 -0.0041770926 0.0014569252
000110 93 2b ca 3c 7c 90 fa ba 5f 4f 6f 3a 22 53 9a ba
       0.024678981 -0.0019116546 0.00091289537 -0.0011774043
000120 de 28 26 3c f5 85 f8 ba 4f 82 40 ba 2a 9a bd bb
       0.010141579 -0.0018960821 -0.0007343636 -0.0057862
000130 04 81 13 bb 6f 30 e3 39 67 d5 23 bb 98 47 b9 3b
       -0.002250732 0.000433329 -0.0024999024 0.0056542866
000140 fb 3c bc 3a 28 ab 4c bb c5 d4 5c ba 57 74 5e bb
       0.0014361435 -0.0031229947 -0.0008424039 -0.0033943856
000150 9a 0d 4f b9 15 87 cc ba 42 29 b9 bb 44 e4 50 3a
       -0.00019746125 -0.0015604222 -0.0056506703 0.00079685845
000160 74 ab 0d 39 86 3d a0 ba 91 87 01 bb c0 48 2a 3c
       0.00013510679 -0.0012225367 -0.0019764642 0.0103933215
000170 ec b6 25 bb 94 fe 1a ba 95 6e b4 3b 35 03 39 3b
       -0.0025286032 -0.0005912569 0.0055063465 0.0028230671
000180 ab 30 88 3a bd a7 29 3c 72 44 22 bb 31 23 32 bc
       0.0010390481 0.010354933 -0.0024760035 -0.010872648
000190 8a c9 2b 3c bb c3 3b 3b 13 b8 df ba 91 17 d8 bb
       0.010485062 0.00286506 -0.0017068408 -0.006594606
0001a0 84 d6 38 bb 59 4a 17 bb fb 82 8b ba 87 44 dc 3b
       -0.0028204033 -0.0023085086 -0.0010643894 0.0067220363
0001b0 7d ed f3 3b 3d e5 bb 3c 2a 96 a2 3a 4d 25 6f 3c
       0.0074440823 0.022936458 0.0012404372 0.014596296
0001c0 ed a9 63 3c 45 8f 69 3c 95 22 1b bb 60 f8 b1 3a
       0.013895494 0.0142553495 -0.0023671736 0.001357805
0001d0 e3 21 33 3b 6d f4 8b 3a 47 27 4c 3c f1 5e 17 3b
       0.002733343 0.0010677703 0.012460536 0.002309736
0001e0 57 28 4a 3b 61 db ba 3a 96 cb 03 bb ca 24 2c bb
       0.0030846798 0.0014256054 -0.002011036 -0.0026267045
0001f0 de 0c d4 3a 9b ea db b8 52 ed 88 ba d2 3b ae 3a
       0.0016178151 -0.000104864324 -0.0010446704 0.0013292974

action_model._continuous_distribution.log_sigma f4 [1, 2]
000000 50 9b 01 3c e0 4d 80 bc
       0.007910565 -0.015662134

action_model._continuous_distribution.mu.weight f4 [2, 128]
000000 ab d0 85 3b 71 ad f7 3c e9 c2 6e 3b 68 34 18 3a
       0.004083713 0.03023407 0.0036432093 0.0005806149
000010 2c a4 81 bb ac fc ea 3c 56 98 f6 3c f7 5f 56 bc
       -0.0039563384 0.028684936 0.030101936 -0.013084403
000020 a9 0b c7 3b 10 9a d4 bc aa d9 d3 bc 87 02 22 bd
       0.006074388 -0.025952369 -0.025860626 -0.03955319
000030 28 26 8c bc cf 8f f9 bb 92 1d 5b bb fd 05 a0 3c
       -0.017108038 -0.0076160203 -0.0033434373 0.019534105
000040 43 39 19 3c 9b 89 37 bc ca 29 85 ba 0d 70 66 bc
       0.009352031 -0.011202241 -0.0010159549 -0.014064801
000050 91 f9 09 bb 9b 0d c7 bb e0 5a 05 3c 14 78 af 3c
       -0.0021053294 -0.00607462 0.008139342 0.021419562
000060 79 dc d1 3b 63 a2 94 bc c9 9a 98 3b 69 49 91 3c
       0.006404456 -0.018143838 0.0046571237 0.0177352
000070 21 37 ba 3c e2 4c e1 39 d6 28 72 ba a6 9f a8 bc
       0.022731366 0.00042972626 -0.00092376524 -0.020583939
000080 5d 87 b4 3c 19 98 aa 3a fc 77 68 bc 42 1d e9 3b
       0.022037202 0.0013015299 -0.014188763 0.0071140835
000090 0a a3 a9 bc 71 63 31 bc 15 2b 8e bc 19 f1 8c 3c
       -0.020707626 -0.010826931 -0.017354527 0.017204808
0000a0 48 46 e3 3c af 10 fe 3c b5 22 80 3c ad 08 50 bc
       0.027743474 0.031013815 0.01564155 -0.012697381
0000b0 a2 3a 9d bc 52 fa 6f 3a 4f ec 16 bb df 1e 9b bb
       -0.019192997 0.0009154427 -0.0023029034 -0.0047339047
0000c0 46 1d 54 3c 1c 02 08 bc a5 6b 69 bc 42 7e cf bb
       0.012946432 -0.008301284 -0.014246856 -0.00633219
0000d0 bf ab 67 bb 32 ea 65 3c 3b 38 06 bd 90 d3 b4 3c
       -0.0035350171 0.014032887 -0.03276847 0.022073537
0000e0 7e 26 bf 3c 0d 40 86 3c e1 61 7b ba 9c ad 15 3c
       0.023333784 0.016387964 -0.0009589475 0.00913563
0000f0 7e b2 9f 3c 5d c9 af 3b 5d c6 c4 bc 75 21 ea bb
       0.019494291 0.0053645805 -0.024020368 -0.0071451017
000100 8b 1e ec bb 89 c3 cc 3b 61 53 a2 3b bc 0d 49 3b
       -0.0072057894 0.0062488955 0.004953787 0.0030678352
000110 02 e8 a7 3b cb a6 e4 39 7d 3a b4 bc d0 e1 c8 36
       0.005124093 0.0004361182 -0.022000546 5.9867525e-06
000120 d1 8e 62 3c 5c fb ba 3b 1a 49 3e bc a2 66 15 39
       0.013827995 0.005706234 -0.011614108 0.00014247981
000130 ee a7 66 b8 af 21 a3 bb 69 93 3e bc 39 0b 2f bc
       -5.499267e-05 -0.0049783806 -0.011631825 -0.010683828
000140 a7 56 81 3b 9c 86 3f bc b9 96 86 bc 0a 23 85 ba
       0.0039470973 -0.011689808 -0.016429292 -0.0010157537
000150 4c 39 f5 ba 6d c5 3d 3c 07 f1 dc 3b f9 01 41 3c
       -0.0018709092 0.0115827145 0.0067426 0.0117802555
000160 54 94 39 3c 24 09 8d 3c 98 40 31 3c b0 61 60 3c
       0.011326868 0.017216273 0.010818623 0.0136951655
000170 a3 41 d0 3b 18 a7 db 3c 3d 9b 5e 3b fe 40 aa bb
       0.0063554808 0.026813075 0.003396704 -0.005195736
000180 44 94 85 bc e5 70 1e bc d4 32 57 bc ee 52 7a bb
       -0.01630605 -0.009670471 -0.013134677 -0.0038196403
000190 73 58 73 bb 15 da 33 3c f9 68 9e bb 2b f1 0b bc
       -0.0037131577 0.010977288 -0.004834291 -0.008541386
0001a0 78 5e 0b 3d 0c 9b 7e bb 6f 16 38 3c cf 88 6c 3c
       0.03402564 -0.003884974 0.011235817 0.014436915
0001b0 08 9b b5 3b 80 e1 a1 3c 5d 06 76 bc cd 33 46 bc
       0.005542163 0.019760847 -0.015016166 -0.012097311
0001c0 76 b1 6f 3c 10 21 69 3c 84 24 00 3d 93 91 30 3b
       0.014629712 0.014229074 0.031284824 0.0026942238
0001d0 59 11 c3 3b ae 8e 0c bc ce 4e 12 3c 14 93 bb bb
       0.0059529957 -0.008578939 0.008929921 -0.00572432
0001e0 75 98 3c bc b0 a4 be 3a 26 fc f5 3c ab 84 12 3b
       -0.011510958 0.001454493 0.03002746 0.0022356908
0001f0 98 1b 6f 3c b2 d1 ee 3c bb e4 22 3d c3 a2 02 bd
       0.014593981 0.029152725 0.039768916 -0.031893503
000200 db 6d 6f 3c 8d ba a4 bb e1 0a 48 bb 2d 82 3b 3b
       0.014613594 -0.0050271214 -0.0030524062 0.0028611526
000210 fa 1a 5e bb 46 2f 96 3c 80 da c3 3c 87 b4 d0 bc
       -0.003389059 0.018333089 0.0239079 -0.025476707
000220 8b a3 9f bc e9 a4 05 3c a8 44 26 bc e0 36 9c bc
       -0.019487163 0.008156993 -0.010148205 -0.019069135
000230 86 af 54 bb 9c b5 7e ba 35 f2 11 bc a9 60 f6 bc
       -0.0032453253 -0.0009716393 -0.008907844 -0.030075388
000240 d6 05 b7 3c 69 a7 34 3d cf 04 e5 bc f6 1c 07 bb
       0.02234165 0.044104967 -0.027956394 -0.0020616627
000250 80 c5 d1 3c 9e 1d 05 bd 73 a0 7e 3c ba ad 54 bc
       0.02560687 -0.03249895 0.015541184 -0.012980873
000260 8b 4a 25 3c 05 93 e5 3b 0e c0 e4 bc d1 bf d9 3c
       0.010088573 0.0070060515 -0.02792361 0.026580723
000270 a5 5c c9 bc 5d 7c 9b 3c 99 82 68 3b 89 af fe bb
       -0.02458031 0.0189802 0.0035478233 -0.0077723903
000280 f6 54 d8 bc fa 61 9b 3b b3 87 a1 bc 6a 37 d7 bc
       -0.0264077 0.0047419043 -0.019718027 -0.02627154
000290 7c 37 fe bb bb 50 34 3c d3 02 0b bb 14 d4 0a bd
       -0.007758079 0.011005576 -0.00212114 -0.03389366
0002a0 35 d6 55 bb cf 1a 87 3c 65 2a fb bc 90 93 38 3b
       -0.0032628898 0.016492276 -0.030659864 0.0028164126
0002b0 ee ea d6 bc 0c be 43 3d cc 97 06 bd 29 5b 78 bc
       -0.02623507 0.047788665 -0.03285961 -0.015158453
0002c0 64 2d 05 bd 4f 1a 87 bb 12 9a c5 3c 37 d8 3f 3a
       -0.03251399 -0.0041230093 0.024121318 0.00073182903
0002d0 74 e1 a7 3b 8a 6f 23 3c c7 cf a6 3b 4a e2 92 bc
       0.0051233117 0.009975323 0.005090687 -0.017930169
0002e0 b1 22 4c 3c e6 08 56 3b 96 77 27 3d 2a 63 a7 bc
       0.012459443 0.0032659112 0.04088553 -0.020433027
0002f0 c7 2f 92 3c a6 e0 fa bb 68 c3 52 3c d6 7f 78 bb
       0.017845048 -0.0076561747 0.012863971 -0.0037917993
000300 ca 1e b8 bc 7f aa bb bc e3 0f a4 3b fa d8 d6 3c
       -0.022475619 -0.022908447 0.0050067767 0.02622651
000310 37 19 fa bc 66 76 32 3b 25 18 d6 3c aa 0f 41 bc
       -0.030529601 0.0027231215 0.02613456 -0.01178352
000320 6f 1a 05 bd 44 e4 5a 3b ad 11 07 bc a1 b5 b9 3b
       -0.032495912 0.0033400217 -0.00824396 0.005667404
000330 97 aa ae bc 84 11 bf bc d5 88 91 bc d1 48 02 3d
       -0.021321578 -0.023323782 -0.017765442 0.031807724
000340 80 d0 b4 3c 76 f8 a0 bc d5 62 23 bb af 1e f0 3c
       0.022072077 -0.019649725 -0.0024930735 0.029311506
000350 38 fa ba bc fd 69 7d bc 18 fc b8 3b 4d 06 34 bd
       -0.022824392 -0.015467164 0.0056452863 -0.04395132
000360 0b 42 6b 3c cd 24 23 3c d4 05 a6 bb 48 bd 1c bd
       0.014359008 0.009957504 -0.0050666127 -0.03826645
000370 bd 2a 19 bc 98 4e c4 bb 9a 16 2c bc 00 83 c1 bc
       -0.0093485685 -0.0059908144 -0.0105034355 -0.023622036
000380 25 10 12 3d 54 0e 08 bd da 79 ce bc c1 6a 3f 3c
       0.035659928 -0.03321679 -0.025204588 0.011683167
000390 71 b3 aa bc aa f8 ea 3c 49 d7 47 3c fb c0 aa bc
       -0.020837517 0.028683025 0.012197324 -0.020843973
0003a0 d6 2a b6 3b ec a0 b2 bc 72 15 4d bc 57 6c 6e bc
       0.0055593057 -0.02180525 -0.01251732 -0.014552197
0003b0 6a 78 ef bc 1f 98 14 bd 95 01 0f 3d 53 ba 0c 3d
       -0.029232223 -0.036277886 0.034913618 0.03435738
0003c0 82 15 bd bc 7e 82 dd bc 15 2e 27 3d 46 6d f0 3c
       -0.023081545 -0.027039763 0.04081543 0.02934898
0003d0 c9 c9 08 bd 2b a9 97 3c 00 0a ee bc 39 e8 dd bc
       -0.033395562 0.018513283 -0.029057503 -0.027088271
0003e0 5f 9c 01 3c 5f 98 a4 39 f1 a3 1a bc bb 5a 2f bc
       0.007910817 0.00031394043 -0.009438501 -0.010702784
0003f0 ff dd 22 bd d7 b6 10 bb cd 74 bc bc 4a dc f1 bc
       -0.039762493 -0.0022081637 -0.023004914 -0.029523987

action_model._continuous_distribution.mu.bias f4 [2]
000000 c0 24 e7 b9 ca 30 df 3a
       -0.00044087134 0.001702809

exp_avg f4 [128, 75]
000000 00 00 00 00 30 0b 31 35 00 00 00 00 d1 62 d6 b4
       0.0 6.595392e-07 0.0 -3.9932505e-07
000010 00 00 00 00 cc 3d 42 b7 00 00 00 00 1e ae 28 b5
       0.0 -1.1577689e-05 0.0 -6.283825e-07
000020 00 00 00 00 69 8f da b6 00 00 00 00 21 36 36 b5
       0.0 -6.5136014e-06 0.0 -6.787905e-07
000030 00 00 00 00 c0 97 c8 37 00 00 00 00 49 fb 3f b5
       0.0 2.3912522e-05 0.0 -7.151871e-07
000040 00 00 00 00 96 87 1a 37 00 00 00 00 38 8f 85 b4
       0.0 9.210684e-06 0.0 -2.4877386e-07
000050 00 00 00 00 0e f9 c2 36 00 00 00 00 ac b7 a4 37
       0.0 5.8106443e-06 0.0 1.9635852e-05
000060 00 00 00 00 6f 05 9a 36 00 00 00 00 d8 59 1f 36
       0.0 4.59019e-06 0.0 2.3745142e-06
000070 00 00 00 00 7a f9 91 36 00 00 00 00 42 c7 73 36
       0.0 4.3503796e-06 0.0 3.6325805e-06
000080 00 00 00 00 c6 c8 73 36 fa 0a 0b 3a d7 e2 be 37
       0.0 3.6326687e-06 0.0005304065 2.2755396e-05
000090 cc 04 40 3a c9 85 fa af 2b 3e d3 37 c1 7e f9 b4
       0.00073249335 -4.5569795e-10 2.518211e-05 -4.647209e-07
0000a0 43 0f 02 38 aa 9d d3 b7 ee 92 bf b3 c9 80 03 b8
       3.100863e-05 -2.5226578e-05 -8.920857e-08 -3.1352774e-05
0000b0 c8 f4 86 b4 1e b6 a4 b7 60 66 f1 b6 00 00 00 00
       -2.5137547e-07 -1.9635128e-05 -7.1942777e-06 0.0
0000c0 aa 81 a2 38 9b 93 9e 3a 00 00 00 00 00 00 00 00
       7.748914e-05 0.0012098433 0.0 0.0
0000d0 00 00 00 00 aa 81 22 38 00 00 00 00 aa 81 a2 38
       0.0 3.874457e-05 0.0 7.748914e-05
0000e0 24 5c d1 3a 00 00 00 00 00 00 00 00 00 00 00 00
       0.0015972895 0.0 0.0 0.0
0000f0 aa 81 22 38 00 00 00 00 aa 81 a2 38 52 12 02 3b
       3.874457e-05 0.0 7.748914e-05 0.0019847346
000100 00 00 00 00 00 00 00 00 00 00 00 00 aa 81 22 38
       0.0 0.0 0.0 3.874457e-05
000110 00 00 00 00 aa 81 a2 38 95 76 1b 3b 00 00 00 00
       0.0 7.748914e-05 0.0023721803 0.0
000120 0b d2 ab 37 00 00 00 00 ad 66 11 38 00 00 00 00
       2.0482597e-05 0.0 3.466632e-05 0.0
000130 fd 3c ee 33 00 00 00 00 ce bd 00 33 00 00 00 00
       1.1093832e-07 0.0 2.997495e-08 0.0
000140 09 24 2e b4 00 00 00 00 a4 ac 06 32 00 00 00 00
       -1.6218122e-07 0.0 7.8390805e-09 0.0
000150 af a5 91 b4 00 00 00 00 e0 f8 7e 30 00 00 00 00
       -2.7128905e-07 0.0 9.2758334e-10 0.0
000160 70 12 b2 34 00 00 00 00 33 df 50 b1 00 00 00 00
       3.31685e-07 0.0 -3.0394858e-09 0.0
000170 1a 5a 00 34 00 00 00 00 f6 98 0a 2d 00 00 00 00
       1.1953708e-07 0.0 7.878356e-12 0.0
000180 71 bb 9d 33 00 00 00 00 f8 25 96 34 00 00 00 00
       7.3449776e-08 0.0 2.7967303e-07 0.0
000190 d5 6d 80 33 00 00 00 00 1e 97 e3 b2 00 00 00 00
       5.980443e-08 0.0 -2.6494998e-08 0.0
0001a0 bb c2 93 33 00 00 00 00 25 38 a2 33 00 00 00 00
       6.880642e-08 0.0 7.5539255e-08 0.0
0001b0 8f 38 a2 33 97 0a b4 36 55 52 a5 34 72 aa 1e 36
       7.554001e-08 5.365651e-06 3.079355e-07 2.3643047e-06
0001c0 61 b0 ee b0 a6 e6 87 34 a5 25 31 b2 9d 0c e3 34
       -1.7366909e-09 2.5313528e-07 -1.0311315e-08 4.2291222e-07
0001d0 37 12 a8 b4 20 80 5c b3 d7 95 d3 35 a2 20 98 b3
       -3.1305692e-07 -5.133927e-08 1.5764334e-06 -7.0839874e-08
0001e0 8f b8 e0 b4 bd 3b 0d b4 00 00 00 00 7e 28 8c 35
       -4.1857535e-07 -1.3153381e-07 0.0 1.0442598e-06
0001f0 0c ec 39 37 00 00 00 00 00 00 00 00 00 00 00 00
       1.1081818e-05 0.0 0.0 0.0
000200 7e 28 0c 35 00 00 00 00 7e 28 8c 35 b1 c2 88 37
       5.221299e-07 0.0 1.0442598e-06 1.6303124e-05
000210 00 00 00 00 00 00 00 00 00 00 00 00 7e 28 0c 35
       0.0 0.0 0.0 5.221299e-07
000220 00 00 00 00 7e 28 8c 35 59 8f b4 37 00 00 00 00
       0.0 1.0442598e-06 2.1524424e-05 0.0
000230 00 00 00 00 00 00 00 00 7e 28 0c 35 00 00 00 00
       0.0 0.0 5.221299e-07 0.0
000240 7e 28 8c 35 ff 5b e0 37 00 00 00 00 76 65 4a 34
       1.0442598e-06 2.674572e-05 0.0 1.8849627e-07
000250 00 00 00 00 63 15 02 35 00 00 00 00 a4 17 e1 32
       0.0 4.8459896e-07 0.0 2.6204198e-08
000260 00 00 00 00 d7 da 4b b2 00 00 00 00 c0 3d d3 b4
       0.0 -1.1865914e-08 0.0 -3.9346742e-07
000270 00 00 00 00 9e db b0 b2 00 00 00 00 89 96 09 b5
       0.0 -2.0588967e-08 0.0 -5.1255535e-07
000280 00 00 00 00 a7 12 cd b2 00 00 00 00 28 21 c1 34
       0.0 -2.3873623e-08 0.0 3.5973176e-07
000290 00 00 00 00 ce bb f2 b2 00 00 00 00 b9 91 e2 33
       0.0 -2.8257912e-08 0.0 1.0550452e-07
0002a0 00 00 00 00 d6 5e e9 b2 00 00 00 00 38 38 57 33
       0.0 -2.7167896e-08 0.0 5.010972e-08
0002b0 00 00 00 00 cc 32 94 34 00 00 00 00 69 aa ea 32
       0.0 2.7604108e-07 0.0 2.7318679e-08
0002c0 00 00 00 00 0b 43 1d b4 00 00 00 00 22 e2 85 32
       0.0 -1.4646155e-07 0.0 1.5586071e-08
0002d0 00 00 00 00 d4 45 8a b2 00 00 00 00 44 44 8a b2
       0.0 -1.6097069e-08 0.0 -1.6096358e-08
0002e0 c7 da aa 36 86 47 54 b2 7a 01 33 b6 14 12 e0 b0
       5.091864e-06 -1.2356287e-08 -2.6673938e-06 -1.6303283e-09
0002f0 63 91 76 34 e2 c2 aa b2 88 70 1b b4 e5 45 20 b6
       2.2963427e-07 -1.9879227e-08 -1.4476439e-07 -2.3882542e-06
000300 95 6b 0f 34 36 7e 19 b6 42 11 52 b3 7d 2e 92 b5
       1.3357051e-07 -2.287224e-06 -4.891013e-08 -1.0891378e-06
000310 48 2e 98 b4 00 00 00 00 09 e4 7c b3 d6 9c 80 b4
       -2.834588e-07 0.0 -5.888072e-08 -2.395597e-07
000320 00 00 00 00 00 00 00 00 00 00 00 00 09 e4 fc b2
       0.0 0.0 0.0 -2.944036e-08
000330 00 00 00 00 09 e4 7c b3 72 54 0f b5 00 00 00 00
       0.0 -5.888072e-08 -5.3394535e-07 0.0
000340 00 00 00 00 00 00 00 00 09 e4 fc b2 00 00 00 00
       0.0 0.0 -2.944036e-08 0.0
000350 09 e4 7c b3 a0 5b 5e b5 00 00 00 00 00 00 00 00
       -5.888072e-08 -8.2834777e-07 0.0 0.0
000360 00 00 00 00 09 e4 fc b2 00 00 00 00 09 e4 7c b3
       0.0 -2.944036e-08 0.0 -5.888072e-08
000370 5a b2 96 b5 00 00 00 00 da 80 19 34 00 00 00 00
       -1.1227778e-06 0.0 1.4296111e-07 0.0
000380 05 b4 78 b3 00 00 00 00 cc b3 87 b4 00 00 00 00
       -5.7905726e-08 0.0 -2.527653e-07 0.0
000390 9b 40 24 b4 00 00 00 00 ba 40 94 b5 00 00 00 00
       -1.5297194e-07 0.0 -1.1045697e-06 0.0
0003a0 19 a2 06 b4 00 00 00 00 30 36 99 b5 00 00 00 00
       -1.2538693e-07 0.0 -1.1415159e-06 0.0
0003b0 9e 24 01 b4 00 00 00 00 3c ce 47 35 00 00 00 00
       -1.2027382e-07 0.0 7.443339e-07 0.0
0003c0 c6 37 0d b4 00 00 00 00 6b 55 3c 34 00 00 00 00
       -1.3151939e-07 0.0 1.7539939e-07 0.0
0003d0 84 27 1e b4 00 00 00 00 63 0a 43 33 00 00 00 00
       -1.4729272e-07 0.0 4.5411422e-08 0.0
0003e0 7b 4d 1f 35 00 00 00 00 85 0b bd b2 00 00 00 00
       5.9344865e-07 0.0 -2.2007734e-08 0.0
0003f0 9a a1 2d b5 00 00 00 00 b8 44 d7 b3 00 00 00 00
       -6.4682683e-07 0.0 -1.00242175e-07 0.0

exp_avg_sq f4 [128, 75]
000000 00 00 00 00 51 58 15 30 00 00 00 00 cb 52 bb 2e
       0.0 5.433139e-10 0.0 8.5184824e-11
000010 00 00 00 00 f4 0a 81 30 00 00 00 00 e4 03 42 2e
       0.0 9.389098e-10 0.0 4.411395e-11
000020 00 00 00 00 92 f3 49 31 00 00 00 00 91 58 28 2e
       0.0 2.9387803e-09 0.0 3.827744e-11
000030 00 00 00 00 bf 0a 8d 31 00 00 00 00 d2 57 5c 2e
       0.0 4.104862e-09 0.0 5.010021e-11
000040 00 00 00 00 ff 1c 9d 30 00 00 00 00 24 9a 12 2f
       0.0 1.1431495e-09 0.0 1.3333384e-10
000050 00 00 00 00 87 d2 30 30 00 00 00 00 14 96 7a 31
       0.0 6.4327604e-10 0.0 3.6465098e-09
000060 00 00 00 00 1e e3 17 30 00 00 00 00 63 8f 62 31
       0.0 5.5256233e-10 0.0 3.2968834e-09
000070 00 00 00 00 6d 29 3e 30 00 00 00 00 ca 62 b5 30
       0.0 6.9180467e-10 0.0 1.3197561e-09
000080 00 00 00 00 c9 62 b5 30 8e 1e 66 36 49 6d ff 32
       0.0 1.319756e-09 3.4290456e-06 2.9735604e-08
000090 51 0d 8d 37 e7 be ae 29 28 a9 42 32 f8 28 65 29
       1.681471e-05 7.7602685e-14 1.1330748e-08 5.088375e-14
0000a0 fa b1 a0 33 3a 59 7e 32 31 0e a6 2d 08 85 02 33
       7.482954e-08 1.4805034e-08 1.8878317e-11 3.0388975e-08
0000b0 f1 f5 f5 2d ec 31 ec 2f b8 7e e6 2d 00 00 00 00
       2.7962495e-11 4.2963622e-10 2.6204247e-11 0.0
0000c0 77 29 ba 34 4e 1e 0e 38 00 00 00 00 00 00 00 00
       3.467537e-07 3.388366e-05 0.0 0.0
0000d0 00 00 00 00 77 29 ba 33 00 00 00 00 77 29 ba 34
       0.0 8.668842e-08 0.0 3.467537e-07
0000e0 b3 f2 9f 38 00 00 00 00 00 00 00 00 00 00 00 00
       7.626917e-05 0.0 0.0 0.0
0000f0 77 29 ba 33 00 00 00 00 77 29 ba 34 2f 99 0e 39
       8.668842e-08 0.0 3.467537e-07 0.0001359924
000100 00 00 00 00 00 00 00 00 00 00 00 00 77 29 ba 33
       0.0 0.0 0.0 8.668842e-08
000110 00 00 00 00 77 29 ba 34 16 67 5f 39 00 00 00 00
       0.0 3.467537e-07 0.0002130534 0.0
000120 28 1b 46 30 00 00 00 00 ca d6 b7 33 00 00 00 00
       7.207057e-10 0.0 8.5606715e-08 0.0
000130 dc 88 b9 2a 00 00 00 00 f6 25 41 29 00 00 00 00
       3.2957567e-13 0.0 4.2887535e-14 0.0
000140 b5 35 10 2b 00 00 00 00 ad fd ba 28 00 00 00 00
       5.123361e-13 0.0 2.0760163e-14 0.0
000150 38 81 44 2b 00 00 00 00 b4 f3 97 28 00 00 00 00
       6.9812515e-13 0.0 1.6870057e-14 0.0
000160 c9 8e 60 2b 00 00 00 00 a9 92 b6 28 00 00 00 00
       7.977894e-13 0.0 2.0269663e-14 0.0
000170 28 9d 88 2a 00 00 00 00 87 f3 4a 29 00 00 00 00
       2.4267502e-13 0.0 4.5064236e-14 0.0
000180 20 23 24 2a 00 00 00 00 c6 f9 67 2b 00 00 00 00
       1.4578313e-13 0.0 8.2414316e-13 0.0
000190 33 43 17 2a 00 00 00 00 d8 6d 77 2b 00 00 00 00
       1.3434809e-13 0.0 8.7904467e-13 0.0
0001a0 79 b3 53 2a 00 00 00 00 fc 24 f0 2a 00 00 00 00
       1.8802832e-13 0.0 4.2658227e-13 0.0
0001b0 f9 24 f0 2a 85 16 2f 30 18 a6 0e 2d 8c 25 7b 31
       4.265822e-13 6.369663e-10 8.108646e-12 3.654665e-09
0001c0 8c 1a c7 23 ac 66 25 2c 4d b6 c7 23 70 9f b9 2d
       2.1586866e-17 2.3504905e-12 2.165283e-17 2.110287e-11
0001d0 85 7c b6 2c 52 37 ed 27 38 ab 05 2e 19 9b 0e 28
       5.1865756e-12 6.5840693e-15 3.039277e-11 7.916215e-15
0001e0 78 82 20 2a 16 2c 29 28 00 00 00 00 55 5d d0 2e
       1.425612e-13 9.390944e-15 0.0 9.475324e-11
0001f0 09 81 07 32 00 00 00 00 00 00 00 00 00 00 00 00
       7.887373e-09 0.0 0.0 0.0
000200 55 5d d0 2d 00 00 00 00 55 5d d0 2e 12 67 a0 32
       2.368831e-11 0.0 9.475324e-11 1.8673322e-08
000210 00 00 00 00 00 00 00 00 00 00 00 00 55 5d d0 2d
       0.0 0.0 0.0 2.368831e-11
000220 00 00 00 00 55 5d d0 2e ed df 12 33 00 00 00 00
       0.0 9.475324e-11 3.4196933e-08 0.0
000230 00 00 00 00 00 00 00 00 55 5d d0 2d 00 00 00 00
       0.0 0.0 2.368831e-11 0.0
000240 55 5d d0 2e 70 e5 69 33 00 00 00 00 4f 90 32 2a
       9.475324e-11 5.4458212e-08 0.0 1.5859643e-13
000250 00 00 00 00 be bf cd 2d 00 00 00 00 e0 0e f9 2a
       0.0 2.3390952e-11 0.0 4.4241607e-13
000260 00 00 00 00 c6 ba 80 29 00 00 00 00 a2 5f 02 2b
       0.0 5.716742e-14 0.0 4.6317995e-13
000270 00 00 00 00 72 4a dd 28 00 00 00 00 ef 55 1e 2b
       0.0 2.4568214e-14 0.0 5.6252133e-13
000280 00 00 00 00 84 fc a7 28 00 00 00 00 2f fd 3c 2b
       0.0 1.8650236e-14 0.0 6.714238e-13
000290 00 00 00 00 19 aa bd 28 00 00 00 00 5c af 67 2a
       0.0 2.1056983e-14 0.0 2.0577761e-13
0002a0 00 00 00 00 a8 7c 41 29 00 00 00 00 4b 98 0d 2a
       0.0 4.296273e-14 0.0 1.2576153e-13
0002b0 00 00 00 00 c1 e9 3d 2b 00 00 00 00 df c9 06 2a
       0.0 6.7470687e-13 0.0 1.1971629e-13
0002c0 00 00 00 00 a2 78 5a 2b 00 00 00 00 fc e1 4c 2a
       0.0 7.761657e-13 0.0 1.8197244e-13
0002d0 00 00 00 00 eb 63 e0 2a 00 00 00 00 e9 63 e0 2a
       0.0 3.9859725e-13 0.0 3.985972e-13
0002e0 47 e2 0d 30 b3 56 01 2d 64 59 46 31 c9 9c 73 24
       5.161706e-10 7.352052e-12 2.8863605e-09 5.2825028e-17
0002f0 f2 47 06 2c d8 64 85 24 d7 ca aa 2d 9f 41 6d 2d
       1.9082483e-12 5.785039e-17 1.9416841e-11 1.3486461e-11
000300 13 47 14 28 ee c1 60 2e a8 6a 72 28 29 ac f6 2a
       8.231062e-15 5.1103947e-11 1.3456826e-14 4.3817838e-13
000310 2e 9a a5 28 00 00 00 00 84 a6 bd 2e fe 22 dc 31
       1.8385545e-14 0.0 8.624304e-11 6.406821e-09
000320 00 00 00 00 00 00 00 00 00 00 00 00 84 a6 bd 2d
       0.0 0.0 0.0 2.156076e-11
000330 00 00 00 00 84 a6 bd 2e d1 d7 87 32 00 00 00 00
       0.0 8.624304e-11 1.581421e-08 0.0
000340 00 00 00 00 00 00 00 00 84 a6 bd 2d 00 00 00 00
       0.0 0.0 2.156076e-11 0.0
000350 84 a6 bd 2e 72 b1 fd 32 00 00 00 00 00 00 00 00
       8.624304e-11 2.953377e-08 0.0 0.0
000360 00 00 00 00 84 a6 bd 2d 00 00 00 00 84 a6 bd 2e
       0.0 2.156076e-11 0.0 8.624304e-11
000370 c4 4a 4c 33 00 00 00 00 24 aa 9d 29 00 00 00 00
       4.756545e-08 0.0 7.001715e-14 0.0
000380 75 5f bc 2d 00 00 00 00 a2 dd 57 2b 00 00 00 00
       2.1415517e-11 0.0 7.669092e-13 0.0
000390 7e 85 30 2a 00 00 00 00 ec 4a 36 2c 00 00 00 00
       1.5678255e-13 0.0 2.5905346e-12 0.0
0003a0 31 84 d9 29 00 00 00 00 96 44 0d 2d 00 00 00 00
       9.6596674e-14 0.0 8.030151e-12 0.0
0003b0 0e ee cf 29 00 00 00 00 fd d7 44 2d 00 00 00 00
       9.2339425e-14 0.0 1.1189269e-11 0.0
0003c0 90 52 14 2a 00 00 00 00 a6 17 5f 2c 00 00 00 00
       1.3173685e-13 0.0 3.1703334e-12 0.0
0003d0 ff 2b e2 2a 00 00 00 00 77 14 f9 2b 00 00 00 00
       4.0176193e-13 0.0 1.7698194e-12 0.0
0003e0 47 24 35 2d 00 00 00 00 fd 8b d3 2b 00 00 00 00
       1.0296714e-11 0.0 1.5031306e-12 0.0
0003f0 da 76 1f 2d 00 00 00 00 90 2c 00 2c 00 00 00 00
       9.064494e-12 0.0 1.8214631e-12 0.0

exp_avg f4 [128]
000000 eb 91 22 38 aa 3e 0c 35 38 37 00 b3 7d d2 c0 b5
       3.8759707e-05 5.224525e-07 -2.9852544e-08 -1.4366375e-06
000010 37 e8 0f b7 e3 c8 c7 33 47 d1 79 b7 3b 4d 90 b5
       -8.577531e-06 9.303201e-08 -1.4890283e-05 -1.0751313e-06
000020 e3 6a e1 b7 1a 63 16 35 e8 03 06 b7 47 aa b5 b4
       -2.6871863e-05 5.6023566e-07 -7.987932e-06 -3.383777e-07
000030 94 40 65 34 a8 20 08 b8 37 0f e0 b7 cf d5 60 b8
       2.135078e-07 -3.245534e-05 -2.6709966e-05 -5.3604886e-05
000040 a6 d9 98 b4 b3 dc 09 33 eb 95 7a 36 28 4f 06 b5
       -2.8470566e-07 3.2098523e-08 3.7340167e-06 -5.003408e-07
000050 31 c9 ee b5 cc 61 25 37 23 6e 6b 37 bf 94 fe b7
       -1.7790936e-06 9.8575365e-06 1.4032735e-05 -3.0348425e-05
000060 b2 02 fb 36 eb 72 91 37 ca 4e d3 b6 15 c1 05 31
       7.4806967e-06 1.733886e-05 -6.2974623e-06 1.9463802e-09
000070 3b ca 09 38 df 1b 8a 37 21 48 81 ad bd 4c 23 33
       3.2851687e-05 1.646386e-05 -1.4697634e-11 3.8021188e-08
000080 59 55 61 b4 75 f5 5c b8 5c f2 e5 37 98 4c 07 b5
       -2.0985807e-07 -5.2680687e-05 2.7411785e-05 -5.040288e-07
000090 6a 2d cb b3 78 2b 0e 37 3c cb 14 34 82 df 26 37
       -9.461185e-08 8.47398e-06 1.385751e-07 9.9464105e-06
0000a0 39 88 61 b5 d8 31 26 38 1a f6 9d 2e de 5f 8f b4
       -8.401726e-07 3.9623905e-05 7.18325e-11 -2.6705578e-07
0000b0 3f c7 87 37 a5 dd b7 b5 9c 4f 06 b5 42 25 59 b7
       1.6186035e-05 -1.369907e-06 -5.0034737e-07 -1.2942883e-05
0000c0 3f 32 aa 34 bb 94 a9 36 dc 20 09 38 8d c1 b8 37
       3.1701526e-07 5.053907e-06 3.2693948e-05 2.2024638e-05
0000d0 d1 b2 fa 35 33 45 eb 36 1d 32 a8 b4 b3 9d 25 b8
       1.8678494e-06 7.0116016e-06 -3.13289e-07 -3.9485934e-05
0000e0 87 fc e8 b5 6c 0c 4f 32 2f 74 7c b3 d3 8c ed 32
       -1.7358842e-06 1.205181e-08 -5.877899e-08 2.765447e-08
0000f0 45 77 d0 b6 f9 64 84 36 b0 4d 96 33 c1 82 1a 37
       -6.212768e-06 3.9456613e-06 6.9990506e-08 9.209559e-06
000100 77 f2 9d 37 bc 8b 7a 35 a2 b6 1e b8 4e b3 e3 36
       1.8828765e-05 9.33356e-07 -3.7840226e-05 6.786001e-06
000110 92 e0 93 34 a0 cb 08 b7 3e 1c 50 b5 81 e5 6d 34
       2.754428e-07 -8.153642e-06 -7.7527136e-07 2.2155838e-07
000120 12 04 e7 b1 43 48 b7 b5 c5 4b 03 38 8e c7 c8 b6
       -6.7234476e-09 -1.3655593e-06 3.13034e-05 -5.9836957e-06
000130 eb bf 9d b5 cf a1 19 b5 59 db ce b5 30 22 c7 b6
       -1.1753267e-06 -5.7232404e-07 -1.5412035e-06 -5.934642e-06
000140 7d 90 c4 b4 7f 05 84 b5 eb 71 ff 32 24 d2 c9 36
       -3.6612974e-07 -9.836366e-07 2.9737711e-08 6.0147304e-06
000150 84 8a 50 b5 22 3e b7 37 b7 e1 1d 35 63 b6 57 34
       -7.7687605e-07 2.1844233e-05 5.8815516e-07 2.0089787e-07
000160 a0 12 50 36 84 fd ac 37 2a 77 5a 36 ae fe e4 b7
       3.1005256e-06 2.062205e-05 3.2553894e-06 -2.7298312e-05
000170 d7 da 49 b7 77 e8 0d 32 d7 ad 2e b3 0f f8 3a b1
       -1.2031486e-05 8.260137e-09 -4.067064e-08 -2.7207567e-09
000180 2d c9 a0 33 6b 25 0c b7 81 86 ab 35 98 d6 ff b7
       7.487174e-08 -8.353362e-06 1.2779639e-06 -3.0498297e-05
000190 c3 26 9c 34 f9 04 c1 b7 bd 4e b8 b5 57 b4 09 b6
       2.9085467e-07 -2.3009708e-05 -1.3731984e-06 -2.0519562e-06
0001a0 80 5e fd b5 65 03 23 ae 00 fa bf b7 e1 e1 03 b5
       -1.8877472e-06 -3.7064924e-11 -2.288539e-05 -4.913e-07
0001b0 df ef b1 b2 e6 82 92 b3 e0 d3 b2 b6 09 26 e2 b4
       -2.0714593e-08 -6.822465e-08 -5.329479e-06 -4.2123455e-07
0001c0 7f 96 cc 37 d7 e8 0c 35 8d 21 aa b7 63 26 6a b8
       2.4388775e-05 5.249289e-07 -2.0281203e-05 -5.5825698e-05
0001d0 03 12 8e b6 87 b4 96 b5 0e 0d 22 b7 10 d6 3a b7
       -4.2340266e-06 -1.1228411e-06 -9.658992e-06 -1.1136304e-05
0001e0 b2 cd a9 36 ba 03 42 b7 f9 32 c0 34 b2 14 01 36
       5.0605386e-06 -1.1564169e-05 3.5799874e-07 1.9234544e-06
0001f0 b7 93 a1 b6 84 e9 e3 b2 80 25 81 36 f1 c7 f3 b3
       -4.81537e-06 -2.6532469e-08 3.848865e-06 -1.13519384e-07

exp_avg_sq f4 [128]
000000 44 29 ba 33 1c 5f d0 2d 6c a7 bd 2d dd 8a 82 2f
       8.668806e-08 2.36891e-11 2.1561163e-11 2.374553e-10
000010 ae d0 98 32 7a df 8a 2c 78 3b 66 32 3a 44 57 2f
       1.7790025e-08 3.947007e-12 1.3401284e-08 1.9578375e-10
000020 84 3a e3 32 d2 ca 31 2e 86 b2 ba 33 a5 1f 0d 2d
       2.6452888e-08 4.042528e-11 8.693773e-08 8.0219486e-12
000030 82 93 7a 30 95 f3 2f 33 c7 a2 4d 31 91 e5 86 34
       9.115909e-10 4.09669e-08 2.9923954e-09 2.5126477e-07
000040 8c 2b e9 2c a6 a3 29 2a ef b5 0e 33 a6 42 05 2e
       6.627093e-12 1.5066992e-13 3.322742e-08 3.0299895e-11
000050 02 93 e2 30 5d fb bd 32 1e 01 d8 33 4d bc 0d 34
       1.6485446e-09 2.2116803e-08 1.0058487e-07 1.3200152e-07
000060 5a d7 ee 32 50 2a 0e 34 8e 51 80 32 20 69 82 29
       2.7804777e-08 1.3240174e-07 1.4938248e-08 5.791396e-14
000070 50 b6 c5 32 77 30 e4 32 cb 76 97 23 6b 97 8c 33
       2.3016725e-08 2.6564733e-08 1.6421764e-17 6.546801e-08
000080 10 e6 4a 2c 9d 03 cc 33 d5 7d 4b 33 ac 74 06 30
       2.8833637e-12 9.5001475e-08 4.7379064e-08 4.8914717e-10
000090 67 86 42 2d 79 72 d1 31 23 bc c9 2b 6e b0 e6 33
       1.1057467e-11 6.0957146e-09 1.4334127e-12 1.0742302e-07
0000a0 d8 eb 7f 31 eb c7 ac 33 66 9e 3d 22 a4 14 a0 2c
       3.7241445e-09 8.045739e-08 2.5698132e-18 4.549765e-12
0000b0 ae 77 2f 33 3c c5 4d 33 92 96 4e 2e 57 15 7f 33
       4.085421e-08 4.7909666e-08 4.697271e-11 5.9391223e-08
0000c0 77 97 15 2c 60 d0 9c 33 1a b1 99 33 99 ab d6 33
       2.1258253e-12 7.302219e-08 7.156832e-08 9.996365e-08
0000d0 57 a5 2b 33 bc 6f 3c 33 4f 81 9d 2d f3 dc 47 34
       3.9964416e-08 4.3873783e-08 1.7906258e-11 1.86137e-07
0000e0 80 15 94 30 db 95 19 2a 86 35 c0 2c c5 63 2c 29
       1.0774528e-09 1.3641121e-13 5.4629105e-12 3.827821e-14
0000f0 86 61 b0 32 62 08 63 33 2d 36 cd 29 5d 6a bc 32
       2.0533445e-08 5.286018e-08 9.113227e-14 2.1934449e-08
000100 4d c5 44 33 a1 6b 6a 33 d0 f8 c4 33 01 70 b6 32
       4.581425e-08 5.458026e-08 9.17222e-08 2.1238522e-08
000110 1b e8 2f 2b e6 97 65 33 5f da 2e 2f d0 3c 29 2b
       6.24946e-13 5.3456368e-08 1.5902789e-10 6.0125255e-13
000120 c3 4e 92 27 8d de 2c 30 e9 c1 98 33 ab 8c 87 31
       4.0608534e-15 6.28895e-10 7.1133236e-08 3.945009e-09
000130 dc d5 30 33 a8 b6 d2 2d 78 21 34 2e 5e f9 25 30
       4.1172697e-08 2.3955352e-11 4.0956988e-11 6.038102e-10
000140 eb 19 88 2d 1c 41 09 31 15 18 bd 2a e8 a2 6b 32
       1.547292e-11 1.9973134e-09 3.3589855e-13 1.3715841e-08
000150 18 4c 0b 2e 78 22 5a 32 c6 61 4e 2c 23 b5 34 2e
       3.1672526e-11 1.2697107e-08 2.9328636e-12 4.1088143e-11
000160 d4 11 42 2f 4e bf 85 32 85 19 61 33 31 c8 03 33
       1.7650531e-10 1.5570233e-08 5.2410105e-08 3.0682887e-08
000170 bd a1 7b 31 42 d0 22 2e c7 cd a8 34 80 b2 86 27
       3.6617245e-09 3.7019506e-11 3.144216e-07 3.7386e-15
000180 1f 7f b6 2a 96 32 b4 32 78 d4 cd 31 fd f0 58 33
       3.2417902e-13 2.0977762e-08 5.99044e-09 5.0510597e-08
000190 9a 21 48 2d 49 45 a1 33 d7 c2 60 2d f3 15 08 30
       1.1376145e-11 7.5097496e-08 1.2776189e-11 4.9507703e-10
0001a0 f5 75 d2 33 e8 20 d2 25 a7 33 8e 32 c6 4c 0d 2f
       9.800343e-08 3.645149e-16 1.6554464e-08 1.2851151e-10
0001b0 d1 1a 01 2c b1 60 25 2e b1 be 93 33 c6 f3 79 2e
       1.8346889e-12 3.7602536e-11 6.8799075e-08 5.683256e-11
0001c0 46 13 d5 32 6d 7d 7c 2d e8 3b 9e 33 58 3d 8f 34
       2.4805228e-08 1.4352392e-11 7.368345e-08 2.668046e-07
0001d0 7a 76 2d 33 70 5a dd 2e b8 40 03 34 42 cf ad 32
       4.0387455e-08 1.00659814e-10 1.222387e-07 2.02341e-08
0001e0 ac 7f 2f 32 c1 26 42 33 e0 20 82 2e b8 96 54 2f
       1.021537e-08 4.520439e-08 5.917555e-11 1.9334834e-10
0001f0 dd 4e 69 32 6a de a9 2d 3f fe 28 34 f3 51 e2 2c
       1.3580316e-08 1.9311847e-11 1.5738713e-07 6.4324045e-12
