Unity Project/CSC 30014 Project/results/test/Car/Car-1124046.onnx (onnx, 108006 bytes, 7 tensors)

action_model._continuous_distribution.log_sigma f4 [1, 2]
00000000: 251f d4be c4c1 48be
-0.4143001 -0.19605166

action_model._continuous_distribution.mu.bias f4 [2]
00000000: cc4c 94bb cada 0c3c
-0.0045257565 0.008597085

action_model._continuous_distribution.mu.weight f4 [2, 128]
00000000: fd4c a6ba 1074 4a3d fac5 bd3c 3c33 c13c
00000010: d47a 30bc e2ca 563d 7a3d e53c 4f7d afbc
00000020: 0295 913b 0be2 a6bc 570e b6bc 0ebf 88bd
00000030: b6eb a9bc 1c3c 0bbc 0238 17bd 9e09 343d
00000040: 931e d63b a04e a3bc b24c 85bc ffb7 a3bc
00000050: 3ef2 80bc 611c d6bc a944 a73b 9a6e 183d
00000060: b80c 683b df52 aebc b7fe b739 6591 a93c
00000070: 7d2f e03c 6139 78bc c85d 423b e985 9fbc
00000080: 9e36 193d d7de d3bc 5212 98bb 7c54 a43b
00000090: 0e1f 3fbd b4a3 5d3b 7b9e 91bc 9d3b 673c
000000a0: 45c7 533d 6228 143d 5474 a83d fce0 febc
000000b0: d3bc a9bc 4334 56bb d6f3 96ba 77ab 10bb
000000c0: 1d2c c53c 8d53 6cbc da0d 1bbc c963 88bb
000000d0: 0a53 8fbc 5132 3b3d 811a 3dbd 4eb8 4a3d
000000e0: aa8e e53c cebf 2d3d 962b 963c 4286 bf3b
000000f0: 5caa 9b3c e2e8 713c cc92 67bc 5eb4 4c3b
00000100: 3b7a 11bc ee25 a43c 3dac a93c 1fe6 e13a
00000110: f300 ad3d 593f 18bc a039 15bd 17c3 97bb
00000120: abb1 843c ffaf 473d 4f59 1cbc cff9 003d
00000130: 21e7 31bb 1bcb a53b 908d 87bc 50ca ff3b
00000140: 06aa bf3b e8df a3bc cddc e2bc f630 80ba
00000150: a3e1 9a3d 58e1 d43c 7752 91ba 8b2d c33c
00000160: e468 5a3c 38cd 563d d392 703b 6541 853b
00000170: a0ba 443b 6952 403d adfe 5fbb cfda 02bb
00000180: dfc4 d13c 8f6e dfbc ff98 9dbb 21bd 91bb
00000190: 836b 893b a1be 453b e5f4 c6bc 6014 3dbc
000001a0: be27 913d d937 14bc 663b 4e3c fe4f a43c
000001b0: 41da 10bc 481e ce3c 22fd b6bc df16 a1bc
000001c0: e7a4 ea3c fe26 7f3c 0637 273d 8be9 ba3a
000001d0: 4131 8c3c f435 0cbb 55fb 213c 4698 f9ba
000001e0: 62aa 9fbb 72b4 333d 235b 1b3d 60d4 cb3b
000001f0: 2e78 953c 8f23 0a3d 02f5 393d f6de 11bd
00000200: 8e12 a23c 27f7 e1bc 01e3 d2bb 5936 eabb
00000210: 4242 9f3a 9106 0a3c 8dee d83c 9e67 6cbd
00000220: 784b 36bd 9e98 0e3d 1ba6 babc 505c 3bbc
00000230: 9b05 68bc d92b a03b 5457 d9bb de6d 21bd
00000240: 0ac9 213c 9046 633d 4c7f f7bc b6d9 593b
00000250: ba88 2b3d 7422 1cbd 65fa 8c3c 1dd4 dabc
00000260: 95b4 3e3c becd 323c 02bd c1bc 7295 cd3c
00000270: 89b9 59bd ddba f33c 97f0 f03c 0765 f7bc
00000280: c6a0 5ebd 7a93 0f3c 7936 e1bc 6a70 57bd
00000290: c8a4 3ebd b475 f139 b930 eb3a 50d8 0fbd
000002a0: 23b0 1bbc 2fc9 863c a030 b9bc 58fb 04bc
000002b0: 56b8 01bd 3414 703d ba35 09bd a2ad 0cbd
000002c0: 8cfd 12bd c7d3 16bd 0fc1 833c 7f83 fd3b
000002d0: b13a 833b f645 033c f765 3ebb c6c0 f1bc
000002e0: 1e4d 973b 7cac 2bbc dff0 113d 6ace 3cbd
000002f0: 0991 b73c 9be4 2cbc cffd 943c 3e3f 83bc
00000300: 4804 28bd 43fc 11bd c72e d0bb 655b e13c
00000310: fb0b 0bbd ffdf c03b 1185 043d 6f31 ffbc
00000320: a0c4 85bd adf6 23bc 806b 3ebd 335d a03b
00000330: f4d7 82bc 1d66 0ebd 8fcd 8abc 0d28 3c3d
00000340: bd61 a33c 6112 31bd fada 87ba 65b8 dd3c
00000350: 5235 3dbc d349 a8bc e9a2 89bb cb8e 66bd
00000360: 8fd5 f23c 0d7a 843b 9cd1 253b eb72 7dbd
00000370: fc5a b8bb f071 f2bc 0a40 44bd 8204 bfbc
00000380: 129c d73c 70c3 7abd a421 8ebc 77f1 97ba
00000390: 0768 19bd 9034 3c3d 54ff 4b3c 3871 edbc
000003a0: b2cc a53b f418 8abc 845f 8cbc c4b9 e3bc
000003b0: dbce 1cbd 400f 79bd ddac 213d 6ad7 493d
000003c0: 92fc f4bc 42bc 46bd 1f44 d43c 3943 283d
000003d0: 4235 4bbd 9996 a93c 6db1 83bd 5a08 3abd
000003e0: 4af7 063b f94b 36bc 96e4 d4b9 89a0 f8bc
000003f0: a423 24bd bad9 c0bb 54d6 adbc 4a09 f2bc
-0.0012687739 0.049427092 0.023165692 0.023584 -0.010771472 0.052439578 0.027983416 -0.021422056
0.004442812 -0.020371458 -0.022223635 -0.06677066 -0.020742279 -0.008498218 -0.036918648 0.043954484
0.0065344064 -0.019934952 -0.016271923 -0.019985197 -0.01574051 -0.026136579 0.0051046205 0.037214853
0.0035407972 -0.02127975 0.00035094257 0.020699212 0.027366394 -0.015150399 0.0029657949 -0.019473033
0.037405603 -0.025863094 -0.004640856 0.005014954 -0.046660475 0.0033819498 -0.017775765 0.014113334
0.05170371 0.036171325 0.08225313 -0.03111314 -0.020719921 -0.003268496 -0.001151676 -0.0022074857
0.024068886 -0.014424217 -0.009463752 -0.004162286 -0.01749565 0.045702282 -0.046167854 0.049492173
0.02802213 0.042419247 0.01833133 0.005844862 0.019002132 0.014764996 -0.01413412 0.0031235437
-0.00887924 0.020037618 0.020712012 0.0017234719 0.08447447 -0.009292447 -0.03643191 -0.004631411
0.016198 0.048751827 -0.009542777 0.031488236 -0.002714582 0.0050596124 -0.016546994 0.0078061
0.005849126 -0.020004228 -0.027693177 -0.0009780216 0.07562568 0.025986359 -0.0011087199 0.023825428
0.013330672 0.052441806 0.0036708608 0.0040666335 0.0030018464 0.046953592 -0.0034178898 -0.0019966846
0.02560657 -0.027274398 -0.0048094983 -0.0044475948 0.0041937246 0.0030173438 -0.024286697 -0.011540502
0.07087658 -0.009046518 0.012587404 0.020057674 -0.008841098 0.025160924 -0.0223375 -0.019664226
0.028643085 0.015573261 0.04082396 0.0014260275 0.01711333 -0.0021394463 0.009886582 -0.0019042573
-0.004872606 0.043873258 0.03792871 0.0062203854 0.018245783 0.033725318 0.045399673 -0.035613023
0.019784238 -0.027583672 -0.0064357524 -0.007147592 0.0012150484 0.008424417 0.026480937 -0.057716005
-0.044505566 0.034813516 -0.022784283 -0.011435583 -0.014161493 0.0048880395 -0.006632725 -0.03941142
0.009874592 0.055487216 -0.030212067 0.0033241338 0.04187844 -0.038118795 0.017209241 -0.026712472
0.011639734 0.010913311 -0.023649696 0.025095675 -0.053155456 0.02975219 0.029411597 -0.03019954
-0.054352544 0.0087631885 -0.027491795 -0.05259744 -0.046543866 0.00046054798 0.0017943598 -0.0351184
-0.0095024435 0.016453354 -0.022606194 -0.008116566 -0.031669937 0.058613017 -0.033498503 -0.034345277
-0.035886332 -0.03682306 0.016083268 0.007736623 0.0040047993 0.008012285 -0.0029052475 -0.029510867
0.0046173474 -0.010478135 0.035630103 -0.04609529 0.022408025 -0.010552551 0.018187432 -0.016021367
-0.041019708 -0.035640966 -0.0063532325 0.0275094 -0.033946972 0.0058860774 0.032353465 -0.031151501
-0.06531644 -0.010007543 -0.04648924 0.0048939227 -0.015972115 -0.03476535 -0.016943721 0.045936633
0.019944066 -0.043230418 -0.0010364943 0.027065465 -0.011548357 -0.020543015 -0.0042003286 -0.05628852
0.029642848 0.00404287 0.002530194 -0.061877172 -0.0056260806 -0.029595345 -0.047912635 -0.02331758
0.026319537 -0.06122154 -0.017350025 -0.0011592348 -0.037452724 0.045948565 0.012451012 -0.028984651
0.005059802 -0.016857602 -0.01713539 -0.02779854 -0.03828321 -0.06080556 0.039471496 0.0492777
-0.029905591 -0.04851938 0.025911389 0.041079734 -0.049611337 0.020701693 -0.06430326 -0.04541812
0.0020594173 -0.011126512 -0.000406061 -0.030349987 -0.040073052 -0.00588533 -0.021220364 -0.029545445

network_body._body_endoder.seq_layers.0.bias f4 [128]
00000000: 668f 253c c457 e13b 53b3 853c a660 c23c
00000010: 858e 95bb f68c f8bc 5a1a 753c 80e0 183c
00000020: 88d7 da3c 04bb 86bb 120a 70bb 947a af3c
00000030: 1942 463c 3ff8 843a 4c16 45bc ca31 3abc
00000040: 40ef 5f3c 02d2 ec3c c1e1 a03c ba1d 88ba
00000050: ada4 a5bb 433b 263a 8fe9 f7b9 f8a8 5bbb
00000060: 261d b33c 0721 1a3c ac28 853c a2ab 433c
00000070: 8290 b9bb 50b3 d1bc c6e3 923c f92b ef3b
00000080: f7bf dabc 987e 9bbb 94cb 21b9 c6a4 d4bc
00000090: 79c4 be3c 2d2c 20bc 7b22 1b3d e11e 0f3c
000000a0: f689 983c ff03 51b8 4c60 17ba 2417 673c
000000b0: d523 1bba b714 ab3b a68b 1a3d 6b73 93bc
000000c0: 6183 133d 3c5c 243b cced 963c e96d 6e3c
000000d0: 7c3b e0bb 760a 7bbb 6a35 a73c e646 7dbc
000000e0: 6567 a439 47cd 1d3c 6029 59bc bd1e 533c
000000f0: 050b 7c3c c9cd b73b 1676 1a3d 0dca c0bc
00000100: 9919 e53b 230b a43b 2f1f 73bc 73fe 603c
00000110: 5ed5 623d ac2e adbc e4e1 f73b 2757 323d
00000120: ba6e 883c 9480 fabb 3a51 10bb 1220 8bbc
00000130: 7857 853c a539 adbb d7bf 563d af9a 91bc
00000140: 3d5c 923c 2856 143c a8c9 0dbc 74aa 0cbc
00000150: 4ac5 8c3c 7d89 993b ecd3 0f3d 1eee 62bc
00000160: 565a bc3c 1f9d 033c 4454 783a 9d94 283b
00000170: 15e5 8a3c ee33 353b 6799 883c 9be9 d9bb
00000180: 6a2d 6c3d 82f4 16bc 5212 f5bb c187 af3b
00000190: 5a82 b53c 5506 24bc b6c2 423c aaf8 c63b
000001a0: 47e3 dd3b 6e8b 043d ed11 54bb fd9a 42bc
000001b0: 1f54 e0bc adcc e63b 4a43 1b3b 25e0 613a
000001c0: 32a3 8d3b 6bcc 303d bf39 81bc 8005 433c
000001d0: 0976 853c 8e6c db3a 3f7f 20ba 10d0 183c
000001e0: be58 df3a 45fa 42bb 6c3b c8bc 637d 01bd
000001f0: a6e3 febb e8d6 923c fabc e8ba 05f5 a5b8
0.01010499 0.0068769176 0.01632086 0.023727726 -0.004564109 -0.030340653 0.014959896 0.009330869
0.026714101 -0.0041116495 -0.0036627096 0.021420754 0.01210072 0.0010144784 -0.012029242 -0.01136441
0.0136678815 0.028908733 0.019638898 -0.0010384836 -0.0050550313 0.0006341228 -0.00047285526 -0.0033517461
0.021864485 0.009407288 0.016254745 0.011942776 -0.0056629786 -0.025598198 0.017930876 0.007298943
-0.026702864 -0.0047453158 -0.00015429995 -0.025957476 0.023287045 -0.009776157 0.03787468 0.008735389
0.018620472 -4.9833205e-05 -0.0005774542 0.014104638 -0.000591812 0.0052209753 0.037730835 -0.017999372
0.036013965 0.002507939 0.018423937 0.014552572 -0.0068430286 -0.0038305796 0.020411212 -0.015458798
0.00031357553 0.009631461 -0.0132544935 0.012885747 0.015383487 0.0056092483 0.03771027 -0.023533845
0.006991577 0.0050062104 -0.014838978 0.01373254 0.055379264 -0.021140419 0.00756477 0.043540146
0.016654361 -0.0076447222 -0.002202107 -0.016983066 0.01627706 -0.005286413 0.052429046 -0.017773954
0.017866248 0.009053744 -0.008654036 -0.008585561 0.017183919 0.0046855793 0.035114214 -0.013850717
0.022992294 0.008033066 0.0009473006 0.0025723346 0.016954938 0.002764936 0.01667471 -0.0066501624
0.057660498 -0.009213569 -0.0074789906 0.0053567593 0.022156883 -0.010011275 0.011887243 0.0060721235
0.0067714783 0.032359533 -0.0032359317 -0.011877772 -0.027383862 0.007043442 0.002369123 0.0008616469
0.004322433 0.0431637 -0.015774606 0.011903167 0.016291635 0.0016740726 -0.0006122477 0.00932695
0.0017039997 -0.0029751223 -0.024442397 -0.03161372 -0.0077786027 0.01792474 -0.0017756515 -7.9134516e-05

network_body._body_endoder.seq_layers.0.weight f4 [128, 75]
00000000: 8562 733e 99cf 2fbe 55dc a23d 5cb9 d23d
00000010: 8e18 173d f157 a03c 8ee1 86bd 3891 ebbd
00000020: dd2a 4a3d 6e5e f6bc f671 6ebd a61e eabd
00000030: b99f a13d 682a e1bb 56ae 88bc b336 f5bc
00000040: 6039 82bb e471 88bd d0a6 90bd defe 513e
00000050: 1b43 353d 3ba2 0b3e 14d6 8bbe 28e9 9bbd
00000060: be93 453e ca78 75bd 7320 d3ba ecc6 353d
00000070: 7c57 4b3d 281d d0bb 6123 0c3b d1dd 4cbe
00000080: c114 bfbd 165e f23b 4257 123d a913 a7bd
00000090: 8262 0abe e40b 6bbd 2d36 603d 532b 893e
000000a0: 5dea c43d 34bf 0bbe ce6f 993b ba85 613e
000000b0: 9c5b 9dbd 9a2a 4bbd 0824 56be a50d 0bbb
000000c0: 48a7 7bbd 9953 aabc 1576 c83e 1644 0e3d
000000d0: 6b24 363c 2824 29bd 3ac6 9abe 9f44 bdbd
000000e0: 47a0 ca3a 8f24 733b 7e3a 3bbc 2f93 14bd
000000f0: d4a1 9b3d c52e 80bd da7a 1abd 5db5 aa3d
00000100: 23bd 56be 3d9c c4b9 6a66 08bd 883d 203e
00000110: 0dd1 db3d 2979 4d3e b2e2 113e 1872 f83d
00000120: d6d9 09be cbaf 8e3c 1fe1 f6bc b0c7 8dbd
00000130: 08c5 533e 6db9 9cbd 1798 8ebd fffb 453d
00000140: b7ac 193e 8c48 23bd c140 14be f58c f5bd
00000150: 1138 2c3d a179 933c 182a 4fbe af70 43be
00000160: 0ba0 553d 9a44 9e3c 7aab ad3d a423 0b3d
00000170: 151e 1bbe 2c15 4d3e 59e6 2bbd 6aff e1bd
00000180: 8c16 ccbc 645d bd3c 7d14 35be 60b8 fabd
00000190: e253 a23d d57d a9bd aedd 8f3d 10b6 f63b
000001a0: 9ad2 c6bb 83fc 633d 8ed2 2b3d 2b5e 35bd
000001b0: ee36 11be b821 30bd 400f 9d3e 0432 47be
000001c0: 2e60 9f3d f704 fb3d 2fd5 943d ebac d1bd
000001d0: 240f dabd e32d 15bb 30cc 24bd 7de7 273d
000001e0: bcf9 2a3d 9b15 72be f575 163e 10f7 883d
000001f0: 8a61 b13d f43b 3e3d a194 6a3d d5ab aebd
00000200: 0faf 6e3d 94ec 733d 30ff f73d b854 aebd
00000210: 02c2 0a3e 2fd8 93be 8ab6 593d ce39 d4bd
00000220: 978c ab3d 36d9 af3b 1eb5 8c3d 3e48 a6bc
00000230: 7ce8 6d3d 0aa0 3a3d fd5b 15be 6ac9 48be
00000240: 2e23 9e3d 9fc4 a8bd fa2b 973d 22c2 2e3d
00000250: c1ef b63c 00d0 213d cafc 963c 5ea3 553c
00000260: 6f67 97bd 2f9a 2a3e 3ab6 563e 63c0 093d
00000270: cf77 013e fe86 93bd 5504 dc3d ba69 54be
00000280: 6bed 853d 60f5 46bc 9f4f 49be f495 7b3d
00000290: c364 a03d 2ef5 693d 7e11 84bd bbfc ecbd
000002a0: a15e c33d 36fb 85bd 19a8 41bd b8d5 85bd
000002b0: 8fef 6a3d 9d0b 4e3d 7f91 d23d e8c3 703d
000002c0: 6f3b 053e ca57 b7bd 12c8 603e c6bd 813a
000002d0: fa7b 08be cdf1 1c3d b584 a43c 8120 3ebd
000002e0: e051 d43c 7d13 803d e2e3 c9bd c0e6 533e
000002f0: bf04 823d 2441 e63d 532f 843d efa2 913e
00000300: 1960 72bd 11c7 e33d 5eb4 513d e92e 453e
00000310: e1e8 1dbe 4b76 333e 618d 9dbd 40b5 88bc
00000320: fdff 19bc 9610 80bc 9a89 b53d 9dc2 b63d
00000330: aeab b03d 682d acbd 8d1b c4bc cc58 4fbe
00000340: 5f5d d9bd 0ac6 db3b e481 a93d 0053 d0bd
00000350: 60e4 e73d 86fb 163e 9456 2cbe b51e 383e
00000360: 1110 acbc 5939 d93c 4548 e2bd 6dcb e73d
00000370: de20 13be 2312 45bd 7a98 fe3d b66f d5bd
00000380: ea23 32bd 369c 333d bfa9 703d 98ce 7cbd
00000390: 89c7 da3d 2de7 adbd 1473 03bd eea0 5b3d
000003a0: f273 41bc 0a68 133e db17 aebc 717e b53d
000003b0: 02b4 4f3e f935 72bc 0cf1 d73d 6a95 53be
000003c0: 5e72 733d 6de0 36be 8285 c4bd f30f 4cbe
000003d0: 195b 433e 1ee4 17bc 8cc7 8f3c 44d7 92bd
000003e0: ff10 39bd 3b34 693c c285 dabc 3304 22be
000003f0: af4c e0bd 598b 103b c80b 883d 6119 06bb
0.23768051 -0.17169036 0.07952181 0.10289261 0.03688865 0.019573184 -0.0658599 -0.11502308
0.049357284 -0.030074324 -0.05821415 -0.11431627 0.07891793 -0.0068715103 -0.016684692 -0.02993331
-0.003974125 -0.06662348 -0.07063067 0.2050738 0.04425345 0.13636105 -0.27311766 -0.076128304
0.1929464 -0.059929647 -0.0016107693 0.04437916 0.04964398 -0.006351132 0.0021383392 -0.20006491
-0.0933013 0.00739647 0.035727747 -0.08158047 -0.1351414 -0.057384387 0.054739166 0.26790866
0.09615014 -0.13647157 0.0046825176 0.22023669 -0.07683489 -0.049601175 -0.20912182 -0.002121785
-0.06143883 -0.020791816 0.3915259 0.0347329 0.011117081 -0.041294247 -0.3022936 -0.09241604
0.0015459143 0.0037100648 -0.01142752 -0.036273178 0.07599226 -0.062589206 -0.037714817 0.083353736
-0.20970587 -0.0003750044 -0.033300795 0.15648472 0.10733233 0.2006575 0.14246634 0.12131137
-0.13462004 0.017417809 -0.030136643 -0.06922853 0.2068063 -0.07652555 -0.069626026 0.048336025
0.15007292 -0.039864108 -0.14477827 -0.11989776 0.042045657 0.018002333 -0.20230901 -0.19085954
0.052154582 0.019319821 0.08479972 0.033969536 -0.15148194 0.20027608 -0.041967724 -0.110350445
-0.024913095 0.023115821 -0.17683597 -0.12242198 0.079261556 -0.08275954 0.07024704 0.0075290278
-0.006067586 0.055660736 0.041948847 -0.04427926 -0.1418111 -0.043000907 0.30675697 -0.19452673
0.07782017 0.12256806 0.07267224 -0.102380596 -0.10647419 -0.0022762946 -0.04023379 0.04099225
0.04174207 -0.23641054 0.14693435 0.066877484 0.08661182 0.046443895 0.05727065 -0.08528868
0.058272418 0.05955179 0.1210922 -0.085122526 0.1355057 -0.28875872 0.0531526 -0.10362588
0.08376425 0.0053664697 0.06870483 -0.02029812 0.058083043 0.04556278 -0.14585872 -0.19608083
0.07721554 -0.082406275 0.07381435 0.04266561 0.02233112 0.039505005 0.018431086 0.013039438
-0.07392775 0.16660379 0.20967951 0.03363074 0.1264336 -0.07203482 0.10743014 -0.20743456
0.065394245 -0.012143463 -0.1965928 0.061422303 0.07831719 0.057118587 -0.06448649 -0.11571642
0.095395334 -0.06542055 -0.04727945 -0.06534904 0.057357367 0.050304044 0.102816574 0.05878058
0.13010953 -0.08952291 0.21951321 0.0009898476 -0.13328543 0.038316537 0.02008281 -0.046417717
0.025917947 0.06253717 -0.09857918 0.20693493 0.063485615 0.11242893 0.06454339 0.2844462
-0.059173677 0.11121953 0.051197402 0.19256176 -0.15420868 0.17525594 -0.076929815 -0.01668799
-0.009399411 -0.015632909 0.08864136 0.08923838 0.08626495 -0.08407098 -0.023938918 -0.20248717
-0.10613512 0.0067069577 0.08276728 -0.10172081 0.11322856 0.14744386 -0.16829902 0.17980464
-0.021003755 0.026516603 -0.110489406 0.11318097 -0.14368007 -0.048113 0.12431426 -0.10421698
-0.04349128 0.043850146 0.058755632 -0.06172046 0.106825896 -0.08491359 -0.03209217 0.05362027
-0.011807429 0.14395157 -0.02125161 0.088620074 0.20283511 -0.014783376 0.10544023 -0.20662466
0.05943524 -0.17859049 -0.09595777 -0.19927959 0.1907772 -0.009270696 0.017551206 -0.07169965
-0.045182224 0.014233644 -0.026675109 -0.15821914 -0.10952126 0.0022055714 0.06642872 -0.0020461904

network_body._body_endoder.seq_layers.2.bias f4 [128]
00000000: f27f 1c3c 1137 16bc ee93 16bc 3f8c 4d3a
00000010: 5170 a0bb 2227 41bc 8a49 f23a 9441 1639
00000020: ae94 febb da28 f53b 700d dc3a b1ab 71bb
00000030: b837 20ba 9b85 4a36 dc4b 6e3a 8324 dd3b
00000040: 7be5 8bbc 6b41 983c 244a 21bc ded3 d0b9
00000050: a47c a93c 428d 6b39 5257 833b 1f66 c73b
00000060: 8d4a fc3a 3ce5 963b 1253 2abc ed7a 9a3b
00000070: 0ca5 b93c cf4b 163c f7f0 b93b f627 a03b
00000080: 8a32 6d3b f322 133c fda1 e03a 2458 7f3c
00000090: e16a e03c 2334 02bc dc3b ed39 14da fdbb
000000a0: 8bb2 fc3b 3eb8 78ba 6d45 553c 5f55 57bc
000000b0: 5666 ccbb 449c 993c 39bf 123c fe7c 6e3b
000000c0: ad2c cebb 6921 103b ec98 5fbc e39d 41ba
000000d0: 005f 823b 508f 1e3b 1dd3 2fbc 76cc 7f3c
000000e0: 073e 56bb 4bf4 d93a d076 87bc 5e25 ac3c
000000f0: def9 bbba 242e 36bb 2f12 b6bc 5a49 d5bb
00000100: b227 abbb 42b0 6a3c 9663 44bc 7d45 cf3b
00000110: 0d1b fb3c c472 26ba 6688 3c3c 6376 6c3c
00000120: f7b8 ee3b fe66 08bc 315e 4a3c ddaa 8abc
00000130: 7428 37bc d96e 1038 f575 05bc 1813 853c
00000140: 4214 bc3b 60c9 e9ba 1742 f3bb d419 2ebc
00000150: b445 1c3b 8ad0 cbbb 5b5f 8ebc 9458 ed3b
00000160: b846 763c 9a0e c23b 3b7c 31bc 851b 733c
00000170: 836d 4ebc cf35 c53c 9136 893c a244 7dbb
00000180: 656b 40bc e6c4 883c 0e62 11bc 9ca5 95bc
00000190: c24c 7c3c 8f6e 813c e5b2 c6ba af39 24bc
000001a0: bead 313c 1bf1 26bc b6ad debb 1b18 d3bb
000001b0: 7fea 01bb d4cb e23c a6db 003c 54f2 da3c
000001c0: 2f8e 873c 0c1d 8f3c 87aa febb 9307 0f3c
000001d0: 5ee0 63bb 8766 cb3b cd38 0d3c a7f3 923b
000001e0: 44f4 2dbc 5ce7 8e3b d932 01bc 6608 c6bb
000001f0: f0e0 12bb 2e1b 9abb 939a 1dbc ef18 a23b
0.009551989 -0.009168402 -0.009190543 0.00078410277 -0.0048962017 -0.011789115 0.0018485051 0.00014329545
-0.007769189 0.0074816765 0.0016788673 -0.0036876018 -0.00061118184 3.0178114e-06 0.00090902834 0.0067487373
-0.017077198 0.018585881 -0.009844337 -0.00039830705 0.020689316 0.00022463969 0.004008212 0.006085172
0.0019248292 0.0046049636 -0.010395782 0.004714361 0.022661708 0.009173348 0.005674477 0.004887576
0.0036193454 0.0089805005 0.001713812 0.015584979 0.027394714 -0.007947001 0.0004524876 -0.007746944
0.0077117137 -0.00094879034 0.013017041 -0.013142913 -0.0062377853 0.018751271 0.008956724 0.003639042
-0.006291947 0.002199257 -0.013647299 -0.00073858927 0.00397861 0.0024194308 -0.010731486 0.015612712
-0.003269078 0.0016628591 -0.016536146 0.021013912 -0.0014341434 -0.0027798498 -0.022225467 -0.0065089883
-0.005223238 0.01432425 -0.011986634 0.0063254223 0.030652547 -0.0006349499 0.011507129 0.0144325225
0.007285233 -0.0083253365 0.012351559 -0.016927177 -0.011179078 3.443551e-05 -0.008145799 0.016244456
0.0057397196 -0.0017836504 -0.00742365 -0.010626275 0.0023845257 -0.006219928 -0.017379453 0.0072432254
0.015031509 0.005922151 -0.0108328415 0.014838104 -0.012599352 0.02407351 0.016749652 -0.0038645645
-0.011744355 0.016695451 -0.008873476 -0.018267445 0.01539916 0.015799789 -0.0015159516 -0.010023518
0.010844646 -0.01018932 -0.0067956103 -0.0064420826 -0.0019823608 0.027685083 0.007864868 0.02672688
0.01654729 0.017469905 -0.0077717933 0.008729833 -0.0034771184 0.0062072906 0.008619499 0.004484612
-0.0106173195 0.0043610763 -0.007885658 -0.0060434816 -0.0022411905 -0.004702947 -0.009619373 0.00494682

network_body._body_endoder.seq_layers.2.weight f4 [128, 128]
00000000: 12b0 4d3d 6df7 02bd bef8 bdbd 9119 f9bd
00000010: 6945 f2bc e999 71bd e6d3 3e3e fb5d d0bd
00000020: 6e98 173e 2b00 003e 250a bbbd 88f9 853c
00000030: a412 21be 4ffe 303c a24e 96bd 54ac 1cbe
00000040: 2794 5cbd a5f2 3ebd 6b5d 303d 372a f1bb
00000050: 0ceb 2bbe 74fd 8b3c 143b 03bd 97ea b23d
00000060: bb28 103d a21c 11bc ea7f 1fbe e9d0 5fbc
00000070: abea 923d 2983 41bd c881 ca3d c249 3cbc
00000080: ec8c 59bd 7675 2ebe 1fcc 833b 1e43 3d3d
00000090: 6006 85bd fc22 11bc 72f6 acbd 2d62 983c
000000a0: edff 32bc 4174 89bd 5b63 d9bd ea8f 05be
000000b0: 9c00 093e 949e fd39 f986 a0bd 0682 8c3c
000000c0: 724c c83d 9224 f6bd 123f 0dbc 4f47 1b3b
000000d0: e66b adbd 8a31 0c3e fc66 46bd eb94 c6bd
000000e0: a808 babd 66fd 803d 7d56 6fbc f929 8b3d
000000f0: a185 0c3d 97dd a33c 2a7d efbd 7889 003d
00000100: 035f 1dbe 8aab 8fbc 9714 cd3d ca8a 41bc
00000110: b7d2 513a 5bef 5abe e772 2ebd 5099 88be
00000120: 9566 d1bd 91d7 20be 8df2 873d 4e84 8fbd
00000130: 404a 1bbe bcc2 38bd 80c7 f5bd db4a 1d3d
00000140: 10ed d13c 6446 2a3d d8bf 1c3d debb 083e
00000150: 96a5 173d c23c 2e3e 5bb3 95bd f8fe 99bd
00000160: 699d 153e 70f5 a73b aaa5 ad3d 4a71 97bd
00000170: fd34 afbd be85 b0bd 5e48 ba3d 568e d23c
00000180: 83cc 50bd 9b07 ca3d 0cb4 14be 0697 863e
00000190: 8701 e9bd 7453 e13c 1570 a6bd f177 893d
000001a0: 495e 9abd ebb7 08bd f2ad e43d 552b a83d
000001b0: 744b 103d c9ab 44be 8083 4c3d 9ba7 9ebd
000001c0: f897 483c c33b a5bd c843 9b3d 4a85 493d
000001d0: 7437 6f3c 3adf d8bd aac4 26be a3e0 533d
000001e0: 65af 07bd a9cb 06bd d040 6bbd 1269 67bd
000001f0: 3900 363d 7e4c 3cbd 64e5 8fbd fba5 ac3d
00000200: 5bb2 903d cf1a 6bbd 3efd c33d fe36 07be
00000210: 4032 db3b a9b5 e2bd 9020 963d 96cd 8e3d
00000220: e626 ccbd 75a9 893d 1dc8 633d de51 3abd
00000230: c407 11bb a34d dc3c 554d b83d 6086 c1bd
00000240: 2012 43bd fa45 92ba 1637 a83d d761 093e
00000250: d661 723d 991b b4bd 821e 63bd 5e1f 0d3d
00000260: b997 643d 81c1 163d ae9e ae3d f9f8 0d3e
00000270: 1c7c 053d d833 fc3c 13e3 a03c 869e 82bd
00000280: dec6 c4bd 9522 013d 64e6 563d 9c03 d53b
00000290: 20f2 fbbd 3416 31bd b090 6e3d 77d7 c0bd
000002a0: 1fcb 0cbd 06d5 7ebd afb6 8fbc ad9d b7bd
000002b0: a97c 3e3e 3904 9a3d 6280 493c 0de4 9bbc
000002c0: 4e1d 1dbc abee 353d cd45 973c ad85 443c
000002d0: 1b2a 963c d578 dfbc aaa4 acbd 9d75 983c
000002e0: d45d 4abd 06b5 36be c728 b2bd 5f62 37bd
000002f0: edb8 273d 8f69 3b3c d720 afbc e83f c0bd
00000300: 1226 ac3d 9bbc f73d e7a4 6dbd b455 af3d
00000310: c2c9 123d afbb 32be c201 a63d aa40 253e
00000320: 26ad 23bc fa8e 28bc bfc6 9cbd be37 2fbd
00000330: f8aa 033d 8284 57bd dbde 133c 56bd 46bc
00000340: 2dcd ae3c d8fb 0cbe 60ef e4bd ee3c 2bbd
00000350: 96a1 653d d99e 4b3d 8ae7 523c d89f eabd
00000360: 1def 3d3e bc25 68bd b8e6 0a3d e972 153d
00000370: 9009 7ebd 5efa 13bd 9323 36bd 6ada 413e
00000380: fb8f c6bd b2e1 68bc 3136 75be 9d66 3cbd
00000390: edce c23d eec4 27be 5972 f23c e2c6 9ebc
000003a0: 8492 a9bc 6542 97bc d10d b9bd a35a 343e
000003b0: 5825 94bd a1ff 3dbe f473 1dbc 1ef3 67bd
000003c0: 6c26 d3bc 0bfb 713d 1922 abbd aa58 5dbd
000003d0: bd9f 903b 7bfc 14be 687d bbbd f782 ad3a
000003e0: 4244 b7bc 682d a6bd fbe6 18bc 3c25 ccbc
000003f0: 29ea 23bd 7519 e0bd 3db5 3fbd 750b 3d3d
0.05021674 -0.031974245 -0.092759594 -0.121630795 -0.029574113 -0.05898467 0.1863552 -0.10174175
0.14804241 0.12500064 -0.09132794 0.016354337 -0.15729767 0.010802819 -0.07339217 -0.15300113
-0.053852227 -0.046618123 0.04305784 -0.0073597687 -0.16788882 0.01708863 -0.032038763 0.08736151
0.035195094 -0.008856924 -0.15576139 -0.013660648 0.071736656 -0.047244225 0.09888035 -0.011492195
-0.05311291 -0.17036995 0.004022136 0.046206586 -0.064953566 -0.008858439 -0.08445443 0.018601501
-0.010925275 -0.06711627 -0.10614654 -0.1304318 0.13379139 0.0004837407 -0.07838244 0.017151844
0.09780206 -0.12018694 -0.008620994 0.0023693626 -0.084678456 0.13690773 -0.048438057 -0.096963726
-0.09083682 0.06298332 -0.014608023 0.06795115 0.034307126 0.020003123 -0.11693795 0.0313811
-0.15368275 -0.01753785 0.10013693 -0.011812875 0.0008004116 -0.2138037 -0.04259005 -0.26679468
-0.10224644 -0.15707232 0.0663806 -0.07007657 -0.15165043 -0.04510759 -0.12000942 0.038401466
0.025625736 0.041571036 0.038268894 0.13352916 0.03702315 0.17015365 -0.073096 -0.075193346
0.14610828 0.005125694 0.084788635 -0.07394655 -0.085550286 -0.08619259 0.09095834 0.025702637
-0.050976288 0.09864732 -0.14521807 0.26287097 -0.113772444 0.027505614 -0.08126847 0.0671233
-0.07537515 -0.033378523 0.1116599 0.0821139 0.035228208 -0.19206156 0.049930096 -0.07746812
0.012243263 -0.08068039 0.075812876 0.04919938 0.014600623 -0.10589452 -0.16285959 0.051727902
-0.033126254 -0.03290907 -0.057434857 -0.056496687 0.044433806 -0.045971386 -0.07026175 0.08430096
0.070652686 -0.057398614 0.095697865 -0.13204572 0.00668934 -0.11069805 0.073304296 0.06972806
-0.09968357 0.067217745 0.055610765 -0.04548823 -0.0022129873 0.026892489 0.08999125 -0.09449458
-0.047624707 -0.0011159771 0.08213632 0.13416229 0.059175335 -0.08794326 -0.055449016 0.034453742
0.055808757 0.036805633 0.085263595 0.13864507 0.032589063 0.03078644 0.019639527 -0.06377892
-0.096082434 0.03152712 0.05246581 0.0065006744 -0.12302041 -0.043234065 0.058243454 -0.09416097
-0.0343734 -0.062214874 -0.017543165 -0.08965621 0.18602242 0.07520337 0.012298675 -0.019029642
-0.009589506 0.044417065 0.0184659 0.011994761 0.018330624 -0.027279297 -0.08429845 0.01861077
-0.049405888 -0.17842492 -0.08699184 -0.04477155 0.040947843 0.011438741 -0.021377964 -0.09387189
0.08405699 0.120965205 -0.05801859 0.085612684 0.035836942 -0.17454408 0.08105804 0.16137949
-0.009990012 -0.0102879945 -0.07655095 -0.04277777 0.03214547 -0.052616604 0.009025301 -0.012130102
0.02133807 -0.13767946 -0.1117847 -0.041806154 0.056062303 0.049712036 0.012872586 -0.11456269
0.18548246 -0.05667661 0.033911437 0.03648654 -0.06202084 -0.03612744 -0.04446752 0.18930975
-0.09695431 -0.014213966 -0.23946454 -0.045996297 0.09512124 -0.16383716 0.02959554 -0.019381944
-0.020699747 -0.018464277 -0.090358384 0.176127 -0.07233685 -0.18554546 -0.009610165 -0.05662834
-0.025775157 0.059077304 -0.08356113 -0.054039635 0.0044135735 -0.14549439 -0.09154779 0.0013237883
-0.022371415 -0.08114129 -0.009332414 -0.024920098 -0.040018234 -0.109423555 -0.0468037 0.046153504
