Unity Project/CSC 30014 Project/results/test/Car/Car-76569.pt (torch, 651359 bytes, 36 tensors)

network_body._body_endoder.seq_layers.0.weight f4 [128, 75]
0	0x3e2564b9	0.16151704
1	0x3da81972	0.08207978
2	0x3bab9284	0.005235972
3	0xbba03e74	-0.0048902575
4	0xbda4a6b8	-0.080396116
5	0xbde3b0bd	-0.111176945
6	0xbdd450ab	-0.10366949
7	0xbdfb50d9	-0.1227128
8	0xbd8f12d9	-0.06986017
9	0xbd9fda40	-0.078053
10	0xbe3a7837	-0.18209921
11	0x3e80e52e	0.2517485
12	0x3d9732fa	0.0738277
13	0xbe46e477	-0.1942309
14	0xbdcd7fa6	-0.10034113
15	0xbd42fbf6	-0.04760357
16	0xbd4d9f62	-0.050200827
17	0xbd79f894	-0.06102808
18	0xbe12a41a	-0.14320412
19	0x3dbd292a	0.09236367
20	0x3daa635f	0.08319735
21	0xbe0f037a	-0.1396617
22	0x3e4ee753	0.2020543
23	0x3d961143	0.07327511
24	0x3dfbb589	0.122904845
25	0xbe8d2585	-0.27567688
26	0xbde413bf	-0.11136579
27	0xbd693b3c	-0.056941256
28	0xbccabfb8	-0.024749622
29	0xbd4b1cc6	-0.049587987
30	0xbbaac93c	-0.0052119773
31	0xbe1efb73	-0.15525608
32	0x3debbdf3	0.11510839
33	0xbe2c0049	-0.16796984
34	0x3d11d852	0.03560669
35	0xbcdb57bd	-0.026775235
36	0x3d8d8f48	0.06912094
37	0x3d968adb	0.07350703
38	0xbd983db7	-0.07433646
39	0xbd0d4dcb	-0.034498017
40	0xbcaf47d3	-0.021396553
41	0x3e0df2b5	0.13862117
42	0xbcbe715f	-0.023247419
43	0x3d868534	0.06568375
44	0xbe41d026	-0.18927059
45	0x3db8225f	0.08990931
46	0x3d63d5d8	0.05562386
47	0x3cf647e7	0.030063583
48	0x3d227187	0.03965905
49	0xbde55793	-0.11198344
50	0x3e169cf4	0.1470831
51	0x3c2aa163	0.010414454
52	0x3d1c51db	0.038164
53	0x3cbf2344	0.023332246
54	0xbc1151c2	-0.00886959
55	0x3e9323db	0.28738293
56	0xbdbf850c	-0.093515486
57	0xbccde1b9	-0.025132047
58	0xbd009c8f	-0.031399306
59	0xbbee9d1f	-0.007281914
60	0xbe7b92aa	-0.24567667
61	0x3e6b6c82	0.22990611
62	0x3e636db8	0.22209823
63	0x3d8245f2	0.06360997
64	0xbd77ce78	-0.06049964
65	0x3cc8a2ea	0.024491746
66	0x3d61d4cb	0.055134576
67	0x3cec7647	0.028864993
68	0xbd401a96	-0.046900354
69	0x3d4b20cc	0.049591824
70	0xbe21e0d6	-0.15808424
71	0xbe03e6d9	-0.1288103
72	0x3d8fb05d	0.070160605
73	0xbd3cb7df	-0.04607379
74	0x3e40b8d2	0.18820503
75	0x3cd13284	0.025536783
76	0x3dbe62d6	0.09296195
77	0x3cd05892	0.025432859
78	0xbdfc73be	-0.123267636
79	0x3d8abc01	0.0677414
80	0x3de0f9a9	0.10985119
81	0x3e02add8	0.12761629
82	0xbd92995f	-0.071581595
83	0xbea99191	-0.3311887
84	0x3d5c1185	0.053727645
85	0xbe053415	-0.13008149
86	0x3c5ebb7b	0.0135945035
87	0x3d9297ed	0.07157884
88	0xbc6481b4	-0.013946939
89	0xbe53d83d	-0.20687957
90	0xbdcb123a	-0.09915586
91	0x3e089879	0.13339414
92	0xbd412496	-0.04715403
93	0xbd5ab196	-0.053392015
94	0x3d4b0b94	0.04957159
95	0x3db003d3	0.085944794
96	0xbe3e8c9d	-0.18608327
97	0xbe5f310c	-0.21796054
98	0x3d1f7465	0.03892936
99	0x3d2298b0	0.039696395
100	0xbd53aad0	-0.05167657
101	0x3dba09d1	0.090839036
102	0xbd194c00	-0.037425995
103	0x3e13117e	0.14362141
104	0xbc8d71e2	-0.017266218
105	0xbdd9200e	-0.10601817
106	0xbe41304b	-0.18866079
107	0x3dbe7628	0.0929988
108	0x3c22ec54	0.00994404
109	0x3d87f2e8	0.066381276
110	0x3ce40951	0.027836474
111	0xbe277d1c	-0.16356319
112	0x3d107787	0.03527024
113	0x3bd73514	0.0065676067
114	0x3e13fc28	0.14451659
115	0xbe16d0bc	-0.14728063
116	0x3d7bdba4	0.061488762
117	0xbc8cd72e	-0.01719245
118	0x3e13a549	0.1441852
119	0xbd80c8de	-0.062883124
120	0x3c906846	0.017627846
121	0xbda24b2f	-0.079244964
122	0xbdc1be51	-0.09460128
123	0x3e84a796	0.25909108
124	0x3e7bb421	0.24580432
125	0xbcf507f2	-0.029911015
126	0x3c304e54	0.010760862
127	0x3cba5aac	0.022748314
128	0xbdec72fa	-0.115453675
129	0xbc9ca3db	-0.019121101
130	0x3dbadf3a	0.09124608
131	0xbb05f2c0	-0.002043888
132	0x3c8b9162	0.017037097
133	0xbe021f8c	-0.12707347
134	0xbd7964ad	-0.060887028
135	0xbdd14e58	-0.10220021
136	0xbd1003b1	-0.03515977
137	0x3d7c46af	0.061590847
138	0xbc8f091f	-0.017460404
139	0xbdbe1a81	-0.09282399
140	0x3d6558f5	0.05599304
141	0xbcc01ba6	-0.023450684
142	0x3e0cb56b	0.1374108
143	0x3e3ca405	0.18421943
144	0x3e2e2c25	0.17009027
145	0x3d6dc405	0.058048267
146	0x3d4853da	0.048908092
147	0x3e140583	0.14455228
148	0x3dc97568	0.098368466
149	0xbd99ee2c	-0.07516131
150	0x3e8911fb	0.2677153
151	0x3ddcb93e	0.1077752
152	0x3dbfca8a	0.09364803
153	0x3dd51cbb	0.104058705
154	0xbd520626	-0.051275395
155	0xbe2a8129	-0.16650833
156	0xbea88937	-0.32917187
157	0x3dd353a1	0.10318685
158	0x3d0b6bd1	0.03403837
159	0x3dedd138	0.11612171
160	0xbdadb703	-0.08482172
161	0xbc080a4b	-0.008303235
162	0xbe4902aa	-0.19629923
163	0xbc870e5a	-0.016486336
164	0x397dbed1	0.00024199045
165	0x3d163f8a	0.03668169
166	0xbde3ea5b	-0.11128684
167	0x3d03b9ff	0.0321598
168	0x3e302d8c	0.17204875
169	0x3e2bf13e	0.16791245
170	0x3d2a5c27	0.04159179
171	0xbdd52324	-0.10407093
172	0xbcd16b7d	-0.02556395
173	0x3cd3ae9b	0.025840094
174	0x3e1a2a2b	0.15055148
175	0xbd7ff041	-0.062484983
176	0x3e28f5e5	0.16500051
177	0x3d460176	0.048341237
178	0xbe071f80	-0.1319561
179	0x3daf93ec	0.08573136
180	0xbcd27c5b	-0.025694063
181	0x3ddac97f	0.106829636
182	0xbd667a1e	-0.056268804
183	0x3da11e3e	0.07867096
184	0x3d4c2ff9	0.049850438
185	0x3e037b69	0.12840046
186	0x3da1abc5	0.078940906
187	0xbe0c9827	-0.13729917
188	0xbd3b0b06	-0.04566481
189	0x3d9a2901	0.07527352
190	0xbc8f99ea	-0.017529447
191	0xbe484bbb	-0.19560139
192	0x3e0b00cf	0.13574527
193	0xbb211b88	-0.002458306
194	0xbd24963d	-0.04018234
195	0x3e0e6e31	0.13909222
196	0x3b219600	0.0024656057
197	0x3d6c0939	0.057625983
198	0xbd1d8ced	-0.038464475
199	0x3bcb86e5	0.006211149
200	0xbe77686d	-0.24160929
201	0x3db56579	0.08857245
202	0xbb6665e2	-0.0035155942
203	0xbe8f7a55	-0.2802302
204	0x3dbc09f6	0.091815874
205	0xbd91892d	-0.07106242
206	0x3d4957fc	0.049156174
207	0xba28cde4	-0.00064393715
208	0x3bc76726	0.0060852943
209	0xbe1c8009	-0.15283217
210	0x3e187f50	0.14892316
211	0xbdc59e71	-0.09649361
212	0x3d438600	0.047735214
213	0xbb80cdc7	-0.0039307806
214	0xbd818432	-0.063240424
215	0x3dab5c60	0.083672285
216	0x3e1e8f65	0.15484388
217	0x3deea822	0.116531625
218	0x3d79550b	0.06087212
219	0x3e6ba5bb	0.2301244
220	0x3bb7df78	0.0056113563
221	0xbddda874	-0.108231455
222	0x3d266a8a	0.040628947
223	0x3e1c7f31	0.15282895
224	0x3da91c6c	0.08257374
225	0xbd3d1e24	-0.046171322
226	0x3d9a6caf	0.07540261
227	0xbe8decb6	-0.2771966
228	0x3debcd9d	0.11513827
229	0xbd2b4a22	-0.041818745
230	0xbd308073	-0.04309125
231	0xbe4d2bdf	-0.20036267
232	0xbdc58dce	-0.09646188
233	0xbdbdc661	-0.092663534
234	0x3d45b4aa	0.048267998
235	0xbb983d05	-0.004645946
236	0x3df6b9bc	0.12047145
237	0x3e85c96f	0.26130244
238	0xbd84c036	-0.06481974
239	0xbcaf478a	-0.021396417
240	0x3e1ea1ed	0.15491457
241	0xbcff9f0b	-0.031203767
242	0xbe135e42	-0.14391425
243	0xbe929dcf	-0.28636023
244	0xbdaf335e	-0.085547194
245	0xbca807bb	-0.020511499
246	0x3b48a12b	0.0030613642
247	0x3e2c2cae	0.16813919
248	0xbe1408e9	-0.14456524
249	0xbd0f0ae8	-0.03492251
250	0xbd261422	-0.040546544
251	0x3de855b4	0.113444716
252	0x3ccca0b7	0.024978979
253	0x3c4ef98c	0.012632739
254	0xbdf6811c	-0.120363444
255	0xbd734383	-0.059390556

network_body._body_endoder.seq_layers.0.bias f4 [128]
0	0xba48b820	-0.00076568313
1	0xb9d0f1a1	-0.0003985288
2	0xb994e6d1	-0.0002840073
3	0x3a442675	0.0007482537
4	0xbb33efab	-0.0027456086
5	0xba5b944b	-0.00083762844
6	0x3a25e407	0.0006328229
7	0xb9d0f695	-0.0003985657
8	0xba52bfa3	-0.00080394204
9	0x3a2c6ef5	0.0006577813
10	0x39ebb139	0.00044954734
11	0x3a5b25f0	0.000835984
12	0xbb24c9c3	-0.0025144673
13	0xbaceb804	-0.0015771394
14	0xbaa29841	-0.0012404994
15	0xbb125bc2	-0.0022332524
16	0xba5d550d	-0.00084431545
17	0xba0b74b4	-0.00053198193
18	0xb83a43dc	-4.4409055e-05
19	0x3a6a3597	0.0008934377
20	0xbad7407b	-0.0016422415
21	0xba490bc4	-0.0007669295
22	0x3a92d8c3	0.0011203516
23	0xba93e2db	-0.0011282818
24	0x3a19f31c	0.0005872713
25	0x390e5cd9	0.00013576764
26	0xbb01e3a1	-0.0019819515
27	0xbb1ab830	-0.002360832
28	0xba4330a0	-0.00074459054
29	0x3a5395dc	0.0008071342
30	0xb9d3b6a3	-0.0004038113
31	0xbb4ced53	-0.0031269386
32	0xbb02eaf2	-0.0019976464
33	0xba5ff6c1	-0.0008543544
34	0xba4f8a0e	-0.0007916995
35	0xbaa1710d	-0.0012317017
36	0x363a44ee	2.7756282e-06
37	0xba47e6d9	-0.00076256465
38	0xbb5d7aba	-0.0033795075
39	0x397cff4b	0.00024127697
40	0xbb6bd7bd	-0.0035986744
41	0xbae1a793	-0.0017216079
42	0xbb0565e2	-0.0020354916
43	0x3a4b1d57	0.00077482074
44	0xb883e51a	-6.28924e-05
45	0xba97a114	-0.0011568391
46	0x3983f8a6	0.00025171525
47	0xb9b89bd6	-0.00035211322
48	0xbae4a8b5	-0.0017445298
49	0xbaa36833	-0.0012466967
50	0xbb3dfdbf	-0.0028990356
51	0xb949d749	-0.00019249054
52	0xba7887d5	-0.000948069
53	0xba5d36ad	-0.0008438628
54	0x38dc8109	0.00010514452
55	0x3aa44421	0.0012532511
56	0xbaf3f9b6	-0.0018613848
57	0xbb1958a8	-0.002339879
58	0x3a92c9ca	0.0011199054
59	0xbaba8505	-0.0014230317
60	0xb96f3c71	-0.00022815332
61	0x38ebb97b	0.00011240222
62	0xba4c28dc	-0.0007788071
63	0x3b22a6ac	0.0024818582
64	0xb99dca1f	-0.00030095965
65	0xba19688f	-0.0005852067
66	0xb8e6f786	-0.000110133595
67	0x3a154e0c	0.0005695529
68	0xbaa552a7	-0.0012613133
69	0xb9811780	-0.00024622306
70	0xba219ccb	-0.00061650266
71	0x3a53119b	0.00080516346
72	0xba63b24a	-0.000868593
73	0xba8e2f97	-0.0010847923
74	0x3a174017	0.0005769743
75	0x3a814cc6	0.0009864799
76	0x399c5ff8	0.0002982614
77	0x3aa1133f	0.0012289061
78	0xb8bc81be	-8.988705e-05
79	0x399cabe5	0.0002988271
80	0x39635585	0.00021680265
81	0x3addf850	0.0016934965
82	0x379ad9fc	1.8459737e-05
83	0xbac2e9d3	-0.001487071
84	0x3af9a852	0.0019047356
85	0x3a9a4244	0.0011769016
86	0xb933f37c	-0.00017161475
87	0xba5dbb9e	-0.0008458438
88	0x397ea004	0.00024282938
89	0xba9a5dba	-0.00117772
90	0xbaa12a7d	-0.0012295988
91	0xba087314	-0.0005205136
92	0x3af5fe36	0.0018767777
93	0x3b4e0982	0.0031438773
94	0x384e5f62	4.920306e-05
95	0xb9dd5211	-0.0004221355
96	0xbb87e48e	-0.004147119
97	0xba95eb64	-0.001143795
98	0x3a09b203	0.0005252661
99	0xbae05b4b	-0.0017117051
100	0xba786657	-0.0009475699
101	0xba4d6cf4	-0.00078363647
102	0xbb35730a	-0.0027686977
103	0xba971b63	-0.0011528548
104	0xba88278c	-0.0010387762
105	0xba93a888	-0.0011265436
106	0xb9401c70	-0.0001832114
107	0x38fa273f	0.00011928239
108	0x3a10b2aa	0.0005519787
109	0x3ae6c477	0.0017606159
110	0xb8a963d3	-8.077142e-05
111	0x3aa63438	0.0012680357
112	0x39dbc883	0.00041920328
113	0xba391d9e	-0.0007061603
114	0xbb01a04e	-0.0019779387
115	0xbab9ce5f	-0.0014175883
116	0x3979a193	0.00023806682
117	0x3a2ce51d	0.000659542
118	0x3683c5f4	3.927149e-06
119	0xbbf4d485	-0.0074716234
120	0x39fc2010	0.00048089074
121	0xb89ca476	-7.469293e-05
122	0xbb2db052	-0.00265028
123	0x3a94f3e1	0.0011364185
124	0xba855884	-0.0010173474
125	0x39b8c9cb	0.00035245562
126	0xba6f577b	-0.0009130162
127	0x3a97683d	0.0011551451

network_body._body_endoder.seq_layers.2.weight f4 [128, 128]
0	0x3dc3adc4	0.095546275
1	0xbd0e9e45	-0.034818906
2	0x3c86d953	0.01646105
3	0x3c45e29c	0.012077954
4	0xbd970f68	-0.073759854
5	0x3da065da	0.07831927
6	0x3e320c9d	0.17387624
7	0xbc27c54b	-0.010239909
8	0x3b4f13eb	0.0031597565
9	0x3d3dd178	0.046342343
10	0x3c569fab	0.013099591
11	0x3e375faa	0.17907587
12	0xbc12bf84	-0.008956794
13	0xbbeea23d	-0.007282524
14	0xbd6bf6d8	-0.057608455
15	0xbda30b13	-0.079610966
16	0x3d68ff3e	0.056884043
17	0xbdf203eb	-0.118171535
18	0x3e047f3b	0.1293916
19	0xbcc6488a	-0.024204511
20	0xbd06e00d	-0.032928515
21	0xbd07aee4	-0.033125773
22	0xbdd7df80	-0.10540676
23	0x3db6109b	0.08889886
24	0x3c106536	0.008813193
25	0x3c80df47	0.015731467
26	0xbd4757d1	-0.048667733
27	0x3ccd1bdd	0.0250377
28	0x3d679a8a	0.056543864
29	0xbddb18ce	-0.106980905
30	0xbd9f789b	-0.077866755
31	0x3be25fbc	0.006908385
32	0xbd833a47	-0.064076
33	0xbdb58a5f	-0.08864283
34	0x3d9d2de6	0.0767477
35	0xbd249684	-0.040182605
36	0x3e1983f1	0.14991738
37	0x3ddb3683	0.10703757
38	0xbd92a769	-0.07160837
39	0xbd85c54e	-0.065317735
40	0xbc872942	-0.016499165
41	0xbd4b81c9	-0.04968432
42	0xbdb0dd71	-0.086359866
43	0x3c605e7a	0.0136944
44	0x3d205fb2	0.039153762
45	0xbd4c1519	-0.049824808
46	0x3d8b1c99	0.06792564
47	0xbd7fe0a5	-0.062470097
48	0x3d8d83d3	0.06909909
49	0xbe132e12	-0.14373043
50	0xbd939891	-0.07206834
51	0xbe2c8d2c	-0.16850728
52	0x3cf7dcce	0.030256655
53	0x3cd679ab	0.026181063
54	0xbe43d861	-0.19125511
55	0xbdb55478	-0.08854002
56	0xbca03dd0	-0.019560724
57	0x3c33934b	0.01096041
58	0x3c0bc1a4	0.008530054
59	0xbe322a8a	-0.1739904
60	0xbc8160d0	-0.015793234
61	0x3cc4cd77	0.024023755
62	0x3d2e02f7	0.042483296
63	0x3d048c52	0.032360382
64	0xbdde863b	-0.10865446
65	0x3d9e5f9f	0.07733082
66	0xbd472e27	-0.048628
67	0x3cf97079	0.030449139
68	0xbde44ad3	-0.11147084
69	0xbdb17428	-0.08664733
70	0x3c798903	0.01523042
71	0x3d410caf	0.047131237
72	0xbe018d73	-0.12651615
73	0xbdcdee4e	-0.10055219
74	0xbd8c894e	-0.06862126
75	0xbe07b7f7	-0.13253771
76	0x3d3c7752	0.04601223
77	0x3d50bfeb	0.050964277
78	0xbe593152	-0.2121022
79	0xbcf41b97	-0.029798312
80	0xbe438a46	-0.19095716
81	0xbe1d7b7b	-0.15379135
82	0x3d8c2717	0.06843393
83	0xbb364f57	-0.0027818286
84	0xbd7b6b38	-0.06138155
85	0x3c882dab	0.016623339
86	0x3d222108	0.039582282
87	0x3e26952b	0.1626784
88	0xbb750b59	-0.0037390797
89	0x3d2909b8	0.041269034
90	0x3d63af30	0.055586994
91	0xbdaaa7a0	-0.08332753
92	0xbd1e7e2a	-0.03869454
93	0x3dad5f6d	0.08465467
94	0xbcb326fe	-0.021869179
95	0xbd924f9b	-0.0714409
96	0xbd8c7a07	-0.06859212
97	0xbc5f6197	-0.013634107
98	0x3e07d815	0.13266023
99	0x3d9cfb52	0.07665123
100	0x3d9a3e80	0.07531452
101	0x3db761f8	0.08954233
102	0xb9a3f9dd	-0.00031275945
103	0x3db9ee96	0.0907871
104	0x3cec2eee	0.028830972
105	0xbda778f4	-0.08177367
106	0x3de46e29	0.11153824
107	0x3d92c9cc	0.07167396
108	0x3de67884	0.11253455
109	0x3d307242	0.043077715
110	0xbc94343c	-0.018091314
111	0x3df02ff2	0.11727895
112	0x3df0939f	0.117469065
113	0xbda9d3fa	-0.082923844
114	0x3dfc57df	0.123214476
115	0x3d569cee	0.052395754
116	0x3d9ea9ba	0.077472165
117	0x3baa7925	0.00520243
118	0x3dd51447	0.10404258
119	0xbc0cda7b	-0.008597012
120	0xbda01edc	-0.07818386
121	0xbe00cd28	-0.12578261
122	0xbc8edb77	-0.017438633
123	0xbd1b62a2	-0.03793586
124	0xbde17fe3	-0.110107206
125	0xbdc32b67	-0.09529763
126	0xbdabbed5	-0.08386008
127	0xbd977a58	-0.07396382
128	0x3e222fa9	0.15838493
129	0x3d8e0ea7	0.069363885
130	0xbd4fa284	-0.050692096
131	0xbdc10868	-0.094254315
132	0xbe1a7d3c	-0.15086836
133	0xbd21f43d	-0.039539564
134	0xbdd1ead2	-0.102498665
135	0x3c08e334	0.008354951
136	0xbcda7e24	-0.026671477
137	0x3d805b59	0.06267423
138	0x3cc26386	0.023729097
139	0x3a82cede	0.0009979864
140	0xbc14289e	-0.009042887
141	0x3d84db43	0.06487133
142	0x3cf68b4e	0.030095723
143	0xbd603391	-0.054736678
144	0x3db765d0	0.08954966
145	0xbd9c598f	-0.076342694
146	0xbe03ae31	-0.12859417
147	0xbe068fcd	-0.13140793
148	0xbe3b5f8d	-0.18298168
149	0xbcfba104	-0.030716427
150	0xbb47e678	-0.003050236
151	0xbe200a04	-0.1562882
152	0xbd347f16	-0.04406651
153	0xbdd46d46	-0.10372405
154	0xbc5a4520	-0.013322145
155	0xbc86bd84	-0.01644779
156	0x3d445481	0.04793215
157	0xbd8f23da	-0.0698926
158	0x3bd5eed2	0.0065287137
159	0x3d007be0	0.031368136
160	0xbd15dd32	-0.0365879
161	0x3e0092a0	0.12555933
162	0x3d1de445	0.038547773
163	0x3b272818	0.0025506075
164	0x3df446be	0.119275555
165	0x3cef671e	0.029223975
166	0xbda8e8ae	-0.08247505
167	0x3dc865ef	0.09785067
168	0xbd58cadf	-0.052927848
169	0x3dd9828c	0.10620603
170	0xbdaaa124	-0.083315164
171	0x3d2421f9	0.04007146
172	0xbd962dff	-0.07332992
173	0x3e1a14e8	0.15047038
174	0x3dfb05b8	0.1225695
175	0x3db82648	0.089916766
176	0xbc8a447c	-0.016878359
177	0xbbacba92	-0.0052712644
178	0xbc75caaf	-0.015001937
179	0xbd45cd51	-0.048291508
180	0xbcaea28d	-0.021317745
181	0xbced1087	-0.028938545
182	0x3dc4e7ea	0.096145466
183	0xbd53a2d0	-0.051668942
184	0xbc131a0a	-0.008978376
185	0xbe80ec1d	-0.2518014
186	0x3da3ba65	0.07994536
187	0xbdb7e2ae	-0.089787826
188	0xbdbfeef6	-0.0937175
189	0xbcb69bc2	-0.022291068
190	0x3dceabce	0.10091363
191	0x3dbecf9f	0.09316944
192	0xbdf42b4a	-0.11922319
193	0xbcdb4f76	-0.026771288
194	0xbd31065d	-0.04321896
195	0xbc79fcbb	-0.01525801
196	0xbdc805d0	-0.09766734
197	0xbe2f5029	-0.17120422
198	0xbab0f6d9	-0.0013501301
199	0xbd308cea	-0.043103136
200	0xbb430542	-0.0029757773
201	0x3e1e7974	0.15476018
202	0xbcab1be4	-0.020887323
203	0x3dfcde45	0.12347082
204	0x3d44fe0c	0.04809384
205	0x3db5b7e3	0.08872964
206	0xbd1375f8	-0.036001176
207	0xbd64ceba	-0.055861212
208	0x3e256932	0.1615341
209	0x3e0ea63c	0.13930601
210	0xbe2552cd	-0.16144867
211	0x3dde5721	0.10856462
212	0xbdcd8e93	-0.100369595
213	0x3d3e4f50	0.046462357
214	0xbddd0ac9	-0.10793073
215	0x3e3e99d4	0.18613368
216	0x3ca59135	0.020210842
217	0xbd34a649	-0.044103894
218	0x3c78fa62	0.015196415
219	0xbd88dbb6	-0.066825315
220	0x3d4c1227	0.049822
221	0xbcd5b475	-0.026087025
222	0x3d9bdad2	0.07610096
223	0x3cf35994	0.0297058
224	0xbd9dd558	-0.07706708
225	0x3da9be5a	0.0828826
226	0xbd1af3d1	-0.037830178
227	0xbcdfa3bd	-0.027299756
228	0x3cccc2da	0.024995256
229	0xbd8435b5	-0.06455556
230	0x3d0f4565	0.03497829
231	0x3d8dc853	0.069229744
232	0xbd84b41d	-0.064796664
233	0x3d1eadd2	0.038739987
234	0x3b644d85	0.0034836244
235	0xbd8563dd	-0.06513188
236	0x3dc81552	0.097696915
237	0x3d3210e2	0.043473132
238	0x3da77ea8	0.08178455
239	0x3c5e8d7b	0.013583536
240	0x3d5880d5	0.05285724
241	0x3e365bc2	0.1780844
242	0x3e4fe8f5	0.2030371
243	0xbd0eb1fe	-0.034837715
244	0x3dc70060	0.097168684
245	0x3e258c46	0.16166791
246	0xbbcbdf7b	-0.0062217093
247	0xbc0f8741	-0.008760274
248	0x3d92feeb	0.07177528
249	0xbd6fd5b8	-0.058553427
250	0x3da8eed5	0.082486786
251	0xbdd42813	-0.10359206
252	0x3cd843f3	0.026399588
253	0x3e0c46f2	0.13698938
254	0xbc1fd1a5	-0.009754573
255	0x3d5a4fda	0.05329881

network_body._body_endoder.seq_layers.2.bias f4 [128]
0	0xba207f3e	-0.0006122476
1	0xbaaec50c	-0.0013333871
2	0xbb522cf6	-0.0032070256
3	0x3a89e591	0.0010520687
4	0xbb0b95a4	-0.002129891
5	0x37e85e71	2.7700533e-05
6	0x3b0965a9	0.0020965135
7	0x3a8fb42d	0.0010963731
8	0xba664781	-0.00087844586
9	0xbaa18c27	-0.0012325094
10	0x3a2b39c4	0.000653174
11	0x3a5a3dd6	0.00083252543
12	0xbab6a6f6	-0.0013935256
13	0xba647529	-0.0008714968
14	0xbaf193be	-0.0018430871
15	0xb910ebc6	-0.00013820743
16	0x3ac55dfe	0.0015057919
17	0x39da68ef	0.00041658382
18	0xba33dbc9	-0.00068610586
19	0xbacd53e6	-0.0015665262
20	0x3a22e989	0.0006214609
21	0xbad73be1	-0.0016421044
22	0x39ccece2	0.00039086404
23	0xbaf5d6fa	-0.0018756085
24	0x3a5c2e3b	0.0008399223
25	0xbb3c7c16	-0.0028760484
26	0xb8a9a3bb	-8.089045e-05
27	0xba93f207	-0.001128734
28	0xbaaea580	-0.0013324469
29	0xbad36686	-0.0016128577
30	0xbac9d0b5	-0.0015397283
31	0x3a506c6b	0.0007950726
32	0x396e6f6c	0.00022738957
33	0xb9aa00c3	-0.00032425494
34	0x393216e7	0.00016983935
35	0xbab57fea	-0.0013847325
36	0xbb02ddf8	-0.001996873
37	0xba65fcf0	-0.00087733474
38	0xbac99bb5	-0.0015381487
39	0xba4f5594	-0.00079091755
40	0xb6251c4b	-2.4603385e-06
41	0xbab8172a	-0.0014044989
42	0xba9cfcf7	-0.0011977245
43	0xb72510c4	-9.83867e-06
44	0x3a2d3a2a	0.00066080934
45	0xb7bdc5db	-2.262269e-05
46	0xbaa61dad	-0.0012673639
47	0x391bdc15	0.00014863939
48	0xb984a428	-0.00025299308
49	0xbad76fe9	-0.001643655
50	0xb9df0bb4	-0.00042542594
51	0x39d8b41f	0.0004133293
52	0xbaadf024	-0.001327042
53	0x3a37144c	0.00069839205
54	0x3b2ae123	0.0026074133
55	0x3a2d7dce	0.00066181726
56	0xb8a9ec68	-8.102582e-05
57	0xb9109f3e	-0.00013792232
58	0xba3460cc	-0.0006880879
59	0xbb4beaaf	-0.0031115224
60	0xbae33297	-0.0017333803
61	0x389a72e2	7.364691e-05
62	0x3a50a7ee	0.0007959594
63	0xba647a05	-0.0008715692
64	0xba27298e	-0.00063767366
65	0xbb23d347	-0.0024997757
66	0xbb011269	-0.0019694811
67	0xbaf07b61	-0.0018347317
68	0xba414b08	-0.0007373546
69	0xba524c6e	-0.0008022253
70	0xba4da877	-0.00078452326
71	0xb9c2ac7c	-0.00037131074
72	0xba88d06b	-0.001043809
73	0x39cf4019	0.00039529873
74	0x3a850c5d	0.0010150779
75	0xba47666f	-0.00076065114
76	0xba828e7b	-0.0009960675
77	0xbadb12ab	-0.0016713938
78	0xbac73ec0	-0.0015201196
79	0xbaaa4200	-0.001298964
80	0xb89113ac	-6.917803e-05
81	0x38c20f5e	9.253503e-05
82	0xba0c5e4d	-0.0005354628
83	0x3a6f4257	0.0009127012
84	0x3a61d4e2	0.0008614791
85	0xba800775	-0.0009767847
86	0x3ac79406	0.001522661
87	0x39bb32a8	0.0003570516
88	0xba0e481b	-0.00054276147
89	0x3a82cfe3	0.0009980168
90	0x3a89e9e6	0.0010521978
91	0xba2c91ef	-0.0006583025
92	0xba2dfcce	-0.0006637097
93	0xbb0c09dd	-0.0021368184
94	0xbb4e9bb9	-0.0031525923
95	0x39496070	0.0001920478
96	0x39cda538	0.00039223745
97	0x39d7583c	0.00041073735
98	0xba41dcb7	-0.0007395255
99	0xb9bf5ea5	-0.00036500875
100	0xba223bc7	-0.0006188717
101	0xba8d48e3	-0.0010779168
102	0x391647ae	0.00014331818
103	0xba9b1503	-0.0011831824
104	0x3aa14c75	0.0012306111
105	0xbaa7b45f	-0.0012794844
106	0x3a181456	0.000580137
107	0xba00b1e3	-0.00049093197
108	0xbabcb4eb	-0.001439718
109	0xb950cf04	-0.00019913545
110	0xbb001b4c	-0.001954752
111	0x3a3e833d	0.0007267481
112	0xbb7c2b30	-0.003847789
113	0xb79d7c7f	-1.8773831e-05
114	0xbb08f146	-0.0020895763
115	0x3a88f99a	0.0010450364
116	0x3a7ce1b2	0.00096466683
117	0x39899ae9	0.00026246093
118	0x3a8180f0	0.0009880345
119	0x38e6500f	0.00010982167
120	0x3a26ced9	0.000636322
121	0xba7babb8	-0.0009600478
122	0xbad4cc01	-0.0016235114
123	0xbab337c3	-0.0013673234
124	0xbb005cd7	-0.0019586587
125	0xba625581	-0.0008633957
126	0xbaf88243	-0.001895972
127	0x3a717e74	0.00092122634

action_model._continuous_distribution.log_sigma f4 [1, 2]
0	0xbc789486	-0.0151721295
1	0xbc6a51cf	-0.014301731

action_model._continuous_distribution.mu.weight f4 [2, 128]
0	0xbc7c7437	-0.015408567
1	0xbca25032	-0.01981363
2	0xba62c5a6	-0.0008650668
3	0xbcd9e259	-0.026597189
4	0xba7a7151	-0.00095536286
5	0x3d0c3307	0.03422835
6	0x3c1e9c38	0.0096808
7	0xbc82bc74	-0.015959002
8	0xbca61f83	-0.020278698
9	0x3bdb7238	0.0066969655
10	0xbc4aef93	-0.0123862205
11	0xbc3e8c49	-0.011630126
12	0x3b003f58	0.0019569006
13	0x3c6ba60a	0.0143828485
14	0xbbdb658a	-0.006695454
15	0x3bb0bb4d	0.0053934217
16	0xbbf6d434	-0.007532621
17	0xbd267298	-0.04063663
18	0x3d092009	0.033477817
19	0x3bbadf90	0.0057029203
20	0x3bb45e5a	0.0055044116
21	0x3c540a3a	0.012941891
22	0xbbc9e767	-0.0061616185
23	0xbaa025db	-0.0012218313
24	0xbc29c317	-0.010361454
25	0xbb838eee	-0.0040148413
26	0xbae5cb57	-0.0017531913
27	0xba78de36	-0.0009493561
28	0xbba64579	-0.0050741998
29	0x3c658753	0.014009315
30	0xbb81dddf	-0.0039632167
31	0xbbc90d1a	-0.006135595
32	0x3c0aec42	0.00847918
33	0xbc94da6b	-0.018170556
34	0x3bb6f2ca	0.005583142
35	0x3c153eac	0.00910918
36	0x3d14f2b6	0.03636428
37	0xbc781496	-0.015141627
38	0xbbd4a90c	-0.0064898785
39	0x3c81504b	0.015785357
40	0x3c75b6c0	0.014997184
41	0x3bb9129e	0.0056479713
42	0xbbc88a69	-0.0061200154
43	0xbd050fc3	-0.032485735
44	0x3ca83c1b	0.020536473
45	0xbcf55f65	-0.029952714
46	0x3c4ec738	0.01262074
47	0x3c648882	0.013948562
48	0xbbca768e	-0.0061786836
49	0x3c4195d5	0.011815508
50	0xbacaf86e	-0.0015485415
51	0xbc91b49f	-0.017786322
52	0x3cba069a	0.022708226
53	0xbc8a434f	-0.016877798
54	0x3caca8d0	0.02107659
55	0xbc0d3346	-0.008618182
56	0x3c921ced	0.017836059
57	0x3c862d5a	0.016379047
58	0xbd504a67	-0.050852206
59	0x39fa3a34	0.0004772708
60	0x3d0f806d	0.035034586
61	0x3b8e4202	0.004341365
62	0xbb8b45b5	-0.004250253
63	0x3d051c6c	0.03249781
64	0x3ccce5a2	0.025011841
65	0x3c75f446	0.015011853
66	0xbbd53c43	-0.006507428
67	0x3be7f7e6	0.0070791123
68	0x3b7ef016	0.0038900427
69	0x3cf41f9a	0.029800225
70	0x3c2b2b45	0.010447328
71	0x3d1d4580	0.03839636
72	0xbc763e13	-0.015029448
73	0x3c260166	0.010132169
74	0xbc852e8c	-0.016257547
75	0xbc9fb7d3	-0.019496834
76	0xbc047fc5	-0.008087103
77	0xba8d0237	-0.0010758106
78	0x3bb619a1	0.0055572544
79	0x3c6096bd	0.013707814
80	0x3ce2d467	0.027689172
81	0xbc9261ba	-0.017868865
82	0xbc9f840b	-0.019472143
83	0xbc52d0ba	-0.012867147
84	0x3ad10d94	0.0015949481
85	0xbc0ddacb	-0.008658121
86	0x3bdbaaa8	0.0067036934
87	0xbc7cd21c	-0.015430953
88	0x3c9e32ac	0.019311272
89	0x3bc47ff8	0.0059967004
90	0xbb9e8e52	-0.0048387432
91	0x3cecedf3	0.028922057
92	0x3cb3db92	0.021955285
93	0xbbd4ad26	-0.0064903675
94	0xbc952dd8	-0.018210337
95	0xb8b4f6c1	-8.62903e-05
96	0x3c37e37b	0.011223669
97	0x3c54d60b	0.012990485
98	0xbd268b60	-0.040660262
99	0xbcf59179	-0.029976593
100	0x3c31cbad	0.010851783
101	0x3d51d0e7	0.051224615
102	0xbb542dc9	-0.0032375923
103	0xbbc9bdf0	-0.0061566755
104	0xbce4a81e	-0.027912196
105	0x3c0f03a9	0.0087289
106	0x3c131386	0.008976823
107	0xb9d6b524	-0.0004095222
108	0xbace6b02	-0.0015748444
109	0x3c914424	0.017732687
110	0x3bfb1cb9	0.007663336
111	0x3cd3674c	0.025806092
112	0x3c073015	0.00825121
113	0xbb9bb77f	-0.004752099
114	0xbb77ed0e	-0.0037830505
115	0xbafdc607	-0.0019361385
116	0xbc700f30	-0.0146520585
117	0xbc016f43	-0.007900062
118	0x3baf92c7	0.0053580734
119	0x3a71309f	0.00092006655
120	0x3c985bab	0.018598398
121	0xbca12750	-0.019672066
122	0xbbcd56dc	-0.006266458
123	0xbbbc286d	-0.005742124
124	0xbc3a15a8	-0.011357702
125	0x3d02202a	0.031768955
126	0xbad63494	-0.0016342574
127	0x3ae57c3c	0.0017508338
128	0x3c70ea5b	0.014704312
129	0xbc31eb50	-0.0108593255
130	0xbc24ec15	-0.010066052
131	0x3d2b77ab	0.04186217
132	0x3a621509	0.00086243503
133	0xb9d3e9a5	-0.00040419135
134	0xbb2e1640	-0.0026563555
135	0x3d021f4a	0.03176812
136	0xbb5386e5	-0.0032276448
137	0x39ceac77	0.00039419878
138	0xbcd4296d	-0.02589866
139	0x3c31783b	0.010831888
140	0xbce25242	-0.027627114
141	0x3a3a2bd2	0.00071018666
142	0x3c661d70	0.014045104
143	0x3d269b99	0.040675733
144	0xbcf8adc8	-0.030356303
145	0x3c2f56b5	0.010701825
146	0xbac804b8	-0.0015260195
147	0xbc9d20e4	-0.019180723
148	0x3c59ec0f	0.01330091
149	0xbc4332dd	-0.011913982
150	0x3bdb89eb	0.0066997907
151	0x3c99ecab	0.01878961
152	0x3c6d9b71	0.014502392
153	0xba1fc04b	-0.00060940225
154	0xbadc6562	-0.0016814882
155	0xbbc0e05a	-0.00588612
156	0xbcd5a574	-0.02607987
157	0xbc6cb13f	-0.014446556
158	0xbbe0af0f	-0.006856806
159	0x3c556432	0.013024377
160	0x3c02575a	0.007955397
161	0xbafd745e	-0.0019337048
162	0xbc34c11c	-0.011032369
163	0xbd0d941e	-0.034565084
164	0x3cb19705	0.021678457
165	0xbc2758a4	-0.010214005
166	0xbb8b7b16	-0.0042566163
167	0xbbbc3102	-0.005743147
168	0x3bd996b4	0.0066402797
169	0xbce010a5	-0.027351687
170	0xbccb8782	-0.024844889
171	0xb9dcd8b2	-0.0004212312
172	0xbd2b87f6	-0.04187771
173	0x39bf90a2	0.0003653812
174	0xbb9b7e59	-0.0047452864
175	0x3c10c12b	0.008835117
176	0xbd03cd57	-0.03217825
177	0xbc32ffd1	-0.010925249
178	0xbb2701ff	-0.0025483367
179	0x3beb379f	0.0071782614
180	0xbc8d5712	-0.017253432
181	0x3c36b168	0.011150695
182	0x3c8aa53a	0.01692449
183	0x3c5f189e	0.013616709
184	0xbc095ff4	-0.008384693
185	0xbc5ef231	-0.013607548
186	0xbd16c1ed	-0.036806036
187	0x3c9a26db	0.018817356
188	0x3ca22d10	0.019796878
189	0x3bc8e108	0.0061303414
190	0x3c4da0e2	0.0125505645
191	0xbbbde00a	-0.00579453
192	0xbb531488	-0.0032208283
193	0x3be1c289	0.0068896455
194	0x3c1db675	0.009626021
195	0x3cb2a6c2	0.021808032
196	0xbbde3f27	-0.0067824307
197	0x3c0df4b6	0.008664301
198	0x3a67ecf2	0.0008847258
199	0x3c989938	0.018627748
200	0xbc81d840	-0.015850186
201	0x3c2e9922	0.010656627
202	0x3ceb1d58	0.028700516
203	0x3cdda481	0.02705598
204	0xbb2753cf	-0.0025532132
205	0xbc070e50	-0.008243158
206	0xbc630900	-0.013857126
207	0xbbff53f1	-0.007791989
208	0x3c68c0cf	0.014206125
209	0xbbfb6ffd	-0.007673262
210	0xbb939f1f	-0.0045050527
211	0x3c8b8d40	0.017035127
212	0x3c92e63e	0.017932054
213	0xbb574b8a	-0.0032851421
214	0x3badb49a	0.0053010704
215	0xbd31ee26	-0.043440007
216	0xb96998c1	-0.00022277517
217	0xbd1109c6	-0.03540971
218	0x3cc9eaf0	0.02464816
219	0x3b0a7cb5	0.002113146
220	0xbb2d76ff	-0.0026468632
221	0xbc7d6a51	-0.015467242
222	0xbc61bd09	-0.01377798
223	0xbbc2c0fb	-0.005943415
224	0x3c453a80	0.012037873
225	0x3c8ae6c6	0.016955744
226	0xbd06c31a	-0.032900907
227	0x39dff2c7	0.00042714758
228	0x3acb9210	0.0015531201
229	0xbaf6df9e	-0.0018834954
230	0xbc5ae865	-0.013361071
231	0x3d14b4fb	0.03630541
232	0x3b86f1d6	0.0041181846
233	0xbc850ceb	-0.016241511
234	0x3c807b8c	0.015683912
235	0xbbb7d8b1	-0.0056105484
236	0xbc95bbf2	-0.018278096
237	0xbca51c21	-0.020155014
238	0xbbf93006	-0.007604602
239	0x3d054084	0.03253223
240	0x3c225168	0.009907104
241	0x3d1c6a35	0.038187224
242	0x3ad67f2c	0.0016364804
243	0x3ce2daef	0.027692286
244	0x3cbc834d	0.023011828
245	0xbb88aabe	-0.0041707447
246	0xbc42712a	-0.011867801
247	0x3bdb2d5d	0.0066887573
248	0x3ad74066	0.001642239
249	0x3980aff9	0.00024545172
250	0xbb190ed5	-0.0023354788
251	0xbb7337d4	-0.0037112134
252	0x3c499f90	0.012306109
253	0xbc3cd503	-0.011525395
254	0x3c4f0845	0.012636249
255	0xbca54055	-0.020172277

action_model._continuous_distribution.mu.bias f4 [2]
0	0xb962b378	-0.00021619897
1	0x3a9b139c	0.0011831406

exp_avg f4 [128, 75]
0	0x00000000	0.0
1	0xb28a8982	-1.6127846e-08
2	0x00000000	0.0
3	0x348884ce	2.5428602e-07
4	0x00000000	0.0
5	0x31a3e7b5	4.7702664e-09
6	0x00000000	0.0
7	0x347e722d	2.369713e-07
8	0x00000000	0.0
9	0x32b09169	2.0555222e-08
10	0x00000000	0.0
11	0x33c5ee25	9.2168456e-08
12	0x00000000	0.0
13	0x32db3c0f	2.5522267e-08
14	0x00000000	0.0
15	0x3385a156	6.222642e-08
16	0x00000000	0.0
17	0x330e3226	3.310756e-08
18	0x00000000	0.0
19	0x33589132	5.0423473e-08
20	0x00000000	0.0
21	0x3363bcee	5.3024387e-08
22	0x00000000	0.0
23	0x3345c51d	4.604691e-08
24	0x00000000	0.0
25	0x3419a644	1.4309722e-07
26	0x00000000	0.0
27	0x339796e1	7.05893e-08
28	0x00000000	0.0
29	0x34445e72	1.8288281e-07
30	0x00000000	0.0
31	0x343c31da	1.7527e-07
32	0x00000000	0.0
33	0x343c31da	1.7527e-07
34	0xb621fc8e	-2.4137876e-06
35	0x3502f54a	4.8785716e-07
36	0x36f4ce93	7.295815e-06
37	0x30bd822d	1.3788558e-09
38	0xb49fee6f	-2.978954e-07
39	0xb1874dfa	-3.937882e-09
40	0x3554aa43	7.922392e-07
41	0xb5b3ce9a	-1.3396668e-06
42	0xb2f45007	-2.844173e-08
43	0x36199226	2.2883846e-06
44	0x322cd0f6	1.005923e-08
45	0xb4d68402	-3.9956655e-07
46	0x33d0a366	9.715477e-08
47	0x00000000	0.0
48	0x35de620f	1.6568828e-06
49	0x3703b82b	7.851088e-06
50	0x00000000	0.0
51	0x00000000	0.0
52	0x00000000	0.0
53	0x355e620f	8.284414e-07
54	0x00000000	0.0
55	0x35de620f	1.6568828e-06
56	0x37875ab9	1.61355e-05
57	0x00000000	0.0
58	0x00000000	0.0
59	0x00000000	0.0
60	0x355e620f	8.284414e-07
61	0x00000000	0.0
62	0x35de620f	1.6568828e-06
63	0x37ccd960	2.4419918e-05
64	0x00000000	0.0
65	0x00000000	0.0
66	0x00000000	0.0
67	0x355e620f	8.284414e-07
68	0x00000000	0.0
69	0x35de620f	1.6568828e-06
70	0x38092c04	3.2704338e-05
71	0x00000000	0.0
72	0x00000000	0.0
73	0x00000000	0.0
74	0x355e620f	8.284414e-07
75	0x00000000	0.0
76	0x368cac48	4.1923813e-06
77	0x00000000	0.0
78	0x364912bf	2.9962246e-06
79	0x00000000	0.0
80	0x3582fb4c	9.758892e-07
81	0x00000000	0.0
82	0x35d37fff	1.5757977e-06
83	0x00000000	0.0
84	0x35443c96	7.3103854e-07
85	0x00000000	0.0
86	0x35b4c568	1.3468498e-06
87	0x00000000	0.0
88	0x352c1ba0	6.411519e-07
89	0x00000000	0.0
90	0x35008f07	4.789185e-07
91	0x00000000	0.0
92	0x352eabee	6.507024e-07
93	0x00000000	0.0
94	0x3534104f	6.707896e-07
95	0x00000000	0.0
96	0x34f54f6c	4.5692593e-07
97	0x00000000	0.0
98	0x35614fb1	8.3935e-07
99	0x00000000	0.0
100	0x35addb0e	1.2953258e-06
101	0x00000000	0.0
102	0x363ebca1	2.8422003e-06
103	0x00000000	0.0
104	0x365cfa63	3.29283e-06
105	0x00000000	0.0
106	0x35c65520	1.4776924e-06
107	0x00000000	0.0
108	0x35c65520	1.4776924e-06
109	0xb73dae6b	-1.1305888e-05
110	0x37113711	8.655495e-06
111	0x389b392c	7.401625e-05
112	0xb42dc12e	-1.6182159e-07
113	0xb5bb1bd1	-1.3940681e-06
114	0x32563052	1.2467426e-08
115	0x37773420	1.4734484e-05
116	0xb60ea8aa	-2.1257824e-06
117	0x36370596	2.7272376e-06
118	0x3847dc81	4.7650658e-05
119	0x34b6e2e1	3.4065218e-07
120	0xb6516971	-3.1204802e-06
121	0xb61a270a	-2.2970512e-06
122	0x00000000	0.0
123	0x37f50983	2.9210705e-05
124	0x395ff2bf	0.00021357367
125	0x00000000	0.0
126	0x00000000	0.0
127	0x00000000	0.0
128	0x37750983	1.4605353e-05
129	0x00000000	0.0
130	0x37f50983	2.9210705e-05
131	0x39bc8c58	0.00035962719
132	0x00000000	0.0
133	0x00000000	0.0
134	0x00000000	0.0
135	0x37750983	1.4605353e-05
136	0x00000000	0.0
137	0x37f50983	2.9210705e-05
138	0x3a048fa7	0.0005056806
139	0x00000000	0.0
140	0x00000000	0.0
141	0x00000000	0.0
142	0x37750983	1.4605353e-05
143	0x00000000	0.0
144	0x37f50983	2.9210705e-05
145	0x3a2ad92a	0.00065173453
146	0x00000000	0.0
147	0x00000000	0.0
148	0x00000000	0.0
149	0x37750983	1.4605353e-05
150	0x00000000	0.0
151	0x35f3c087	1.8160944e-06
152	0x00000000	0.0
153	0xb7b073ac	-2.1034699e-05
154	0x00000000	0.0
155	0x347bfd33	2.346831e-07
156	0x00000000	0.0
157	0xb736b06e	-1.0889124e-05
158	0x00000000	0.0
159	0xb59dd3e9	-1.1759086e-06
160	0x00000000	0.0
161	0xb576e928	-9.198143e-07
162	0x00000000	0.0
163	0xb5cf3b1f	-1.5439908e-06
164	0x00000000	0.0
165	0xb62a8689	-2.5410284e-06
166	0x00000000	0.0
167	0xb60598bb	-1.9907445e-06
168	0x00000000	0.0
169	0xb610faac	-2.1603582e-06
170	0x00000000	0.0
171	0xb6594583	-3.237598e-06
172	0x00000000	0.0
173	0xb603641b	-1.957879e-06
174	0x00000000	0.0
175	0xb6dd7ae9	-6.600622e-06
176	0x00000000	0.0
177	0xb68678b5	-4.0075633e-06
178	0x00000000	0.0
179	0xb7313656	-1.0562673e-05
180	0x00000000	0.0
181	0xb75168f9	-1.2481812e-05
182	0x00000000	0.0
183	0xb75168f9	-1.2481812e-05
184	0x38878e9d	6.4638654e-05
185	0xb7d8b171	-2.5831834e-05
186	0xb9b99a9b	-0.0003540114
187	0xb30c6597	-3.2688686e-08
188	0x3774c65e	1.4589719e-05
189	0x34a48d29	3.0650088e-07
190	0xb832e53b	-4.2651995e-05
191	0x388f2b6f	6.8268615e-05
192	0x34a98d99	3.158173e-07
193	0xb92eee43	-0.00016682693
194	0x3513e7b7	5.5098957e-07
195	0x37dccc94	2.6321308e-05
196	0xb6a65db5	-4.9580945e-06
197	0x00000000	0.0
198	0xb8b6cb06	-8.716252e-05
199	0xb912f08d	-0.00014013257
200	0x00000000	0.0
201	0x00000000	0.0
202	0x00000000	0.0
203	0xb836cb06	-4.358126e-05
204	0x00000000	0.0
205	0xb8b6cb06	-8.716252e-05
206	0xba16fb08	-0.00057594525
207	0x00000000	0.0
208	0x00000000	0.0
209	0x00000000	0.0
210	0xb836cb06	-4.358126e-05
211	0x00000000	0.0
212	0xb8b6cb06	-8.716252e-05
213	0xba849cf6	-0.0010117579
214	0x00000000	0.0
215	0x00000000	0.0
216	0x00000000	0.0
217	0xb836cb06	-4.358126e-05
218	0x00000000	0.0
219	0xb8b6cb06	-8.716252e-05
220	0xbabdbc66	-0.0014475703
221	0x00000000	0.0
222	0x00000000	0.0
223	0x00000000	0.0
224	0xb836cb06	-4.358126e-05
225	0x00000000	0.0
226	0xb7b35175	-2.1376394e-05
227	0x00000000	0.0
228	0xb53b95dc	-6.9881e-07
229	0x00000000	0.0
230	0xb6cc0a01	-6.0808384e-06
231	0x00000000	0.0
232	0xb5b0a2a0	-1.3160352e-06
233	0x00000000	0.0
234	0xb656fbd7	-3.2035075e-06
235	0x00000000	0.0
236	0xb6c6eb07	-5.9282206e-06
237	0x00000000	0.0
238	0xb61efd97	-2.3691443e-06
239	0x00000000	0.0
240	0xb52af453	-6.3685474e-07
241	0x00000000	0.0
242	0xb60ba817	-2.0810455e-06
243	0x00000000	0.0
244	0xb607284c	-2.0140023e-06
245	0x00000000	0.0
246	0xb4927fc7	-2.728759e-07
247	0x00000000	0.0
248	0xb654ae04	-3.1691752e-06
249	0x00000000	0.0
250	0xb6103dc3	-2.1493622e-06
251	0x00000000	0.0
252	0xb71f1964	-9.48305e-06
253	0x00000000	0.0
254	0xb71b6d43	-9.264159e-06
255	0x00000000	0.0

exp_avg_sq f4 [128, 75]
0	0x00000000	0.0
1	0x2b5769fa	7.6530416e-13
2	0x00000000	0.0
3	0x2a37ac40	1.6313426e-13
4	0x00000000	0.0
5	0x29d70144	9.5481376e-14
6	0x00000000	0.0
7	0x298ae010	6.1673e-14
8	0x00000000	0.0
9	0x2903feb2	2.9308756e-14
10	0x00000000	0.0
11	0x28e1da81	2.5074779e-14
12	0x00000000	0.0
13	0x289fc60f	1.773844e-14
14	0x00000000	0.0
15	0x28a40ce1	1.8213243e-14
16	0x00000000	0.0
17	0x288d518d	1.5689512e-14
18	0x00000000	0.0
19	0x28b131a9	1.9672484e-14
20	0x00000000	0.0
21	0x28b0b061	1.9616417e-14
22	0x00000000	0.0
23	0x290d998b	3.1441467e-14
24	0x00000000	0.0
25	0x2940525e	4.2704006e-14
26	0x00000000	0.0
27	0x2a422552	1.724361e-13
28	0x00000000	0.0
29	0x2a13a848	1.3114607e-13
30	0x00000000	0.0
31	0x2a39a40a	1.6488213e-13
32	0x00000000	0.0
33	0x2a39a40a	1.6488213e-13
34	0x2c8f1a11	4.0671984e-12
35	0x2c2b6d00	2.4361069e-12
36	0x2e173be5	3.4386622e-11
37	0x22d6b4f6	5.8196416e-18
38	0x29404da4	4.2699907e-14
39	0x22b905b8	5.0150405e-18
40	0x2cfad985	7.129577e-12
41	0x2b52da85	7.4910244e-13
42	0x29522723	4.6663313e-14
43	0x2c55a70c	3.036185e-12
44	0x2747ebb9	2.7744583e-15
45	0x295fd389	4.9699424e-14
46	0x26f4de54	1.6991163e-15
47	0x00000000	0.0
48	0x2dfc9d79	2.8719015e-11
49	0x3046b3a9	7.2287293e-10
50	0x00000000	0.0
51	0x00000000	0.0
52	0x00000000	0.0
53	0x2cfc9d79	7.1797538e-12
54	0x00000000	0.0
55	0x2dfc9d79	2.8719015e-11
56	0x314602ca	2.8814378e-09
57	0x00000000	0.0
58	0x00000000	0.0
59	0x00000000	0.0
60	0x2cfc9d79	7.1797538e-12
61	0x00000000	0.0
62	0x2dfc9d79	2.8719015e-11
63	0x31de831a	6.475955e-09
64	0x00000000	0.0
65	0x00000000	0.0
66	0x00000000	0.0
67	0x2cfc9d79	7.1797538e-12
68	0x00000000	0.0
69	0x2dfc9d79	2.8719015e-11
70	0x3245adc2	1.1506417e-08
71	0x00000000	0.0
72	0x00000000	0.0
73	0x00000000	0.0
74	0x2cfc9d79	7.1797538e-12
75	0x00000000	0.0
76	0x30e36a6b	1.654667e-09
77	0x00000000	0.0
78	0x2f9204ce	2.656066e-10
79	0x00000000	0.0
80	0x2f6270b6	2.0594623e-10
81	0x00000000	0.0
82	0x2ec2b149	8.853591e-11
83	0x00000000	0.0
84	0x2e89329d	6.2390294e-11
85	0x00000000	0.0
86	0x2e62631b	5.1474474e-11
87	0x00000000	0.0
88	0x2e241162	3.7304722e-11
89	0x00000000	0.0
90	0x2e1fcab4	3.633245e-11
91	0x00000000	0.0
92	0x2e0ef702	3.250645e-11
93	0x00000000	0.0
94	0x2e303f4c	4.0073986e-11
95	0x00000000	0.0
96	0x2e2df95d	3.9557125e-11
97	0x00000000	0.0
98	0x2e8ff792	6.5468644e-11
99	0x00000000	0.0
100	0x2eac500e	7.835875e-11
101	0x00000000	0.0
102	0x2fcab50d	3.687223e-10
103	0x00000000	0.0
104	0x2f8b7d14	2.5372826e-10
105	0x00000000	0.0
106	0x2fb2e95a	3.2543818e-10
107	0x00000000	0.0
108	0x2fb2e95a	3.2543818e-10
109	0x31b78768	5.341395e-09
110	0x31aba472	4.9954503e-09
111	0x32ef637e	2.7868506e-08
112	0x282e5322	9.676967e-15
113	0x2e17427f	3.4392485e-11
114	0x2707f152	1.8865834e-15
115	0x327bda57	1.4659768e-08
116	0x3001fb09	4.728667e-10
117	0x2eab9d83	7.8041594e-11
118	0x310d6de1	2.058066e-09
119	0x2c99b136	4.368196e-12
120	0x2dd664a6	2.437368e-11
121	0x2bcfe712	1.477237e-12
122	0x00000000	0.0
123	0x337d034f	5.8909162e-08
124	0x35cddc12	1.5337739e-06
125	0x00000000	0.0
126	0x00000000	0.0
127	0x00000000	0.0
128	0x327d034f	1.47272905e-08
129	0x00000000	0.0
130	0x337d034f	5.8909162e-08
131	0x36c96e77	6.0031266e-06
132	0x00000000	0.0
133	0x00000000	0.0
134	0x00000000	0.0
135	0x327d034f	1.47272905e-08
136	0x00000000	0.0
137	0x337d034f	5.8909162e-08
138	0x37611da4	1.3417946e-05
139	0x00000000	0.0
140	0x00000000	0.0
141	0x00000000	0.0
142	0x327d034f	1.47272905e-08
143	0x00000000	0.0
144	0x337d034f	5.8909162e-08
145	0x37c77751	2.377821e-05
146	0x00000000	0.0
147	0x00000000	0.0
148	0x00000000	0.0
149	0x327d034f	1.47272905e-08
150	0x00000000	0.0
151	0x3194f508	4.3352237e-09
152	0x00000000	0.0
153	0x306cb3ec	8.6111984e-10
154	0x00000000	0.0
155	0x3015390f	5.428697e-10
156	0x00000000	0.0
157	0x2fe4b1db	4.1599332e-10
158	0x00000000	0.0
159	0x2f37265e	1.6657384e-10
160	0x00000000	0.0
161	0x2f8d28fa	2.5676866e-10
162	0x00000000	0.0
163	0x2ede1f45	1.0100946e-10
164	0x00000000	0.0
165	0x2f0f2528	1.3018975e-10
166	0x00000000	0.0
167	0x2ec5b02d	8.989818e-11
168	0x00000000	0.0
169	0x2f0b7ba3	1.2685901e-10
170	0x00000000	0.0
171	0x2f009ddd	1.1697616e-10
172	0x00000000	0.0
173	0x2f5316b5	1.9198405e-10
174	0x00000000	0.0
175	0x2facbe8c	3.142201e-10
176	0x00000000	0.0
177	0x30888dbf	9.935589e-10
178	0x00000000	0.0
179	0x3065a706	8.354707e-10
180	0x00000000	0.0
181	0x30834218	9.55029e-10
182	0x00000000	0.0
183	0x30834218	9.55029e-10
184	0x33a6600d	7.747449e-08
185	0x32794ea1	1.4511586e-08
186	0x34c98d5b	3.7542017e-07
187	0x29123243	3.2462107e-14
188	0x30005430	4.6685766e-10
189	0x28cb0761	2.2540727e-14
190	0x3334eede	4.2126764e-08
191	0x31d7812b	6.2720082e-09
192	0x2f9177b7	2.646041e-10
193	0x32835a13	1.5291368e-08
194	0x2d8ef42a	1.6251962e-11
195	0x2f8e4a0e	2.5882269e-10
196	0x2d1823e9	8.648173e-12
197	0x00000000	0.0
198	0x3437a456	1.7102988e-07
199	0x36a3d205	4.882228e-06
200	0x00000000	0.0
201	0x00000000	0.0
202	0x00000000	0.0
203	0x3337a456	4.275747e-08
204	0x00000000	0.0
205	0x3437a456	1.7102988e-07
206	0x37987a1a	1.817667e-05
207	0x00000000	0.0
208	0x00000000	0.0
209	0x00000000	0.0
210	0x3337a456	4.275747e-08
211	0x00000000	0.0
212	0x3437a456	1.7102988e-07
213	0x3827ddf2	4.0022605e-05
214	0x00000000	0.0
215	0x00000000	0.0
216	0x00000000	0.0
217	0x3337a456	4.275747e-08
218	0x00000000	0.0
219	0x3437a456	1.7102988e-07
220	0x3893ae75	7.0420014e-05
221	0x00000000	0.0
222	0x00000000	0.0
223	0x00000000	0.0
224	0x3337a456	4.275747e-08
225	0x00000000	0.0
226	0x32b97ac2	2.1592658e-08
227	0x00000000	0.0
228	0x3189084e	3.988169e-09
229	0x00000000	0.0
230	0x3138d73b	2.6897868e-09
231	0x00000000	0.0
232	0x30d7ff8d	1.5715941e-09
233	0x00000000	0.0
234	0x3062d87a	8.252595e-10
235	0x00000000	0.0
236	0x3079bd8a	9.0855024e-10
237	0x00000000	0.0
238	0x30091781	4.987371e-10
239	0x00000000	0.0
240	0x3017dac6	5.5244376e-10
241	0x00000000	0.0
242	0x2ff23506	4.405722e-10
243	0x00000000	0.0
244	0x301e3bbc	5.7564953e-10
245	0x00000000	0.0
246	0x301860eb	5.5435007e-10
247	0x00000000	0.0
248	0x307919c2	9.0622276e-10
249	0x00000000	0.0
250	0x30ad8c97	1.2627365e-09
251	0x00000000	0.0
252	0x31a91c60	4.921773e-09
253	0x00000000	0.0
254	0x3181c6fd	3.7770165e-09
255	0x00000000	0.0

exp_avg f4 [128]
0	0x355e5dd5	8.283799e-07
1	0x3774f607	1.4600816e-05
2	0xb836b22a	-4.355811e-05
3	0xb84149ae	-4.6083405e-05
4	0x320e6b37	8.289866e-09
5	0xb78949de	-1.636607e-05
6	0xb77a9446	-1.4935684e-05
7	0xb7b09127	-2.1048427e-05
8	0x38009434	3.0655603e-05
9	0xb8e0f5ae	-0.00010726914
10	0xb2d9064d	-2.526499e-08
11	0xb58f892d	-1.0694254e-06
12	0xb73a7702	-1.1114173e-05
13	0xb723ecf8	-9.770731e-06
14	0xb79c686d	-1.8645276e-05
15	0xb48c5e60	-2.61457e-07
16	0x3117cb46	2.208894e-09
17	0x35c16ad6	1.4410714e-06
18	0xb8b4a1d9	-8.613215e-05
19	0xb922e554	-0.00015534955
20	0x31d554d9	6.208762e-09
21	0xb58da9bf	-1.0554721e-06
22	0xb6e64dcb	-6.8635904e-06
23	0x3898b4ee	7.2816256e-05
24	0xb5cd2d18	-1.5286814e-06
25	0x3067dab2	8.4348095e-10
26	0x3476be51	2.2979772e-07
27	0xb6cbd51b	-6.07468e-06
28	0x3892a639	6.992784e-05
29	0xb7c06a42	-2.2937664e-05
30	0x3863588e	5.420349e-05
31	0x378975d6	1.6386544e-05
32	0x35cf26c7	1.5433988e-06
33	0x389e8c88	7.560203e-05
34	0x3713fb4a	8.820391e-06
35	0x375d638b	1.3195803e-05
36	0x2f275d55	1.522172e-10
37	0x33df3e42	1.0395571e-07
38	0x36ed3bf4	7.07013e-06
39	0xb5c2de1d	-1.451877e-06
40	0xb620ca64	-2.3959665e-06
41	0x38ba7761	8.891407e-05
42	0x31e863c2	6.76343e-09
43	0xb88f3f1a	-6.830525e-05
44	0xb2c2c167	-2.2672522e-08
45	0x36c546f8	5.8793194e-06
46	0xb5ddc83a	-1.6524057e-06
47	0xb877c4ed	-5.907279e-05
48	0x34cae68a	3.779317e-07
49	0x373df171	1.1321493e-05
50	0x3687b0d9	4.0439013e-06
51	0xb6be8aa4	-5.678581e-06
52	0xb797c3e9	-1.809183e-05
53	0x36695770	3.47706e-06
54	0x3767e72e	1.3822499e-05
55	0xb5a831a5	-1.2531424e-06
56	0x382dfc9e	4.1481682e-05
57	0x31d2168d	6.114368e-09
58	0xb8561b54	-5.1047027e-05
59	0x383b5211	4.4660705e-05
60	0x37338b97	1.0701732e-05
61	0x35d37029	1.5753368e-06
62	0xb83782a3	-4.3752265e-05
63	0xb60ac270	-2.067678e-06
64	0xb549fa54	-7.524261e-07
65	0x37e2b2d7	2.7024578e-05
66	0xb7f37f1a	-2.9027044e-05
67	0xb8c93a8e	-9.5953335e-05
68	0x38d460be	0.000101269674
69	0x37d4c563	2.5364285e-05
70	0x31f104ad	7.0145547e-09
71	0x32e026f9	2.6094755e-08
72	0x3684ccc1	3.957743e-06
73	0xb741ec2a	-1.1558683e-05
74	0xb803f583	-3.1461484e-05
75	0xb8db55b8	-0.000104587
76	0xb81af7d5	-3.6947273e-05
77	0xb268ab0b	-1.3543068e-08
78	0x375c004f	1.3113094e-05
79	0x331af875	3.608189e-08
80	0xb424b692	-1.5340109e-07
81	0xb716c74f	-8.987102e-06
82	0xb3c54250	-9.1855895e-08
83	0x3598bed7	1.1380424e-06
84	0xb64d60bb	-3.0603685e-06
85	0xb2a6bb1f	-1.9410036e-08
86	0x382f924c	4.18595e-05
87	0x38b95b34	8.838475e-05
88	0x3832f4d2	4.2666514e-05
89	0x38567d31	5.113817e-05
90	0xb58aba1c	-1.0335966e-06
91	0xb3cdd260	-9.5843234e-08
92	0xb8182a3e	-3.6278965e-05
93	0x369f269a	4.743063e-06
94	0x348c0f69	2.6088244e-07
95	0x33a04aa5	7.4641584e-08
96	0x3823ace7	3.9023256e-05
97	0xb6c72b3d	-5.9356958e-06
98	0xb849db14	-4.8126167e-05
99	0x382c7418	4.1116116e-05
100	0xb749920e	-1.201454e-05
101	0x3162ec4f	3.3021654e-09
102	0x33d6911e	9.991548e-08
103	0x37d92d36	2.5889469e-05
104	0xb5c408fb	-1.4605752e-06
105	0x3908db92	0.00013051767
106	0x37c3d63a	2.3345568e-05
107	0x3727d0fd	1.0002635e-05
108	0x324f327b	1.2060464e-08
109	0xb884df77	-6.335874e-05
110	0xb702a20d	-7.786334e-06
111	0xb81c3fac	-3.7252597e-05
112	0x37d2aaa7	2.5113417e-05
113	0x379713ee	1.8009883e-05
114	0x373b7cc6	1.117512e-05
115	0xb726be0c	-9.93862e-06
116	0x36fdf3fb	7.5683906e-06
117	0xb8c9a71c	-9.6155534e-05
118	0xb81001b2	-3.4333854e-05
119	0x37efbf1e	2.8580016e-05
120	0x35f2c1a6	1.8086764e-06
121	0x385842fd	5.15608e-05
122	0x36eb75bc	7.017252e-06
123	0xb8149235	-3.5422116e-05
124	0x38d96312	0.000103658196
125	0xb5bb7bd0	-1.396862e-06
126	0x3935cd7e	0.00017338057
127	0xb7a53d69	-1.969813e-05

exp_avg_sq f4 [128]
0	0x2cfc9c13	7.1795985e-12
1	0x327d0387	1.472734e-08
2	0x3337a3ae	4.2756874e-08
3	0x345b08db	2.0399186e-07
4	0x26bce2bf	1.310658e-15
5	0x3336f4b8	4.2597748e-08
6	0x31588e2e	3.1512957e-09
7	0x31f9a61f	7.2657396e-09
8	0x32819dbb	1.5089304e-08
9	0x341b693c	1.4473784e-07
10	0x2a2d4bcc	1.5391784e-13
11	0x2d1a3ecd	8.767831e-12
12	0x322d9906	1.0104719e-08
13	0x31873676	3.9352086e-09
14	0x32970aa9	1.7583561e-08
15	0x2cffea3d	7.2735416e-12
16	0x24cad34a	8.796147e-17
17	0x2dd61f69	2.4342932e-11
18	0x33b96f59	8.634988e-08
19	0x3456e948	2.001517e-07
20	0x277df5bf	3.5244022e-15
21	0x31822911	3.7881667e-09
22	0x2ff97979	4.5379148e-10
23	0x3306a7ea	3.1352023e-08
24	0x2f40b833	1.7527739e-10
25	0x287d6c3f	1.4067793e-14
26	0x2d3ad406	1.0619955e-11
27	0x31f4670b	7.1130493e-09
28	0x3365d967	5.3515944e-08
29	0x335927c1	5.0560406e-08
30	0x33152471	3.472491e-08
31	0x3175dc7b	3.577752e-09
32	0x2e3dc8bf	4.3151923e-11
33	0x337cc269	5.8850137e-08
34	0x3245e265	1.1518385e-08
35	0x2ffe5e69	4.6269413e-10
36	0x1fd90957	9.1918526e-20
37	0x33b0b1dc	8.227991e-08
38	0x2ea695ce	7.575417e-11
39	0x2e4e9465	4.6970778e-11
40	0x2f485ab8	1.8222124e-10
41	0x33845983	6.163011e-08
42	0x2556b380	1.8622358e-16
43	0x33863c30	6.250809e-08
44	0x2bb9f368	1.3212599e-12
45	0x330d9e49	3.297308e-08
46	0x2cb6d907	5.196846e-12
47	0x336137f3	5.243778e-08
48	0x2bb0681b	1.2534447e-12
49	0x32b83760	2.14456e-08
50	0x3009afd4	5.0090176e-10
51	0x2eea8563	1.0664782e-10
52	0x32005a00	7.471044e-09
53	0x2ef13a45	1.0969762e-10
54	0x3286af48	1.5679362e-08
55	0x2e88b6f1	6.217061e-11
56	0x3309bdd2	3.207044e-08
57	0x26e33e37	1.5768153e-15
58	0x339bd287	7.256045e-08
59	0x32f38694	2.8350122e-08
60	0x327f96e8	1.4877266e-08
61	0x31d47c36	6.184133e-09
62	0x32d3fb07	2.4677787e-08
63	0x2efe4694	1.156312e-10
64	0x2e3ef918	4.3422238e-11
65	0x3227fb8b	9.777874e-09
66	0x32b02eff	2.0510468e-08
67	0x3432fefb	1.6670303e-07
68	0x34759d81	2.2874703e-07
69	0x32d9e9bb	2.5368413e-08
70	0x2633eb3b	6.2421897e-16
71	0x2841537e	1.0731757e-14
72	0x311a8f8c	2.2491546e-09
73	0x321299ab	8.5332585e-09
74	0x32035afe	7.645893e-09
75	0x342013c8	1.4908358e-07
76	0x334f3ca1	4.8251085e-08
77	0x277ae67d	3.4819417e-15
78	0x32db39f7	2.5521315e-08
79	0x2d9d1bf3	1.7861245e-11
80	0x2a3097bc	1.5684584e-13
81	0x31949201	4.3239656e-09
82	0x2a172be3	1.342672e-13
83	0x2ccbf841	5.7971687e-12
84	0x2d869645	1.530077e-11
85	0x298f7dd8	6.372306e-14
86	0x32d651e1	2.4950113e-08
87	0x33bb0266	8.708302e-08
88	0x32856278	1.5528016e-08
89	0x32ec6f25	2.7524559e-08
90	0x2ee05966	1.0202221e-10
91	0x2d5af630	1.244653e-11
92	0x3254fb54	1.23971695e-08
93	0x2f90d958	2.634788e-10
94	0x2dd09bfc	2.3716133e-11
95	0x2ac8519d	3.5583767e-13
96	0x31aabea2	4.9693236e-09
97	0x317ebb2f	3.7068266e-09
98	0x33948c5e	6.91732e-08
99	0x32997cdf	1.7868329e-08
100	0x3269107b	1.3566132e-08
101	0x2bbcaa3b	1.3405452e-12
102	0x2b057224	4.7409494e-13
103	0x325dfba6	1.2921111e-08
104	0x2ecc0059	9.276908e-11
105	0x34173632	1.4082687e-07
106	0x32a1118d	1.8750848e-08
107	0x33112aee	3.3799488e-08
108	0x2a7f21bf	2.2660258e-13
109	0x324d0a15	1.1934863e-08
110	0x32c9e4c3	2.3503508e-08
111	0x339ed75e	7.3966234e-08
112	0x3402cb51	1.218116e-07
113	0x3215b217	8.713434e-09
114	0x32624397	1.31702995e-08
115	0x32025b4f	7.587757e-09
116	0x32b941c6	2.1566745e-08
117	0x331ea77c	3.6939568e-08
118	0x32d87c5e	2.5202265e-08
119	0x3042aa4f	7.081881e-10
120	0x30121052	5.3137683e-10
121	0x33232b2f	3.799067e-08
122	0x31ab3711	4.9830153e-09
123	0x32dca525	2.568647e-08
124	0x33ded614	1.0376621e-07
125	0x2e70e990	5.4777127e-11
126	0x34821768	2.4231417e-07
127	0x3249d15e	1.1747344e-08
