Unity Project/CSC 30014 Project/results/test2/Car/checkpoint.pt (torch, 220367 bytes, 12 tensors)

network_body._body_endoder.seq_layers.0.weight f4 [128, 75]
00000000: 91cd 3b3e 90e5 153d 8d26 53bd 3542 77bb
00000010: eb33 10bb f847 2cbe a009 b13c 5c0e 0dbe
00000020: 4292 983c 6de5 273d 1e12 483e d864 45bc
00000030: 71a3 cd3d 6851 0b3b feb0 9d3d 311e 363d
00000040: b71d 2f3e 450f bf3a a663 c4bd af9c 8b3d
00000050: 4a1d 843c 5564 383e 7da9 183e cf10 0a3e
00000060: e879 3cbd d0ac 62be f0c0 343e d095 523b
00000070: e677 af3c 1fa1 0dbe f0d4 bfbb b406 3ebe
00000080: 0bba 753e a121 14be 130b 2cbd b59c b2bd
00000090: 42ab c6bd 8f59 44be fcaa 99bd bd0a 263e
000000a0: 1864 73be 4fcf 8cbe 9f96 f83c 5687 8bbd
000000b0: 3d11 c93c a25f c53d fba0 1dbe aa8d 01be
000000c0: 4f5a 34be ad9b 65be 3ed1 053d 9c70 2dbd
000000d0: 4e88 acbd 6dce e9bc 2898 9fbd 41e5 a3bd
000000e0: 5ff8 d9bc 17fa 813d a028 2b3e b28d 0fbe
000000f0: 3898 86bc d37c cf3d f87f 1c3d 8af1 803c
00000100: ebab 66bd 30c0 7d3e cc72 8f3d 3dfe a8bc
00000110: 6cc6 23bd 063c 6c3c a1b1 42bc fae3 733d
00000120: 4e51 cbbc 7465 273e 4923 a73d 13f2 4bbe
00000130: 7d5a 193e 5e9d 9cbd 7622 943d a98e 09be
00000140: 7db1 373b 3f5b 57bd 61c4 bd3d 3acb 9fbd
00000150: 1624 d53d ac34 463e 98cc 16be 00f4 193d
00000160: ebf8 52be 6100 6e3c e46c d7bd 1d6c 173d
00000170: a3ce 28bd 210d 84bd 77f0 3c3e cdfc 87b9
00000180: a4ef 0ebd e64c 8e3d c9ff 133e f3dd e83c
00000190: 2d40 afbd 13d3 0b3e 77c7 ccbd 0593 00be
000001a0: bc4d 083d b4f5 b0bd b607 3e3e dca9 adbd
000001b0: da5e 2e3e 7c3c 52bd e7d2 62bb 4f5f 4cbb
000001c0: 017f d93d 0eae 4e3e ab0d ce3d c453 323d
000001d0: 45df 4f3d 1e16 81bd e67b 743d def0 5dbd
000001e0: 190c 46be 4739 71bd d97c 6a3d 2adf 523e
000001f0: 82bc 233d c17c b1bd e031 1abd e3b6 32bd
00000200: b4ad 543d fa4c b6bc b161 0cbd 1a12 2fbc
00000210: d2fa c63d 3e16 ba3d d685 293e f0c9 52be
00000220: 64c4 91bd 1901 88be bb24 c73d d324 29bd
00000230: 185f a83d 0200 a23d 11bf b83d a179 113e
00000240: 4cf9 3d3d 683b 3bbc 4fd3 66bd 0ca2 023e
00000250: f58e 2bbd 682a dd3d 3c2a bd3d f5e5 fcbc
00000260: 9f0a d2bd 7a35 883c 87f5 153d 8be5 a93d
00000270: ec40 c1bd e7df e03c e554 c73d 5fd7 d5bb
00000280: c3d4 acbd 6396 4b3d 644c 633d 5d26 21bc
00000290: 8eba 39bd a366 f2bd 95a5 c4bd 30a1 83bd
000002a0: c6a4 25be 2707 ddbc f7fe efbc 4fd3 a33d
000002b0: 2e6a b1bd b294 d23d 0cf4 34bd ef38 c6bb
000002c0: d911 a0bd d298 ba3c f8b3 45bc e74e 22bd
000002d0: c5b7 f4bd 3bde c6bc 9557 303e a8a2 8d3d
000002e0: 77dc 09be a841 403e 9d14 12be 76ef b1bd
000002f0: d53f b93d 3953 1cbd 1085 28bd 84f6 13be
00000300: 69a3 0dbd e00b c93d c99a 29bd 24df f63d
00000310: d97b b13d 93d1 35bd 077b 793e 4f5a 3ebd
00000320: ca41 5a3d 7baf 013e 809e 5fbe 51b9 9a3d
00000330: 2685 753d c4da 083e 8228 173b 13aa a43d
00000340: f1f2 7fbd 5bb0 533c 0d14 85bc 7438 94bd
00000350: dfca 703d d5da 19be 5a2f c2bd cec4 a9bd
00000360: a644 d13c fec3 c3bd d49f a3bc 1810 39bd
00000370: a5ec 2cbc 35d5 a63d 0b35 893e a9fb fcbd
00000380: b502 473c caf4 f4bd d0ca 66be cc37 32be
00000390: 269e a0bd 2a99 0abe 079f 103e b848 e33d
000003a0: 5144 b0bd cd42 a6bc c4ed 28be 37e2 66bd
000003b0: a8ad 023d 2cb4 2d3c 8762 2e3e 7234 06be
000003c0: dcda 03be 5e8d 323d bfb9 a8be 4d11 59bd
000003d0: 9149 1bbe 2247 243e 161f b7bd 9a01 80bd
000003e0: 4789 cfbd 2318 1f3e 2f3f 1cbe f041 863b
000003f0: 0287 a93b 2ef8 ea3b 5f15 ae3d ade7 7ebd
0.18340136 0.03659588 -0.051550437 -0.0037728671 -0.0022003602 -0.16824329 0.021611035 -0.13775009
0.018624429 0.04099028 0.19538161 -0.012047969 0.100409396 0.0021258239 0.07699774 0.044462387
0.17101179 0.0014576694 -0.09589319 0.068169944 0.016127247 0.18007024 0.14908405 0.13482974
-0.046014696 -0.22136235 0.17651725 0.0032132752 0.021419477 -0.13830994 -0.0058542415 -0.18557245
0.23996751 -0.14465953 -0.04200275 -0.08721296 -0.097006336 -0.19174789 -0.07503316 0.16215034
-0.23768651 -0.27501914 0.03034526 -0.06812923 0.024544353 0.09637381 -0.1539344 -0.12651697
-0.17612575 -0.22422667 0.032670252 -0.04234372 -0.084244356 -0.028540814 -0.077926934 -0.08002711
-0.02660769 0.06346529 0.16714716 -0.14018896 -0.016430005 0.1013123 0.038207978 0.015740175
-0.056316298 0.24780345 0.07004318 -0.020629043 -0.03998415 0.014418608 -0.01188317 0.059543587
-0.024819043 0.16347295 0.08161027 -0.19916563 0.14975925 -0.07647203 0.072331354 -0.13433327
0.0028029375 -0.052577253 0.09265972 -0.07802434 0.104072735 0.1935603 -0.14726484 0.037586212
-0.20602767 0.0145264575 -0.10518816 0.03696834 -0.04121269 -0.06447817 0.18451105 -0.00025937558
-0.034896508 0.06948261 0.14453043 0.028426146 -0.085571624 0.13654737 -0.099989824 -0.12556084
0.03327726 -0.08640614 0.18557629 -0.08479664 0.1702837 -0.051327214 -0.003461057 -0.0031184738
0.10619927 0.20183584 0.10061201 0.043536916 0.050750036 -0.06303047 0.05968847 -0.054184787
-0.19340552 -0.058892515 0.05724797 0.20592943 0.039974697 -0.08666373 -0.03764522 -0.043631446
0.05192347 -0.022253502 -0.034272853 -0.010685468 0.09715809 0.090862736 0.1655496 -0.20584846
-0.07117537 -0.26563337 0.09723803 -0.041294884 0.08221263 0.07910158 0.09020818 0.14206554
0.046380326 -0.011427738 -0.056353863 0.12757128 -0.04188438 0.10799104 0.09236571 -0.03087137
-0.10255932 0.016627062 0.036611106 0.08295735 -0.09436211 0.027450515 0.09732989 -0.0065259184
-0.084390186 0.049703967 0.055492774 -0.009835807 -0.045343928 -0.11835983 -0.09601895 -0.064272285
-0.16176137 -0.02698095 -0.029296381 0.07999288 -0.0866283 0.10282268 -0.044178054 -0.0060492675
-0.07815904 0.022777949 -0.012066834 -0.03962603 -0.11949114 -0.02427589 0.1722091 0.0691579
-0.13463007 0.18775046 -0.14265676 -0.08688252 0.09045378 -0.038165305 -0.041142523 -0.14449507
-0.03457967 0.09816718 -0.04140738 0.120542794 0.086662 -0.04438932 0.24363337 -0.046472844
0.053285398 0.12664597 -0.21837807 0.075548775 0.059941433 0.13364702 0.0023064916 0.080402516
-0.062487546 0.012920464 -0.016244913 -0.0723733 0.058787223 -0.15024884 -0.09481688 -0.08289491
0.02554543 -0.09558867 -0.019973673 -0.045181364 -0.010554467 0.08146135 0.2679828 -0.12352688
0.0121466415 -0.11960752 -0.22538304 -0.17404097 -0.078426644 -0.1353499 0.14123164 0.110978544
-0.0860678 -0.020295525 -0.1649695 -0.05636808 0.031903893 0.010602038 0.17029773 -0.13105944
-0.12876457 0.04359185 -0.32954213 -0.052995015 -0.15164782 0.1604276 -0.08941476 -0.062503055
-0.101336055 0.15536551 -0.15258478 0.004097216 0.005173565 0.0071706986 0.0850017 -0.062232662

network_body._body_endoder.seq_layers.0.bias f4 [128]
00000000: 0000 0000 0000 0000 0000 0000 0000 0000
00000010: 0000 0000 0000 0000 0000 0000 0000 0000
00000020: 0000 0000 0000 0000 0000 0000 0000 0000
00000030: 0000 0000 0000 0000 0000 0000 0000 0000
00000040: 0000 0000 0000 0000 0000 0000 0000 0000
00000050: 0000 0000 0000 0000 0000 0000 0000 0000
00000060: 0000 0000 0000 0000 0000 0000 0000 0000
00000070: 0000 0000 0000 0000 0000 0000 0000 0000
00000080: 0000 0000 0000 0000 0000 0000 0000 0000
00000090: 0000 0000 0000 0000 0000 0000 0000 0000
000000a0: 0000 0000 0000 0000 0000 0000 0000 0000
000000b0: 0000 0000 0000 0000 0000 0000 0000 0000
000000c0: 0000 0000 0000 0000 0000 0000 0000 0000
000000d0: 0000 0000 0000 0000 0000 0000 0000 0000
000000e0: 0000 0000 0000 0000 0000 0000 0000 0000
000000f0: 0000 0000 0000 0000 0000 0000 0000 0000
00000100: 0000 0000 0000 0000 0000 0000 0000 0000
00000110: 0000 0000 0000 0000 0000 0000 0000 0000
00000120: 0000 0000 0000 0000 0000 0000 0000 0000
00000130: 0000 0000 0000 0000 0000 0000 0000 0000
00000140: 0000 0000 0000 0000 0000 0000 0000 0000
00000150: 0000 0000 0000 0000 0000 0000 0000 0000
00000160: 0000 0000 0000 0000 0000 0000 0000 0000
00000170: 0000 0000 0000 0000 0000 0000 0000 0000
00000180: 0000 0000 0000 0000 0000 0000 0000 0000
00000190: 0000 0000 0000 0000 0000 0000 0000 0000
000001a0: 0000 0000 0000 0000 0000 0000 0000 0000
000001b0: 0000 0000 0000 0000 0000 0000 0000 0000
000001c0: 0000 0000 0000 0000 0000 0000 0000 0000
000001d0: 0000 0000 0000 0000 0000 0000 0000 0000
000001e0: 0000 0000 0000 0000 0000 0000 0000 0000
000001f0: 0000 0000 0000 0000 0000 0000 0000 0000
0.0 0.0 0.0 0.0 0.0 0.0 0.0 0.0
0.0 0.0 0.0 0.0 0.0 0.0 0.0 0.0
0.0 0.0 0.0 0.0 0.0 0.0 0.0 0.0
0.0 0.0 0.0 0.0 0.0 0.0 0.0 0.0
0.0 0.0 0.0 0.0 0.0 0.0 0.0 0.0
0.0 0.0 0.0 0.0 0.0 0.0 0.0 0.0
0.0 0.0 0.0 0.0 0.0 0.0 0.0 0.0
0.0 0.0 0.0 0.0 0.0 0.0 0.0 0.0
0.0 0.0 0.0 0.0 0.0 0.0 0.0 0.0
0.0 0.0 0.0 0.0 0.0 0.0 0.0 0.0
0.0 0.0 0.0 0.0 0.0 0.0 0.0 0.0
0.0 0.0 0.0 0.0 0.0 0.0 0.0 0.0
0.0 0.0 0.0 0.0 0.0 0.0 0.0 0.0
0.0 0.0 0.0 0.0 0.0 0.0 0.0 0.0
0.0 0.0 0.0 0.0 0.0 0.0 0.0 0.0
0.0 0.0 0.0 0.0 0.0 0.0 0.0 0.0

network_body._body_endoder.seq_layers.2.weight f4 [128, 128]
00000000: d607 12bd 181c e7bd df36 6dbc 4380 573c
00000010: eaea 2d3c 1c1d 1e3e ebbf 063d 3d7e 033e
00000020: 8a75 4ebd c01e b03d 97aa 3fbe bcbf c3bb
00000030: 6eb5 98bd 80d9 33bc 1a3f 553c e5b6 213e
00000040: 7cda 253e 0b37 d73d 757c 3ebc 2bcb 3ebe
00000050: 323f 29bd 6c49 203e 2127 e03d 5fb2 8cbc
00000060: d906 523d b22c e13b d0c7 9bbc 5a7a 5f3d
00000070: 78a8 d2bc 31e4 903c a7ae a53d b882 02be
00000080: 49b3 a0ba 5f87 03be 1ac1 7a3c f8ef 663d
00000090: 5f8c 25bc 83b1 153c dab7 bebb bb9d 6bbd
000000a0: 9f61 6b3d 1492 e23d 8ed6 28bd 74d7 b43b
000000b0: 95ae 023e ef3c a9bd 67ec 863d e25b 54bc
000000c0: 5eb5 453c 10d5 9abd f7ed 82bd 04b5 9e3c
000000d0: 1662 95bd 9974 1c3d c5c2 0f3e 0258 a1bd
000000e0: 34d5 c93d 187f c3bd 5b85 70bd e92b 403e
000000f0: 20e8 c83c b785 0a3e f938 22be ca9a 26be
00000100: 8e61 a53b 1b22 db3d 7b9c 143d 3fce d53c
00000110: 26db 2bbd 1158 d63d e882 9a3d d5a2 dc3d
00000120: e2f9 1f3e 5ac4 07be 0ca1 8d3c e271 cdbc
00000130: 998f ddbc b427 f6bb 174b ac3c 3bf5 893d
00000140: ace2 8e3d 4d7b da3b b7bb f1bd 6352 aebc
00000150: ecc2 813c 88dd e63d a885 e6bb fd70 efbd
00000160: fdf6 163d 7376 94bd 5f36 e33d 231d 4cbd
00000170: 4917 9d3d 3250 9bbd 8b32 053e f8fc ff3d
00000180: b43a a43e 4859 173d 0f2c c5bd 71d6 a13b
00000190: 08bd 833d fbaa 8fbc 0ca0 243e f9c8 293e
000001a0: 5a34 7dbd ac08 003d 622c 76bd 24f0 383d
000001b0: bbeb ea3d dfc6 5b3d e915 bd3d 0804 4d3e
000001c0: fc2b b73c 88ce 633c 7ee8 013e 7204 2a3e
000001d0: ad44 463c 6ce2 8f3e 3bc3 f7bd 9802 293e
000001e0: a9f6 2b3d fb1f 94bd 988f 823c ceca ef3d
000001f0: bbef 593e 5c2e b53a 243d 8bbd 3a2c d8bd
00000200: 3c1d 163e 47d7 0dbd 37a9 b53d 7c7c a03d
00000210: 9585 a6bd e51a a4bd ec83 febd c936 143c
00000220: ea31 a43c 9fbc ce3c db83 ec3d 2ac7 a9bd
00000230: 6f72 a2bd 1058 29be 42de 1ebd 7ad6 903d
00000240: c80e 2abd 4177 8fbd 4c81 9c3c 465c babd
00000250: a8e1 0e3c 1b35 4f3d 988f 55bd ed03 b13d
00000260: 6f56 063c 5503 02bc 9576 b43d f37e 43bd
00000270: c7c6 5abd ca18 d3bd a46b 48bd ec41 5cbb
00000280: 5bf2 0bbd 6475 cb3d e9b3 2d3e f7d1 d93d
00000290: 8ca5 d1bb 173c 033e f894 3d3e 2187 89bc
000002a0: 7aa6 adbd 9dce a93d 624c 063d 31b5 7bbd
000002b0: d8e4 663d ca5b 93bd 7b07 8d3d 6898 313e
000002c0: e3d5 e63d be92 cc3d 5dd2 41bd f1c4 df3d
000002d0: af81 03bd e716 133e a548 98bd f056 19be
000002e0: 544a c93a 9111 1cbc 30c3 08bd bbca 4ebc
000002f0: 1a85 ee3d 5dc4 093e 7409 bd3d a3fd ba3c
00000300: 9ffc c33d 09e2 8ebd 6f1f 96be 1531 e0bd
00000310: a1f7 353c 67b1 4ebc b387 4f3e bc9a 0fbd
00000320: f74f d23b 27c0 d0bb 8f95 f0bd d615 a6bd
00000330: c95f 4c3c 5040 1a3d 0147 0b3e 161d d4bc
00000340: a5eb f9bd 4bdf 52bd 1ad3 02be c98a 993d
00000350: c2f7 b23b a98e 013e b4b0 99bd fd12 a4bd
00000360: d8ae a5bd 877f 2f3d d90c 91bd 24a3 ec3c
00000370: 645f dabd 1d4a 0a3d 6375 bebd d506 b8bd
00000380: 74b8 8d3d be38 e43c a88a cebd 2e87 79bd
00000390: 8e19 aabd 078f 963d 70f0 843c dfca 1fbc
000003a0: 49ae 4e3d e3a1 debd 55f3 ddbd da91 89bd
000003b0: a2cd 01bd 4ecf 84bd 3daf d13d 3b11 eebd
000003c0: 6c03 d63d 0794 a53d 5297 483e 557e d23c
000003d0: 4d5a 7b3d b4e0 b03d 25d7 6b3d 148c eabc
000003e0: 70fb 34bd a338 f7bc 1891 1ebd 851f 7ebd
000003f0: ec48 ad3d d8ee 38bd 18ac e53c b8c9 723c
-0.035652004 -0.11284655 -0.014478414 0.013153139 0.01061509 0.15440792 0.03289787 0.12841125
-0.050405063 0.08599615 -0.18717419 -0.0059737843 -0.0745648 -0.010977149 0.013015533 0.15792425
0.16196626 0.105085455 -0.011626353 -0.1863219 -0.041320033 0.15653008 0.10944963 -0.017174898
0.05127606 0.006871783 -0.019016176 0.054560043 -0.025715098 0.017686935 0.08089953 -0.12745178
-0.0012260462 -0.12844609 0.015304828 0.056381196 -0.010104268 0.00913656 -0.0058202567 -0.05752347
0.057466146 0.110630184 -0.04122024 0.005518848 0.1276191 -0.08263575 0.06588059 -0.01296136
0.012067167 -0.0756017 -0.063930444 0.019373424 -0.07294099 0.038197134 0.14039142 -0.07878114
0.098551184 -0.095457256 -0.058720928 0.1876675 0.024524748 0.1352757 -0.15842046 -0.16269985
0.00504703 0.106998645 0.036282044 0.026099322 -0.041957043 0.10466016 0.075445 0.10773245
0.15622666 -0.13258496 0.017288707 -0.025078718 -0.027046012 -0.007512057 0.0210319 0.06736227
0.06976828 0.0066675306 -0.11803382 -0.02127952 0.015840016 0.112727225 -0.007034976 -0.11691473
0.03685664 -0.07249155 0.11094355 -0.049832474 0.07670457 -0.075836554 0.13007562 0.12499422
0.32076037 0.03695038 -0.09627544 0.0049388935 0.06432539 -0.017537585 0.16076678 0.16580571
-0.061817504 0.03125827 -0.06010092 0.04515089 0.11470743 0.053656455 0.09232695 0.20021069
0.02235984 0.013904221 0.12686345 0.16603258 0.0121013345 0.28102434 -0.12097784 0.16504896
0.04198328 -0.07232662 0.015937611 0.11708604 0.21282856 0.001382302 -0.06798771 -0.105553105
0.1465959 -0.034629133 0.08870166 0.078362435 -0.081309475 -0.08012942 -0.12427506 0.009046265
0.020043332 0.025236426 0.11548587 -0.08289941 -0.07931983 -0.165375 -0.03878618 0.07072158
-0.041518003 -0.07005168 0.019104622 -0.09099631 0.008720793 0.050587755 -0.052138895 0.08643327
0.008199318 -0.007935365 0.0881168 -0.04772849 -0.053412225 -0.103074625 -0.04893078 -0.0033608628
-0.034166675 0.099345 0.16963162 0.10635751 -0.0063979086 0.12815891 0.18513858 -0.016788067
-0.084790185 0.082913615 0.032787688 -0.061452094 0.056370586 -0.07195242 0.068861924 0.17343295
0.112712644 0.09988926 -0.04731976 0.109262355 -0.032106098 0.14364205 -0.07435731 -0.1497457
0.0015357235 -0.0095256725 -0.03338927 -0.012621577 0.11646481 0.13453813 0.09230319 0.022826022
0.09569668 -0.069767065 -0.29320857 -0.10946862 0.011106403 -0.012615538 0.20266609 -0.035059676
0.006418224 -0.0063705626 -0.11747276 -0.081096336 0.012474009 0.03765899 0.13601305 -0.025892776
-0.12203149 -0.05148248 -0.12775841 0.07497174 0.005461664 0.12652077 -0.075044066 -0.08011434
-0.080899894 0.04284623 -0.070825286 0.028886385 -0.106627256 0.033762086 -0.092997335 -0.08985678
0.06919947 0.027859088 -0.1008504 -0.060919933 -0.083056554 0.07351499 0.01622793 -0.009752958
0.05045918 -0.10870721 -0.108374275 -0.06717272 -0.031690247 -0.06484853 0.10238502 -0.1162438
0.104498714 0.080848746 0.19588974 0.025695005 0.061365414 0.08636609 0.057578225 -0.028631248
-0.044185102 -0.030178374 -0.03871259 -0.062041778 0.08461174 -0.045149654 0.028036162 0.014818601

network_body._body_endoder.seq_layers.2.bias f4 [128]
00000000: 0000 0000 0000 0000 0000 0000 0000 0000
00000010: 0000 0000 0000 0000 0000 0000 0000 0000
00000020: 0000 0000 0000 0000 0000 0000 0000 0000
00000030: 0000 0000 0000 0000 0000 0000 0000 0000
00000040: 0000 0000 0000 0000 0000 0000 0000 0000
00000050: 0000 0000 0000 0000 0000 0000 0000 0000
00000060: 0000 0000 0000 0000 0000 0000 0000 0000
00000070: 0000 0000 0000 0000 0000 0000 0000 0000
00000080: 0000 0000 0000 0000 0000 0000 0000 0000
00000090: 0000 0000 0000 0000 0000 0000 0000 0000
000000a0: 0000 0000 0000 0000 0000 0000 0000 0000
000000b0: 0000 0000 0000 0000 0000 0000 0000 0000
000000c0: 0000 0000 0000 0000 0000 0000 0000 0000
000000d0: 0000 0000 0000 0000 0000 0000 0000 0000
000000e0: 0000 0000 0000 0000 0000 0000 0000 0000
000000f0: 0000 0000 0000 0000 0000 0000 0000 0000
00000100: 0000 0000 0000 0000 0000 0000 0000 0000
00000110: 0000 0000 0000 0000 0000 0000 0000 0000
00000120: 0000 0000 0000 0000 0000 0000 0000 0000
00000130: 0000 0000 0000 0000 0000 0000 0000 0000
00000140: 0000 0000 0000 0000 0000 0000 0000 0000
00000150: 0000 0000 0000 0000 0000 0000 0000 0000
00000160: 0000 0000 0000 0000 0000 0000 0000 0000
00000170: 0000 0000 0000 0000 0000 0000 0000 0000
00000180: 0000 0000 0000 0000 0000 0000 0000 0000
00000190: 0000 0000 0000 0000 0000 0000 0000 0000
000001a0: 0000 0000 0000 0000 0000 0000 0000 0000
000001b0: 0000 0000 0000 0000 0000 0000 0000 0000
000001c0: 0000 0000 0000 0000 0000 0000 0000 0000
000001d0: 0000 0000 0000 0000 0000 0000 0000 0000
000001e0: 0000 0000 0000 0000 0000 0000 0000 0000
000001f0: 0000 0000 0000 0000 0000 0000 0000 0000
0.0 0.0 0.0 0.0 0.0 0.0 0.0 0.0
0.0 0.0 0.0 0.0 0.0 0.0 0.0 0.0
0.0 0.0 0.0 0.0 0.0 0.0 0.0 0.0
0.0 0.0 0.0 0.0 0.0 0.0 0.0 0.0
0.0 0.0 0.0 0.0 0.0 0.0 0.0 0.0
0.0 0.0 0.0 0.0 0.0 0.0 0.0 0.0
0.0 0.0 0.0 0.0 0.0 0.0 0.0 0.0
0.0 0.0 0.0 0.0 0.0 0.0 0.0 0.0
0.0 0.0 0.0 0.0 0.0 0.0 0.0 0.0
0.0 0.0 0.0 0.0 0.0 0.0 0.0 0.0
0.0 0.0 0.0 0.0 0.0 0.0 0.0 0.0
0.0 0.0 0.0 0.0 0.0 0.0 0.0 0.0
0.0 0.0 0.0 0.0 0.0 0.0 0.0 0.0
0.0 0.0 0.0 0.0 0.0 0.0 0.0 0.0
0.0 0.0 0.0 0.0 0.0 0.0 0.0 0.0
0.0 0.0 0.0 0.0 0.0 0.0 0.0 0.0

action_model._continuous_distribution.log_sigma f4 [1, 2]
00000000: 0000 0000 0000 0000
0.0 0.0

action_model._continuous_distribution.mu.weight f4 [2, 128]
00000000: cd86 a5bb cf0b da3b afe2 dbbc 896d 123d
00000010: f0c3 65bc 1f72 aa3c ad4e 40bc 4c52 09bc
00000020: 0536 a33c 45cf d53c d823 e13b 4984 11bc
00000030: 8886 fa3a 8b5c 7ebc 32de 26bd 3e1f 26ba
00000040: c56c efbb 535f bd3c cdf8 653c bbc2 03bb
00000050: 7317 a53c c38f c03b ab0b a23c a8d3 94b9
00000060: 98bf 3bbc 28e6 11bd 7f0f 6c3c fd47 24bc
00000070: 9236 3dbc f846 843b c7fe 343a 849e 49bc
00000080: 23ac 613b f7c7 6a3c cbe5 a7bc 958a 21bc
00000090: f286 d9bc 11e4 1c3a 557d 7f3b f7d8 2ebb
000000a0: 8f7a 4f3c 9a79 afbb de8e 47bb a967 893c
000000b0: 1990 8e3c 7d2d bb3c 3fbb b33c 6ba4 1a3c
000000c0: 37a2 0b3d 2a87 21bb 2b1e 5fbc b796 8f3c
000000d0: 337a 263b ab6a 05bb 3d93 d83a 4ff4 053d
000000e0: f460 a43b 7612 443a 4d84 08bc 9af7 a63c
000000f0: 482f ab3c 98ef ecbc ebdf 4c3c 105a 163c
00000100: be4e 8ebc edd4 f43c 0d8e e3bb a1e0 b7ba
00000110: 131d f7bb 107e e83c ac1f c73c 8802 0e3c
00000120: f5e2 313c 07d0 05bb 73b6 41bb 5e03 c33c
00000130: 037b d93c 8036 72bb bac6 463b 293b 953b
00000140: e452 253d 438b 74bc b23b 66ba 7218 673b
00000150: cd73 11bc 0cbd 963c 8390 9cbb 1a80 54ba
00000160: e943 95bc 0a9c da3b aba2 19bd 16d7 9ebc
00000170: 4aba a83b a004 80bc 888a a3bb bfb7 c3bc
00000180: 4f7e b1bb 2fc7 a73c 296a 133d 05ea e83b
00000190: e19e 1abd b0e7 9a3c faef 09bc 6ec2 ae3b
000001a0: 3d1e 513c b70e ca3b 8899 773b a8a5 6fbc
000001b0: 5e6d 3dbb c364 df3c 6f36 2dbb 5e72 453d
000001c0: adf5 1bbb 78fe d23c e098 28bc 339f 0d3c
000001d0: 92bc 3fbb b5d3 da3b 154f 7aba d885 e4bb
000001e0: 0a56 40bc f34d 0e3c 5701 d13c 933a 06bc
000001f0: 3bd8 843c 5a7c dc3c 5d7a d43c c46b 063c
00000200: 5af2 90bb d07d 60ba 86fe 0abb 271b 363c
00000210: 03f2 d63c a6db bbbb df0c 873a b8da a1bb
00000220: c23f 183b bd2b 463c 5784 5e3c 1333 bcbc
00000230: db5b 103d c8ea f3bc fa05 f03c ab6b e53c
00000240: 7a27 d13a 0f24 0f3c a546 6bba 0304 e73b
00000250: 9e08 463b b788 ef3c 8c18 32bc e7a6 113d
00000260: 77be 41bb 2ba6 24bc 4801 78bb dc50 02bb
00000270: a8ea 093c cb15 e53b e51c 863c 3f21 96bc
00000280: 99e9 85bb adf1 aa3c 1502 8b3c 8e67 09bc
00000290: 6378 dc3c 4d8c dabc 98ab 8b3c 8d4b dbba
000002a0: f584 b63c 13c3 1a3c 5329 77bb c385 2a3b
000002b0: d285 12bc 9bd1 eb3c 7986 8e3b 8bd2 3bbc
000002c0: 0f4d a63c e5f8 deba 4d3b 00bc a7d4 9a3c
000002d0: d260 d83a 775c 0f3c d63c 1abb 12d0 64bb
000002e0: 3e99 94bc ebed 2bbc f3f2 c63b d003 e13c
000002f0: 679d f8ba 62dc b2bc 214e 463c 2267 99bc
00000300: 6a9a d13c 9ffc 903c 1adf 02bd 9719 44bb
00000310: 6753 ef3a 5248 0f3c 3c42 aa3a 933a 03bc
00000320: 493c 9bbc 7bff a3ba 8391 573c a553 d1bb
00000330: 5219 fdba 3e5c aa3c 121e babb e0d5 883c
00000340: 1ba2 34ba 52ff 8b3c db44 cdbc bbcc 55bc
00000350: db4e 28bb 5d8c 46bb 9f17 c43b 2ddf 5ebb
00000360: 2b7a 643c a0ca 0abb cb7a 973c 0ca8 a23b
00000370: 43d7 873c 4a00 ea3b 9222 9abc 4875 bcba
00000380: 434b c83b b8ea e33b e459 8e3c c371 4cbc
00000390: e82e baba 1a2c 11ba 9aaa 7fbc deca 093d
000003a0: de29 433b bf6a 3fbc 4157 00bd 7107 ccbb
000003b0: 539b 77bc 65bc 64bc 3c84 b23c ec08 2fbc
000003c0: 5b9e 083c 5c2d 17bc 6c08 423c 4086 61bb
000003d0: eaeb 823c ad3e e63c 6725 07bd 321e 293c
000003e0: 8a31 d73a fa93 363c d79c 47bb e61c 92b9
000003f0: d68c b83b 4b04 68bc b0ae e3bc bf94 0fbd
-0.00505147 0.0066542397 -0.02684149 0.035748992 -0.014023766 0.02080637 -0.011737508 -0.0083814375
0.01992322 0.02609981 0.006870728 -0.008881637 0.001911358 -0.015524994 -0.040739246 -0.0006337053
-0.0073066675 0.023116743 0.0140363695 -0.0020105082 0.020152783 0.0058765127 0.019780954 -0.00028386456
-0.011459254 -0.035619885 0.014407991 -0.010026929 -0.011548655 0.0040367804 0.000690442 -0.0123058595
0.0034434877 0.014329902 -0.020495316 -0.009859701 -0.026553605 0.0005984912 0.0038984616 -0.0026679614
0.012663498 -0.005355072 -0.0030450146 0.016773062 0.017402695 0.022848839 0.021939872 0.009438614
0.034090247 -0.0024647214 -0.013618032 0.017527921 0.0025402426 -0.0020357769 0.0016523373 0.032703694
0.0050164405 0.00074795575 -0.008332324 0.020381738 0.020896569 -0.028922841 0.012504558 0.009176746
-0.017371532 0.029886687 -0.006944424 -0.0014028737 -0.0075413077 0.028380424 0.024307095 0.008667596
0.010857333 -0.0020418183 -0.002955821 0.023805317 0.026547914 -0.0036958754 0.0030330853 0.0045541716
0.040362254 -0.014925781 -0.0008782699 0.0035262373 -0.008877707 0.018400691 -0.0047779693 -0.0008106247
-0.018220859 0.0066714333 -0.037508648 -0.01938967 0.0051491605 -0.015627205 -0.0049908794 -0.023891328
-0.0054166685 0.02048072 0.035989914 0.0071079754 -0.037749175 0.018909305 -0.008419031 0.0053332364
0.012763557 0.006166305 0.003778072 -0.014626898 -0.00289043 0.027269727 -0.002643015 0.048204772
-0.0023797557 0.025756106 -0.0102903545 0.008643913 -0.0029256684 0.0066780695 -0.00095485273 -0.006973963
-0.011739263 0.008685577 0.025513334 -0.008192676 0.016216388 0.026914764 0.025937254 0.008204404
-0.004423422 -0.00085636694 -0.0021208837 0.011114872 0.026238447 -0.0057329712 0.0010303519 -0.0049394034
0.0023231362 0.012095389 0.013581357 -0.022973573 0.03524385 -0.029775038 0.029299725 0.028005442
0.00159572 0.008736624 -0.00089750654 0.007050039 0.0030217539 0.029239995 -0.01087011 0.03555956
-0.0029562989 -0.010049383 -0.003784256 -0.0019884622 0.008417763 0.0069911233 0.0163712 -0.0183264
-0.004086685 0.020867193 0.016968766 -0.008386506 0.026912874 -0.026678229 0.017049596 -0.001673089
0.022280196 0.009445923 -0.003771384 0.002601967 -0.008943038 0.028786471 0.0043495265 -0.011463772
0.020300416 -0.0017011432 -0.007826638 0.018900229 0.0016508347 0.008750073 -0.0023534796 -0.0034914059
-0.018139478 -0.010493736 0.0060714423 0.027467638 -0.0018967808 -0.021833602 0.012103588 -0.018725935
0.025586326 0.017698584 -0.031951047 -0.002992248 0.0018259109 0.00874527 0.001298971 -0.008009571
-0.018949645 -0.0012512052 0.013157251 -0.006388145 -0.0019309914 0.020795938 -0.005679854 0.016703546
-0.00068906107 0.01708952 -0.025057247 -0.0130493 -0.0025681767 -0.0030296065 0.005984261 -0.0034007535
0.013945143 -0.0021177903 0.01849117 0.0049638804 0.016582137 0.0071411477 -0.018815313 -0.0014378214
0.0061124875 0.006955471 0.017376848 -0.012478295 -0.0014204653 -0.00055378827 -0.015604639 0.033640735
0.0029779593 -0.011683165 -0.03133321 -0.006226473 -0.015112716 -0.013960932 0.02179157 -0.0106832795
0.008338536 -0.009227123 0.011842828 -0.0034412295 0.015981633 0.028106058 -0.032994654 0.0103221405
0.0016417962 0.011143679 -0.0030458474 -0.0002786882 0.0056320233 -0.01416118 -0.027793258 -0.035053965

action_model._continuous_distribution.mu.bias f4 [2]
00000000: 0000 0000 0000 0000
0.0 0.0

network_body._body_endoder.seq_layers.0.weight f4 [128, 75]
00000000: 2f0d 89bd 8000 c23d f805 00bd 4e42 8a3b
00000010: 8d12 3abd 093d 3f3d f942 a43c 9bb3 953d
00000020: 75ec 753c b116 5dbb d9ef 20bd b877 44be
00000030: e99d 083e daef 453e f7a8 833c 58f7 eabc
00000040: bf3f cc3b b7c7 dabd cbfa c0bd fe14 2bbe
00000050: a464 efbd 36cb 60bd ed36 2abe 4c7e 493d
00000060: 9b1f 06be fd1b 3c3e e691 1dbd b0ed 8ebd
00000070: b9f3 9cbc a7a1 4abe 21cc f7bd 830f 82bc
00000080: 1f62 fbbd f867 6b3e 70ba 403e c4dd 693d
00000090: ae05 8dbe 12f9 89bd 262e 2c3e 8ee6 253d
000000a0: 9a8f 0d3e 3bed 12bd 60f5 153d 86b1 c73d
000000b0: ce53 453e f781 143c ebd6 703e e9cd 21be
000000c0: 10af 03be c22b 92bc 9394 31bc 10fc 01be
000000d0: d01f b9bd a373 493e 7dd3 973d 5d99 1abe
000000e0: 1a69 71be ca49 26bd 1c9d b63d 9ed0 f73d
000000f0: 771f adbd 19c5 c5bd 531e 11ba 41b2 a63c
00000100: 37d9 003e 48dd 173e 17f5 0dbe da86 8c3c
00000110: 749e 7a3d 63a2 8b3d 5807 12be 498e 34be
00000120: a99f 823c 0e89 e1bd c6e3 c03e 65e8 af3c
00000130: 1f79 4ebe 3f75 33bd 2496 33be 375c c0bd
00000140: fd31 1fbd 57f6 a1bd b523 4d3c a172 bd3d
00000150: a660 873d bdf9 903d 0e3d 86bd afd7 47be
00000160: 53d5 203c cc17 e53c ed96 083d 9b94 eabd
00000170: eee3 22be 13e6 053e c350 6b3b d9bb 743d
00000180: 152e 1bbe ec70 da3b e423 ab3d 2626 863c
00000190: 6571 a9bd 7ddc 1dbe 87a5 01be d136 d43b
000001a0: d9dd f2bd 6b20 39be e2fb 5fbd 7893 04bd
000001b0: 26f6 a0bc 8322 123d 86e3 d13d 6972 e13d
000001c0: 7299 9abd 8b3e 0e3e 21f3 303e 4006 3e3d
000001d0: 908b c1bd 7d19 843d ee68 b7bc 22c1 833d
000001e0: dbe6 3a3d ac31 15bd c1fc 253d 5876 e2bd
000001f0: 2126 97bd 80e3 7bbd 0f1f 73bd c24a 89be
00000200: b168 183e f39d 0f3d 521f ad3d 91ea 133b
00000210: b8c6 c2bc bb5c d4bd 6d53 e4bd 252e 973c
00000220: 9cd3 053e 9bee e9bc 7566 4dbe 88bc 693d
00000230: cd08 0a3e 58ac 17bc 364a 183e 4e56 803e
00000240: 906b c9bd 8a6a 873e ca52 2fbd 19ba 07be
00000250: ba0c 1fbe 55f8 eb3c e977 2a3d 1e07 76bd
00000260: 716b b4bd 3753 483e 4a91 d2bd 386a f23c
00000270: 30a1 cdbc a5dc 6abe 758f acbd c37c ff3d
00000280: 6667 ecbd dab9 01bd aa6c 3d3e c025 293e
00000290: 985a 143e eed2 843d 57b5 883d 4fda b0bd
000002a0: 0a6b cbbd fc23 ae3d 6edf 03be 3ebb 18bd
000002b0: 6112 dd3d 3245 183e 4b1d cfbc 4be1 21bd
000002c0: 3376 cc3b 5c1a 1b3d 39c3 173d 05f7 2c3e
000002d0: c300 19be 2e4b 12be 36b1 663d e565 33bb
000002e0: bf24 ed3d d88b 043d 717d 853c 94bc ad3d
000002f0: 5799 33be f88d e13c d856 dc3c 2ddf 0e3e
00000300: 00aa b3bd 05fd 15bd b25b ffbb 52e9 37bd
00000310: 71a8 5f3d 9f96 193d b570 babd 3dcc 2c3d
00000320: 23c8 aa3d 4189 9e3d 2013 683e 616a 13bd
00000330: dff2 4bbd cc6d 42be a6cb 793d 0679 f3bd
00000340: d89b 803d 939f af3e 4c16 59bd 508a 23bd
00000350: df19 3d3c 4092 84bd 3254 e13c 5661 e03d
00000360: c7c3 1abe c087 16bd b97f a13d f2f1 ac3d
00000370: df7d e13c 09ab 3fbd 1e22 d8bd 08e4 02bd
00000380: 768e 0cbe 14d2 8f3d 7dad ecbd 4ff7 6f3e
00000390: 308c 15be 9d47 d7bd 5f35 b63d ff64 c23d
000003a0: dd8c c3bb ee46 71bd dbea c9bb 3d46 0f3e
000003b0: 486f 5abd 98de 5d3c dd2a 50be 31fb 01be
000003c0: a402 e8bc e7f3 4a3d 5bcd 7cbd 16e8 8cbd
000003d0: 4af9 3bbe 05a6 2cbe cc4c 0cbe 4d23 033d
000003e0: d5f3 b03c 8591 623e 4678 b23d f169 e4bd
000003f0: f3ba e63d a616 84bc c978 963e 9cf9 0b3e
-0.06691968 0.094727516 -0.031255692 0.00421933 -0.045427848 0.046689067 0.020051466 0.07309648
0.015009989 -0.003373545 -0.039291237 -0.19186294 0.13341488 0.19329777 0.01607178 -0.028682396
0.006233185 -0.10682624 -0.09422835 -0.16707227 -0.116891176 -0.054881297 -0.16622515 0.04919271
-0.13097994 0.18370052 -0.038469218 -0.06978929 -0.019159185 -0.19788228 -0.120994814 -0.015876537
-0.122745745 0.2298888 0.1882112 0.057096258 -0.27543396 -0.067369595 0.16814479 0.040503077
0.13824311 -0.03587077 0.03661096 0.09750657 0.1927025 0.009064189 0.23519485 -0.15801205
-0.1285975 -0.017843131 -0.0108386455 -0.1269381 -0.09039271 0.19673018 0.07413385 -0.15097566
-0.2357525 -0.040597714 0.08916685 0.121003374 -0.08453267 -0.09656734 -0.00055358297 0.02034867
0.12582861 0.14830506 -0.13863026 0.017154146 0.06118627 0.06818082 -0.14260614 -0.17632402
0.015945273 -0.11012469 0.37673777 0.021473119 -0.20163392 -0.043812986 -0.17537743 -0.093925886
-0.038866032 -0.07908314 0.01252072 0.09250379 0.06610231 0.07078884 -0.06554614 -0.1951587
0.009816485 0.027965449 0.03334706 -0.114541255 -0.15907261 0.13076048 0.0035906292 0.059749458
-0.15154298 0.0066662934 0.08356455 0.016375612 -0.082735814 -0.15416141 -0.126608 0.006476261
-0.1185872 -0.18078773 -0.054683574 -0.0323672 -0.019648623 0.035677444 0.10248475 0.1100815
-0.075487986 0.13891046 0.17280246 0.04639268 -0.094504476 0.06450174 -0.022388902 0.064333215
0.045630317 -0.036424324 0.040524248 -0.110577285 -0.073803194 -0.061496258 -0.05935579 -0.26814848
0.14883687 0.03506274 0.084532395 0.0022570232 -0.023776397 -0.103692494 -0.11148725 0.01845462
0.13069004 -0.028556159 -0.20058616 0.057064563 0.1347992 -0.009257399 0.14872059 0.25065845
-0.09834969 0.2644847 -0.042803563 -0.13254584 -0.15532199 0.028804937 0.04161826 -0.06006538
-0.08809555 0.19562994 -0.10281618 0.029591665 -0.025101274 -0.22935732 -0.084258 0.12474968
-0.11543159 -0.031671382 0.18498483 0.16518307 0.14487684 0.06485544 0.06675213 -0.08635389
-0.099325255 0.08502957 -0.128782 -0.037287943 0.10794521 0.14870146 -0.025282523 -0.039521497
0.0062396764 0.037866935 0.037051413 0.16891105 -0.14941697 -0.14286491 0.056321345 -0.0027373966
0.115792744 0.032359928 0.016295167 0.08483234 -0.17538963 0.027533516 0.02689688 0.13952322
-0.08772659 -0.03661825 -0.0077929134 -0.044900246 0.054603998 0.03749716 -0.091035284 0.042186964
0.08338954 0.07741023 0.22663546 -0.035990123 -0.049792167 -0.18987197 0.06098523 -0.11888318
0.06279725 0.34301433 -0.05299978 -0.039926827 0.011541813 -0.064732075 0.027505968 0.10956065
-0.15113746 -0.036750555 0.07885689 0.08444585 0.02752584 -0.04679397 -0.10553382 -0.03195575
-0.1372622 0.07022491 -0.11556528 0.23434184 -0.14604259 -0.10511706 0.088968985 0.0949192
-0.00596772 -0.058905534 -0.00616203 0.13991638 -0.053328782 0.01354184 -0.20328851 -0.12693478
-0.028321572 0.04954901 -0.06171928 -0.068802044 -0.18356815 -0.16860206 -0.1370117 0.032016087
0.021600643 0.22125824 0.087143466 -0.11153019 0.112661265 -0.01612408 0.29389027 0.13669437

network_body._body_endoder.seq_layers.0.bias f4 [128]
00000000: 0000 0000 0000 0000 0000 0000 0000 0000
00000010: 0000 0000 0000 0000 0000 0000 0000 0000
00000020: 0000 0000 0000 0000 0000 0000 0000 0000
00000030: 0000 0000 0000 0000 0000 0000 0000 0000
00000040: 0000 0000 0000 0000 0000 0000 0000 0000
00000050: 0000 0000 0000 0000 0000 0000 0000 0000
00000060: 0000 0000 0000 0000 0000 0000 0000 0000
00000070: 0000 0000 0000 0000 0000 0000 0000 0000
00000080: 0000 0000 0000 0000 0000 0000 0000 0000
00000090: 0000 0000 0000 0000 0000 0000 0000 0000
000000a0: 0000 0000 0000 0000 0000 0000 0000 0000
000000b0: 0000 0000 0000 0000 0000 0000 0000 0000
000000c0: 0000 0000 0000 0000 0000 0000 0000 0000
000000d0: 0000 0000 0000 0000 0000 0000 0000 0000
000000e0: 0000 0000 0000 0000 0000 0000 0000 0000
000000f0: 0000 0000 0000 0000 0000 0000 0000 0000
00000100: 0000 0000 0000 0000 0000 0000 0000 0000
00000110: 0000 0000 0000 0000 0000 0000 0000 0000
00000120: 0000 0000 0000 0000 0000 0000 0000 0000
00000130: 0000 0000 0000 0000 0000 0000 0000 0000
00000140: 0000 0000 0000 0000 0000 0000 0000 0000
00000150: 0000 0000 0000 0000 0000 0000 0000 0000
00000160: 0000 0000 0000 0000 0000 0000 0000 0000
00000170: 0000 0000 0000 0000 0000 0000 0000 0000
00000180: 0000 0000 0000 0000 0000 0000 0000 0000
00000190: 0000 0000 0000 0000 0000 0000 0000 0000
000001a0: 0000 0000 0000 0000 0000 0000 0000 0000
000001b0: 0000 0000 0000 0000 0000 0000 0000 0000
000001c0: 0000 0000 0000 0000 0000 0000 0000 0000
000001d0: 0000 0000 0000 0000 0000 0000 0000 0000
000001e0: 0000 0000 0000 0000 0000 0000 0000 0000
000001f0: 0000 0000 0000 0000 0000 0000 0000 0000
0.0 0.0 0.0 0.0 0.0 0.0 0.0 0.0
0.0 0.0 0.0 0.0 0.0 0.0 0.0 0.0
0.0 0.0 0.0 0.0 0.0 0.0 0.0 0.0
0.0 0.0 0.0 0.0 0.0 0.0 0.0 0.0
0.0 0.0 0.0 0.0 0.0 0.0 0.0 0.0
0.0 0.0 0.0 0.0 0.0 0.0 0.0 0.0
0.0 0.0 0.0 0.0 0.0 0.0 0.0 0.0
0.0 0.0 0.0 0.0 0.0 0.0 0.0 0.0
0.0 0.0 0.0 0.0 0.0 0.0 0.0 0.0
0.0 0.0 0.0 0.0 0.0 0.0 0.0 0.0
0.0 0.0 0.0 0.0 0.0 0.0 0.0 0.0
0.0 0.0 0.0 0.0 0.0 0.0 0.0 0.0
0.0 0.0 0.0 0.0 0.0 0.0 0.0 0.0
0.0 0.0 0.0 0.0 0.0 0.0 0.0 0.0
0.0 0.0 0.0 0.0 0.0 0.0 0.0 0.0
0.0 0.0 0.0 0.0 0.0 0.0 0.0 0.0

network_body._body_endoder.seq_layers.2.weight f4 [128, 128]
00000000: 15a4 bcbd 5e30 26bd 0fc7 efbd c552 86bd
00000010: a032 61bd 0eba ecbd d413 543d 086e 9bbd
00000020: 0ef7 dbbd 188c af3c b507 9e3d 0387 17bc
00000030: 1bdf 1dbd 4f94 b83c 5b27 953d 531d 573c
00000040: 7fea 96bd 2084 39be 237a b6bc cd33 64be
00000050: c0e2 963b cf4b d7b7 0c79 cbbc 5c79 ffbd
00000060: dbd4 ddbd 27f4 bdbb 6eba 583d c7c0 95bd
00000070: b562 4a3d e19a 5cbe 998e a6bd ce09 b73c
00000080: a53f 823d cb3c ed3c 8c9f 383c ca47 3c3c
00000090: c353 65bd 55d7 4dbd a4f6 d73c 8e8b 63bc
000000a0: 2c28 8f3d 19b1 85bd 1087 21be 27af b93d
000000b0: 87f4 813d f542 e4bc 510b 043e a94a 71bd
000000c0: 3adb 83bd 4214 7bbd 30ea d03d 7354 c9bd
000000d0: 2e8b d1bd ca11 843d 5b89 35bc 2bba 92bd
000000e0: a208 dc3d f182 e53c f8c4 0abe 70e4 c8bd
000000f0: 836b c83c d4ac 8d3d bfb8 c03d 3827 30bd
00000100: 315d 533d b383 27bd 0e45 0ab9 df7f a1bc
00000110: b9f4 16bd fcae 173d 631a 63bd 1beb 8d3c
00000120: be4e 113e 02ca fcbd 707d 3d3e 2862 cbbd
00000130: b1e5 d1bc b342 393e edda a23c 47c6 e63c
00000140: 4004 873d fce4 34bd 463a d33d ee0d 7bbd
00000150: cb93 263c bb32 03be 7476 c4bb dd8e 97bc
00000160: 02f8 cb3c f2fd 9ebd c2ef c53c 7d4f 183e
00000170: cd8c c8bd 2e9a 943d 8b97 853d 308b fcbd
00000180: 5ec6 90bd c37d 023d 6c2b cfbd 8cff e5bc
00000190: b418 9abd 1065 8cbd 918e 693e 3538 c1bc
000001a0: 64cd cb3d 49ef 7e3d 9f49 c6bc 26f0 933d
000001b0: d77e 87bd 0e33 ef3d 4687 273e ddb8 cebd
000001c0: fe09 af3d d115 913d f7ab 2cbe 4ab6 3a3e
000001d0: 8821 773c 03e0 be3d 6187 02be 0d35 f33d
000001e0: a8a2 483d 3fd4 9c3d 78d3 a23d 4967 3e3d
000001f0: 4f07 95bb d5ed 1c3e 3cc9 b83d 68a4 153e
00000200: fe45 afbc f421 62bc 0285 4b3e c7c9 5c3e
00000210: 70fd f1bd 5250 78bc 3f04 13bd c502 c1bb
00000220: fe90 423d 2a4a b33d 5329 a63d 8155 57bd
00000230: 90b6 093d 9a89 14be 894e 013b 9b94 303c
00000240: 714f 64bd b9b5 0d3e 6e17 d2bd 119d df3d
00000250: f608 c9bd 7fde 923d 605c 18bd 8409 56bd
00000260: 093d d03d 327b dabd 9d9a a3bd 8be6 063c
00000270: 8de6 2cbd a3ae fdbd 6918 073d 4bef 0cbe
00000280: 71b3 bc3c 98a4 c9bd 9d25 ac3b d22c 0a3e
00000290: 8a17 9abc cb31 13bd 52ac 1abb 7e0b d63d
000002a0: 4214 3fbe a58e 7b3e debf c8bd 7adf d43d
000002b0: 33cc 823c 160f 1fbe 5b95 a1bd dbae 82bd
000002c0: e10b 1cbe 1dd5 7cbd 8c26 a13d 8a11 4c3d
000002d0: 0983 e03d d465 9a3c 38f2 3abe b66f b1bd
000002e0: 3964 0ebe 89f7 df3d 14d2 bb3d fe96 433b
000002f0: 60af 7dbd 94df 6ebc c4fa 69bd 9f8f 95bc
00000300: b6b2 a83d f4b3 62bd 1dac debc 109f 583d
00000310: 363b e33d 6dd5 a13c 91a9 19be ed12 5c3d
00000320: 7cb0 483b 9715 1c3e 39ea cc39 8d8a 893e
00000330: b8d0 073d 0f3b ffbc bf98 e4bc 769b 073e
00000340: 6607 3bbd cab9 7bbd b246 69bd d601 673d
00000350: 0c04 d63d abad 90bd ba38 b63d c38f 7d3c
00000360: ebd7 303d ceb7 df3c 4f2a a2bc 48d4 35bb
00000370: 38c8 9bbc 0ca8 603d 2f9c 85bc 6d45 41be
00000380: 2b95 393e 622e bcbd 7584 223e e0f2 81bd
00000390: 9559 afbc e704 503c 2f4d b7bd 9959 b63b
000003a0: 3050 21be 4545 3c3e 793d aa3d 74c6 6d3d
000003b0: b429 1abd 0b65 e0bd a757 aa3d 0e55 40be
000003c0: fa8d 8dbc d957 293c 7b00 913d e376 ec3d
000003d0: 0380 d73d 4e6d f3b9 bc29 a7bc 7bd6 80bd
000003e0: 459b 99bd 685b 9e3c 1442 07bd 82e3 3d3e
000003f0: 7ccd dd3d f628 843d bbec 083e d4c6 da3b
-0.09210984 -0.04057347 -0.11707889 -0.06558756 -0.05497992 -0.115589246 0.051776722 -0.07589346
-0.10740481 0.021429107 0.07716314 -0.009248498 -0.038542848 0.022531657 0.07282897 0.01312955
-0.07368945 -0.18116808 -0.022275036 -0.22285385 0.0046046674 -2.5665298e-05 -0.024837993 -0.12474319
-0.108316146 -0.0057969275 0.05291217 -0.0731216 0.04941054 -0.21543457 -0.08132667 0.022343542
0.063597955 0.028959652 0.011268508 0.011491725 -0.055988085 -0.050254185 0.026362725 -0.013888253
0.06990084 -0.06527919 -0.15774179 0.09066611 0.06345468 -0.027863959 0.12894942 -0.058909092
-0.064382985 -0.061298616 0.10200918 -0.098305605 -0.102316245 0.064487055 -0.011080111 -0.07164415
0.10743834 0.02801654 -0.135517 -0.09809196 0.024465328 0.0691773 0.094102375 -0.043006152
0.051602546 -0.040897083 -0.0001318643 -0.019714294 -0.03685448 0.037032112 -0.055445086 0.017324021
0.14190194 -0.123432174 0.18504882 -0.09930831 -0.02562222 0.1809185 0.019879783 0.028170718
0.065926075 -0.04416369 0.10313849 -0.06129258 0.0101670725 -0.12812321 -0.005995566 -0.01850074
0.024898533 -0.0776328 0.024162177 0.14874072 -0.097924806 0.0725597 0.06523045 -0.123312354
-0.070690855 0.031858217 -0.10115704 -0.028075956 -0.07524243 -0.06855214 0.22808291 -0.023586372
0.099512845 0.06223992 -0.024205027 0.07223539 -0.0661599 0.1167966 0.16360196 -0.100938536
0.08546828 0.07084239 -0.16862474 0.182336 0.015083678 0.093200706 -0.12746955 0.11875353
0.048983246 0.0765767 0.07950491 0.04648522 -0.0045479904 0.153251 0.090227574 0.14613497
-0.02139568 -0.01380204 0.19874957 0.21561347 -0.118159175 -0.015155869 -0.03589272 -0.0058902227
0.047501557 0.0875438 0.08113351 -0.052571777 0.03362137 -0.14505616 0.0019730648 0.010777618
-0.055739824 0.13838853 -0.10258375 0.1091863 -0.09816162 0.07171344 -0.03719747 -0.05225517
0.101678915 -0.10668029 -0.079884745 0.008233677 -0.042212058 -0.12386825 0.032982264 -0.13763158
0.023034783 -0.09845847 0.0052535073 0.1349366 -0.018810052 -0.03593616 -0.0023601246 0.10451411
-0.18660071 0.24566133 -0.09802221 0.10394187 0.01596651 -0.15533099 -0.078898154 -0.06381007
-0.15238906 -0.06172668 0.0786868 0.049821414 0.10962493 0.018847384 -0.18256462 -0.08663885
-0.1390542 0.109358855 0.091709286 0.0029844637 -0.06193483 -0.014579672 -0.057123914 -0.01825696
0.082372114 -0.055347398 -0.02718168 0.05288607 0.11095278 0.01975509 -0.1500609 0.053728987
0.003062277 0.15242611 0.00039084422 0.26863518 0.033158034 -0.031156091 -0.027904866 0.13242897
-0.045661353 -0.06145648 -0.056952186 0.056398235 0.10449991 -0.070643745 0.088975385 0.01547617
0.043174665 0.027309325 -0.019795565 -0.0027744938 -0.01901637 0.054847762 -0.016309826 -0.1887414
0.1812331 -0.09188534 0.15870841 -0.06345153 -0.02140502 0.012696481 -0.089502685 0.00556488
-0.15753245 0.18385799 0.08312506 0.058050588 -0.037637427 -0.109567724 0.083174996 -0.18782446
-0.017279614 0.010335886 0.0708017 0.11546113 0.10522463 -0.0004643001 -0.020405643 -0.06290909
-0.075003184 0.019330695 -0.033022 0.18543819 0.10830209 0.06453125 0.13371556 0.006676534

network_body._body_endoder.seq_layers.2.bias f4 [128]
00000000: 0000 0000 0000 0000 0000 0000 0000 0000
00000010: 0000 0000 0000 0000 0000 0000 0000 0000
00000020: 0000 0000 0000 0000 0000 0000 0000 0000
00000030: 0000 0000 0000 0000 0000 0000 0000 0000
00000040: 0000 0000 0000 0000 0000 0000 0000 0000
00000050: 0000 0000 0000 0000 0000 0000 0000 0000
00000060: 0000 0000 0000 0000 0000 0000 0000 0000
00000070: 0000 0000 0000 0000 0000 0000 0000 0000
00000080: 0000 0000 0000 0000 0000 0000 0000 0000
00000090: 0000 0000 0000 0000 0000 0000 0000 0000
000000a0: 0000 0000 0000 0000 0000 0000 0000 0000
000000b0: 0000 0000 0000 0000 0000 0000 0000 0000
000000c0: 0000 0000 0000 0000 0000 0000 0000 0000
000000d0: 0000 0000 0000 0000 0000 0000 0000 0000
000000e0: 0000 0000 0000 0000 0000 0000 0000 0000
000000f0: 0000 0000 0000 0000 0000 0000 0000 0000
00000100: 0000 0000 0000 0000 0000 0000 0000 0000
00000110: 0000 0000 0000 0000 0000 0000 0000 0000
00000120: 0000 0000 0000 0000 0000 0000 0000 0000
00000130: 0000 0000 0000 0000 0000 0000 0000 0000
00000140: 0000 0000 0000 0000 0000 0000 0000 0000
00000150: 0000 0000 0000 0000 0000 0000 0000 0000
00000160: 0000 0000 0000 0000 0000 0000 0000 0000
00000170: 0000 0000 0000 0000 0000 0000 0000 0000
00000180: 0000 0000 0000 0000 0000 0000 0000 0000
00000190: 0000 0000 0000 0000 0000 0000 0000 0000
000001a0: 0000 0000 0000 0000 0000 0000 0000 0000
000001b0: 0000 0000 0000 0000 0000 0000 0000 0000
000001c0: 0000 0000 0000 0000 0000 0000 0000 0000
000001d0: 0000 0000 0000 0000 0000 0000 0000 0000
000001e0: 0000 0000 0000 0000 0000 0000 0000 0000
000001f0: 0000 0000 0000 0000 0000 0000 0000 0000
0.0 0.0 0.0 0.0 0.0 0.0 0.0 0.0
0.0 0.0 0.0 0.0 0.0 0.0 0.0 0.0
0.0 0.0 0.0 0.0 0.0 0.0 0.0 0.0
0.0 0.0 0.0 0.0 0.0 0.0 0.0 0.0
0.0 0.0 0.0 0.0 0.0 0.0 0.0 0.0
0.0 0.0 0.0 0.0 0.0 0.0 0.0 0.0
0.0 0.0 0.0 0.0 0.0 0.0 0.0 0.0
0.0 0.0 0.0 0.0 0.0 0.0 0.0 0.0
0.0 0.0 0.0 0.0 0.0 0.0 0.0 0.0
0.0 0.0 0.0 0.0 0.0 0.0 0.0 0.0
0.0 0.0 0.0 0.0 0.0 0.0 0.0 0.0
0.0 0.0 0.0 0.0 0.0 0.0 0.0 0.0
0.0 0.0 0.0 0.0 0.0 0.0 0.0 0.0
0.0 0.0 0.0 0.0 0.0 0.0 0.0 0.0
0.0 0.0 0.0 0.0 0.0 0.0 0.0 0.0
0.0 0.0 0.0 0.0 0.0 0.0 0.0 0.0

value_heads.value_heads.extrinsic.weight f4 [1, 128]
00000000: 798d 553e 4027 0f3e f12d 163e 0d60 5abe
00000010: 45bb b0bd 5bc1 f93d bcde 96bc 1f6d 69bd
00000020: c177 ef3d 536d 203e c44f 5cbe 0247 b9bd
00000030: 07f3 953d 861b 83bd 4e51 0e3e 98a7 d43c
00000040: 2a02 553e 9dd1 263e 7d34 1abe d61a f2bd
00000050: dca9 303e e697 2fbe 6f4b e2bb 53b3 04be
00000060: ca2e 75bd 2773 e3bd 29e3 f63d b835 29bd
00000070: c38f 49be 5f84 a63d f0eb 22bc ec0c 983d
00000080: d711 c4bc c340 7c3d fc94 9f3c 1263 02bd
00000090: 922c 3d3e 7228 abbc 1d26 d5bd b323 9e3d
000000a0: 353c 3fbe 93f6 1f3c 903c 1cbe c2ea 96bb
000000b0: 2396 6c3d c906 033e 6d44 ec3d 79d8 d83d
000000c0: f22e 9cbd e7d4 30be ea40 0d3d a82d 34bd
000000d0: 909f 12be 2d6c 9b3d 7818 e53c c50e 58be
000000e0: 15d4 a8bd 9838 dc3d 79df af3d cc63 5bbe
000000f0: 2d37 44bd a58f 303d 079c 2d3e d34d 1bbd
00000100: e11a 80bd efc0 30be b429 e33d f0cd 9c3d
00000110: 378d a6bd 46e1 f63d 19a8 2e3e d3ab 1e3d
00000120: 0ba2 25be 0b5b 473d a80c 53be a902 39be
00000130: 3989 5fbd 63ba ad3d be4b 84bd 5658 313e
00000140: 07c4 8fbd 73ed 273d c5b9 aabd c7f3 20be
00000150: 225d f6bd 9560 293e f6dc 27be 88d2 1ebe
00000160: e5c3 62bd 1a2e f23d ffa6 b43d e4e1 4ebe
00000170: 8bac a9bd 0377 7a3d 1922 183d 03bb 70bd
00000180: fcd6 313e 6d63 01be 101a 073e 48ff 923d
00000190: b5c9 c4bd b222 4d3e ea36 0cbe fc79 30be
000001a0: 46dd 043e 0d77 bfbd d120 083e 2e21 52be
000001b0: 8aad 3fbe 14c2 0e3e ad48 bfbd e637 d9bd
000001c0: c257 853c 30e5 4ebe 0121 f3bd 779b d33c
000001d0: 4bb9 b6bc 5550 b3bc 5a5d de3c 9491 00be
000001e0: 4ef1 1c3e b617 a3bd d0ac 3bbe 2a99 503d
000001f0: 728d c93d a429 b43d 3d58 a1bd c10f c63d
0.20854749 0.13979816 0.14665963 -0.21325703 -0.08629469 0.12195083 -0.018416755 -0.05698883
0.11692763 0.15666704 -0.21514803 -0.09046747 0.073217444 -0.06401734 0.13898203 0.025958821
0.20801607 0.16290899 -0.15059085 -0.11821525 0.17252296 -0.17147788 -0.006905965 -0.12959032
-0.059859075 -0.11105948 0.12055046 -0.041310996 -0.19683747 0.081307165 -0.009943947 0.0742434
-0.023934288 0.0615852 0.019480221 -0.031832762 0.18474033 -0.02089331 -0.1040766 0.07721653
-0.18675311 0.009763378 -0.15257478 -0.004605622 0.05776037 0.12795557 0.11536489 0.10588164
-0.076261416 -0.17268716 0.034485735 -0.043988854 -0.14318681 0.07588992 0.02796577 -0.21099384
-0.082435764 0.10752982 0.08587546 -0.21424788 -0.047904182 0.04310574 0.16954051 -0.037916016
-0.06255127 -0.17261098 0.110919386 0.07656467 -0.08132403 0.12054686 0.17056312 0.038738083
-0.16175096 0.04867081 -0.20610297 -0.18067421 -0.054574225 0.08482816 -0.06459759 0.17318854
-0.07019811 0.040997934 -0.08336214 -0.15717994 -0.120294824 0.1654075 -0.16392884 -0.15509999
-0.0553626 0.118251994 0.088209145 -0.20203358 -0.08284863 0.061148655 0.037141893 -0.0587721
0.17367166 -0.12635584 0.13193536 0.07177597 -0.09608785 0.20032766 -0.13692823 -0.17234033
0.12975034 -0.09348879 0.13293768 -0.2052047 -0.18718544 0.13941222 -0.09340034 -0.10606365
0.016277198 -0.20204616 -0.11871529 0.025830967 -0.022305151 -0.021888891 0.027144123 -0.12555534
0.15326425 -0.07963507 -0.18327641 0.05092732 0.09841432 0.08797005 -0.07878158 0.096709736
