Unity Project/CSC 30014 Project/results/ppo/Car/Car-7552.onnx (onnx, 92134 bytes, 7 tensors)

action_model._continuous_distribution.log_sigma f4 [1, 2]
00000000: 0000 0000 0000 0000
0.0 0.0

action_model._continuous_distribution.mu.bias f4 [2]
00000000: 0000 0000 0000 0000
0.0 0.0

action_model._continuous_distribution.mu.weight f4 [2, 128]
00000000: d28f 473d a34e 86bb c841 dfbb b774 a03c
00000010: 5d78 d53c 3f7e 203d 67c5 1dbc 52ef 79bc
00000020: d9c2 273c 1fe0 e73a 30b7 3b3b 05d8 b2bc
00000030: bdc0 7d3c e293 acbc eda0 853b a3b0 cfbb
00000040: f2c7 bdbc 4343 adbc cbb8 103c f082 a0bb
00000050: d573 ca3b d37d 8e3c d5c8 af3b d3b0 b5bb
00000060: 6872 203c 95e5 a8bc 93c3 af3c 6199 1ebd
00000070: c0e3 10bc 6b04 493a c07c 6e3c 577a 533c
00000080: 62b2 5c3c 939f b53c d7f1 123c 7f92 0c3b
00000090: 19bf 34bc 0e82 2c3c 5006 f8ba 094a 99bc
000000a0: 35de 6c3c 610a a93c 876b 79bc 0349 8a3b
000000b0: 9b14 f83c 4fc2 d83b 49e1 08bc 5a8d 30bc
000000c0: d307 4bbc 6be4 42bc c7f8 aebc 5481 b8bb
000000d0: 8fed 1abc 4351 903c 9316 f43b 588d 31bc
000000e0: e322 983b dc35 31bc 635c e13c eb6e 283c
000000f0: d099 e3bc 832b 2bbb 9aad 4abc 51d4 0fbc
00000100: 9a24 ee3b db91 873c a837 e23b 578e 97bc
00000110: e8b3 613a a67a c43c eb02 ee3c dc78 ad3c
00000120: 8b2b a0bb fdff 9e3a 633a 513d 9adf 2ebb
00000130: 3a7f 853c 64dd 033d f0eb c63c bad7 4dbd
00000140: 65a7 cebb bf0f 75bd ef68 17bc 8f39 93bc
00000150: 3a02 a73b 70f8 2abb e0e1 f23c 725d 20bc
00000160: 4f84 0fbc aba1 17bc 55a2 3dbc 5a51 fa3c
00000170: fede b939 73da e93c 83a8 a2bc 63d3 03bd
00000180: c479 0c3b 67e6 53bb 065a 403b b34d 96bb
00000190: 4f9f 8f3b 50a2 203a 3380 2abc 176d 1abc
000001a0: 6f25 40bb 24cd 26bd 45ec 47bd cf97 0b3b
000001b0: 1f92 42bc e73c cabc ce17 14bc 4735 31bc
000001c0: 28d4 1ebb 2cfc 9bbc fc72 8f3c 5baa 923b
000001d0: 901a dbbc 2368 9b3c 9932 c7bc 97ab 17bb
000001e0: 4b34 afbc 8f91 87ba 4f2b 483a e2a2 dd3b
000001f0: b7f0 093c 1fe4 19bc cbda efbc 5f0e 3337
00000200: bde4 d8bb 4913 abbb 9086 a0bc 8a64 c9bb
00000210: 5dbf f93c 2f10 85bc 2398 173c 4ee3 093b
00000220: 688d 0cba b7cc 103c a7c1 55bc 4c21 17bc
00000230: d5d4 87bc e66a 16bd 7fea fb3b 8a3c ddbc
00000240: ddf9 ad3c 1571 e5bc 6982 333c 1af4 a63c
00000250: 37b0 1e3d 9b38 b1bc db61 48bc 274f ef3b
00000260: a043 82bc 0ad7 85bc 4ad0 f2bc b2fb ecbb
00000270: b147 013c f31e 5b3b 6086 bcbc 9855 a7bc
00000280: 7fd2 453c babf 71bc 15e9 d5bb 73b4 98bb
00000290: cb70 ffbc 35bf 18bb 02cb 1bbd 4f2a a8bb
000002a0: 1aa9 01bd 4798 b1bc f78e c7bc 2014 373b
000002b0: 9d48 613c 36bd 953b 8006 e43c 44ff 963c
000002c0: 58f6 cebb e78a f13c d081 b5bb 3bfc e6ba
000002d0: 7443 023c e23a aabc f723 4ebc 458d cfbc
000002e0: 4b4e a5bc 07eb 9abc 9cb2 913c 822b 44bc
000002f0: 51fa 3abc 9c09 21bb 134c b9bc 4b60 b83c
00000300: d67d c4ba 1f51 cbbb 87f6 a13c 67f0 e6bb
00000310: a311 8bb9 ee10 8b3c 5f42 c3bb 1b84 e3bb
00000320: 5213 ddbb 9d32 173b 8aee ac3b 7a80 b03c
00000330: 1b7f 303d d073 7b3a 8a99 06bb 2efd 213d
00000340: 0fb1 2b38 efc4 ecbc 6c54 bbbb 5460 0ebc
00000350: e477 403c 2b16 8d3b fa9e bfbc 2351 923c
00000360: aaa1 6ebc 836a 553c 305a 65bc da5c 5f3c
00000370: f8ed ef3b c17f bcbc cb07 1a3b 50a7 a0bb
00000380: 6bfc d7bc f375 0c3d ab52 4e3b cb93 263c
00000390: 2ad3 713b 85a5 63bc c7c1 8c3c c79e 92bc
000003a0: 4fbd b93c 529e cebc a0d8 853c 0923 90bc
000003b0: 882e 0e3c 99ac 13bc efa0 d53b cc12 92bb
000003c0: b8e7 e2bb 9d80 fdbc 4c08 0cbb 6b12 1f3c
000003d0: 834b 41bc 55f2 db3c a85c 8fbb 73fe bf3c
000003e0: 3172 943b 42e7 af3c 5528 60bb 43e7 a7bb
000003f0: 5b4a a23b 633c bebc c08c e7ba db54 9ebb
0.048721142 -0.0040987297 -0.0068132617 0.019586904 0.02605837 0.039182898 -0.009629584 -0.015254812
0.010239326 0.0017690695 0.0028643124 -0.021831522 0.015487847 -0.02106661 0.0040780217 -0.0063381954
-0.02316663 -0.021150237 0.008833121 -0.0048984215 0.006178359 0.017393982 0.005364517 -0.0055447607
0.009792902 -0.020617286 0.021455562 -0.038720492 -0.008843362 0.00076682 0.01455611 0.012907586
0.013470264 0.022170817 0.008968792 0.0021449623 -0.011031889 0.010529054 -0.001892278 -0.01871206
0.014457275 0.020634832 -0.01522339 0.0042201295 0.030283263 0.0066149603 -0.008354493 -0.010775888
-0.012392002 -0.011895279 -0.02135886 -0.0056306515 -0.009456052 0.017616874 0.00744898 -0.010836922
0.0046428307 -0.010816064 0.027509874 0.010280351 -0.027783304 -0.0026118464 -0.012370491 -0.0087786475
0.007267547 0.016549041 0.0069036074 -0.01850049 0.0008609877 0.023984265 0.029054126 0.021175794
-0.004888003 0.0012130734 0.051081073 -0.002668357 0.016296018 0.032193556 0.024282426 -0.05025456
-0.006306576 -0.05982947 -0.009241327 -0.017971782 0.005096701 -0.0026088022 0.029648721 -0.009787904
-0.008759572 -0.009254853 -0.0115743475 0.03055637 0.00035452092 0.028546548 -0.019855743 -0.032184016
0.0021434883 -0.0032333375 0.0029350533 -0.004586899 0.0043830047 0.0006127702 -0.010406542 -0.009425423
-0.0029319187 -0.04072298 -0.04880931 0.0021300202 -0.011875658 -0.024687244 -0.009038879 -0.010815925
-0.0024235342 -0.019041143 0.017510884 0.0044758744 -0.026746064 0.018970555 -0.024316119 -0.0023143047
-0.02138724 -0.0010343062 0.0007635848 0.006763802 0.008419207 -0.009392767 -0.029279133 1.0672577e-05
-0.0066190646 -0.005220805 -0.019595414 -0.0061460184 0.030486757 -0.016243069 0.009252581 0.0021040025
-0.00053616473 0.00883787 -0.013046659 -0.009224247 -0.016580978 -0.03672304 0.007687866 -0.027006406
0.021237308 -0.028008023 0.010956385 0.020380069 0.03874227 -0.021633437 -0.012230362 0.007303137
-0.015901387 -0.01633789 -0.029640336 -0.007232153 0.007890628 0.0033435195 -0.023013294 -0.020426556
0.012074112 -0.014755184 -0.0065280297 -0.004660183 -0.031181714 -0.0023307328 -0.0380354 -0.0051319967
-0.03165541 -0.021679057 -0.024360163 0.002793558 0.0137502225 0.004569675 0.02783513 0.018432267
-0.0063159876 0.02948518 -0.0055391565 -0.0017622778 0.007950652 -0.02078003 -0.012581817 -0.025335917
-0.020178935 -0.018910898 0.017785363 -0.011973264 -0.011412219 -0.0024572378 -0.022619283 0.022506854
-0.0014991115 -0.0062047387 0.019770874 -0.007047701 -0.00026525286 0.016975846 -0.00595884 -0.0069432384
-0.006746688 0.002307094 0.0052774595 0.021545637 0.043089967 0.00095921475 -0.0020538294 0.03954809
4.0934476e-05 -0.028902499 -0.005716851 -0.008689959 0.011747334 0.004305621 -0.023391236 0.017860955
-0.014564911 0.013025883 -0.013998553 0.013632977 0.0073220693 -0.023010137 0.002350318 -0.0049027577
-0.02636548 0.034292173 0.003148238 0.0101670725 0.0036899545 -0.013894443 0.017182244 -0.017897977
0.022673277 -0.025221977 0.016338646 -0.017594831 0.008678086 -0.009013318 0.006519429 -0.004457807
-0.0069245957 -0.030945117 -0.002136725 0.009708981 -0.011797789 0.026848951 -0.004375059 0.02343676
0.0045302142 0.021472577 -0.0034203727 -0.005124004 0.0049527115 -0.023222154 -0.0017665848 -0.004831893

network_body._body_endoder.seq_layers.0.bias f4 [128]
00000000: 0000 0000 0000 0000 0000 0000 0000 0000
00000010: 0000 0000 0000 0000 0000 0000 0000 0000
00000020: 0000 0000 0000 0000 0000 0000 0000 0000
00000030: 0000 0000 0000 0000 0000 0000 0000 0000
00000040: 0000 0000 0000 0000 0000 0000 0000 0000
00000050: 0000 0000 0000 0000 0000 0000 0000 0000
00000060: 0000 0000 0000 0000 0000 0000 0000 0000
00000070: 0000 0000 0000 0000 0000 0000 0000 0000
00000080: 0000 0000 0000 0000 0000 0000 0000 0000
00000090: 0000 0000 0000 0000 0000 0000 0000 0000
000000a0: 0000 0000 0000 0000 0000 0000 0000 0000
000000b0: 0000 0000 0000 0000 0000 0000 0000 0000
000000c0: 0000 0000 0000 0000 0000 0000 0000 0000
000000d0: 0000 0000 0000 0000 0000 0000 0000 0000
000000e0: 0000 0000 0000 0000 0000 0000 0000 0000
000000f0: 0000 0000 0000 0000 0000 0000 0000 0000
00000100: 0000 0000 0000 0000 0000 0000 0000 0000
00000110: 0000 0000 0000 0000 0000 0000 0000 0000
00000120: 0000 0000 0000 0000 0000 0000 0000 0000
00000130: 0000 0000 0000 0000 0000 0000 0000 0000
00000140: 0000 0000 0000 0000 0000 0000 0000 0000
00000150: 0000 0000 0000 0000 0000 0000 0000 0000
00000160: 0000 0000 0000 0000 0000 0000 0000 0000
00000170: 0000 0000 0000 0000 0000 0000 0000 0000
00000180: 0000 0000 0000 0000 0000 0000 0000 0000
00000190: 0000 0000 0000 0000 0000 0000 0000 0000
000001a0: 0000 0000 0000 0000 0000 0000 0000 0000
000001b0: 0000 0000 0000 0000 0000 0000 0000 0000
000001c0: 0000 0000 0000 0000 0000 0000 0000 0000
000001d0: 0000 0000 0000 0000 0000 0000 0000 0000
000001e0: 0000 0000 0000 0000 0000 0000 0000 0000
000001f0: 0000 0000 0000 0000 0000 0000 0000 0000
0.0 0.0 0.0 0.0 0.0 0.0 0.0 0.0
0.0 0.0 0.0 0.0 0.0 0.0 0.0 0.0
0.0 0.0 0.0 0.0 0.0 0.0 0.0 0.0
0.0 0.0 0.0 0.0 0.0 0.0 0.0 0.0
0.0 0.0 0.0 0.0 0.0 0.0 0.0 0.0
0.0 0.0 0.0 0.0 0.0 0.0 0.0 0.0
0.0 0.0 0.0 0.0 0.0 0.0 0.0 0.0
0.0 0.0 0.0 0.0 0.0 0.0 0.0 0.0
0.0 0.0 0.0 0.0 0.0 0.0 0.0 0.0
0.0 0.0 0.0 0.0 0.0 0.0 0.0 0.0
0.0 0.0 0.0 0.0 0.0 0.0 0.0 0.0
0.0 0.0 0.0 0.0 0.0 0.0 0.0 0.0
0.0 0.0 0.0 0.0 0.0 0.0 0.0 0.0
0.0 0.0 0.0 0.0 0.0 0.0 0.0 0.0
0.0 0.0 0.0 0.0 0.0 0.0 0.0 0.0
0.0 0.0 0.0 0.0 0.0 0.0 0.0 0.0

network_body._body_endoder.seq_layers.0.weight f4 [128, 44]
00000000: f879 dbbd 3278 5a3e a4f4 2f3e 0819 c13e
00000010: 0b76 bc3d a3ce 9dbd 33e6 543d d4b4 0bbd
00000020: 4120 3a3e 74f6 f33b 9dc9 463e 148d 473e
00000030: ee49 fe3d 8b14 8dbd 1f8f e83b 77c6 183d
00000040: 8527 64be e475 88bd 4747 b5bd d22b 203e
00000050: 5c01 b4bd 3aeb 933e eb65 8f3c 0e87 afbe
00000060: 1710 a7bd 3bd7 433e 8dbe be3c eb9b 833c
00000070: e1d2 903d 8d4c 6e3d 2c2d 8abd 1ce7 603d
00000080: 668f ebbd f487 f73d edaa 423c 4ac5 2d3e
00000090: 46cb 5e3d bcde 153e 7e8d 0abe 8a84 bb3d
000000a0: a7f3 303b d2ed 97bd fe4c f7bc 5c4b 333e
000000b0: a3e0 113e 1cee e53d 9ded 82be 489d bc3d
000000c0: 1012 a0bd ada1 5f3e 1f09 ba3d 063e 1abd
000000d0: 99ff b63c e68c 10be 58e1 e83d 46fb 673d
000000e0: a60d f83d af0c d03d ee82 7ebe 2b79 0dbe
000000f0: 71cd 873e 1099 fa3d 6442 48be 93cc e63d
00000100: ab00 143d 5e0b 09be c80a 053e ccf5 b0bc
00000110: 7d08 c8bc 3ef7 31be 3081 4c3e cc7e e0bd
00000120: 6c9d f23d 860d 083e 05e8 ddbd b86c 4b3e
00000130: 17af 153e d8ce 3dbe f581 3bbc ddae 173e
00000140: 17e7 18bc 3e36 663c f49b e23c bae3 4dbe
00000150: 8c0a 263e 5461 8cbd 8037 493e 6db1 88bd
00000160: 51f9 0d3e 8e27 8bbe 423a 82bd 7050 69bb
00000170: 2274 ff3d f0bb 0e3e 05dd 79bd 9267 d0be
00000180: 83c5 4fbe 1feb cabd 86d7 203d 3d71 4ebd
00000190: 51dc 54be 3df9 a93c fa6c e0bd 295a d63c
000001a0: b8de f9bd b83a 7c3d 1001 08be a7ac cb3d
000001b0: 84a2 07be f35d 9a3e 6d7e 1dbd dce8 50be
000001c0: ee62 923e 8195 46be 91e8 1b3c ac51 1bbc
000001d0: ed6e 4abd b8eb 193e b69d 50be 751e 0f3e
000001e0: 52c8 39bd 35fc 65be 6dbd 10be b714 c53d
000001f0: c657 bb3c fed5 3b3e 1026 8ebd e78e 6b3e
00000200: b96b a2be eed2 c2bd ae13 ecbc 2b2b c63b
00000210: 382e 683e 0a3a 343e 3e0a 043e 6406 0d3e
00000220: 7ffd 9dbe 7844 01bd 394f 5d3e 59fe 4b3c
00000230: 328a 0c3e 99f1 81be 5cd3 8cbc db72 993e
00000240: 6cd1 4dbe c6a2 05be cf7c 83bc b2e5 debd
00000250: de65 673e c533 aebc 746b 90be 6f49 5e3d
00000260: b604 99bd c08c caba 8e37 313e d281 443c
00000270: d7e0 8ebd 0dd8 2f3d 1f0d 4d3d 7d5a 493d
00000280: a2e1 43be 92be 943d 857b d83d c6f8 ef3d
00000290: 95bf b83d 78a3 1e3e 0f82 303e d85c ac3c
000002a0: 62a8 91bd 754b 69bb 4c96 a93d 2834 99be
000002b0: a3f3 cf3d 31f8 fcbc d27b df3d 9750 27bd
000002c0: ceec 37bd 1897 a63d d3b1 04bd 30d1 b0bd
000002d0: 5eb6 8c3d f519 a7bd 9071 13be 1c8e 11be
000002e0: ca02 a9bd 3f37 b7bd b5d3 79be 7402 343e
000002f0: 3f28 423e b61b 9dbe c611 89be 55dc 453e
00000300: 8b52 3ebd 1704 d43e 29dd c63d 0a01 3bbd
00000310: 60ea 82bd d155 533e 347b 07be 3986 433e
00000320: 8014 99bc e7b1 ef3d 292e 563e e843 f13d
00000330: 19c4 86bd a4d2 143d a085 a2bd f5bb 1f3e
00000340: 9aed 353e 56ea 2bbe 9afe 83be 827f 293d
00000350: 82ab 27bd 1648 9ebc 2034 aa3c f6d7 08bd
00000360: 5e53 353d 5e43 1fbd bc4e bdbd a5e7 0fbe
00000370: 47ba 9bbd 41dc 38bc 455f 9c3d 074f 15be
00000380: 86d8 7cbd 170e 46bd dac7 0f3e 38d8 51be
00000390: 25e3 ad3d 86d0 b53d b30d 003e 467c e13d
000003a0: c235 c3bc 4442 a03e 2f71 1b3d 12f6 403e
000003b0: c6eb 74be 91e1 933d c6a3 eabd e5ae 893d
000003c0: 88e5 2ebe 821f 77be 8c40 183e db3d 8b3d
000003d0: ec9d dbbd 24e6 5f3e f80c aebd 431c de3d
000003e0: 74d8 873d 75d0 62be 834e 9b3c 3890 98be
000003f0: d505 edbd 658b 77bc 79c6 8d3e 8dde 323e
-0.10716623 0.21334913 0.17183167 0.3771441 0.092022024 -0.077054285 0.051977348 -0.034107998
0.18176366 0.007445151 0.19412847 0.19487411 0.12416445 -0.06888684 0.0070971395 0.037298646
-0.222807 -0.06663111 -0.08851486 0.15641716 -0.08789322 0.288904 0.017504653 -0.34282726
-0.08157366 0.19125073 0.023284221 0.016065558 0.07071472 0.058178473 -0.06746897 0.054907903
-0.115019605 0.12086478 0.011881572 0.16969791 0.054393075 0.14635748 -0.13530537 0.09156139
0.0027000697 -0.074184075 -0.03018808 0.17509216 0.14245848 0.112270564 -0.2557191 0.092096865
-0.07815945 0.21839018 0.09083771 -0.037656806 0.022338675 -0.14116248 0.11371106 0.056636117
0.12111978 0.10158669 -0.24854633 -0.13815753 0.26523927 0.122362256 -0.19556576 0.11269488
0.03613345 -0.13383242 0.12992394 -0.02160158 -0.02441811 -0.17379472 0.19971156 -0.109616846
0.11846432 0.13286409 -0.1083527 0.19865692 0.14617573 -0.18535936 -0.011444558 0.14812799
-0.00933244 0.014051018 0.027662255 -0.20106402 0.16214961 -0.06854501 0.19650078 -0.06674466
0.13864638 -0.27178615 -0.06358768 -0.0035600923 0.124733225 0.1393888 -0.061001796 -0.40704018
-0.20290188 -0.09908127 0.03926804 -0.05040096 -0.20787169 0.020748729 -0.10958286 0.026166039
-0.12200683 0.061579436 -0.13281655 0.0994504 -0.13245589 0.30149803 -0.038450647 -0.20401329
0.28591102 -0.19392969 0.009515897 -0.009479921 -0.049422193 0.15031326 -0.20372662 0.13976462
-0.045357056 -0.2245949 -0.1413476 0.09623092 0.022869002 0.1834335 -0.069408536 0.23003732
-0.3172281 -0.09512888 -0.028817978 0.0060476265 0.22673881 0.17600265 0.12894532 0.13771969
-0.30857465 -0.031559438 0.21612252 0.012450778 0.13724592 -0.25379637 -0.017190628 0.2997044
-0.2009942 -0.13050374 -0.016050724 -0.10883655 0.22597453 -0.02126492 -0.2820698 0.05426925
-0.07471602 -0.0015453324 0.17306349 0.011993842 -0.069764785 0.04293065 0.05006134 0.049158562
-0.19129041 0.07262911 0.105704345 0.11717372 0.090209164 0.15492046 0.17237113 0.021040365
-0.071121946 -0.0035597954 0.0828062 -0.29922605 0.10153892 -0.030880066 0.10912289 -0.04084834
-0.04490357 0.081342876 -0.03239615 -0.08633649 0.06870721 -0.08159248 -0.1439879 -0.14214367
-0.08252485 -0.08946084 -0.24397166 0.17579061 0.18960665 -0.30685204 -0.26771373 0.19322331
-0.046465438 0.4140937 0.09710152 -0.045655288 -0.0639236 0.20638205 -0.13230592 0.1909417
-0.018686533 0.11703854 0.20916046 0.1178053 -0.065803714 0.036333695 -0.07935643 0.15599044
0.17766419 -0.16788611 -0.25780183 0.041381367 -0.040935047 -0.019321483 0.020776808 -0.03340908
0.04426896 -0.038882606 -0.09243533 -0.14053209 -0.07603889 -0.011282981 0.07635359 -0.14580928
-0.06172993 -0.04835328 0.14041081 -0.20492637 0.0849059 0.08877663 0.12505226 0.110100314
-0.023829345 0.31300557 0.037949737 0.18843868 -0.23918065 0.07220758 -0.114570186 0.067228116
-0.17079747 -0.24133113 0.14868373 0.06798907 -0.107234806 0.21865135 -0.08498567 0.10845234
0.06633082 -0.22149833 0.018958336 -0.2979753 -0.11573378 -0.015108918 0.27690485 0.17467709

network_body._body_endoder.seq_layers.2.bias f4 [128]
00000000: 0000 0000 0000 0000 0000 0000 0000 0000
00000010: 0000 0000 0000 0000 0000 0000 0000 0000
00000020: 0000 0000 0000 0000 0000 0000 0000 0000
00000030: 0000 0000 0000 0000 0000 0000 0000 0000
00000040: 0000 0000 0000 0000 0000 0000 0000 0000
00000050: 0000 0000 0000 0000 0000 0000 0000 0000
00000060: 0000 0000 0000 0000 0000 0000 0000 0000
00000070: 0000 0000 0000 0000 0000 0000 0000 0000
00000080: 0000 0000 0000 0000 0000 0000 0000 0000
00000090: 0000 0000 0000 0000 0000 0000 0000 0000
000000a0: 0000 0000 0000 0000 0000 0000 0000 0000
000000b0: 0000 0000 0000 0000 0000 0000 0000 0000
000000c0: 0000 0000 0000 0000 0000 0000 0000 0000
000000d0: 0000 0000 0000 0000 0000 0000 0000 0000
000000e0: 0000 0000 0000 0000 0000 0000 0000 0000
000000f0: 0000 0000 0000 0000 0000 0000 0000 0000
00000100: 0000 0000 0000 0000 0000 0000 0000 0000
00000110: 0000 0000 0000 0000 0000 0000 0000 0000
00000120: 0000 0000 0000 0000 0000 0000 0000 0000
00000130: 0000 0000 0000 0000 0000 0000 0000 0000
00000140: 0000 0000 0000 0000 0000 0000 0000 0000
00000150: 0000 0000 0000 0000 0000 0000 0000 0000
00000160: 0000 0000 0000 0000 0000 0000 0000 0000
00000170: 0000 0000 0000 0000 0000 0000 0000 0000
00000180: 0000 0000 0000 0000 0000 0000 0000 0000
00000190: 0000 0000 0000 0000 0000 0000 0000 0000
000001a0: 0000 0000 0000 0000 0000 0000 0000 0000
000001b0: 0000 0000 0000 0000 0000 0000 0000 0000
000001c0: 0000 0000 0000 0000 0000 0000 0000 0000
000001d0: 0000 0000 0000 0000 0000 0000 0000 0000
000001e0: 0000 0000 0000 0000 0000 0000 0000 0000
000001f0: 0000 0000 0000 0000 0000 0000 0000 0000
0.0 0.0 0.0 0.0 0.0 0.0 0.0 0.0
0.0 0.0 0.0 0.0 0.0 0.0 0.0 0.0
0.0 0.0 0.0 0.0 0.0 0.0 0.0 0.0
0.0 0.0 0.0 0.0 0.0 0.0 0.0 0.0
0.0 0.0 0.0 0.0 0.0 0.0 0.0 0.0
0.0 0.0 0.0 0.0 0.0 0.0 0.0 0.0
0.0 0.0 0.0 0.0 0.0 0.0 0.0 0.0
0.0 0.0 0.0 0.0 0.0 0.0 0.0 0.0
0.0 0.0 0.0 0.0 0.0 0.0 0.0 0.0
0.0 0.0 0.0 0.0 0.0 0.0 0.0 0.0
0.0 0.0 0.0 0.0 0.0 0.0 0.0 0.0
0.0 0.0 0.0 0.0 0.0 0.0 0.0 0.0
0.0 0.0 0.0 0.0 0.0 0.0 0.0 0.0
0.0 0.0 0.0 0.0 0.0 0.0 0.0 0.0
0.0 0.0 0.0 0.0 0.0 0.0 0.0 0.0
0.0 0.0 0.0 0.0 0.0 0.0 0.0 0.0

network_body._body_endoder.seq_layers.2.weight f4 [128, 128]
00000000: 057d d83d dd71 1d3c d657 60bc adcd d63d
00000010: 5a08 b63d 2bcf 993b 1f6d 493d e2f4 cf3d
00000020: 6759 7b3d a32f 893b af71 61ba 6b26 083d
00000030: 9811 47bc fe16 24bc 5f41 9cbd 852a a53d
00000040: aca5 c13d c785 943d 7782 e8bd ffcc 8abc
00000050: e768 4e3d 8eef c9bd f651 543d 5d4f 68be
00000060: 6904 a9bd a408 853d 81cf 3c3d 08c7 7abc
00000070: 1176 b63d 46ca b93b 16e0 84bd 5b55 00be
00000080: 7153 0a3c 1ad1 69be 8e94 1cbd 9b93 82bd
00000090: ad65 233d 3a25 d93a 12db 153e a956 19be
000000a0: 948d 19bd 08ff d8bd d5d3 cabc 700c 00be
000000b0: bbaf dc3d 1e93 133e e997 b53d afad 683d
000000c0: 6a3d 05bb e5e4 1d3e a52e 9bbc 794a 123e
000000d0: 0cfb d2bd 1707 86bd a3fc c0ba 2b1d b5bc
000000e0: e39f a3bd 54e8 48bd 1c1d 32bd 8d3b 173d
000000f0: 50c9 ecbd ba39 57bd 4015 0a3e 6403 583d
00000100: cdaf 58bd f4dd ae3a a025 95bd 0558 adbd
00000110: d07d 8ebd f328 dcbd 916c 973d 0104 8abd
00000120: f92d 8e3d 2489 bd3d 6f74 6fbd ecaf fb3c
00000130: 0896 41bd 1982 dd3d c771 733d cd8f 0fbd
00000140: 0b2a 8c3c 6911 bc3d c8d4 9c3d aba4 1e3e
00000150: c646 c1bc 17db 043e 648a d9bc 5465 19be
00000160: f9b4 13bd 4db8 4fbd baa3 2cbe 9619 893c
00000170: ac49 88bd 99a5 58bd dd7a 9ebd 1b92 9c3d
00000180: 9a4a 803d dc0e a93d 4355 953c 5110 8ebd
00000190: 006f 163e eb23 973d c3bd 5d3d faf8 9cbd
000001a0: b8b5 bebd 7bd0 4b3e dc4c 883c 7b20 bfbd
000001b0: b2d5 52bb fee9 953c 2c18 7d3d 2dc2 45bd
000001c0: afcd cbbd 3873 e23c 15b0 aa3c 6358 a0bc
000001d0: c210 94bd ff35 cfbd 5454 af3d db71 52bc
000001e0: 924f d4bd 211a dfbd 96da 583c cfb7 ca3d
000001f0: bf7c cf3c 6441 9c3d 0583 9dbd 9cf5 373d
00000200: 17dc 30bd 4263 333d a975 8bbd 46ab 19be
00000210: 9340 04be 76c2 183e 5f56 b6bd dcfb d83d
00000220: 08ea 173b a550 a13d 8cee 813d 08f0 303d
00000230: f647 233e 0eae 81bb 6aa9 543d 9cee 9c3d
00000240: ee4b 1abe 0dae 483d 6590 18be 036e 223d
00000250: 5e08 af3d 0984 063e 3dcd 15be 335c 35be
00000260: 423e 5c3d b0ca 413d fb84 3c3c d85a f83d
00000270: 6273 48bd 5311 fbbd 6944 8c3c 1afa 8cbc
00000280: 072a 883d 7645 093d a1f5 17bd 7680 bbbd
00000290: 48dd cb3d ab91 b5bc 51b1 31bd 33c6 5eba
000002a0: dfbc 093e 6c09 90bd f42a b83d f3d6 6fbd
000002b0: c5b9 143d 1066 86bd 6e95 8a3d 2a4b 88bc
000002c0: e742 9ebd 8701 b23d 79c3 0e3d 8b1c 6c3d
000002d0: 5ad5 6fbd 5c7d 583d 60b8 efbd d5bd b73b
000002e0: 0f7a c93d 71ba ba3d 1492 33be 20ba 3dbd
000002f0: 52d7 a0bc 33e2 a9bc d24d 8dbc 9082 84bd
00000300: 0fdd c3bc 919e 6c3c 8aa4 28bd 54ed bcbd
00000310: 1e1d c23d 27d9 363d c4fb 03be 1af5 403d
00000320: cc51 dfbc a71a 853d 0aa8 4c3d a11f 7f3d
00000330: d814 173d 6cb1 dabd f0bb ebbb b29c 0b3e
00000340: 4f74 b33d d57f 4b3e 1236 6e3c 0128 ee3c
00000350: c492 c1bc a342 893d 580d 6fbd 025d b2bc
00000360: 2dca 5fbd 34f7 aabd 3a4e 3f3b 8d65 803c
00000370: 4860 b1bd 438c a93d cc9d 0ebe 02f1 5d3d
00000380: bb34 3c3e 06db 44bc faec 1cbd 1da1 7bbd
00000390: 0c0a ca3c 67be 0bbc bd57 38be d62a f3bd
000003a0: 1250 9abd a50b 8cbd 66d4 1dbe 1097 d4bd
000003b0: 2da6 333e a400 e5bc 3551 533d 048f c2bd
000003c0: 0eee bbbd 11d4 03be 4faa babd 2747 79bd
000003d0: d8c5 133d f79d 073e fc53 34bd 792a 3cbd
000003e0: f630 593d 4b16 6f3d 3a32 b83d b39d 1fbe
000003f0: 2ccf e73a 9621 acbd da9d 783d f01d b4bc
0.105707206 0.009609667 -0.013692817 0.10488448 0.08888312 0.004693886 0.04917633 0.101541296
0.061364558 0.004186587 -0.0008600009 0.033239763 -0.012150191 -0.010015247 -0.07629656 0.080647506
0.094554275 0.072520785 -0.11353009 -0.016943453 0.05039301 -0.098601446 0.051835977 -0.22686525
-0.08252794 0.06495789 0.04609633 -0.015306242 0.08909238 0.005669865 -0.064880535 -0.1253256
0.008442746 -0.22833672 -0.03822761 -0.0637581 0.039891887 0.001656688 0.1463435 -0.14974464
-0.037488535 -0.10595518 -0.024759213 -0.12504745 0.107757054 0.1441159 0.08866865 0.056806263
-0.0020330795 0.15419348 -0.01894314 0.14286222 -0.1030179 -0.06544321 -0.0014723729 -0.022108635
-0.0798948 -0.04904969 -0.043484792 0.036922026 -0.11561835 -0.052545287 0.13484669 0.05273761
-0.05290203 0.0013341294 -0.07282567 -0.08464054 -0.069575906 -0.10749998 0.07393754 -0.06739045
0.06942362 0.09254673 -0.05846065 0.030723535 -0.04726222 0.1081583 0.05943468 -0.03504925
0.017109891 0.09183008 0.07657772 0.15492503 -0.023593318 0.12974201 -0.026555248 -0.1498006
-0.03606126 -0.050712872 -0.16859332 0.016735833 -0.06654677 -0.0528923 -0.07738278 0.07645055
0.06264229 0.08254787 0.018229133 -0.06936706 0.1469078 0.07379898 0.05413605 -0.07664676
-0.09312004 0.19903748 0.016638212 -0.09332367 -0.003217083 0.018300053 0.06179063 -0.048280884
-0.099513404 0.027642831 0.020835916 -0.019573396 -0.07229759 -0.10117721 0.08561006 -0.012844528
-0.10366739 -0.108936556 0.013235709 0.0989834 0.025328038 0.0762966 -0.076910056 0.044911966
-0.043178644 0.04379583 -0.06809551 -0.15006742 -0.12915258 0.14917931 -0.08903193 0.10594913
0.0023180265 0.0787671 0.06344327 0.04319766 0.1594542 -0.0039575165 0.05191938 0.076626986
-0.15068027 0.048994113 -0.14898832 0.039655697 0.08546518 0.13136305 -0.14629073 -0.17710952
0.05377031 0.04731244 0.011506314 0.12126702 -0.048938163 -0.12259164 0.017122464 -0.017209101
0.06648641 0.03351351 -0.037099484 -0.09155361 0.099543154 -0.022164186 -0.043381993 -0.0008498162
0.13450955 -0.07033047 0.08992568 -0.0585546 0.036309976 -0.065624356 0.06766783 -0.016637404
-0.07727604 0.086916976 0.034854386 0.05764441 -0.058553077 0.052853927 -0.117050886 0.0056073465
0.09837734 0.09117592 -0.17536193 -0.04632008 -0.019633923 -0.020737743 -0.017249022 -0.06470215
-0.02390912 0.014442102 -0.04117254 -0.09224954 0.0947821 0.044640686 -0.1288901 0.047108747
-0.027260683 0.06499224 0.049964942 0.062286023 0.036885113 -0.10678372 -0.0071940348 0.13633993
0.087624185 0.19872983 0.014539259 0.02907181 -0.023629554 0.06702163 -0.058362335 -0.021772865
-0.05463617 -0.083479315 0.0029190914 0.015673423 -0.08660942 0.08278706 -0.13927382 0.05418492
0.1837949 -0.01201511 -0.038311936 -0.061432946 0.024662994 -0.008529282 -0.1800222 -0.11873405
-0.075348035 -0.068381585 -0.15413055 -0.103803754 0.1754386 -0.027954407 0.051591117 -0.09499934
-0.09176265 -0.12873866 -0.09114515 -0.06085887 0.03607735 0.13243853 -0.044025406 -0.045938943
0.05302521 0.05837087 0.08993955 -0.15587501 0.0017685643 -0.084048435 0.060697414 -0.021986932
