Unity Project/CSC 30014 Project/results/ppo/Car/Car-23980.onnx (onnx, 92134 bytes, 7 tensors)

action_model._continuous_distribution.log_sigma f4 [1, 2]
00000000: 4162 c53a 8444 383c
0.0015059189 0.011246804

action_model._continuous_distribution.mu.bias f4 [2]
00000000: 1a93 f0bb e234 d33a
-0.0073417546 0.0016113783

action_model._continuous_distribution.mu.weight f4 [2, 128]
00000000: dfdb 9d3c 556a f43c 3f40 2639 6f30 633c
00000010: 5576 933c f686 9fbc 0059 823c b33f 08bd
00000020: 4e2f aebb 1ad7 263d 4465 343b 166c f63c
00000030: 3c8d 8dbc b85d f5bc 7c3c 1fbc 6694 2d3c
00000040: f472 923c f77e e43c 40b5 62ba 7299 0ebb
00000050: f283 e9bc 43ac 59bb fd9f af3c 5a87 04bd
00000060: b878 d2bc ecad 16bc e735 3739 14f2 9dbc
00000070: 94f1 ef3b 9ff6 e0bc 7057 11bd a773 953c
00000080: d48f 71bc b006 a23b d421 043c c996 96bb
00000090: 72c4 293b 4d1f 69b8 e5e7 0ebd c997 803c
000000a0: da5d 42bc a266 e9ba 39bf d4bc 5499 f63b
000000b0: 212c 053c 43d8 e5bb 1533 323c 024a 263b
000000c0: 050c 013d 34c2 453d 1057 9b3c be6c 89ba
000000d0: fce8 2bbd d7e9 44bc f843 c03c e60a e6bc
000000e0: e64e 59bc 7a2e 11bc 603c 9f3c 3a1e 69bb
000000f0: 8e48 a93c 4490 dd3b d6fe 543c 6ecf adbc
00000100: 475d 2abc c5ec a43c 1ad7 853c 4b1a 50bc
00000110: 752f 10ba c45f 0a3c 67ce 463c a1a2 853c
00000120: acf8 c9bb 579f abbb abcd 793b 2746 9238
00000130: 4515 1ebd b955 c93c 005f 623c 3e40 27bd
00000140: 5efa aabb abb7 f93c 726b 823c e393 d7bc
00000150: 085b cb3b f6ea 803d 3f49 49b9 6b18 1f3c
00000160: f12c f0b9 cd8f aabc 8808 06bc 9e2c 91bc
00000170: 08a2 dfbc 47c2 d83a a20f 073c 9ef3 9ebc
00000180: 03e5 03bc 1256 8cbc fb2e 91bb a6cf f93c
00000190: 1706 7ebb c6a9 8fbc 6a7a 8ebb e69a 51bc
000001a0: d126 6d3d 23a2 623c d49e 813c 56d2 98bc
000001b0: 4d12 2dbc c0ea b7bb b65f 04bd 7d7f 4a3d
000001c0: a916 a43c 81ce c23b 6d7b 233d ad11 febc
000001d0: ba26 d7bc 17cb 5ebc 4387 23bc 3455 263b
000001e0: f34c 58bd 13e8 7bbc 21fd 093d bb3c 483b
000001f0: 242e baba c67c 5c3c a914 f3bb f984 c6bc
00000200: bffe 5b3b 04e4 54bb 32a5 aeba bdb8 ebbc
00000210: 6fc8 b13a 729b d03b 2a04 c2bc e310 7dbc
00000220: a0d3 80bc 788d bf3a 4dff 983c 4ecb cdbb
00000230: d0a2 3c3c d23d 133b b197 e8b8 5991 55bc
00000240: b8c5 953b f50d 81bb 2567 a33c 5450 9d3c
00000250: 525d dd3b 2127 da3c 1a4e 4e3d fd8e 7bbc
00000260: 4511 163c e037 77bc 84b9 103d 8fd1 a33a
00000270: 9f69 8e3c 02f2 72bc 6b78 62bc 897a f53b
00000280: b0a4 8dbc b565 f1bb 299d db3b ce8d c4bb
00000290: fc24 103c 136f bdbc 0f93 df3c 9078 7c3c
000002a0: 3856 d0bc 9bd8 bbbb cc8a a4ba 73b0 3ebc
000002b0: f5cb 16bc 5aa6 203b 7730 cbbc 20fe 19b9
000002c0: 1739 2ebc a3ed e53c 6204 6cbc 0a69 a0bc
000002d0: b8e5 7f39 fcf1 12ba 0c47 f23b ffa6 653c
000002e0: f849 c5bc d544 babb 4530 b2bc b3cd 38bc
000002f0: 74c0 c5bc f0d1 833c d0c2 af3b ac4c 463c
00000300: ce6d 0dbc 0144 c8bb b708 063c 26a0 433b
00000310: 0e1f 803c e959 6ebc 3f11 733c a40c 423c
00000320: 233a 923b ef96 39bc 0886 44bb d508 a0bc
00000330: d7ff e6bc e06b 393c 2c54 7c3a 1637 50bc
00000340: c0b8 8c3c 49ed 04bc 0599 61bc 6406 0fbd
00000350: d97d 713c 809a 70bc a120 19bc e958 adbc
00000360: d0fc 93bc 3d21 bf3c 3adb 4d3c ceda 1339
00000370: ed51 08bc 20c9 b2bb 5980 ddbb b9a0 0ebc
00000380: 3069 403c 3eb5 973c 4113 f03b c99d f43c
00000390: dc1c 9abc 2c8b 623a cac0 8e3c 2f59 cdba
000003a0: bf86 10bc 7e5e 30bd e4f9 c03b 0116 e43b
000003b0: efe5 29bd 540e 0b3c 20ec d53b 24e5 e7bc
000003c0: 75da d23b e1f2 73b9 260e 2dbc dba7 e43a
000003d0: 218f c83b 4aee 013c 0197 ac3c 7b4a 00bc
000003e0: 39d9 bcbc 635a 4abc a441 40bc be7a d1bc
000003f0: 92e7 863b 4edc 01bb 946d 2fbd db26 bdba
0.019269882 0.02983586 0.00015854927 0.013866528 0.018000761 -0.019473534 0.01591158 -0.033263873
-0.0053156978 0.04073248 0.002752618 0.030080836 -0.01727926 -0.029951915 -0.00971901 0.010594463
0.01787708 0.027892573 -0.0008648224 -0.002175894 -0.0285053 -0.0033214248 0.021438593 -0.032355644
-0.025692329 -0.00919674 0.0001747232 -0.01928047 0.0073224995 -0.027461348 -0.035483778 0.018243624
-0.014743764 0.004944645 0.008064706 -0.0045956117 0.0025904444 -5.558068e-05 -0.03488912 0.015697377
-0.011863196 -0.0017807076 -0.025970088 0.0075256024 0.008128197 -0.007014306 0.010876437 0.0025373702
0.031505603 0.04828091 0.018962413 -0.0010484678 -0.041970238 -0.012018642 0.02346991 -0.028081369
-0.01326344 -0.0088611785 0.019437969 -0.0035570995 0.02066448 0.0067615826 0.013000211 -0.021217074
-0.010398216 0.020132432 0.01633792 -0.012701581 -0.0005500236 0.008445684 0.012134171 0.016312899
-0.006163677 -0.0052375006 0.0038116972 6.9748894e-05 -0.038594503 0.024577009 0.013816595 -0.04083275
-0.0052178344 0.030483088 0.015920375 -0.026315635 0.00620592 0.06294815 -0.0001919614 0.009710412
-0.0004580985 -0.020820523 -0.008180745 -0.01772147 -0.027298942 0.0016537391 0.008243473 -0.019403275
-0.008050206 -0.017130885 -0.0044306493 0.030494522 -0.0038760954 -0.017537009 -0.004348089 -0.012793278
0.057898346 0.013832602 0.015822805 -0.018654983 -0.010563445 -0.005612701 -0.03231784 0.04943799
0.020030336 0.0059450273 0.03991263 -0.031014288 -0.026263583 -0.013598225 -0.009980979 0.0025380375
-0.05280776 -0.015375155 0.03368867 0.0030553776 -0.0014204425 0.013457483 -0.0074182344 -0.024233328
0.0033568589 -0.003248454 -0.0013324379 -0.028774614 0.0013563762 0.006366187 -0.023683626 -0.015445921
-0.01572591 0.0014614305 0.018676424 -0.0062803393 0.011513427 0.0022467268 -0.00011090877 -0.013035142
0.004570689 -0.0039384314 0.019946644 0.019203342 0.0067555094 0.026629986 0.050367452 -0.015353915
0.009159391 -0.015089005 0.03533317 0.0012498366 0.017384348 -0.014828207 -0.013822655 0.007491414
-0.017290443 -0.0073668608 0.0067020846 -0.0059983497 0.00879788 -0.023124253 0.027291803 0.015409604
-0.025431737 -0.0057326085 -0.0012553572 -0.011638748 -0.009203901 0.0024513216 -0.024803383 -0.00014685886
-0.0106337285 0.028067416 -0.014405342 -0.019581337 0.00024404272 -0.00056055165 0.0073937234 0.014016866
-0.024083123 -0.005684475 -0.021751532 -0.011279511 -0.02413962 0.016091317 0.0053637996 0.012103241
-0.0086321365 -0.0061116223 0.008180789 0.0029850095 0.015639808 -0.014547803 0.014835655 0.011843834
0.004462497 -0.011327489 -0.0029987115 -0.019535461 -0.028198166 0.011317223 0.00096255797 -0.012708446
0.01717794 -0.008113214 -0.013769393 -0.034918204 0.014739477 -0.014685273 -0.009346158 -0.02116056
-0.018064886 0.023331279 0.012564475 0.00014100524 -0.008320314 -0.005456105 -0.006759685 -0.008705311
0.011743829 0.01851904 0.007326514 0.029860394 -0.01881259 0.0008641954 0.017425913 -0.0015666838
-0.0088211885 -0.043058865 0.0058891643 0.006960631 -0.041479047 0.008487303 0.0065283924 -0.028307505
0.0064347335 -0.00023264765 -0.010562455 0.0017445044 0.006120578 0.007930348 0.021068098 -0.0078302575
-0.023052799 -0.012350651 -0.0117344 -0.025571223 0.004116961 -0.001981515 -0.04282911 -0.0014431135

network_body._body_endoder.seq_layers.0.bias f4 [128]
00000000: 692e 34bb 82d7 73bb 8f6f 5a3b 775a 2f3a
00000010: cf71 cb3b 984d ecbb 3c7e c33b ded7 e23a
00000020: c11d 9b3b 32ba df3b 20e6 de3b 3f38 203b
00000030: ae97 bb3b f489 5aba f00b aa3b 7d5f f1ba
00000040: 4406 1c3b 3c51 8c3b efaf ad3a 021c ce3b
00000050: 6bdc b0bb 3a4e c6bb b31c 4bba 5e71 eebb
00000060: 0d22 9cb9 2922 fa3b 7f8c b5ba e127 6e39
00000070: 5855 80ba d607 4b3b 1322 e7bb 2153 e43b
00000080: d7af 1d3b cb3c dd3b 5360 e23b d077 bdba
00000090: 9779 36bb 7b2d 623b 3795 f63b 74b4 3bbb
000000a0: 5b87 f1bb 9911 833b 7aa3 80bb 8da6 d13b
000000b0: 7db2 aeba 60ed debb 10fb 993b 85ef a8ba
000000c0: a41f 153b e283 0c3b c079 bcbb b4e8 b13a
000000d0: 63b6 76bb fded d13b a61a 6639 d519 af39
000000e0: db90 bc3b 5c64 72bb 3a82 883b 7acc a83b
000000f0: 4199 cf3b d65d c1ba b816 0ebc c8d4 4d3a
00000100: 9754 a23b 3517 1bbb a37f 7a3b 6134 b93b
00000110: 922c f33b 0382 bf3b b1b1 e3bb 4c26 df3b
00000120: 7b3d 7d3b 043f 25bc d451 92ba a6f5 96bb
00000130: cfde bbbb baeb 963b 293d 15bb 5f49 f1ba
00000140: 703e c938 46e7 3abb 94fe 86b9 dcdd d33a
00000150: f87e 2b3a 43aa e5b8 1563 a439 7757 a13b
00000160: 0b5d 8a3a af23 863b 54bc c135 a0d4 b43b
00000170: 487e 4ebb 7bcf 04b9 830c 103a 54e6 0abc
00000180: 5f67 88bb b231 f2bb af02 433a 7c9a df3a
00000190: 5920 6fba a672 d9bb c4fb 843b 0aae 643b
000001a0: da57 79bb 292e d63b ca02 ef3b 6f93 1d3a
000001b0: 7188 933b f260 e638 92de 4ebb dc3d a03b
000001c0: ed74 de38 5dd1 edbb dcdb 3cbb 9f0e 49bb
000001d0: d8b6 a63b 20de 883b e05d a7bb efb5 733b
000001e0: f91e 0f3c a3ee a03a a57a f03a 26c2 0d3b
000001f0: 77c5 ccbb 274e 7739 bd79 9d3b 8c9d 44bb
-0.0027493483 -0.003720731 0.0033330654 0.00066892005 0.0062086354 -0.0072113983 0.005965976 0.0017306765
0.0047337716 0.006827616 0.0068023354 0.0024447588 0.0057248687 -0.00083365967 0.0051894113 -0.0018415299
0.0023807446 0.004282145 0.0013251285 0.00628996 -0.0053973696 -0.006051806 -0.0007748112 -0.007276698
-0.00029780008 0.0076334667 -0.0013851075 0.00022712305 -0.000979106 0.0030980012 -0.0070536225 0.0069679176
0.0024061108 0.006751632 0.0069084554 -0.0014455263 -0.002784347 0.0034511972 0.007525112 -0.0028641494
-0.007370872 0.0039999005 -0.003925738 0.006398028 -0.001332834 -0.0068031996 0.0046991184 -0.0012888765
0.0022754455 0.0021440913 -0.0057518184 0.0013573379 -0.0037645332 0.0064065442 0.00021944437 0.00033397847
0.005754573 -0.0036986088 0.004165915 0.0051513286 0.006335408 -0.0014752697 -0.008672409 0.0007851836
0.0049539316 -0.0023664956 0.003822305 0.005651996 0.0074210847 0.005844356 -0.0069486727 0.0068099853
0.0038641382 -0.010085825 -0.0011163303 -0.0046069203 -0.005733348 0.0046057375 -0.002277205 -0.0018408707
9.596057e-05 -0.0028519197 -0.00025748147 0.0016164142 0.0006542052 -0.00010951285 0.0003135434 0.0049237567
0.0010556293 0.0040936093 1.4434431e-06 0.005518511 -0.0031508375 -0.00012665793 0.00054950285 -0.008477766
-0.0041627134 -0.007391178 0.00074390596 0.001705959 -0.00091219466 -0.0066359816 0.004058333 0.0034893774
-0.0038046748 0.0065362644 0.0072940337 0.0006011044 0.004502349 0.00010985312 -0.0031565768 0.0048901867
0.00010607564 -0.007257624 -0.002881757 -0.003067888 0.0050877146 0.00417687 -0.0051076263 0.0037187298
0.008735412 0.001227815 0.0018347098 0.0021630614 -0.0062491256 0.0002358487 0.004805772 -0.0030001132

network_body._body_endoder.seq_layers.0.weight f4 [128, 44]
00000000: af86 b23d 01f2 ad3c 2e69 c13d b394 1e3e
00000010: 06d1 973d 81fb 463d d634 91bd 9d7f cb3d
00000020: e913 0d3e b8d5 95bc a637 93bd 7b14 023e
00000030: cdc4 8bbb ade6 cabd 794c 253e 7b4f 39be
00000040: ade8 8d3c 4095 3bbc cd78 50be 7c07 46bc
00000050: 84cb 093e 83e8 33bd c513 013e da96 00be
00000060: ae08 1abe 3b54 733c 2a16 43be 0c99 09be
00000070: d449 5bbe f79a 923e b496 71bd 5238 673d
00000080: e529 e23d 5e91 b63d 5e40 173d a803 953d
00000090: 0314 85bd 9a6f 9d3d 32b6 06be 67f7 68be
000000a0: d4e1 e7bd 7344 90bd 8c53 5ebd 44ec 1c3d
000000b0: 4c56 c33d e034 87be 6cb3 4a3b 574f 83bd
000000c0: ae07 9cbd 0bac 153d 2096 c83d f297 a73d
000000d0: 8322 753e af5a 3bbd 8b30 c1bd 2058 493d
000000e0: e45b ddbd 4901 53bd d843 5fbd a03d 03bd
000000f0: 1b0c 89be 4092 f0bd 056f d5bc 5200 203e
00000100: 7498 52be 0cda e2bd 7316 413e a48b 583d
00000110: 8b7c 8dbd 0679 8a3e 9b8a 80be 5fbc 22be
00000120: 8123 f1bd a0be 423d f9ca 8fbd d8b3 d8bc
00000130: 89f6 1cbe 0a25 60be 80e6 05bd e4b0 99bc
00000140: 0860 c3bd 98dc 6e3d 7f70 b7ba cd0c 943d
00000150: 6b23 5cbe 2023 153e 9806 5e3d 1f4d 4b3e
00000160: a473 9ebd bc0d ad3d fab6 4d3c 49e1 cf3d
00000170: 6cc5 d5bc 07f0 5ebe c422 773e 9bac 8dbd
00000180: e8d1 3d3e a9af ddbd 5d4e f6bd e3c5 49be
00000190: ded6 09be e142 123d e65e 4c3d 74d5 01be
000001a0: 3e4e 88bc 3a9c 1a3e df76 263d 4b0e 4cbd
000001b0: 9a9a 163e 2a12 9ebd 1105 23bc 2c22 8e3d
000001c0: df79 1b3d 25e5 47bd 3a89 2cbe ed4a 8cbe
000001d0: c4ff ccbd 847e 13be fd53 36be 5690 473d
000001e0: 72c5 debd 504b 72bc 4cb8 4abe cf76 afbd
000001f0: fd69 40be 5b5d 793e 9262 83be 1f51 4c3e
00000200: 173c 9fbd 2b08 3e3e d19b a4bd d9c0 ec3d
00000210: f545 91be 0571 593e fdc5 f4bd d922 263e
00000220: bddf 68bd 744e 07be 11fb 9c3e a220 ef3c
00000230: b031 2e3d 6702 f5bd 3274 e7bd ea95 6e3c
00000240: ca46 20bd 3583 5f3e ebce 7fbe 4dab 023e
00000250: 7a32 16be 8fc5 933d a0d7 00bd 067f 9dbd
00000260: 3769 66be 3cd4 253d e1ee a0bd 5d18 743e
00000270: 0c14 fd3d 0870 80bd 37ca 9bbe 745b e8bd
00000280: fa36 bbbb ab3b 8fbd 450a 80be f186 5cbc
00000290: 7d47 773d 7f61 8fbd 1d72 973c 4101 043e
000002a0: 40fa fc3d b690 a0bd 024f a03d 251e 1bbe
000002b0: 0473 9b3e d424 85be f9cc d3bc 3400 833e
000002c0: b609 36bd 65e8 0b3e 510d 5f3e 2c17 483e
000002d0: 1ef0 333e 1b76 bf3d 82d6 593e c1db 033c
000002e0: 9c4a d63d 0614 acbe 4bc1 0f3e 550b cbbd
000002f0: 958e 923d 90ec 8c3c f911 b8be 2dfc 3cbe
00000300: 9e33 a1bd 1576 94bd ef2b b9bc b69e 023e
00000310: 0961 a4bd c402 d0bd 995e 63bd b1f7 4fbd
00000320: 368f 90bc f202 8a3d b97d ddbd e68f 0dbe
00000330: 65a2 75be 9e43 183e 5dd3 e83d ffab 03be
00000340: 41a7 623e 8231 113d cd57 743d 0653 c2bd
00000350: 9809 733c 4551 e9bc 401f e43d 60eb 3dbe
00000360: dc05 7e3d 3c5f 7d3e 60d5 f03d da7e 18be
00000370: 5f52 343e 1c7b 003d 413c 80bc 1c6d 2a3d
00000380: bf8f 4b3c 2090 443b 3d2a 63bc 533b 9abd
00000390: f39e 2f3d 7298 1fbe 3955 84bd 2548 51be
000003a0: e5c0 0a3d 10b8 ff3d c65b 4dbd 6498 843c
000003b0: 1a6a d0bd 8818 0c3c 629f 923d 8dd1 48bc
000003c0: 4070 003d 3a20 efbd 36ce 94bc 3250 f13c
000003d0: f56d a2bc fd71 26bd bb93 eabd d6b5 ca3d
000003e0: 7869 ec3e 18b7 1abd 28a4 63bd 0bcd 5ebd
000003f0: dcc9 0bbd fcbc 5f3a 1013 1cbd 6e26 36bd
0.08717095 0.02123356 0.094438896 0.15486412 0.07412915 0.048579697 -0.07090156 0.0993645
0.13777126 -0.018290386 -0.071883485 0.12703125 -0.004265404 -0.09907279 0.16142453 -0.18096726
0.017322863 -0.011449158 -0.20358582 -0.012086745 0.13456541 -0.043922912 0.12605198 -0.12557545
-0.15042374 0.014851625 -0.19051424 -0.13437289 -0.21414882 0.28633854 -0.058981612 0.056450196
0.11043147 0.08914445 0.03692662 0.07276088 -0.064979576 0.07687302 -0.1315544 -0.22750627
-0.1132237 -0.07044306 -0.054278895 0.038311258 0.09537944 -0.26407528 0.0030929698 -0.06411617
-0.07618652 0.036541026 0.09794259 0.08183278 0.23938946 -0.04574078 -0.09433087 0.04915631
-0.10808542 -0.051514897 -0.05450806 -0.032041192 -0.26767048 -0.11746645 -0.026053915 0.15625122
-0.20565969 -0.110767454 0.1885622 0.052867547 -0.0690852 0.2704546 -0.25105748 -0.1589217
-0.1177435 0.047545075 -0.07021136 -0.026452944 -0.1532842 -0.2188913 -0.032690525 -0.018761106
-0.09539801 0.058315843 -0.0013995318 0.07229004 -0.21497886 0.1456418 0.054205507 0.19853638
-0.077369004 0.08449885 0.012555832 0.101503916 -0.026095115 -0.2177125 0.24134356 -0.069176875
0.18537104 -0.1082452 -0.12026665 -0.19704394 -0.13460872 0.035708312 0.04989519 -0.12679082
-0.016638871 0.15098658 0.040640708 -0.04981832 0.14707413 -0.07718308 -0.009949938 0.069401115
0.037958022 -0.048802514 -0.16849223 -0.27400914 -0.10009721 -0.1440373 -0.17805476 0.048721634
-0.108775035 -0.014788464 -0.19796866 -0.08567583 -0.18790431 0.24352019 -0.2566114 0.1995282
-0.07775133 0.18557803 -0.08037532 0.1156022 -0.28373685 0.2123452 -0.11951826 0.16224231
-0.056854 -0.13213521 0.30660298 0.029190365 0.042527854 -0.11963349 -0.11301459 0.0145621095
-0.03913001 0.21827395 -0.24981277 0.12760659 -0.14667693 0.07215416 -0.031455636 -0.076902434
-0.22501074 0.040485606 -0.078580625 0.23837419 0.12357339 -0.06271368 -0.30427715 -0.11345568
-0.005713341 -0.06993803 -0.25007835 -0.013459907 0.06037091 -0.07001018 0.01848703 0.12891103
0.12352419 -0.078401014 0.078275695 -0.15148218 0.30361187 -0.2600466 -0.025854575 0.25586092
-0.044442855 0.1366287 0.21782424 0.1954009 0.17572066 0.09348699 0.21273234 0.008047999
0.10463449 -0.33609027 0.14038579 -0.09914271 0.071561016 0.017202646 -0.35951212 -0.18455572
-0.07871173 -0.07249085 -0.022603957 0.12755856 -0.080263205 -0.101567775 -0.055510137 -0.050773326
-0.017646413 0.06738843 -0.10814995 -0.13824424 -0.2398773 0.14869544 0.11368439 -0.1285858
0.22134115 0.035447605 0.059654046 -0.09488492 0.01483383 -0.028481135 0.11138773 -0.1854682
0.062017307 0.2474336 0.11759448 -0.1489214 0.17609547 0.031367406 -0.015653731 0.04160796
0.012424408 0.0029993132 -0.013865051 -0.075308464 0.042876195 -0.15585497 -0.064615674 -0.20437677
0.033875365 0.12486279 -0.05013635 0.016185947 -0.10176487 0.008550771 0.07159306 -0.012256992
0.03135705 -0.116760686 -0.018164735 0.029457185 -0.019827822 -0.04063605 -0.114539586 0.09897964
0.46174216 -0.037772268 -0.055576473 -0.054394763 -0.034128055 0.0008534936 -0.038104117 -0.044470243

network_body._body_endoder.seq_layers.2.bias f4 [128]
00000000: 5308 ddbb 0cb7 efbb 8d2b f33b dd04 50bb
00000010: 46e2 a2bb 68ef ed3b c7ae a1bb 7e15 713b
00000020: 7558 103a 0c37 d7bb 5e16 9c3a 3462 f4bb
00000030: 77e3 f53b f050 ec3b a723 ab3b fd6d 83bb
00000040: 6387 a1bb a053 ecbb c0f8 643a 48b0 083b
00000050: 3188 e83b f60b 273b fe6c 3bb9 6834 8e3b
00000060: 606e f73b 79ee d03a 860b f73a 5c50 e13b
00000070: 64fd 753a 3d98 453b bd44 893b 31ba 5bbb
00000080: fb19 0b3b 25d4 2fbb aadd f0b9 6665 343a
00000090: 1638 0f3b 621d 8cba 2666 db3b de6d 90ba
000000a0: d254 9f3a f882 c7ba 07d9 fd3b f0c1 b1bb
000000b0: e04b 00bc 7591 b23b 9f5e 41bb 28be 07bc
000000c0: 8600 f7bb e36b 65bb 29d3 dfbb af7d fdba
000000d0: 0dd3 df3b b3fa ee3b 548b acbb e307 e33b
000000e0: de0c 4ab7 3543 3c3a d26d a2bb 354f ad38
000000f0: 5bed c8bb 1404 513a 0bfd b0bb 001d df3b
00000100: bf30 8f3b 3c4f edbb 84e2 1cbb 0025 ce3b
00000110: 715a 1a3b 39a5 9fbb 18a7 e6b9 8574 58bb
00000120: 39ad f73b 272b 2c3b e608 9bba 9061 d8ba
00000130: 2ba8 433b cbd6 54bb 30fa a3bb 730a 9e3b
00000140: 8429 8a3b 264f 01bc b037 d9bb 7ac2 3c3a
00000150: 9352 623a 1762 fbbb 0a5c a13a 2272 2cbb
00000160: 44fb 09bb 10a3 8a3b 45cd 293b 7b53 e53b
00000170: 6bde 8b3b d955 a0bb 6f52 98bb 6b5a 3c3b
00000180: c312 433b f372 bd3b b306 0d3c 9ff3 43bb
00000190: 5ab2 0cb9 c5b6 c83b c371 eb3a 7420 803b
000001a0: d8cf f5bb 43cb 2cbb 7ec2 90bb 6b98 e73b
000001b0: 06d4 cdb9 be25 e83b ffa2 f63b 98da e6bb
000001c0: 1d73 6ebb 5cec 57bb 48fb fbbb ea75 e53b
000001d0: aead ef3b aff7 b33b fb6f 313b 7e15 03bc
000001e0: b3bd 8b3b fc0d b73a e905 f8bb da75 13bb
000001f0: 440d a8bb 6178 c5bb 7b1d 89ba acbf b93b
-0.006745377 -0.007315522 0.007420963 -0.003174118 -0.0049708216 0.0072612055 -0.004934165 0.0036786492
0.0005506345 -0.0065678414 0.0011908521 -0.007457996 0.0075039226 0.007211797 0.005222756 -0.0040109144
-0.0049294694 -0.0072121173 0.00087345764 0.0020857025 0.0070963134 0.0025489307 -0.00017874312 0.0043397434
0.0075509995 0.0015940211 0.0018848039 0.0068760347 0.00093837664 0.0030150556 0.0041891024 -0.0033527727
0.0021225202 -0.002682933 -0.0004594152 0.00068815646 0.0021853498 -0.0010689909 0.0066955267 -0.0011019071
0.0012156016 -0.0015221527 0.007746819 -0.0054247305 -0.00783059 0.0054494687 -0.0029505861 -0.008285083
-0.007537904 -0.0035006932 -0.006830592 -0.0019339825 0.006830579 0.0072930693 -0.0052656326 0.0069284304
-1.2043134e-05 0.00071816455 -0.0049569393 8.264036e-05 -0.0061318106 0.0007973325 -0.005401259 0.006808877
0.0043698247 -0.0072421115 -0.0023938725 0.006291032 0.0023552442 -0.004871991 -0.00043993513 -0.0033028435
0.0075584915 0.0026270838 -0.0011828213 -0.0016508568 0.0029854875 -0.003247666 -0.00500419 0.004823023
0.004216375 -0.007892406 -0.006628953 0.000720061 0.00086335203 -0.0076716053 0.0012310755 -0.0026313146
-0.0021054307 0.0042308643 0.0025909704 0.006998477 0.0042684576 -0.0048930463 -0.0046484987 0.0028740417
0.0029765822 0.0057815253 0.008607554 -0.0029899848 -0.00013417882 0.0061253035 0.0017962981 0.0039101187
-0.0075015835 -0.002636627 -0.0044177165 0.00706773 -0.00039258617 0.0070845773 0.007526755 -0.0070451014
-0.003638453 -0.0032947278 -0.007689867 0.007002582 0.0073144054 0.0054921727 0.0027074802 -0.00800073
0.0042645573 0.001396596 -0.007569064 -0.0022500665 -0.0051285345 -0.006026313 -0.0010461056 0.005668601

network_body._body_endoder.seq_layers.2.weight f4 [128, 128]
00000000: 5541 3dbb 9139 323d 3b08 2a3c 6cf7 8ebd
00000010: d4e4 27bd 44b0 363e 8540 0cbd 3065 2abe
00000020: e9e3 283d 81b2 bdbd c4e5 4a3d 90a7 2fbe
00000030: d129 2b3e 7d93 b2bd 4d1f ddbd f1c4 f5b7
00000040: d51a fdbd 4b4d 46bd 145e d9bc 283c 2cbd
00000050: 343d d7bd f610 94bc ac86 9d3c dc76 1d3d
00000060: 07ec d8ba 356c 72bd 7c9e 073e 1417 543c
00000070: ba8e af3d f595 38bd 379a a2bd e177 1a3e
00000080: b512 1a3d dcc8 583d c6d8 13bd ea5c 16bd
00000090: 9195 c03d 1f5c a4bc 641d 67bb 1430 13bd
000000a0: e21c 133d a07e e0ba 6948 f13c fe5b 263d
000000b0: ed06 c83c 8e43 e0bc 0139 e73c d92a a2bd
000000c0: fc0e 0a3e d6fb f1bb 2c7a 37bd 9db6 943b
000000d0: 5b85 ebbc 0694 0fbd a138 0cbe acce b13c
000000e0: a289 8a3c c9e5 1b3e 7538 0c3c 2d05 6e3d
000000f0: 6fdc 903d ca8c 33bd 9726 7e3d d031 603d
00000100: f2cc 02be 01ec a5bd 334d d2bd 41c3 47be
00000110: 5719 383e dc5a 7e3d c54c aabd a485 db3d
00000120: 71dc b6bc 8a48 5cbd 2cd6 f3bc 7fe0 213d
00000130: 2741 19be d053 e9bb 1e04 78bc 8406 ab3c
00000140: aedb b3bd fdef 833d c3fe 02be d7e2 353d
00000150: 4cc1 27be 9c67 e83d bc86 0d3c 2bb7 cf3d
00000160: e3f6 84bd 8d67 aabd 623f babd c73b 90bd
00000170: c3f1 a63d 882a 943d c179 0abd 2956 7d3d
00000180: 7b38 073e f3dd b0bd 9b13 8abd 734b 31be
00000190: 7342 353d bedd 9dbd 20da 87be 05f4 f93d
000001a0: 9ea0 ba3d 9406 33be 0182 8fba a739 88bd
000001b0: 350c a4bd 8cca b5bd 6645 7ebd 2a3a 223e
000001c0: fecf d13d 6717 99bd dc8d bfbc f7f4 0cbc
000001d0: 3d69 d0bd 3f49 d53d af93 923c ccec 7ebd
000001e0: 1d80 bdbd dbd7 89bd aeb1 33bd d240 3fbe
000001f0: c914 8abd 275f c63d 0612 36be 3c47 07bd
00000200: c3b6 95bd fdfc 823d 3dbf 99bd df64 ed3c
00000210: 5b55 87bc 542e 24bc 7a7c 91bd f761 843d
00000220: 9629 44bd 7a2f d0bb f46f a5bd d20c 153e
00000230: 1a17 ab3c 14cc 66bd 4cb8 923c 23b9 e63c
00000240: a481 5f3e 8e9e 52bd e948 57bd 4ea4 bbbc
00000250: c656 d53c 97ad 10be f7b7 02be e0b5 103d
00000260: d9ba b23c 5bf4 2c3c 984f 1fbc 16b3 8e3c
00000270: 3488 20be f3db f23b 50af 3ebd 1070 8e3d
00000280: f893 ff3d 7548 393c 6aac 0c3d b4de 9cbd
00000290: 2801 e53d 6cab 9e3d 5b3c b5bd 9f8d 2f3b
000002a0: 2cb2 bf3d 2bac b2bb c2e0 51bc 6294 b5bc
000002b0: 6157 ac3d 3e12 d5bc da61 e3bb 510b c13d
000002c0: d238 08bd ac2f b4bd d43d 5a3d aa8d ae3d
000002d0: 8e0b 553d e33b 103d efa9 953d 2ae9 d53d
000002e0: 941e 54be 4495 3fbb 79c7 1c3d 7642 a13d
000002f0: b1d5 e53a 67fc 4a3e 29fa 21be 5180 05be
00000300: 2c38 8abd 9e96 c4bc e68a e53c e749 9e3d
00000310: c088 e53c 506b febc f088 6dbd 48e2 24be
00000320: 4ad0 29be 0978 d23d 9f1b 01bd 14ba 9fbd
00000330: 0279 e8bc 4af3 46be 5bd6 683d 2ff9 2cba
00000340: bb21 9e3b 3794 373d a38e f63c b9ec 47bd
00000350: 8bda 273c 6f24 b13c a753 bebc a8ac 533c
00000360: cdb1 d03d 47a9 5ebe bed0 44be 6018 f1bd
00000370: 0ccc 47bd bbaa 01be 733a eb3b ce72 dfbc
00000380: cf14 e23d c1e6 433d 6ef1 803c faa1 d1bc
00000390: f48a 8c3d d5a4 1dbb 0386 9ebd 01e5 533c
000003a0: 24c3 84bd 2a33 fd3d f721 7b3d 252d 87bd
000003b0: 12c6 1a3e 3fe3 923d eb2e fc3c f695 9d3d
000003c0: 7769 3abc e2ef f1bd 29ad 79bb 5965 8b3d
000003d0: 8861 a43d e538 0d3e d415 ccbc f111 27bc
000003e0: f4bc d2bc 3b11 213c c174 e43c 5b61 4abc
000003f0: 1690 f13d da68 c93c 91d2 60be 52da a5bd
-0.0028878052 0.04351193 0.010377939 -0.06980786 -0.040989712 0.17840677 -0.034241218 -0.16640162
0.041232977 -0.092625625 0.049535528 -0.17153764 0.1671517 -0.087195374 -0.10796986 -2.9297984e-05
-0.123586334 -0.048413556 -0.026534118 -0.042049557 -0.105097204 -0.018074494 0.019229256 0.03844343
-0.0016549834 -0.059185226 0.1324405 0.012944955 0.08572145 -0.045064885 -0.079395704 0.15084793
0.037615497 0.05292593 -0.036095403 -0.036709704 0.094035275 -0.020063458 -0.003526532 -0.035934523
0.035916217 -0.0017127581 0.029453473 0.040615074 0.024417365 -0.027375963 0.028225424 -0.07918329
0.13482279 -0.0073847575 -0.044794247 0.0045383708 -0.028750112 -0.035053276 -0.13693477 0.021704994
0.016911332 0.15224375 0.008558382 0.058110405 0.07073294 -0.04383544 0.06204852 0.054735005
-0.12773493 -0.08101655 -0.10268631 -0.19508077 0.17978416 0.06209837 -0.08315424 0.10718849
-0.022321912 -0.053780116 -0.029765211 0.039520737 -0.1496626 -0.007120587 -0.0151377 0.02087713
-0.08782135 0.064422585 -0.12792496 0.044405784 -0.1638233 0.11347887 0.00863808 0.101423584
-0.064924024 -0.08320532 -0.090941206 -0.070426516 0.08151581 0.07234675 -0.03380752 0.061849747
0.1320514 -0.086360835 -0.06742021 -0.17313938 0.044252824 -0.077083096 -0.26533604 0.12204746
0.091126665 -0.17482978 -0.0010948778 -0.06651621 -0.08010141 -0.088765234 -0.062077902 0.158425
0.102447495 -0.07475167 -0.023383074 -0.008603326 -0.101763226 0.10414361 0.017892687 -0.062237546
-0.09252951 -0.06730624 -0.04387062 -0.1867707 -0.06742246 0.096861176 -0.17780313 -0.03302692
-0.0731025 0.0639591 -0.07507179 0.028978763 -0.016520193 -0.010020811 -0.0710382 0.06463998
-0.047891222 -0.006353316 -0.08077994 0.14555672 0.02088504 -0.056346968 0.017910145 0.028164452
0.21826798 -0.05142074 -0.052559767 -0.022905495 0.026042353 -0.1412872 -0.1276549 0.0353297
0.021817612 0.010556306 -0.0097235665 0.01741938 -0.15676957 0.007411474 -0.04655391 0.06954968
0.12479395 0.011308779 0.034344114 -0.07659665 0.11181861 0.0774754 -0.088494025 0.0026787294
0.093601555 -0.005452653 -0.012809934 -0.022165481 0.08415104 -0.026009675 -0.006939155 0.094259866
-0.033257313 -0.08798155 0.05328162 0.08523114 0.052012973 0.035213362 0.07307803 0.10444863
-0.2071479 -0.0029233256 0.03827617 0.078740045 0.0017534998 0.19822846 -0.15818085 -0.1303723
-0.06748995 -0.023997601 0.028020333 0.077289395 0.028019309 -0.03105703 -0.057991922 -0.16101944
-0.16583362 0.10276801 -0.031520482 -0.077991635 -0.028378014 -0.19428745 0.05684505 -0.00065984105
0.0048257983 0.044819083 0.030097311 -0.04880974 0.010244976 0.021623818 -0.023233248 0.012919582
0.10190163 -0.21744262 -0.19220254 -0.11772227 -0.04877858 -0.12662785 0.0071785985 -0.027276423
0.11039125 0.047827486 0.015740123 -0.025589932 0.06862441 -0.0024054546 -0.077404045 0.012933017
-0.064825326 0.123632744 0.06131169 -0.066004075 0.1511462 0.0717225 0.030784091 0.076946184
-0.011377684 -0.11813332 -0.0038097596 0.0680644 0.08026415 0.13791235 -0.024912752 -0.010197149
-0.025724865 0.009830768 0.027887704 -0.012352313 0.1179506 0.02458613 -0.21955325 -0.08098282
