Unity Project/CSC 30014 Project/results/ppo/Car/Car-1408.pt (torch, 179407 bytes, 12 tensors)

network_body._body_endoder.seq_layers.0.weight f4 [128, 35]
000000 09 16 35 3c cc f9 86 3e a1 7c da bd 44 cb 08 3e
       0.011052617 0.26362455 -0.10668302 0.1335879
000010 c5 34 83 bd 0a 52 fc bc e2 ee 0e 3e 29 49 10 3d
       -0.06406549 -0.030800838 0.13958314 0.03522602
000020 66 19 f2 bb b7 f8 23 3d a8 8d 9b bd 5e 48 86 3d
       -0.0073882816 0.040032115 -0.07595378 0.06556772
000030 18 74 73 3e cc a6 e5 bd b9 24 4d 3d df 11 50 3e
       0.23774755 -0.112134546 0.05008385 0.20319317
000040 d2 2c 54 3e d7 63 c1 3d 27 e9 89 3d ea 7c 5a 3e
       0.20720223 0.09442871 0.067339234 0.21336713
000050 30 fc 12 be 06 93 26 3e 89 d9 29 3d 96 cf de 3d
       -0.14354014 0.16267022 0.041467223 0.108794376
000060 d1 7f f5 3d d9 82 39 3c 0e ab 7e be 6c a4 8e 3d
       0.1198727 0.0113227 -0.2486994 0.06964955
000070 0a bd 6c 3d dc 64 fc 3d fa 5b 68 be 3e 41 72 3d
       0.05779747 0.12323925 -0.22691336 0.05914425
000080 96 b8 a6 3d cd ae 32 3e 83 ac 6d be cd 62 ac 3d
       0.08140676 0.17449494 -0.23210339 0.08417282
000090 10 64 00 3e 44 34 53 be 7d 64 60 3e 65 21 0a 3e
       0.12538171 -0.20625407 0.21913333 0.13489302
0000a0 43 97 07 bd 87 16 8f 3d 88 d9 e4 ba 03 19 28 bc
       -0.03310324 0.069867186 -0.0017459849 -0.0102598695
0000b0 2b cf 26 bd ec a5 45 be 63 32 6c 3d 82 4c e1 3d
       -0.040724915 -0.19301575 0.05766524 0.11000921
0000c0 7b c3 90 be 05 7d 54 be d5 f0 98 bd 94 98 33 be
       -0.2827414 -0.20750816 -0.0746781 -0.17538673
0000d0 c2 a9 aa 3d 2f 53 2c 3e f4 d8 bf bc c6 ec 1c bd
       0.0833316 0.16828607 -0.023418881 -0.038311742
0000e0 bb 10 14 bd a3 bf 8c be d2 36 85 bd ee ff 37 be
       -0.036148768 -0.27489957 -0.06504597 -0.17968723
0000f0 ac 9f ec bd df 87 9f bd 01 82 90 bd 64 3e b7 bc
       -0.115538925 -0.07789587 -0.07056046 -0.022368617
000100 92 51 1c 3a 15 18 04 3e 10 33 d1 bb ff fb a8 3d
       0.00059630827 0.12899812 -0.006384261 0.082511894
000110 0a a9 46 3e 31 8e 08 3e 60 2a 2c 3d 47 93 80 3d
       0.19400421 0.13335492 0.0420326 0.06278091
000120 2f 8d 1b 3e 31 a2 12 3d 1d 39 5a bd 3e f9 a9 3e
       0.15190576 0.03579921 -0.053277124 0.3319797
000130 58 65 f7 3b ef 35 c3 3d 68 3b 39 3d 56 80 13 be
       0.007549923 0.095317714 0.04522267 -0.14404425
000140 3a 56 6d bc 95 ee 26 be 59 d6 96 bc 8b 93 a6 3d
       -0.01448589 -0.1630195 -0.018412756 0.0813361
000150 0c d1 cd 3d 5f ce dc bd 9b 1f fa 3d 48 d4 44 3d
       0.10049638 -0.1078155 0.122130595 0.04805401
000160 0a 81 11 3d 6b 6c 40 3e 95 21 3c bd 20 c2 f5 bd
       0.035523452 0.18791358 -0.045930464 -0.11999917
000170 a9 98 92 3d 0b b5 7e bd 34 fc 84 be a7 09 6f be
       0.07158024 -0.062184375 -0.25973666 -0.23343526
000180 f0 7f b3 bd 19 f0 88 bd 03 5a d0 3d 15 2a e0 3d
       -0.087646365 -0.0668642 0.101734184 0.109455265
000190 3a 4d da 3d be 3e c1 bc 90 17 be bd f7 28 81 bd
       0.10659261 -0.023589488 -0.09281838 -0.063066415
0001a0 d1 73 89 3e 43 d1 a6 bd c6 2f 8c 3b 16 a9 8c 3e
       0.26846173 -0.08145382 0.004278156 0.27472752
0001b0 81 a4 e5 3d df ee 1b be cd 71 09 3e 05 30 b1 3e
       0.11213017 -0.15227841 0.13422318 0.34606948
0001c0 ce 39 39 be ee 3f ad bd 32 b1 ef 3d da f1 79 bd
       -0.18088457 -0.08459459 0.11703719 -0.061021663
0001d0 da 20 4d be e6 55 00 bd 9a 5b 7f be 92 e2 45 be
       -0.20032063 -0.03133192 -0.24937287 -0.19324711
0001e0 3f f1 a5 3d eb 4e 32 bd 89 e2 29 be 8a fa 8f be
       0.08102655 -0.043532293 -0.16590323 -0.28120834
0001f0 07 3a 8a 3d 3d 20 50 3e 9b 3e 82 be db 33 34 be
       0.06749349 0.20324798 -0.2543839 -0.17597906
000200 28 9e 33 be 67 dc 55 bd 48 5f 60 be f6 eb ac 3e
       -0.175408 -0.052212145 -0.21911347 0.33773774
000210 37 65 33 3e 29 ee 1e be ab 90 a4 3e 62 75 46 3d
       0.17519079 -0.15520538 0.32141623 0.04845179
000220 28 b3 f7 bd a6 05 44 be a9 8e ab 3e 0d 37 d1 bd
       -0.12094718 -0.1914278 0.3350728 -0.10215578
000230 e1 a7 21 be b7 0a ee 3d 7f db dd bc 33 1d 0c be
       -0.15786697 0.116231374 -0.027082203 -0.13683014
000240 e8 67 98 bd e1 ad aa be 5c 35 49 3e 54 2c 27 be
       -0.074416935 -0.33335784 0.19649261 -0.16325504
000250 06 e1 cb 3c e4 5b 91 3d ff d8 1d 3c 2e 45 95 be
       0.024887573 0.07097605 0.009634255 -0.29154342
000260 45 e8 84 be 17 79 0f 3e e7 9b 19 3e c2 e1 67 bd
       -0.25958458 0.14011036 0.15000878 -0.056611784
000270 b3 e6 6e 3b a1 df 3b be f0 b8 d8 3e 58 2c 78 be
       0.0036453425 -0.18347026 0.42328596 -0.24235666
000280 fc 3d 16 3e 3d 04 90 3e a7 60 66 3e 4d fa 83 be
       0.14672083 0.28128234 0.22497807 -0.25776902
000290 0d d8 46 bd e3 c7 6c be 57 a5 8e 3e 37 b1 a0 be
       -0.048545886 -0.23123126 0.2786052 -0.31385204
0002a0 31 c0 84 be 53 bf 5f 3e e5 aa 7a bd 79 dc 71 3e
       -0.2592788 0.21850328 -0.061198134 0.2361926
0002b0 c0 16 e0 3d ce a7 27 3e a7 d5 5d 3e c1 32 b1 3c
       0.10941839 0.16372606 0.21663533 0.021630647
0002c0 7d 2d c1 bc 3c 0c bb 3d 91 5b cf bd e4 e6 a0 3e
       -0.02358126 0.09133193 -0.10124887 0.31426156
0002d0 54 69 e9 3c 53 14 ab bc bb 9a a2 3e 09 9c 5b be
       0.028492607 -0.020883715 0.31758675 -0.21446241
0002e0 3b dc 7c 3e a2 be 00 be 88 d7 b9 bd 51 7e 3b 3e
       0.24693386 -0.1257272 -0.090743124 0.18309905
0002f0 97 8f 64 3d 75 f2 af bd f2 12 ad 3e d2 40 63 3b
       0.055801 -0.08591167 0.33803517 0.0034676087
000300 ce d3 3a 3e f1 cc 27 bd fa c5 cf 3d 62 41 66 3d
       0.1824486 -0.04096693 0.10145183 0.056214698
000310 f7 ad 69 3d 3a b4 e7 bd 12 08 28 3d 46 c0 3d 3e
       0.05705067 -0.11313672 0.04102332 0.18530378
000320 cf 0c 31 be 20 32 54 bc d5 34 46 3e 1a ef 11 3e
       -0.17290042 -0.012951404 0.19356091 0.14251366
000330 28 bc 24 3d 76 e2 04 be 51 07 05 bd 72 5b b2 3c
       0.040218502 -0.12977013 -0.03247768 0.02177212
000340 1e 3d b0 3d 88 b7 15 bd f3 01 53 3d 22 9f e7 bd
       0.08605407 -0.036551982 0.05151553 -0.11309649
000350 e8 0c 26 be 03 87 98 3c 56 64 c0 3d fa 95 95 3b
       -0.16215861 0.018619066 0.093941376 0.0045649977
000360 ad 97 c2 bd 7a 1a 24 be 7c f7 42 be 59 e0 0f 3e
       -0.09501586 -0.16025725 -0.1903972 0.14050426
000370 ba c3 d7 bc 84 80 56 bd 3c b3 48 3e 22 27 8f 3e
       -0.026338447 -0.052368656 0.19599622 0.27959543
000380 42 f7 70 bd 5e 4f a1 be c5 37 1d be f9 55 89 bd
       -0.058829553 -0.31505865 -0.15353306 -0.06705851
000390 b1 a0 a5 be 74 27 69 3e a2 69 24 be 05 28 23 3e
       -0.3234916 0.22768956 -0.1605592 0.15933235
0003a0 e7 b0 c1 3b 48 72 8f be fb 77 8f be 8e 35 5b bd
       0.005910981 -0.28016877 -0.28021225 -0.05351787
0003b0 04 95 cf 3d b1 98 03 3e 5c 95 6f bd 94 ba 49 bd
       0.10135844 0.12851216 -0.05849205 -0.0492502
0003c0 02 6f 0a be c7 73 4b be 64 02 29 3d 7b b0 35 3e
       -0.13518909 -0.19868384 0.041262046 0.17743103
0003d0 ee d8 eb 3d 09 28 2e be 8e 56 19 3c 49 73 14 3d
       0.115159854 -0.1700746 0.009359015 0.036242757
0003e0 4f bb 71 3e 98 ff e3 3d 8d 69 47 3d d4 86 1c 3e
       0.23606609 0.11132735 0.048684645 0.15285808
0003f0 f3 72 4f bd 88 2a 82 3e ca 2b b6 3e e5 13 1c be
       -0.050646733 0.25423074 0.35580283 -0.15241964

network_body._body_endoder.seq_layers.0.bias f4 [128]
000000 00 00 00 00 00 00 00 00 00 00 00 00 00 00 00 00
       0.0 0.0 0.0 0.0
000010 00 00 00 00 00 00 00 00 00 00 00 00 00 00 00 00
       0.0 0.0 0.0 0.0
000020 00 00 00 00 00 00 00 00 00 00 00 00 00 00 00 00
       0.0 0.0 0.0 0.0
000030 00 00 00 00 00 00 00 00 00 00 00 00 00 00 00 00
       0.0 0.0 0.0 0.0
000040 00 00 00 00 00 00 00 00 00 00 00 00 00 00 00 00
       0.0 0.0 0.0 0.0
000050 00 00 00 00 00 00 00 00 00 00 00 00 00 00 00 00
       0.0 0.0 0.0 0.0
000060 00 00 00 00 00 00 00 00 00 00 00 00 00 00 00 00
       0.0 0.0 0.0 0.0
000070 00 00 00 00 00 00 00 00 00 00 00 00 00 00 00 00
       0.0 0.0 0.0 0.0
000080 00 00 00 00 00 00 00 00 00 00 00 00 00 00 00 00
       0.0 0.0 0.0 0.0
000090 00 00 00 00 00 00 00 00 00 00 00 00 00 00 00 00
       0.0 0.0 0.0 0.0
0000a0 00 00 00 00 00 00 00 00 00 00 00 00 00 00 00 00
       0.0 0.0 0.0 0.0
0000b0 00 00 00 00 00 00 00 00 00 00 00 00 00 00 00 00
       0.0 0.0 0.0 0.0
0000c0 00 00 00 00 00 00 00 00 00 00 00 00 00 00 00 00
       0.0 0.0 0.0 0.0
0000d0 00 00 00 00 00 00 00 00 00 00 00 00 00 00 00 00
       0.0 0.0 0.0 0.0
0000e0 00 00 00 00 00 00 00 00 00 00 00 00 00 00 00 00
       0.0 0.0 0.0 0.0
0000f0 00 00 00 00 00 00 00 00 00 00 00 00 00 00 00 00
       0.0 0.0 0.0 0.0
000100 00 00 00 00 00 00 00 00 00 00 00 00 00 00 00 00
       0.0 0.0 0.0 0.0
000110 00 00 00 00 00 00 00 00 00 00 00 00 00 00 00 00
       0.0 0.0 0.0 0.0
000120 00 00 00 00 00 00 00 00 00 00 00 00 00 00 00 00
       0.0 0.0 0.0 0.0
000130 00 00 00 00 00 00 00 00 00 00 00 00 00 00 00 00
       0.0 0.0 0.0 0.0
000140 00 00 00 00 00 00 00 00 00 00 00 00 00 00 00 00
       0.0 0.0 0.0 0.0
000150 00 00 00 00 00 00 00 00 00 00 00 00 00 00 00 00
       0.0 0.0 0.0 0.0
000160 00 00 00 00 00 00 00 00 00 00 00 00 00 00 00 00
       0.0 0.0 0.0 0.0
000170 00 00 00 00 00 00 00 00 00 00 00 00 00 00 00 00
       0.0 0.0 0.0 0.0
000180 00 00 00 00 00 00 00 00 00 00 00 00 00 00 00 00
       0.0 0.0 0.0 0.0
000190 00 00 00 00 00 00 00 00 00 00 00 00 00 00 00 00
       0.0 0.0 0.0 0.0
0001a0 00 00 00 00 00 00 00 00 00 00 00 00 00 00 00 00
       0.0 0.0 0.0 0.0
0001b0 00 00 00 00 00 00 00 00 00 00 00 00 00 00 00 00
       0.0 0.0 0.0 0.0
0001c0 00 00 00 00 00 00 00 00 00 00 00 00 00 00 00 00
       0.0 0.0 0.0 0.0
0001d0 00 00 00 00 00 00 00 00 00 00 00 00 00 00 00 00
       0.0 0.0 0.0 0.0
0001e0 00 00 00 00 00 00 00 00 00 00 00 00 00 00 00 00
       0.0 0.0 0.0 0.0
0001f0 00 00 00 00 00 00 00 00 00 00 00 00 00 00 00 00
       0.0 0.0 0.0 0.0

network_body._body_endoder.seq_layers.2.weight f4 [128, 128]
000000 b2 82 19 3d 5d 03 37 3d a9 12 c5 3d 57 ab 5f 3d
       0.037478156 0.04468094 0.096227 0.05460676
000010 fb 96 2a 3d a4 ce 46 3c a5 9b d6 bd 49 e6 bb 3d
       0.041647892 0.012134228 -0.104789056 0.09174783
000020 3f 40 ee 3b a0 ee 86 bd 2b 8c b1 3d f5 39 2f be
       0.0072708423 -0.06588483 0.08669313 -0.17111953
000030 60 0e 73 be 8a 9f 01 3d 9c bd c7 bc 80 6c 48 3d
       -0.23735952 0.03164629 -0.024382405 0.0489316
000040 9f 81 88 be a7 7d 17 be 18 34 26 be 02 22 bb bc
       -0.26661393 -0.14794026 -0.1623081 -0.022843365
000050 51 e2 eb 3d 45 47 fb 3d 6c 4b 02 be a6 c7 c9 3c
       0.11517776 0.12269453 -0.12724084 0.024631333
000060 79 53 bd bd 2a 9a 20 bd 65 21 31 3e 7f ce 56 bc
       -0.09244437 -0.039209522 0.17297895 -0.013110756
000070 90 2b 04 3d f8 8c 8d 3d 5b ae 38 bd b7 14 01 be
       0.032268107 0.06911653 -0.045088153 -0.12605558
000080 f9 6e bb 3c 58 46 87 ba 44 64 b7 3c 34 78 9e 3c
       0.022880064 -0.0010320647 0.022386678 0.019344427
000090 ea 36 6c 3d a0 32 bd bd 0f 54 3a 3d e0 c3 81 3d
       0.057669558 -0.092381716 0.04549032 0.06336188
0000a0 5a a2 f1 bd 8f 08 a1 bd 13 f5 a6 bb 6c e6 c9 bb
       -0.11798544 -0.078629605 -0.005095133 -0.0061615016
0000b0 c8 0f 85 3d 9a 80 91 3c 20 88 a5 bd a2 42 22 3e
       0.06497151 0.017761517 -0.080826044 0.15845731
0000c0 01 23 b1 bd 6c 18 8e 3d 29 01 b2 bd c5 c4 bf 3d
       -0.086492546 0.06938252 -0.086916275 0.09363703
0000d0 84 b2 11 be 23 69 19 be 97 4e 0b be 7c 81 f7 3d
       -0.14228255 -0.14981513 -0.13604198 0.12085244
0000e0 43 c2 96 bd 90 9b 07 bc 19 77 36 be e2 2f a2 3b
       -0.07361271 -0.008276835 -0.1781887 0.0049495557
0000f0 1a 9f 8a bd 9f 73 a1 3b 0d 7f 82 be 64 67 c9 3d
       -0.067686275 0.004927113 -0.25487557 0.09834173
000100 4f 45 20 3d 6d 9b 73 bd 69 6a f9 bb 71 10 31 bd
       0.039128598 -0.059474397 -0.007611562 -0.04322857
000110 12 77 b7 3d f2 e9 03 bd c2 be 90 3d a0 22 47 3d
       0.08958258 -0.03220553 0.07067634 0.048617005
000120 c0 86 e7 bc a0 d1 0e 3c 66 09 d1 bc cd c3 97 bb
       -0.028262496 0.008716971 -0.025517177 -0.0046314956
000130 06 43 04 3e 33 d6 a1 bc 4b 68 22 be 6d 2a 35 bc
       0.12916192 -0.019755458 -0.15860097 -0.011057478
000140 d0 0e 17 3e a2 dd c2 3d 14 3f 07 3c 51 bb 27 bd
       0.14751744 0.09514929 0.008254785 -0.040950123
000150 ff 08 95 bd fc 73 8e 3d 94 88 d6 3d 07 79 30 bd
       -0.072771065 0.06955716 0.10475269 -0.04308417
000160 88 17 29 3d 55 a9 4e 3c 16 ad ab 3c 4d 30 eb bd
       0.041282207 0.012613614 0.020956557 -0.11483822
000170 4c 45 76 3a f8 f6 2a 3d c6 25 88 3d 1a ee 1e 3d
       0.00093944813 0.041739434 0.0664783 0.03880129
000180 90 b3 56 bd 2d fc fc 3d 08 12 4d bd f8 2d eb 3d
       -0.052417338 0.12352786 -0.050066024 0.11483377
000190 8f ea 5d 3d 36 21 c5 3c f8 80 06 3e 9a 91 dc 3d
       0.05417877 0.024063688 0.13135135 0.10769959
0001a0 88 d6 9b bc 52 ab 2c 3d f3 cd ad 3d c1 74 b0 bd
       -0.019023195 0.04215557 0.08486547 -0.08616019
0001b0 b6 b1 f3 3b 12 6b b1 bd bd 4c 40 bd 3a 58 11 3c
       0.0074369563 -0.08663 -0.046948183 0.0088711325
0001c0 f1 09 45 3d 00 32 f7 bc e4 74 14 bd da 66 d4 bc
       0.048105184 -0.030175209 -0.036244288 -0.02592795
0001d0 70 2f 10 3d 50 5a fb 3d a9 cb 0f bd 72 54 fd bd
       0.03520149 0.12273085 -0.035106335 -0.12369622
0001e0 ed 6a db 3d 22 59 18 3e 6f 45 ed 3c 4a 20 a6 3d
       0.10713754 0.14877751 0.028963773 0.081116274
0001f0 31 3c f0 3d 5b cb f7 3d 55 e3 3c bd 24 20 b6 bc
       0.117302306 0.12099334 -0.04611524 -0.022232123
000200 6f d0 33 3d 27 85 83 3c 9d 95 86 3d fe 52 c9 3d
       0.04389995 0.016054703 0.06571505 0.09830283
000210 1b 18 58 3c c8 05 64 3d b3 b9 38 3e e6 e5 0f 3d
       0.013189341 0.055669576 0.18039589 0.035131358
000220 79 95 cf 3c e8 94 19 3e 95 2c 87 bd 78 5a a0 be
       0.025339829 0.1499821 -0.066003 -0.31319022
000230 93 1c d0 bd c9 b3 c9 bd e6 33 5a bd 88 d9 24 3e
       -0.101617 -0.098487444 -0.05327215 0.16098607
000240 b0 1d 0c be 17 2b 1e be 00 35 93 bd 61 72 57 3d
       -0.136832 -0.15446125 -0.07187843 0.052599315
000250 05 04 bf b9 03 3f ae 3d c4 fe 09 3d 6d 72 3f 3d
       -0.00036433354 0.08508112 0.03369023 0.046739984
000260 00 25 43 be e0 46 b6 bd aa f5 08 3e ba af ed ba
       -0.19057083 -0.08900237 0.13374963 -0.0018134036
000270 4d 2f 10 be bc 72 ad 3d 51 4c a8 bc cb ff 6b bd
       -0.14080544 0.084691495 -0.020544203 -0.05761699
000280 8c c9 35 bd f7 46 ce bd 76 97 30 be 1e 2f 1f 3e
       -0.044381663 -0.10072129 -0.17245278 0.15545318
000290 a8 51 4e 3e 6b 82 fc 3d 9f 4e 82 3d 83 9b 9d 3c
       0.20148337 0.12329563 0.06362652 0.019239193
0002a0 bf d8 3a be 9a 85 d6 3c d1 0b dc bc a8 ec bc bd
       -0.18246745 0.026186753 -0.026861103 -0.09224826
0002b0 a8 04 49 be ed 50 2d 3e f4 9c 15 3d 9d 1e bc 3d
       -0.19630682 0.16925402 0.036526635 0.091855265
0002c0 5b ac 73 3e 4b 26 d6 3d 97 b3 4d bd 77 00 a5 3c
       0.23796217 0.104565226 -0.0502201 0.020141823
0002d0 3b d0 60 3d fe 36 2b be 6c a2 21 3e 50 b7 0a 3d
       0.054886084 -0.16720197 0.15784615 0.033866227
0002e0 b6 6f 91 3d 81 f9 71 bd 17 3f f8 bc 66 cf 2a bc
       0.07101385 -0.059075836 -0.030303521 -0.010425424
0002f0 32 54 14 3b 6e 59 d1 3d 46 11 af bd 88 8f f0 3c
       0.0022633192 0.102221355 -0.085482165 0.029365316
000300 c3 2b 21 3d 6c 91 d1 bd 62 bb 98 3d 3e 65 07 3e
       0.039348375 -0.10232815 0.074576154 0.13222215
000310 ca 51 46 be e4 c1 80 bc 69 47 c2 bc 8f 4e 0f be
       -0.19367138 -0.015717454 -0.023715692 -0.13994811
000320 3c e4 f0 3d 32 cb 14 3d a3 a1 e2 bd bb d9 a6 3d
       0.11762282 0.036326595 -0.11065986 0.081469975
000330 61 2a ea 3d b1 36 05 be 85 17 03 3e c3 7b 76 3c
       0.114338644 -0.13009144 0.1280194 0.0150441555
000340 41 2b 07 be cf bb 35 3e d4 e9 88 bd 9a ea 08 bc
       -0.13200094 0.17747425 -0.06685224 -0.008356715
000350 a0 4f 31 3d bb 92 e7 3c ca ad 13 3e eb ac 92 bd
       0.043288827 0.028268209 0.14421764 -0.07161888
000360 cd ed 0a 3c 29 65 30 3e 8a c6 c2 3d c7 88 1b be
       0.008479548 0.1722609 0.095105246 -0.15188895
000370 01 a0 6b bd 43 95 22 3d e2 b1 cc bd bc ec 13 3e
       -0.05752564 0.03969313 -0.09994866 0.14445776
000380 94 52 ff 3c 2d 91 85 3d 05 fe d6 bd b6 e1 89 3d
       0.031167306 0.06521831 -0.10497669 0.06732504
000390 1c 25 90 3d 85 73 04 3e 38 39 6c bd a1 39 01 bd
       0.07038328 0.12934692 -0.057671756 -0.0315491
0003a0 38 2e 70 3d 80 fe c0 3d b6 45 a0 3d 95 91 a2 bc
       0.058637828 0.09423542 0.07825796 -0.01984481
0003b0 f4 c0 8d bd f7 b4 20 3e ef 83 23 3d 69 60 96 bc
       -0.069215685 0.15694033 0.039920744 -0.018356519
0003c0 66 05 5e 3d df 24 0e 3d 9d 00 8a bc 30 11 39 bd
       0.054204367 0.03470313 -0.016845996 -0.045182407
0003d0 f5 e2 a8 3d 28 2d 68 3d 9c 34 30 bd 72 ae 9e 3d
       0.082464136 0.05668369 -0.043018922 0.077481166
0003e0 43 84 e5 bd 92 3d 2b bd 68 64 1d bd cb 3a dd 3d
       -0.112068675 -0.041806765 -0.038425833 0.108022295
0003f0 c5 b7 0e 3c 03 63 01 3d 45 6f 9a 3d 86 f6 b3 bd
       0.008710806 0.031588566 0.07540754 -0.08787255

network_body._body_endoder.seq_layers.2.bias f4 [128]
000000 00 00 00 00 00 00 00 00 00 00 00 00 00 00 00 00
       0.0 0.0 0.0 0.0
000010 00 00 00 00 00 00 00 00 00 00 00 00 00 00 00 00
       0.0 0.0 0.0 0.0
000020 00 00 00 00 00 00 00 00 00 00 00 00 00 00 00 00
       0.0 0.0 0.0 0.0
000030 00 00 00 00 00 00 00 00 00 00 00 00 00 00 00 00
       0.0 0.0 0.0 0.0
000040 00 00 00 00 00 00 00 00 00 00 00 00 00 00 00 00
       0.0 0.0 0.0 0.0
000050 00 00 00 00 00 00 00 00 00 00 00 00 00 00 00 00
       0.0 0.0 0.0 0.0
000060 00 00 00 00 00 00 00 00 00 00 00 00 00 00 00 00
       0.0 0.0 0.0 0.0
000070 00 00 00 00 00 00 00 00 00 00 00 00 00 00 00 00
       0.0 0.0 0.0 0.0
000080 00 00 00 00 00 00 00 00 00 00 00 00 00 00 00 00
       0.0 0.0 0.0 0.0
000090 00 00 00 00 00 00 00 00 00 00 00 00 00 00 00 00
       0.0 0.0 0.0 0.0
0000a0 00 00 00 00 00 00 00 00 00 00 00 00 00 00 00 00
       0.0 0.0 0.0 0.0
0000b0 00 00 00 00 00 00 00 00 00 00 00 00 00 00 00 00
       0.0 0.0 0.0 0.0
0000c0 00 00 00 00 00 00 00 00 00 00 00 00 00 00 00 00
       0.0 0.0 0.0 0.0
0000d0 00 00 00 00 00 00 00 00 00 00 00 00 00 00 00 00
       0.0 0.0 0.0 0.0
0000e0 00 00 00 00 00 00 00 00 00 00 00 00 00 00 00 00
       0.0 0.0 0.0 0.0
0000f0 00 00 00 00 00 00 00 00 00 00 00 00 00 00 00 00
       0.0 0.0 0.0 0.0
000100 00 00 00 00 00 00 00 00 00 00 00 00 00 00 00 00
       0.0 0.0 0.0 0.0
000110 00 00 00 00 00 00 00 00 00 00 00 00 00 00 00 00
       0.0 0.0 0.0 0.0
000120 00 00 00 00 00 00 00 00 00 00 00 00 00 00 00 00
       0.0 0.0 0.0 0.0
000130 00 00 00 00 00 00 00 00 00 00 00 00 00 00 00 00
       0.0 0.0 0.0 0.0
000140 00 00 00 00 00 00 00 00 00 00 00 00 00 00 00 00
       0.0 0.0 0.0 0.0
000150 00 00 00 00 00 00 00 00 00 00 00 00 00 00 00 00
       0.0 0.0 0.0 0.0
000160 00 00 00 00 00 00 00 00 00 00 00 00 00 00 00 00
       0.0 0.0 0.0 0.0
000170 00 00 00 00 00 00 00 00 00 00 00 00 00 00 00 00
       0.0 0.0 0.0 0.0
000180 00 00 00 00 00 00 00 00 00 00 00 00 00 00 00 00
       0.0 0.0 0.0 0.0
000190 00 00 00 00 00 00 00 00 00 00 00 00 00 00 00 00
       0.0 0.0 0.0 0.0
0001a0 00 00 00 00 00 00 00 00 00 00 00 00 00 00 00 00
       0.0 0.0 0.0 0.0
0001b0 00 00 00 00 00 00 00 00 00 00 00 00 00 00 00 00
       0.0 0.0 0.0 0.0
0001c0 00 00 00 00 00 00 00 00 00 00 00 00 00 00 00 00
       0.0 0.0 0.0 0.0
0001d0 00 00 00 00 00 00 00 00 00 00 00 00 00 00 00 00
       0.0 0.0 0.0 0.0
0001e0 00 00 00 00 00 00 00 00 00 00 00 00 00 00 00 00
       0.0 0.0 0.0 0.0
0001f0 00 00 00 00 00 00 00 00 00 00 00 00 00 00 00 00
       0.0 0.0 0.0 0.0

action_model._continuous_distribution.log_sigma f4 [1, 2]
000000 00 00 00 00 00 00 00 00
       0.0 0.0

action_model._continuous_distribution.mu.weight f4 [2, 128]
000000 0c 75 98 3b 97 df 2d 3c 90 48 9e bc 53 49 6f bc
       0.004652625 0.01061239 -0.01932171 -0.014604884
000010 b5 f4 57 bb bd 82 92 3c 1f e9 28 3b ce 58 07 3c
       -0.0032952253 0.017884606 0.0025773717 0.008260919
000020 07 2f 88 3c 1d 82 b9 3c 68 ec ed 3b bb a2 d9 bc
       0.016623987 0.02264505 0.007260848 -0.026566854
000030 3b fe 04 3c 74 3d 23 3c 2c da 30 3c cb 6d 89 bc
       0.008117254 0.009963382 0.010794204 -0.016775986
000040 55 f9 88 3c 87 9b b3 3b 33 13 8e bc b7 f5 8c bc
       0.016720453 0.005481187 -0.01734314 -0.01720701
000050 53 8e 32 bb 2a e9 08 3c 1f 7d 80 3d 30 07 e4 3b
       -0.0027245476 0.008356372 0.06273865 0.0069588646
000060 43 cb 36 3b 13 41 04 bc 37 a4 43 3c 02 2f 9e bc
       0.002789215 -0.0080721555 0.011941007 -0.019309524
000070 33 a6 0c 3c 93 93 7f 3b 42 47 7a 3b 98 b4 c4 bc
       0.008584547 0.0038997873 0.0038189446 -0.024011895
000080 7f 9b de bc bd 47 eb 3c 33 8c 9b 3c d3 96 08 3c
       -0.027173756 0.02872073 0.01898775 0.008336741
000090 59 5e 84 bc 02 04 e9 bc 58 f6 ff 3b 9f 32 97 3c
       -0.01615827 -0.028444294 0.007811349 0.018456755
0000a0 87 3c d0 bb 58 b0 45 3c 5b 14 a7 3a 16 8d 8b 3c
       -0.0063548717 0.012065969 0.0012747155 0.017035048
0000b0 ab 76 b1 3c da 3b 51 3c 22 5a b7 3b 90 d0 cc 3b
       0.02166303 0.012770617 0.0055954615 0.0062504485
0000c0 57 f9 f4 3c 70 09 c3 3c 27 7e e2 3a b2 de 1a bd
       0.02990405 0.023808211 0.0017280028 -0.037810035
0000d0 8f c6 b4 3c 7d 05 ab bb 69 85 b3 3b fd 75 10 3d
       0.022067336 -0.00521916 0.00547855 0.035268772
0000e0 2a fe 96 bc a9 06 2c 3c 38 73 fb 3b 1f 57 84 3a
       -0.018431742 0.010499635 0.0076736473 0.0010096765
0000f0 b6 c7 ca 3c 99 de 83 bc 3b a7 cc bc 3a e6 4c 3c
       0.024753433 -0.016097354 -0.024982085 0.012506062
000100 5f ba 04 bd a3 81 ed 3c a3 bd 29 bb 40 03 a4 3c
       -0.0324043 0.02899248 -0.0025900386 0.020021081
000110 3f 51 ab bb ff 86 1d bc e5 a0 48 bc b2 23 da ba
       -0.005228191 -0.009614705 -0.0122453915 -0.0016642718
000120 71 45 9a bc fd 33 f2 bb 7f b8 05 3c e8 75 d8 3c
       -0.01883194 -0.0073914514 0.008161663 0.02642341
000130 a7 b8 a8 39 5c 33 2c 3c 98 c3 67 bc fc d1 93 bc
       0.00032181034 0.010510292 -0.014145754 -0.018044464
000140 24 a9 48 bc ea 89 98 bb 54 a9 96 bc 46 58 21 bc
       -0.0122473575 -0.0046551125 -0.018391289 -0.009847706
000150 98 91 0c b9 ac 67 98 3c 32 3f f1 ba 93 13 0c bd
       -0.00013405678 0.018604122 -0.0018405674 -0.034198355
000160 53 2c 41 bd 01 db aa bc 1b fc b2 bb 25 af ce 3b
       -0.04716141 -0.020856382 -0.005462182 0.0063075
000170 71 36 07 3c 7b 3c 0b bd 22 c9 d3 3c ed 38 7f bc
       0.008252726 -0.033993226 0.025852744 -0.015577537
000180 08 7c 79 3c 27 6d 45 3c 0b 8a da bc 82 54 a6 3c
       0.015227325 0.01204995 -0.026677152 0.020303968
000190 0c 09 3f 3c f2 c1 0b 3d 73 a3 76 3c 0c 78 92 3c
       0.011659872 0.034120508 0.015053618 0.017879508
0001a0 66 5c 8f 3c 5a 7c 99 3c 72 08 86 bc bb 9d 5e 3c
       0.017500114 0.018736053 -0.016361449 0.013587411
0001b0 8f c5 89 bc 16 3d 8f bb 6f c6 79 bc ec 75 26 3c
       -0.016817836 -0.0043712957 -0.015245064 0.010159951
0001c0 91 ad 90 3c 85 51 a0 3c 60 f5 1f 3c 37 6b 14 3c
       0.017660888 0.019570122 0.009763092 0.009058765
0001d0 37 ea 0c bd d7 b0 95 bc 72 85 b9 bc 06 e0 34 3c
       -0.034403052 -0.0182728 -0.02264664 0.0110397395
0001e0 44 34 0b 3c cb be a6 bc ca 56 5f 3c 8f c1 f8 3b
       0.008496348 -0.020354649 0.013631532 0.0075914334
0001f0 55 f1 b5 bc 4f aa b6 3c a5 a1 36 3c 75 84 75 3c
       -0.022209803 0.022298006 0.0111469375 0.0149851935
000200 5b 2a 34 bc e8 3e e7 39 ef 0f 71 bc 05 14 37 bc
       -0.010996426 0.00044106622 -0.0147132715 -0.011174207
000210 02 9b 41 3c 27 fb de 3c 2b ac 9a 3b 2d 88 20 bd
       0.011816742 0.027219368 0.004720231 -0.039192367
000220 93 e1 85 bc d3 69 43 3a df c7 18 bb d7 37 0b bc
       -0.016342914 0.00074544287 -0.0023312492 -0.0084972
000230 74 6c 88 bc cb 00 c2 bc 83 03 0b bd a3 2e 89 3c
       -0.016653277 -0.023682019 -0.033938896 0.016745871
000240 28 90 e4 bc f4 c4 47 bc f3 1f 22 bc 7b 80 d5 bc
       -0.02790077 -0.012192953 -0.009895313 -0.02606224
000250 02 d8 b5 3b 57 44 28 3b e4 36 90 bc 92 08 6e 3c
       0.005549432 0.00256755 -0.017604299 0.0145284105
000260 8d 9f c9 3c 12 a2 4d 3b f2 3b 8d 3c d8 81 4f 38
       0.024612213 0.003137712 0.017240498 4.9473572e-05
000270 ac 02 cb bb bb 17 d0 3b 2a ed c5 3b 07 e0 d7 ba
       -0.006195387 0.006350485 0.006040235 -0.0016469964
000280 ea 6c 00 bd e0 9f 04 3b 7f 67 c9 3b 30 52 ac bc
       -0.03135387 0.0020236894 0.006146371 -0.021035284
000290 16 67 9c bc 9e 53 39 bc 39 8e c5 3c e1 26 95 bc
       -0.019092124 -0.01131144 0.024115669 -0.018207015
0002a0 b4 3a 96 bc a1 11 8d bc 3d b1 94 3c 5e dc 8e 3b
       -0.018338539 -0.01722032 0.01815092 0.004359766
0002b0 13 5e 62 bc 83 26 85 3c 2b d8 b1 bc 43 b4 1c bd
       -0.013816374 0.016253715 -0.021709522 -0.03825785
0002c0 d7 65 28 3c 2d 6f ab 3c 5a f2 9b 3b af ba ce 3c
       0.010278187 0.020927036 0.004759115 0.025235502
0002d0 17 cf 2e 3c 67 d8 9b bb 83 5c 06 3c 9b 4b 39 bb
       0.010669491 -0.004756022 0.008200767 -0.0028273824
0002e0 8e b0 93 3c 97 a7 9c bb aa e6 2a bb a7 59 bc 3c
       0.018028524 -0.0047807205 -0.0026077428 0.022991968
0002f0 42 32 58 3c c5 27 bb bb 67 59 e1 bb 3b de fd bb
       0.013195576 -0.005711528 -0.0068771127 -0.007747439
000300 b7 56 dd bb 63 fd 1e bd 83 6d 99 bc cc b2 bd bc
       -0.006754722 -0.038815867 -0.018728977 -0.023156546
000310 99 95 30 bd c3 96 ef bc c2 67 f4 bb 8a a0 53 bc
       -0.043111417 -0.029246693 -0.007458658 -0.012916693
000320 c2 a1 f6 3b bf 21 99 3b a8 a2 e3 bb a0 96 d3 bc
       0.0075266073 0.0046732123 -0.0069468804 -0.02582866
000330 d4 59 21 bc 6d 7c 7c 3c be 34 3a 3a 3b 54 3d 3b
       -0.009848077 0.015410525 0.0007103196 0.0028889317
000340 7e d9 23 bd d7 3c 76 bc a7 ae 9a bc 55 70 02 3d
       -0.04000234 -0.015029154 -0.018882109 0.03184541
000350 ab 01 45 bc c8 fd cc bb 5e ff 03 3c 17 e0 1e bd
       -0.012024323 -0.006255839 0.00805649 -0.038787927
000360 37 d8 99 bc ed 4e ba bc e7 4b 6c 3c 50 a4 1a bc
       -0.018779857 -0.022742713 0.014422393 -0.009438589
000370 7a 97 81 3c 10 82 27 bc 3a ea 66 3c 4f 8b 5d bb
       0.0158193 -0.01022388 0.01409393 -0.0033804958
000380 71 49 15 3c 3c 93 be bb e5 c2 a4 bc 37 9d 4f 3c
       0.009111748 -0.0058158915 -0.020112464 0.01267176
000390 42 64 48 3b 22 fa 71 bc b0 36 5c 3c a7 a7 ab bc
       0.0030577336 -0.014769109 0.013440773 -0.020953966
0003a0 68 05 9e 3c ad 29 3b bc 9d 0a 00 bd db ab 06 3c
       0.019289687 -0.0114235105 -0.03126012 0.0082196845
0003b0 3d 09 55 3b a5 48 79 bb f0 7f 0e bb d8 2f f1 bc
       0.0032506727 -0.0038037684 -0.0021743737 -0.029441759
0003c0 48 79 76 bc e0 eb cd b9 d8 4d 6d bc c9 2f 03 3c
       -0.015043564 -0.00039276388 -0.014483891 0.008006998
0003d0 55 35 c6 bc 23 3b 17 3d e3 20 3f 3c eb af 08 bd
       -0.024195353 0.03692163 0.011665556 -0.033370893
0003e0 d2 e1 d7 bc 33 22 e6 3c 4f 76 69 bc a8 aa b0 ba
       -0.026352797 0.02809248 -0.014249398 -0.0013478594
0003f0 9e 1d 94 bc ae b4 a6 3c 87 e7 c0 3b 3d fd 58 3b
       -0.018080529 0.020349827 0.005886975 0.0033109926

action_model._continuous_distribution.mu.bias f4 [2]
000000 00 00 00 00 00 00 00 00
       0.0 0.0

network_body._body_endoder.seq_layers.0.weight f4 [128, 35]
000000 14 8e 88 be 27 a5 31 be 41 53 81 be 98 f6 4b be
       -0.26670897 -0.17348157 -0.2525883 -0.19918287
000010 32 7a 7b bd 0c 7b 15 bd 80 f3 1c bd 17 ff 4d be
       -0.06139583 -0.0364943 -0.038318157 -0.2011684
000020 48 d5 43 3e 1d 65 2e be e7 1c f2 3e 07 a0 c0 3d
       0.19124329 -0.17030759 0.47287676 0.09405523
000030 b1 a2 93 be 9e 38 2a 3d 26 e4 b3 bd 37 b7 35 bd
       -0.2883506 0.0415579 -0.0878375 -0.04436418
000040 01 5f 27 3d 8b 6e 48 bc 9f dd f4 3d 12 a9 40 3e
       0.040862087 -0.012233387 0.11956333 0.18814495
000050 2b bc 1b 3e 1d ef 2e be 6e c9 df 3a 52 0c 0a be
       0.15208499 -0.17083402 0.001707358 -0.13481262
000060 28 e3 c5 3d 16 c6 df bc 5d 5f 3e 3c 2f 82 42 3e
       0.09662467 -0.027316134 0.011619416 0.18994974
000070 86 f2 d0 3c e5 a5 c7 bd b9 d3 15 be 31 73 dd 3d
       0.02550627 -0.09748439 -0.14631547 0.10812987
000080 ac 3a 13 3e 14 bb 86 3c 67 65 1a 3e 17 a0 09 3b
       0.1437785 0.016446628 0.15077744 0.0020999962
000090 e2 a1 92 3d df 75 b3 bd 91 ac 22 3e 10 dc 05 be
       0.07159783 -0.087627165 0.15886141 -0.13072228
0000a0 05 bd 89 bc c0 65 66 bd be 7d 8f 3c fd 94 94 3d
       -0.016813764 -0.05624938 0.017516013 0.0725498
0000b0 78 72 70 3d 8c ca 13 be 9b 22 92 3e c6 42 9c bd
       0.058702916 -0.14432734 0.28542027 -0.076299235
0000c0 83 65 96 3e 51 6a 8f 3e fd 4c 09 be cf b5 29 bd
       0.29374322 0.280108 -0.13408275 -0.04143315
0000d0 f9 85 4d be 39 16 06 be 2d 53 ee 3c 53 7d 36 bd
       -0.20070638 -0.13094415 0.029092396 -0.044553112
0000e0 d6 3a c0 bd 84 c6 f5 be 8c 30 70 bb 8c 08 e8 bc
       -0.09386222 -0.48003018 -0.003665003 -0.028324388
0000f0 6a cc 5d 3e 65 e0 f6 bd 3c 96 8d bd e8 50 2f bd
       0.21660009 -0.120545186 -0.069134206 -0.042801768
000100 fb 01 69 bd f2 68 53 bd ea 1e 24 3e b9 88 2e be
       -0.056886654 -0.051613756 0.16027418 -0.17044343
000110 04 98 31 3e 1b 4f 12 be 28 80 57 be 77 0d 27 3d
       0.17343146 -0.14287989 -0.21044981 0.040784325
000120 84 ad 42 3d 22 44 21 bd 44 e3 5e be 6e f3 1a be
       0.04752876 -0.039371617 -0.21766382 -0.15131924
000130 e2 cf 82 be 09 20 3b 3d 32 ff 15 3e 34 15 b2 3c
       -0.25549227 0.045684848 0.1464813 0.021738626
000140 6e 42 c5 3d 6b db 62 be f8 e3 8d be 00 15 cc bd
       0.09631811 -0.22154014 -0.2771299 -0.09964943
000150 76 3f cb bc d7 00 83 bc ac 31 22 3e 10 4a 94 be
       -0.024810534 -0.015991611 0.15839261 -0.28962755
000160 b2 d6 3c bd 4a 93 9c bd c9 d5 81 be 18 e0 f0 3d
       -0.046103187 -0.07645281 -0.25358418 0.117614925
000170 ec 3a 9c be 68 d9 d4 3c 19 98 18 be 28 dc cb 3d
       -0.30513704 0.025982574 -0.1490177 0.09954101
000180 cf ac 90 3d 5a cc 84 3e d0 de 81 3e 28 75 22 be
       0.070642106 0.25937158 0.25365305 -0.15865004
000190 d3 4f 9f bd 22 4d 50 bd 6a 0e 77 3e a6 3f 2a be
       -0.07778897 -0.05085481 0.24126592 -0.16625842
0001a0 8c 68 6c 3d 53 5c dd bd ae 1e 17 bd c7 40 a7 be
       0.05771689 -0.10808625 -0.036894493 -0.3266661
0001b0 4d 70 8d 3e 79 ee 5d bd 0d 57 54 bd 8c 39 ae bd
       0.2762474 -0.054182503 -0.05184083 -0.0850707
0001c0 d0 16 36 be 8f 9e 63 bd 4d 0d a6 bd f1 18 72 be
       -0.1778214 -0.055571135 -0.08108006 -0.23642327
0001d0 54 39 3c be 04 1c a7 3d 67 c3 ad be b2 eb 9c 3d
       -0.18381244 0.081596404 -0.33938143 0.07662143
0001e0 ff 93 8d bc ea e9 e7 bd 66 5c 11 3e 7f 3d 04 3e
       -0.017282484 -0.113239124 0.14195403 0.12914084
0001f0 fc 56 23 bf 72 47 ca bd 17 89 a9 3d d0 6e 64 3d
       -0.638046 -0.09876908 0.08278101 0.05576974
000200 98 38 58 39 5c a4 c8 3d ec 0a 35 3d 6b cf b6 bd
       0.00020620448 0.09796974 0.04419987 -0.089262806
000210 18 3e 1e 3e 10 78 04 3e 22 d6 9b bd 38 d6 61 3d
       0.15453374 0.12936425 -0.07609202 0.055135936
000220 02 21 62 3d 20 a7 c3 bd 34 49 b7 3c 11 d7 78 be
       0.05520726 -0.09553361 0.022373773 -0.24300791
000230 55 42 63 bc c9 ff b3 bd e3 b7 20 3d ef 2f 17 3e
       -0.013870795 -0.087890215 0.039237868 0.14764379
000240 29 b9 2f be c2 8a b5 3e 01 bb ce 3e 59 d0 b9 bd
       -0.17160477 0.35457426 0.40377048 -0.09072942
000250 f1 fd b9 3c 39 0e 9b 3e 95 17 7c bd 74 20 00 bd
       0.022704097 0.3028429 -0.061545927 -0.03128095
000260 81 f4 1f bc 08 aa 41 be 19 4e e8 bd 23 b9 12 bd
       -0.009762884 -0.18912518 -0.11343021 -0.03582109
000270 96 02 99 bd ea 15 f5 3b f2 1f 60 bd f4 a3 df 3d
       -0.07471196 0.007479419 -0.054717965 0.109199435
000280 51 df 61 be 7d 77 75 3c 28 05 16 bd 09 78 50 3b
       -0.22057845 0.0149821015 -0.03662601 0.0031809828
000290 7c 62 df 3a 9c ed 33 3c f2 b6 f6 bd ef 08 08 bd
       0.00170429 0.010981943 -0.12046613 -0.033211645
0002a0 64 f6 13 be 2b 15 1c 3e 70 77 bb be a1 88 b0 bd
       -0.1444946 0.1524245 -0.3661456 -0.0861981
0002b0 d5 e4 02 3e 52 95 1e bd 7e 89 b9 bd cb 7a 88 bc
       0.12782605 -0.03871662 -0.09059428 -0.016660115
0002c0 21 18 9d bd ef 1a e9 3d 88 5c 04 bd 3e b4 e3 bb
       -0.07670618 0.1138209 -0.032314807 -0.006948977
0002d0 4a f9 45 3e ba f0 34 be aa f0 8b 3d d6 ea 3a 3e
       0.19333377 -0.17669955 0.068330124 0.18253645
0002e0 73 e5 ed bc 84 a1 b4 3e 5f 7e c3 bd 0f 11 35 bd
       -0.029040074 0.35279477 -0.09545588 -0.04420572
0002f0 e0 0c 8b 3e 81 b5 72 be 8a f4 35 be d4 fa bb 3d
       0.2715826 -0.23702051 -0.17769065 0.09178701
000300 24 e7 3b be 95 70 eb bd 66 c8 67 3e d6 50 d8 3d
       -0.18349892 -0.11496083 0.2263504 0.10562293
000310 a9 e0 0c be 04 c7 1c be 51 cc 61 3e b2 ca fa bd
       -0.13757576 -0.15310293 0.22050597 -0.12245692
000320 2b bf b0 be 4c 89 95 3d 20 56 86 3c 79 a6 6e 3e
       -0.3452085 0.07301578 0.01639849 0.23305692
000330 91 2f 9e 3d 23 99 e7 3d 4d 21 41 3e 46 bd b7 3d
       0.07723916 0.113085054 0.1886036 0.08971648
000340 6a dc ad 3d e4 fb 7f be 2d a6 43 be f0 dc c4 3d
       0.08489306 -0.24998432 -0.1910636 0.09612453
000350 b1 04 7e bc 0d 3d 14 be bf ef 8b 3d b2 22 bf bd
       -0.015504048 -0.14476414 0.06832837 -0.093327895
000360 2b 54 91 be c0 79 b4 be 27 6b 07 3d 9e 9b 99 be
       -0.28384528 -0.35249138 0.033061173 -0.3000154
000370 14 3f e3 bd 7d fc 1f be 83 0d be 3d 3d 7f 3c be
       -0.110960156 -0.1562366 0.09279921 -0.18407913
000380 c7 32 5a bd 33 9e 85 3e a9 aa 17 be 1a fa a4 3d
       -0.05327108 0.2609726 -0.14811195 0.080555156
000390 35 14 08 bb a3 84 83 be a7 3c d5 bd 90 d3 88 3d
       -0.0020763997 -0.2568713 -0.10411959 0.06680977
0003a0 63 b7 47 3c aa 2e b9 bd f1 52 a0 3d bc 8d e1 bd
       0.012189719 -0.090421036 0.0782832 -0.11013362
0003b0 3d fd b5 bd 96 31 26 3e 46 8d cc 3d fe 01 a1 bd
       -0.08886192 0.16229853 0.09987883 -0.07861708
0003c0 45 31 19 3e 90 c0 0c be cd 63 12 be ad 6d 8c 3d
       0.14960201 -0.13745332 -0.14295883 0.068568565
0003d0 c5 47 b8 3b bb 23 a7 bb 96 bd 79 be e5 0c a1 3e
       0.00562379 -0.005100695 -0.24388728 0.3145515
0003e0 6a 73 64 be 58 5b 86 be 16 a8 cb bd d1 f0 f7 bd
       -0.22309652 -0.26241565 -0.09944169 -0.12106479
0003f0 bf 04 cc bd b6 ec 7a 3d ef 1a 09 bc 9d 07 58 bc
       -0.09961843 0.0612609 -0.008368238 -0.013185409

network_body._body_endoder.seq_layers.0.bias f4 [128]
000000 00 00 00 00 00 00 00 00 00 00 00 00 00 00 00 00
       0.0 0.0 0.0 0.0
000010 00 00 00 00 00 00 00 00 00 00 00 00 00 00 00 00
       0.0 0.0 0.0 0.0
000020 00 00 00 00 00 00 00 00 00 00 00 00 00 00 00 00
       0.0 0.0 0.0 0.0
000030 00 00 00 00 00 00 00 00 00 00 00 00 00 00 00 00
       0.0 0.0 0.0 0.0
000040 00 00 00 00 00 00 00 00 00 00 00 00 00 00 00 00
       0.0 0.0 0.0 0.0
000050 00 00 00 00 00 00 00 00 00 00 00 00 00 00 00 00
       0.0 0.0 0.0 0.0
000060 00 00 00 00 00 00 00 00 00 00 00 00 00 00 00 00
       0.0 0.0 0.0 0.0
000070 00 00 00 00 00 00 00 00 00 00 00 00 00 00 00 00
       0.0 0.0 0.0 0.0
000080 00 00 00 00 00 00 00 00 00 00 00 00 00 00 00 00
       0.0 0.0 0.0 0.0
000090 00 00 00 00 00 00 00 00 00 00 00 00 00 00 00 00
       0.0 0.0 0.0 0.0
0000a0 00 00 00 00 00 00 00 00 00 00 00 00 00 00 00 00
       0.0 0.0 0.0 0.0
0000b0 00 00 00 00 00 00 00 00 00 00 00 00 00 00 00 00
       0.0 0.0 0.0 0.0
0000c0 00 00 00 00 00 00 00 00 00 00 00 00 00 00 00 00
       0.0 0.0 0.0 0.0
0000d0 00 00 00 00 00 00 00 00 00 00 00 00 00 00 00 00
       0.0 0.0 0.0 0.0
0000e0 00 00 00 00 00 00 00 00 00 00 00 00 00 00 00 00
       0.0 0.0 0.0 0.0
0000f0 00 00 00 00 00 00 00 00 00 00 00 00 00 00 00 00
       0.0 0.0 0.0 0.0
000100 00 00 00 00 00 00 00 00 00 00 00 00 00 00 00 00
       0.0 0.0 0.0 0.0
000110 00 00 00 00 00 00 00 00 00 00 00 00 00 00 00 00
       0.0 0.0 0.0 0.0
000120 00 00 00 00 00 00 00 00 00 00 00 00 00 00 00 00
       0.0 0.0 0.0 0.0
000130 00 00 00 00 00 00 00 00 00 00 00 00 00 00 00 00
       0.0 0.0 0.0 0.0
000140 00 00 00 00 00 00 00 00 00 00 00 00 00 00 00 00
       0.0 0.0 0.0 0.0
000150 00 00 00 00 00 00 00 00 00 00 00 00 00 00 00 00
       0.0 0.0 0.0 0.0
000160 00 00 00 00 00 00 00 00 00 00 00 00 00 00 00 00
       0.0 0.0 0.0 0.0
000170 00 00 00 00 00 00 00 00 00 00 00 00 00 00 00 00
       0.0 0.0 0.0 0.0
000180 00 00 00 00 00 00 00 00 00 00 00 00 00 00 00 00
       0.0 0.0 0.0 0.0
000190 00 00 00 00 00 00 00 00 00 00 00 00 00 00 00 00
       0.0 0.0 0.0 0.0
0001a0 00 00 00 00 00 00 00 00 00 00 00 00 00 00 00 00
       0.0 0.0 0.0 0.0
0001b0 00 00 00 00 00 00 00 00 00 00 00 00 00 00 00 00
       0.0 0.0 0.0 0.0
0001c0 00 00 00 00 00 00 00 00 00 00 00 00 00 00 00 00
       0.0 0.0 0.0 0.0
0001d0 00 00 00 00 00 00 00 00 00 00 00 00 00 00 00 00
       0.0 0.0 0.0 0.0
0001e0 00 00 00 00 00 00 00 00 00 00 00 00 00 00 00 00
       0.0 0.0 0.0 0.0
0001f0 00 00 00 00 00 00 00 00 00 00 00 00 00 00 00 00
       0.0 0.0 0.0 0.0

network_body._body_endoder.seq_layers.2.weight f4 [128, 128]
000000 92 d7 38 bd 09 35 e8 3c 71 26 0e be e9 fa bc bd
       -0.04512746 0.028345602 -0.13881852 -0.09227545
000010 ac bd 1b bd 80 48 15 3c e2 38 da 3b dd 7f 97 bd
       -0.038022682 0.009111524 0.006659613 -0.07397435
000020 d2 b5 50 3c 02 7e 26 3c bc 7a 79 ba ee e2 32 3e
       0.012738662 0.010161879 -0.0009516885 0.1746938
000030 0d 35 fb bd ae 33 59 bd e3 4e 32 3e 7f c5 67 bc
       -0.12265978 -0.0530278 0.17412905 -0.014146208
000040 d9 7d 80 bd 48 a6 ba 3d 3f ee 34 3c e8 84 3f bd
       -0.062740035 0.09113747 0.01104313 -0.04675761
000050 11 13 9c 3d 3e fd 4d bd db a5 81 3d c4 03 3f 3d
       0.07620824 -0.05029034 0.063304625 0.04663445
000060 67 c7 83 bd 52 5e 2c 3d d9 58 7b bc a3 13 6f bc
       -0.06434517 0.04208214 -0.015341007 -0.014592084
000070 10 06 ad bb 43 86 b8 3c 6f 62 ba bd 8a d8 2e 3d
       -0.0052802637 0.022524958 -0.09100806 0.042686976
000080 f1 86 92 3d 91 1e 97 3d 3e a2 51 be 08 c9 50 bd
       0.07154644 0.07378877 -0.20472047 -0.05097297
000090 ab 1e 0a be b0 52 49 bd 18 c3 10 bd 13 3d 58 3c
       -0.13488261 -0.049151123 -0.035342306 0.013198155
0000a0 62 bc e1 bc ae 06 53 3d 3f 8c 2c 3d d1 2c 33 3d
       -0.027555648 0.051520042 0.042125937 0.043743912
0000b0 2f 42 f8 3c f8 e7 a5 bc 81 20 7f bd 12 27 c3 bd
       0.030304996 -0.020252213 -0.062286858 -0.095289364
0000c0 bc f9 17 bd 58 42 1a 3e 20 2c 53 be 01 83 25 3d
       -0.0371034 0.1506437 -0.20622301 0.04040814
0000d0 1a 06 9e bd 26 4d e3 bd 0e b7 7c bc 94 be 3f be
       -0.077160075 -0.11098699 -0.015424503 -0.18725044
0000e0 54 7f c8 bd 10 91 99 3d 66 db af bc 08 56 bf 3d
       -0.09789911 0.074983716 -0.021466922 0.09342581
0000f0 48 44 08 3e b9 39 9f bc 3d 3e 3d 3d 13 62 4f 3c
       0.13307297 -0.019436704 0.046201933 0.01265766
000100 38 a3 82 bc 0f 52 bb bd 47 09 f5 bc c8 8e cd bb
       -0.01594697 -0.09146511 -0.02991165 -0.0062731244
000110 46 13 9c bc a2 fc 07 be 87 77 44 be 06 ff 91 bd
       -0.019052159 -0.13279966 -0.19186221 -0.0712872
000120 b3 a1 99 bc 9c ac a3 3d 42 50 8f 3c 59 4c a7 3c
       -0.018753862 0.07991907 0.017494325 0.020422148
000130 0c 34 e3 bd 72 30 e5 3a ab 3c 5e 3c 94 14 f0 3d
       -0.110939115 0.0017485751 0.013564269 0.11722675
000140 ae 67 f7 bd fd 99 4b be 75 d2 76 3d 54 0d 25 3e
       -0.12080322 -0.1988296 0.0602593 0.16118366
000150 49 0a b7 3d 49 b7 33 bd 55 94 84 bc 4a bc a4 bd
       0.089375086 -0.043875966 -0.016184011 -0.08043726
000160 35 26 2d bd 26 b0 40 bd 54 c0 bb 3d 5b c6 e8 3d
       -0.042272765 -0.04704299 0.09167543 0.11365958
000170 6e c1 1c be 1c 92 0d bd cd 39 b4 bc 2c 22 df bc
       -0.15308163 -0.03456317 -0.022000218 -0.027237974
000180 80 95 ba 3c b8 41 b9 3d 0c e5 23 bd ee 8e f2 3d
       0.022776365 0.09045738 -0.040013358 0.11843668
000190 e2 24 8b bc 5f 80 40 3d 1f be d8 bc 96 14 c7 3d
       -0.01698536 0.046997424 -0.026457844 0.09720723
0001a0 38 92 84 3c c1 a4 45 be 24 c3 04 bd 3f 98 f8 bd
       0.016183004 -0.1930113 -0.032412663 -0.12138414
0001b0 80 e3 d7 bd 04 73 04 bd 2d 26 80 3d cb cf 31 be
       -0.10541439 -0.03233625 0.062572815 -0.17364423
0001c0 ca 98 c0 3c 8f 88 b5 3c 8c 90 01 be ad f8 49 3d
       0.023510356 0.022159843 -0.12652797 0.04930942
0001d0 d8 dc c4 b9 9d 8a 01 be 73 ae 03 3e 11 ab cf bd
       -0.00037548575 -0.12650533 0.12859516 -0.1014005
0001e0 57 79 6d 3d 4c c3 2a bd 7a 7f b7 3d 33 d7 a4 bd
       0.057977047 -0.041690156 0.08959861 -0.080488585
0001f0 13 54 a7 bd 10 15 69 3c 3b 66 f2 bc 71 f4 5a 3d
       -0.08170333 0.014226213 -0.029589763 0.053455774
000200 e3 8a 7a 3d 63 e0 ed bb 3f e8 81 3c 3f 66 a0 3c
       0.06116761 -0.007259415 0.015857814 0.019580005
000210 50 9c 02 3e 2a 92 c6 bc 69 04 21 bd 6b 11 00 bd
       0.12754941 -0.024239618 -0.039310846 -0.03126661
000220 57 22 54 bc bc 38 a5 bd 4c 8c 30 bd d1 9c 4d bd
       -0.01294764 -0.08067462 -0.043102548 -0.05019838
000230 46 ac 2f bd 9a 61 04 be 1f be a8 3d 9e a5 b3 3d
       -0.042888902 -0.12927857 0.08239388 0.08771823
000240 fb 8b a0 3c 4a 61 88 3c fa 54 10 3d eb 76 c2 bd
       0.019597998 0.016647954 0.03523729 -0.09495338
000250 e7 b5 f4 bd c8 1f f7 bd e1 1c 6d bd a4 f8 de 3c
       -0.119487576 -0.12066609 -0.05788887 0.02721817
000260 62 73 90 bc b4 5b 8e bd 75 30 68 3d d9 2f cf 3c
       -0.017633144 -0.06951085 0.056686837 0.02529137
000270 cd 45 3b bd 77 67 33 3e 68 ad f3 3d 06 8c 2f be
       -0.045720864 0.17519937 0.11898309 -0.17143258
000280 d3 05 52 3d 38 7b 9b 3d 6f d0 19 3d 08 b2 68 3d
       0.051275086 0.075918615 0.037552293 0.05681041
000290 94 d4 72 3d 46 78 36 bc 50 61 94 3d f1 bb 2c 3d
       0.05928476 -0.011137074 0.072451234 0.042171422
0002a0 1b b1 15 be 98 47 38 3c b6 4d d6 bc 85 14 85 bd
       -0.14618342 0.011247538 -0.026160102 -0.064980544
0002b0 ed 83 2c be 8d 38 86 3d 94 7d b6 3d 4c 57 c3 bc
       -0.168472 0.06553755 0.08910671 -0.023845337
0002c0 f5 1f ed bc 1a 54 bb bd 11 38 48 bd 63 c1 9f 3d
       -0.028945902 -0.091469005 -0.048881594 0.078005575
0002d0 cb cf 78 bd 2d 9a 2f 3c de 9a 0e be 6c 06 04 be
       -0.06074504 0.010717911 -0.13926265 -0.12893075
0002e0 a0 ff 8b 3d 3f 00 89 bd b4 a1 9c 3c cc d6 7d 3d
       0.06835866 -0.066895 0.019120075 0.061972424
0002f0 8e 73 20 3d b2 a7 fa bb 65 96 6a 3d 55 72 9a 3b
       0.0391727 -0.0076493854 0.057272334 0.0047133365
000300 6f 74 8c 3d a3 b3 5d 3c 2b 8e 82 3d eb d5 9d bc
       0.068581454 0.013531598 0.06374773 -0.019267043
000310 78 b0 1f 3d 5f d2 9b bb 39 f1 e3 bb 9c 74 b4 3b
       0.038986653 -0.004755303 -0.006956246 0.005507065
000320 2a 52 5f bd 7b ef 97 3d be 9a b8 3c f2 ff 6e 3a
       -0.054521717 0.07418724 0.022534724 0.00091171183
000330 6a d8 70 bc 7b dc 26 3d 31 e5 86 3c 91 bd ea bc
       -0.014700035 0.04073761 0.016466709 -0.028654845
000340 6c 62 17 3e 8a f1 7a 3d c9 86 f1 bd 67 a8 53 bd
       0.14783639 0.061265506 -0.11793286 -0.051674273
000350 9f c4 c9 bc 22 45 d8 3d 0f e9 e2 bc f4 40 0c be
       -0.024629889 0.10560061 -0.027699022 -0.13696653
000360 8d 7e 76 3d 33 7c 14 3e 2c 9d 3d 3d 9a e8 bd bd
       0.060179282 0.14500503 0.04629247 -0.09272881
000370 20 7e 94 bd c6 59 d6 3d 5a d0 68 3c f1 f3 a6 3d
       -0.07250619 0.10466342 0.014209831 0.08151997
000380 c1 44 6e 3c eb 8b 74 3d b8 e4 db 3d 52 77 bd 3b
       0.014542759 0.05970375 0.10736984 0.0057820464
000390 72 f1 3d bd 06 ca b9 bd 83 bb b5 3c e2 f0 1e 3e
       -0.04637284 -0.09071736 0.02218414 0.15521577
0003a0 63 cf fb 3c cb f1 21 3e 19 82 f1 bc c0 08 c4 bc
       0.030738538 0.15814893 -0.02948098 -0.023929954
0003b0 4a d6 00 3d 8d 15 1a bd 16 5b 99 bb d0 18 c0 bd
       0.031454362 -0.03761821 -0.0046800477 -0.093797326
0003c0 75 b0 c8 3b bc 37 76 3c 6f 27 11 be 88 0d b2 bd
       0.006124551 0.015027937 -0.14175199 -0.08693987
0003d0 86 8c 41 bd 47 84 10 3b bd 1f 37 3d 15 4f 85 bb
       -0.047253154 0.00220515 0.044708002 -0.004068265
0003e0 9e 30 d3 3d 8e a4 2e 3e 22 65 12 be 2e be e6 bc
       0.10312007 0.1705496 -0.14296392 -0.028166857
0003f0 00 1f 3f 3e 2e d4 07 3e 70 a9 9d 3d 4f a1 38 3d
       0.1866417 0.13264534 0.07698333 0.04507571

network_body._body_endoder.seq_layers.2.bias f4 [128]
000000 00 00 00 00 00 00 00 00 00 00 00 00 00 00 00 00
       0.0 0.0 0.0 0.0
000010 00 00 00 00 00 00 00 00 00 00 00 00 00 00 00 00
       0.0 0.0 0.0 0.0
000020 00 00 00 00 00 00 00 00 00 00 00 00 00 00 00 00
       0.0 0.0 0.0 0.0
000030 00 00 00 00 00 00 00 00 00 00 00 00 00 00 00 00
       0.0 0.0 0.0 0.0
000040 00 00 00 00 00 00 00 00 00 00 00 00 00 00 00 00
       0.0 0.0 0.0 0.0
000050 00 00 00 00 00 00 00 00 00 00 00 00 00 00 00 00
       0.0 0.0 0.0 0.0
000060 00 00 00 00 00 00 00 00 00 00 00 00 00 00 00 00
       0.0 0.0 0.0 0.0
000070 00 00 00 00 00 00 00 00 00 00 00 00 00 00 00 00
       0.0 0.0 0.0 0.0
000080 00 00 00 00 00 00 00 00 00 00 00 00 00 00 00 00
       0.0 0.0 0.0 0.0
000090 00 00 00 00 00 00 00 00 00 00 00 00 00 00 00 00
       0.0 0.0 0.0 0.0
0000a0 00 00 00 00 00 00 00 00 00 00 00 00 00 00 00 00
       0.0 0.0 0.0 0.0
0000b0 00 00 00 00 00 00 00 00 00 00 00 00 00 00 00 00
       0.0 0.0 0.0 0.0
0000c0 00 00 00 00 00 00 00 00 00 00 00 00 00 00 00 00
       0.0 0.0 0.0 0.0
0000d0 00 00 00 00 00 00 00 00 00 00 00 00 00 00 00 00
       0.0 0.0 0.0 0.0
0000e0 00 00 00 00 00 00 00 00 00 00 00 00 00 00 00 00
       0.0 0.0 0.0 0.0
0000f0 00 00 00 00 00 00 00 00 00 00 00 00 00 00 00 00
       0.0 0.0 0.0 0.0
000100 00 00 00 00 00 00 00 00 00 00 00 00 00 00 00 00
       0.0 0.0 0.0 0.0
000110 00 00 00 00 00 00 00 00 00 00 00 00 00 00 00 00
       0.0 0.0 0.0 0.0
000120 00 00 00 00 00 00 00 00 00 00 00 00 00 00 00 00
       0.0 0.0 0.0 0.0
000130 00 00 00 00 00 00 00 00 00 00 00 00 00 00 00 00
       0.0 0.0 0.0 0.0
000140 00 00 00 00 00 00 00 00 00 00 00 00 00 00 00 00
       0.0 0.0 0.0 0.0
000150 00 00 00 00 00 00 00 00 00 00 00 00 00 00 00 00
       0.0 0.0 0.0 0.0
000160 00 00 00 00 00 00 00 00 00 00 00 00 00 00 00 00
       0.0 0.0 0.0 0.0
000170 00 00 00 00 00 00 00 00 00 00 00 00 00 00 00 00
       0.0 0.0 0.0 0.0
000180 00 00 00 00 00 00 00 00 00 00 00 00 00 00 00 00
       0.0 0.0 0.0 0.0
000190 00 00 00 00 00 00 00 00 00 00 00 00 00 00 00 00
       0.0 0.0 0.0 0.0
0001a0 00 00 00 00 00 00 00 00 00 00 00 00 00 00 00 00
       0.0 0.0 0.0 0.0
0001b0 00 00 00 00 00 00 00 00 00 00 00 00 00 00 00 00
       0.0 0.0 0.0 0.0
0001c0 00 00 00 00 00 00 00 00 00 00 00 00 00 00 00 00
       0.0 0.0 0.0 0.0
0001d0 00 00 00 00 00 00 00 00 00 00 00 00 00 00 00 00
       0.0 0.0 0.0 0.0
0001e0 00 00 00 00 00 00 00 00 00 00 00 00 00 00 00 00
       0.0 0.0 0.0 0.0
0001f0 00 00 00 00 00 00 00 00 00 00 00 00 00 00 00 00
       0.0 0.0 0.0 0.0

value_heads.value_heads.extrinsic.weight f4 [1, 128]
000000 f8 01 92 bd 21 96 7e bb 6b b0 c2 3d 0a 92 18 be
       -0.07129282 -0.0038846808 0.09506305 -0.1489946
000010 39 5a c1 3d ca 55 46 be 7f fb 95 bd 4c fc f4 3c
       0.09441037 -0.19368663 -0.0732336 0.02990546
000020 98 5e 35 bd f5 34 50 3e d1 73 09 bd 86 a8 26 3e
       -0.044279665 0.20332702 -0.033557717 0.16275224
000030 4a 99 25 3e 71 75 95 bb 2e 45 db bd d9 57 c8 bd
       0.16171756 -0.0045611192 -0.10706554 -0.097823806
000040 9a ae 59 3d a6 a2 46 3e ce 35 1c be a2 93 27 3e
       0.05314503 0.19397983 -0.152549 0.16364911
000050 fb d8 45 3e 02 1d 38 be 1b d9 3b be f7 4d 03 be
       0.19321053 -0.17979816 -0.18344538 -0.1282271
000060 5a 24 e1 bd c5 0e 98 3d 77 96 47 3e 63 27 33 3e
       -0.10993262 0.07424692 0.19490992 0.17495494
000070 05 74 fa bc 86 e7 39 be 50 6f 0d 3e 32 94 e7 3d
       -0.0305729 -0.18154725 0.13811994 0.11307563
000080 f5 57 21 bd 11 e9 d0 3c 09 8f 18 3d 69 83 36 be
       -0.039390523 0.02550176 0.037245784 -0.17823566
000090 ad 45 70 bd 49 35 ac bd 39 e0 bb 3b 85 79 8b 3d
       -0.058660198 -0.08408601 0.0057335165 0.068102874
0000a0 eb ba 21 be ee 91 15 3e 71 75 8a 3d 7c a8 a3 ba
       -0.1579396 0.14606449 0.067606814 -0.0012486125
0000b0 f8 d6 35 3e 61 72 1e be c8 8c 57 bc 91 b1 26 3e
       0.17757785 -0.1547332 -0.013156123 0.16278674
0000c0 2c fd 6c 3d 4a 9f 10 be 8e d7 4b 3e 00 9f 73 3d
       0.05785863 -0.14123264 0.19906446 0.059477806
0000d0 bf 6c 09 be 0c 49 05 3e ba ca 8c 3c e8 a0 58 be
       -0.1342039 0.13016146 0.017186511 -0.21155131
0000e0 90 c9 20 3e 26 26 33 3e c4 5e 7c 3d a0 48 4f be
       0.1570189 0.17495021 0.061613813 -0.20242548
0000f0 0b a5 f7 bd 41 1f 80 3d 7c b2 a2 bd e4 ab 0d 3e
       -0.12092026 0.06255961 -0.079441994 0.13835102
000100 c3 4b ab bc 22 c0 33 3e 49 d3 be bd 97 d3 00 bd
       -0.02091015 0.17553762 -0.09317643 -0.031451788
000110 e9 02 9a bd c9 43 02 bd 1d 0b 80 3d 88 9d c2 3d
       -0.07520086 -0.031802926 0.0625212 0.09502703
000120 18 cd 4e be cd 96 bb 3d 6e b7 b4 3d 0d 9b e1 bd
       -0.20195425 0.09159622 0.08824049 -0.11015902
000130 67 9d 0b be 4e 35 bd bd 22 85 04 bd 5f 91 4b bc
       -0.13634263 -0.09238683 -0.032353528 -0.012424796
000140 47 8e 53 3e 82 10 1d bd 8e 91 f4 bd 7c 2f 36 be
       0.20659743 -0.03834582 -0.11941825 -0.17791551
000150 e9 b9 96 3c 8d bb 81 3d cb 34 5a 3e 18 ac 6f bc
       0.018399196 0.063346006 0.21309201 -0.014628433
000160 75 5d 57 3e a6 b0 99 3d 5f f1 43 be 36 f5 36 3e
       0.21031745 0.07504396 -0.19135045 0.17866978
000170 ab 20 45 3e 2c f9 05 3e 14 39 dc 3d 10 da 2f be
       0.19250743 0.13083333 0.10753074 -0.17173028
000180 a1 42 dd 3d 7d 79 d2 3d de 7d 00 be ad 42 54 be
       0.10803724 0.10277078 -0.12548015 -0.2072856
000190 34 d3 57 be a5 5d 3f bd b8 7b 1b bd ec 8a 5c bd
       -0.21076661 -0.046720166 -0.037959784 -0.053843424
0001a0 6d 48 e2 3d ce 20 99 bd 0e 05 3a 3e 79 a5 04 bd
       0.1104897 -0.0747696 0.1816599 -0.03238437
0001b0 6f b2 38 3e 0a 71 dd 3c a5 74 08 3e d4 de 0e bd
       0.18036817 0.02703144 0.13325746 -0.034880474
0001c0 44 a1 57 be dc f7 21 3c 23 86 1e be bc f5 58 be
       -0.21057612 0.009885754 -0.15480857 -0.2118749
0001d0 1a 86 87 bd bd 3c b7 3d 34 77 d4 3d a2 a0 d2 bd
       -0.06617375 0.08947132 0.10374299 -0.102845445
0001e0 02 00 0e be b7 3c 38 3e da ae f8 3d ec f6 53 3e
       -0.1386719 0.17991911 0.12142725 0.20699662
0001f0 39 8e f2 bd 10 34 ef bd d6 9f 42 be f2 b3 28 be
       -0.11843533 -0.11679852 -0.19006285 -0.16474894
